darts_logs/2022-11-19_12.37.14.765397_torch_model_run_2536/_model.pth.tar (torch, 89163 bytes, 8 tensors)

weight f4 [128, 2]
0	0xbe766186	-0.2406064
1	0xbee5c35f	-0.4487562
2	0x3e20df1c	0.1571011
3	0xbe6cc84a	-0.23123279
4	0x3ea404de	0.32034963
5	0x3bf2f680	0.007414639
6	0xbeafd0ed	-0.34339085
7	0x3dcbb8f0	0.099473834
8	0x3c39f340	0.011349499
9	0x3f26b7af	0.6512403
10	0x3e28f784	0.1650067
11	0xbe06dd20	-0.1317029
12	0xbf0c03d2	-0.5469333
13	0xbec087f6	-0.3760373
14	0x3e89c466	0.26907653
15	0x3f265a9d	0.64982015
16	0xbec8717b	-0.3914908
17	0x3e5ecaa8	0.21756995
18	0xbefd774c	-0.4950508
19	0x3d63dbb0	0.055629432
20	0x3ebe4522	0.3716212
21	0xbea66000	-0.32495117
22	0x3e46cb44	0.19413477
23	0xbe8c40f8	-0.27393317
24	0xbe937c49	-0.2880576
25	0xbeb33d76	-0.35007828
26	0x3e452c18	0.19255102
27	0xbe8a67e2	-0.2703238
28	0xbf01fd65	-0.50777274
29	0xbe88e633	-0.26738128
30	0x3ef265ca	0.47343284
31	0xbe4730a8	-0.19452155
32	0x3e9da51a	0.30790025
33	0xbcb3bb60	-0.021939933
34	0x3eabb7ee	0.33538765
35	0x3f104c5f	0.56366533
36	0xbf339712	-0.7015239
37	0x3e917d44	0.28415883
38	0x3ed5890a	0.41706115
39	0x3f02e941	0.5113717
40	0xbe25dd48	-0.16197693
41	0xbd092ac0	-0.033488035
42	0xbe1ffb9c	-0.15623325
43	0xbeb4f934	-0.35346377
44	0xbe353a78	-0.17698085
45	0x3d0e91f0	0.034807146
46	0xbf289ee8	-0.6586747
47	0x3e1c87bc	0.15286154
48	0x3f1aedd9	0.60519177
49	0xbdaf3c30	-0.08556402
50	0x3e9f0f4a	0.31066352
51	0xbf172c9b	-0.5905244
52	0xbed97a32	-0.4247604
53	0xbf1e6294	-0.6186917
54	0x3ca4c5c0	0.020113826
55	0xbf1ad424	-0.6047995
56	0xbcadbae0	-0.021207273
57	0xbe9ebeb8	-0.31004882
58	0x3f262aef	0.6490926
59	0x3e3519c0	0.17685604
60	0x3f2cb2bd	0.6746023
61	0xbd236870	-0.03989452
62	0x3f03304b	0.51245564
63	0x3ec15bea	0.37765437
64	0xbd92cd48	-0.071680605
65	0x3e8ccb7a	0.2749899
66	0xbf15d71e	-0.5853137
67	0xbf13231a	-0.57475436
68	0xbe899fce	-0.26879734
69	0x3e08072c	0.13283986
70	0xbeaa3517	-0.3324363
71	0x3d63cac0	0.05561328
72	0x3e5f3580	0.21797752
73	0xbef7c495	-0.48392168
74	0xbecb4e6b	-0.39708266
75	0xbebc2a12	-0.36750847
76	0x3f0fc2ad	0.56156427
77	0x3e8fb144	0.2806493
78	0xbf1cf731	-0.61314684
79	0x3da066c8	0.07832104
80	0xbf09d646	-0.5384258
81	0x3f0af021	0.5427266
82	0xbd0a5220	-0.033769727
83	0xbe6cf7e2	-0.23141435
84	0xbeaa277a	-0.33233243
85	0xbd4f1dd0	-0.05056554
86	0xbdf667d8	-0.120315254
87	0xbc38ee40	-0.011287272
88	0xbf3065ae	-0.6890515
89	0x3e134974	0.14383489
90	0xbea59746	-0.32341975
91	0x3ed370ee	0.41297096
92	0xbec996f6	-0.39372987
93	0x3e8b8c4e	0.2725548
94	0xbf1bee58	-0.6091056
95	0x3edc3b3e	0.43013948
96	0x3d823928	0.06358558
97	0x3e2bf024	0.16790825
98	0x3f1908fd	0.5977934
99	0xbf2e1424	-0.6799948
100	0x3ec89cd6	0.39182156
101	0x3f0c7313	0.5486309
102	0xbf24f336	-0.6443361
103	0xbf2a2ce6	-0.6647476
104	0xbf32db64	-0.69866014
105	0x3f2d7a93	0.6776516
106	0xbf176bb7	-0.59148735
107	0x3e81733e	0.25283235
108	0xbd0b36a0	-0.03398764
109	0xbf18890e	-0.5958413
110	0xbf0bf2b4	-0.5466721
111	0xbed86571	-0.42264894
112	0x3e489108	0.19586575
113	0x3f2ceaad	0.67545587
114	0xbe591156	-0.2119802
115	0xbee27c67	-0.44235536
116	0x3f23daef	0.6400594
117	0x3f00a823	0.50256556
118	0x3eed2b72	0.4632221
119	0xbe78f39a	-0.24311677
120	0x3f157a87	0.58390087
121	0xbeb6545c	-0.35611236
122	0xbd9dcd50	-0.07705176
123	0x3e88bb88	0.26705575
124	0x3ee6bf86	0.45067996
125	0x3e2df668	0.16988528
126	0xbe5ccb3e	-0.21561906
127	0x3e9b7cb2	0.30368572
128	0x3f222bb3	0.6334793
129	0xbf01da85	-0.5072406
130	0xbe38b85c	-0.18039078
131	0x3efb1be6	0.49044722
132	0x3efa333e	0.4886722
133	0x3ea51926	0.3224575
134	0xbe812286	-0.25221652
135	0x3f224ed3	0.63401526
136	0xbe91987b	-0.28436646
137	0x3e050260	0.12989187
138	0x3edbf462	0.42959887
139	0xbee4a7e9	-0.44659355
140	0xbe414ce8	-0.18876994
141	0xbd8f4ee8	-0.06997472
142	0xbef5b123	-0.47986707
143	0x3f34a5b1	0.70565325
144	0xbdec7920	-0.1154654
145	0x3e1a4884	0.15066725
146	0xbefb3502	-0.4906388
147	0xbf104386	-0.5635303
148	0x3ed4c482	0.41556174
149	0xbe5e1922	-0.21689275
150	0xbf22e1f3	-0.6362602
151	0x3ec400fa	0.38281995
152	0xbe42f054	-0.1903699
153	0x3ed28746	0.4111883
154	0x3ea7d0f6	0.32776612
155	0x3c42abc0	0.011881769
156	0x3e3f1bcc	0.18662947
157	0x3eb64db6	0.35606164
158	0x3d1fb390	0.038989604
159	0x3f2d0bb5	0.6759599
160	0x3f181961	0.59413725
161	0xbe5cd3ee	-0.2156522
162	0x3ee22a52	0.44172913
163	0x3f33a857	0.7017874
164	0xbe2549cc	-0.16141433
165	0xbf002aa6	-0.50065076
166	0xbe2b860c	-0.16750354
167	0x3ea2d26e	0.3180117
168	0x3f1e9d35	0.6195863
169	0x3e975a12	0.29560906
170	0xbf157eeb	-0.58396786
171	0x3f0ad1a9	0.54226166
172	0xbd5254e0	-0.051350474
173	0xbf229eaa	-0.6352335
174	0x3f271cd7	0.6527838
175	0x3eac5d6e	0.3366503
176	0x3ee97f1e	0.45604795
177	0xbf1186dc	-0.56846404
178	0x3e5baf5c	0.21453613
179	0xbe7ba852	-0.24575928
180	0xbf2588d5	-0.64661914
181	0x3e566474	0.20936757
182	0xbee4c15b	-0.4467877
183	0xbcdbeea0	-0.026847184
184	0xbf2c46c0	-0.67295456
185	0x3e40f658	0.18843973
186	0x3f340d01	0.7033234
187	0xbe8f53fe	-0.27993768
188	0xbe917fe6	-0.2841789
189	0xbec62273	-0.38698158
190	0x3e3727b4	0.1788624
191	0xbf197cd7	-0.59956115
192	0x3eb852ce	0.36000675
193	0x3e980026	0.29687613
194	0x3f144ed1	0.57932764
195	0xbf261af0	-0.64884853
196	0x3e3fdcd0	0.18736577
197	0xbec4cd42	-0.3843785
198	0x3eeee72a	0.4666074
199	0x3ed0eace	0.40804142
200	0xbdb02d90	-0.0860244
201	0xbdbd4258	-0.0924117
202	0xbf3115fe	-0.6917418
203	0xbecdd8d8	-0.402045
204	0x3f1b7467	0.6072449
205	0x3e48b770	0.19601226
206	0x3e33ec34	0.17570573
207	0x3db4fbd0	0.08837092
208	0xbed1f680	-0.41008377
209	0xbf2ac221	-0.6670247
210	0x3e0126c0	0.12612438
211	0x3e8265b4	0.25468218
212	0xbd6d77f0	-0.05797571
213	0xbee82245	-0.45338646
214	0xbe2a9f8c	-0.16662425
215	0x3f29252d	0.6607235
216	0x3f232da7	0.63741535
217	0x3c61dc00	0.013785362
218	0x3f16881f	0.58801454
219	0x3e503724	0.20333534
220	0xbf133b28	-0.5751214
221	0xbea125ec	-0.31474245
222	0x3eaa850a	0.33304626
223	0xbe4f02f4	-0.2021597
224	0x3dc64f88	0.09683138
225	0xbd24fbb0	-0.04027909
226	0x3e8b70cc	0.27234495
227	0x3ea0f132	0.31434017
228	0xbf3128de	-0.69202983
229	0x3f2674ad	0.65021783
230	0xbf204c5a	-0.62616503
231	0xbe6dfda0	-0.23241282
232	0xbf1f642c	-0.62262225
233	0xbec98ceb	-0.39365324
234	0x3e264ca4	0.16240174
235	0xbebe6221	-0.3718424
236	0x3c9ce380	0.01915145
237	0x3e583f54	0.21117908
238	0x3e19621c	0.14978832
239	0x3eba3c3a	0.36374074
240	0xbf07a8fa	-0.5299221
241	0x3ea1c0a2	0.3159228
242	0x3ed8f24e	0.42372364
243	0x3ea58c6e	0.32333702
244	0x3e35cd3c	0.17754072
245	0xbd98f598	-0.07468718
246	0xbe454f6c	-0.19268578
247	0x3e8e318c	0.27772176
248	0xbefa2da4	-0.48862946
249	0xbdb95c60	-0.09050822
250	0x3f12abc9	0.57293373
251	0xbf2d5efb	-0.67723054
252	0x3f091273	0.53543776
253	0xbf098268	-0.5371461
254	0xbdb7eb80	-0.08980465
255	0xbebc6c0d	-0.36801186

bias f4 [128]
0	0x3e5bab20	0.21451998
1	0xbf2c32c2	-0.6726495
2	0xbeab8ae9	-0.33504418
3	0x3f0d5c0d	0.55218583
4	0xbd5a1db0	-0.05325097
5	0xbf27d173	-0.6555397
6	0x3e4417b8	0.19149673
7	0xbf0c830d	-0.5488747
8	0xbf0427fe	-0.51623523
9	0x3ebf717a	0.37391263
10	0x3f115479	0.5676952
11	0x3ee66baa	0.45004016
12	0x3ed38aea	0.4131692
13	0x3f08becb	0.53416127
14	0xbf24b504	-0.6433871
15	0x3d00aef0	0.031416833
16	0xbeacffb9	-0.3378885
17	0xbea3fd59	-0.32029226
18	0x3f218455	0.6309255
19	0xbdf00e20	-0.11721444
20	0x3f2b3e97	0.6689238
21	0xbe7f3176	-0.24921212
22	0xbe9e3b27	-0.30904505
23	0x3ee9b9c2	0.45649534
24	0x3ea051ee	0.31312507
25	0xbec6488b	-0.3872722
26	0xbe1d4b80	-0.15360832
27	0xbf25e371	-0.64800173
28	0xbeee1cfe	-0.46506494
29	0xbf21974f	-0.63121504
30	0xbed35a7f	-0.4127998
31	0xbe76d912	-0.24106243
32	0x3ed89f46	0.42309016
33	0xbe3045e0	-0.17214155
34	0x3f1ff80d	0.6248787
35	0x3eea3c7e	0.45749277
36	0xbd81b040	-0.06332445
37	0xbcb79200	-0.022408485
38	0xbf2d5e0c	-0.6772163
39	0x3dbf5858	0.09343022
40	0xbecd8e0c	-0.40147436
41	0x3e242480	0.16029549
42	0x3f07ed33	0.5309631
43	0xbd16b6d0	-0.036795437
44	0x3e0c1438	0.13679588
45	0xbd7877d0	-0.060661137
46	0x3ea9e112	0.33179528
47	0xbee2e87d	-0.44318
48	0xbe5fab6e	-0.21842739
49	0x3e6c04e0	0.23048735
50	0xbf049fcc	-0.5180633
51	0xbf00847e	-0.5020217
52	0xbee29a47	-0.4425833
53	0xbeeda9d4	-0.4641863
54	0xbea740af	-0.32666537
55	0x3e5ba000	0.21447754
56	0xbe67e1ec	-0.22644776
57	0x3ded6948	0.115923464
58	0xbf2f0038	-0.6835971
59	0x3f03ddbb	0.5151021
60	0x3cbed200	0.023293495
61	0xbed99af7	-0.4250104
62	0x3ebf929a	0.37416536
63	0x3f2ca7af	0.67443365
64	0xbefb73b2	-0.49111706
65	0x3ed50326	0.41603965
66	0x3f164083	0.5869219
67	0x3f1ad37b	0.60478944
68	0xbf3190d4	-0.69361615
69	0xbd919998	-0.07109374
70	0xbe7299da	-0.23691502
71	0x3f0e627f	0.55619043
72	0x3e8daa3c	0.2766894
73	0xbf1e9059	-0.6193901
74	0x3e33dedc	0.17565483
75	0x3d7b8770	0.06140846
76	0xbdd0fcf0	-0.10204494
77	0x3eb9ee5e	0.36314672
78	0x3e10dc64	0.14146572
79	0xbeef2be6	-0.4671318
80	0x3f0fe041	0.5620156
81	0x3ea979d6	0.33100766
82	0x3efd525a	0.49476892
83	0xbe451254	-0.19245273
84	0x3e8c2ed4	0.27379477
85	0x3e078c94	0.1323722
86	0xbf3488f5	-0.7052148
87	0xbdf7aba0	-0.12093282
88	0xbd1d1c40	-0.03835702
89	0x3f2aa631	0.6665984
90	0xbee4523e	-0.44593996
91	0xbf1e0f40	-0.6174202
92	0xbe4a89f8	-0.19779193
93	0xbf093471	-0.53595644
94	0xbf12ea0f	-0.57388395
95	0xbef37c4d	-0.4755577
96	0xbf01151e	-0.5042285
97	0x3f29c6d1	0.66318995
98	0xbe899f5a	-0.26879388
99	0xbf11dc9c	-0.5697725
100	0xbeda9397	-0.42690727
101	0x3ea5ff1a	0.3242119
102	0x3eab617a	0.33472806
103	0x3e89a48c	0.26883352
104	0x3ce5cdc0	0.02805221
105	0x3e9c9606	0.3058321
106	0x3e995a1e	0.29951566
107	0xbe456bbc	-0.19279379
108	0xbed15dbb	-0.40891823
109	0xbf310257	-0.69144195
110	0xbe5f2d46	-0.21794614
111	0x3ec9cad6	0.39412564
112	0x3dd661c8	0.10467869
113	0xbf0e3110	-0.55543613
114	0xbe2f869c	-0.17141193
115	0xbf1fa5ea	-0.6236254
116	0xbe8fc3e4	-0.2807914
117	0xba6d8c00	-0.0009061694
118	0x3d86bdd0	0.065791726
119	0x3e8e9c8a	0.27853805
120	0x3f33c04f	0.70215315
121	0xbea8e682	-0.32988364
122	0x3eb62e82	0.35582358
123	0x3ec9896a	0.3936265
124	0xbe7e6286	-0.24842271
125	0x3e0052fc	0.12531656
126	0xbed231ee	-0.41053718
127	0x3e264430	0.16236949

weight f4 [128, 128]
0	0xbd10a126	-0.035309933
1	0x3d8d0e11	0.068874486
2	0xbbb9b200	-0.005666971
3	0x3d4fa0fa	0.05069063
4	0xbd0cca62	-0.034372695
5	0xbd536a7e	-0.05161523
6	0x3d74ede2	0.059797175
7	0xbcb35164	-0.021889396
8	0x3d79734e	0.06090098
9	0xbb0651e0	-0.0020495579
10	0xbd4ab92f	-0.04949301
11	0xbcf46b5e	-0.029836353
12	0xbd5ec281	-0.054384712
13	0xbd8c1dee	-0.06841646
14	0xbd61ef0f	-0.055159625
15	0x3ca83f98	0.020538136
16	0xbcd06c54	-0.02544228
17	0x3b45a160	0.0030156001
18	0x39442e00	0.00018709153
19	0xbd975244	-0.07388738
20	0xbd611085	-0.054947395
21	0x3d8d7491	0.06906999
22	0xbd3f0425	-0.046634812
23	0x3cca0f54	0.024665512
24	0xbd2588c7	-0.040413644
25	0x3d375706	0.044760726
26	0xbd36011c	-0.04443465
27	0x3d355a26	0.044275425
28	0xbcefc478	-0.029268488
29	0x3c37a440	0.011208594
30	0x3c90d674	0.017680384
31	0xbcd44676	-0.025912505
32	0xbd7ec588	-0.0622001
33	0xbca37e28	-0.019957617
34	0x3d47dace	0.048792653
35	0x3ce07ec4	0.027404197
36	0x3cd44a7c	0.025914423
37	0xbd0401f5	-0.03222843
38	0xbd9d3d48	-0.07677704
39	0x3c208d10	0.009799257
40	0xbd83f73c	-0.064436406
41	0xbd107563	-0.0352682
42	0x3ca1ac00	0.019735336
43	0xbcc09210	-0.023507148
44	0xbb3a6f40	-0.0028447658
45	0xbcbac450	-0.022798687
46	0xbace1fc0	-0.0015726015
47	0xbd0511be	-0.032487623
48	0x3c974e00	0.01846981
49	0x3da3a665	0.079907216
50	0xbd6b51be	-0.057451002
51	0x3d8d9f5f	0.06915163
52	0xbca5546c	-0.020181857
53	0x3d5e446a	0.054264463
54	0x3d42b1e2	0.047532924
55	0x3d944f39	0.07241673
56	0x3d82a953	0.06379952
57	0x3daa4e41	0.08315707
58	0xbcbeb9f8	-0.023282036
59	0xbc1b8448	-0.0094919875
60	0xbd1e1d58	-0.038602203
61	0xbc168b88	-0.00918854
62	0xbd6ec786	-0.05829575
63	0x3d869d79	0.06573004
64	0x3daa5725	0.08317403
65	0x3c855ff4	0.016281106
66	0xbcae32e0	-0.021264493
67	0xbcb04a0c	-0.021519683
68	0x3d9ec4dd	0.077523924
69	0x3d8aadb5	0.06771413
70	0xbd786f59	-0.060653064
71	0x3da7376f	0.0816487
72	0x3cc87ee0	0.024474561
73	0xbb42d1a0	-0.0029726997
74	0x3bce8840	0.0063028634
75	0xbda9df45	-0.082945384
76	0xbc3019f0	-0.0107483715
77	0xbc8e17cc	-0.017345332
78	0xbd3ac993	-0.045602392
79	0xbd614982	-0.055001743
80	0xbcea9ee2	-0.028640214
81	0xbbccec10	-0.006253727
82	0xbc2bb838	-0.010480933
83	0x3c9b2460	0.018938243
84	0x3d2d30fe	0.04228305
85	0xbd5ae798	-0.05344352
86	0xbd231abb	-0.039820414
87	0x3d87a9a1	0.06624151
88	0xbd34397b	-0.04400013
89	0x3db0dd97	0.08636015
90	0xbd8f6daa	-0.07003339
91	0xbd9c6c7d	-0.0763788
92	0x3d7a6812	0.061134405
93	0x3c39ae40	0.011333048
94	0xbd9e3948	-0.07725769
95	0x3d88b0c1	0.06674338
96	0xbdab5516	-0.08365838
97	0x3d701b46	0.05861976
98	0xbd7bb5be	-0.06145262
99	0xbd992393	-0.07477488
100	0xbc759118	-0.014988206
101	0x3becb8c0	0.0072241724
102	0x3d0e863a	0.034795977
103	0x3d14732e	0.036242656
104	0xbcc5d988	-0.024151579
105	0x3cb7b3f8	0.022424683
106	0x3d8febc7	0.07027393
107	0x3d9f9ee7	0.0779398
108	0x3b1514e0	0.0022748038
109	0x3cfcd3d4	0.030862726
110	0xbd95c5d4	-0.07313123
111	0x3d78c1be	0.060731642
112	0xbd9c09ac	-0.07619032
113	0xbd77b156	-0.060471855
114	0x3d9bd85f	0.07609629
115	0xbd6cf437	-0.05785009
116	0x3ce67244	0.028130658
117	0x3d8321a3	0.064029
118	0x3d0b5f26	0.034026287
119	0xbcc892b0	-0.024484009
120	0x3d00bcb6	0.03142997
121	0x3d90d01d	0.070709445
122	0x3d821219	0.06351108
123	0x3cb22124	0.021744318
124	0xbd463648	-0.04839161
125	0x3c46ad78	0.012126319
126	0xbd9e9868	-0.07743913
127	0xbb0604a0	-0.0020449534
128	0xbd2dca46	-0.04242923
129	0xbd7709e2	-0.06031216
130	0x3d11e710	0.03562075
131	0x3d1138d0	0.03545457
132	0x3d0dab84	0.0345874
133	0xbd23dad0	-0.040003598
134	0x3db1ea53	0.08687272
135	0x3d09f32e	0.03367918
136	0xbd8011a0	-0.06253362
137	0x3d81ef19	0.063444324
138	0x3c9ab3cc	0.018884562
139	0x3c35cb10	0.011095777
140	0xbca0be98	-0.019622132
141	0x3c18fad0	0.009337142
142	0x3ac61940	0.0015113726
143	0x3d5bb06e	0.053635053
144	0xbccc04fc	-0.02490472
145	0xbc58e1a0	-0.013237387
146	0x3d798052	0.06091339
147	0x3d2868ea	0.04111568
148	0x3d3ab81e	0.045585744
149	0xbcfc2e30	-0.030783743
150	0x3db05591	0.086100705
151	0xbda17fcc	-0.078857034
152	0xbb720200	-0.0036927462
153	0xbbb803b0	-0.005615674
154	0xbd4808ea	-0.048836626
155	0xbcb14f20	-0.021644175
156	0x3d9453f1	0.07242573
157	0xbd8a2299	-0.0674488
158	0x3d3e10da	0.04640279
159	0xbce92742	-0.028461102
160	0x3db233d3	0.08701291
161	0xbcf2c118	-0.02963309
162	0xbd9fcaf9	-0.07802386
163	0x3b96d0c0	0.0046025217
164	0x3bac9fd0	0.0052680746
165	0x3ca32658	0.019915745
166	0xbce50e94	-0.027961053
167	0xbdb423f3	-0.08795919
168	0xbdab3c8e	-0.08361159
169	0xbcafc308	-0.021455303
170	0xbd2a61f8	-0.041597337
171	0xbd147081	-0.036240105
172	0xbd0940fc	-0.03350924
173	0x3c909c94	0.017652787
174	0xbcb6527c	-0.022256128
175	0xbc51c508	-0.012803324
176	0x3d19b18a	0.03752283
177	0xbd9e6966	-0.07734947
178	0x3ca437e4	0.020046182
179	0xbcdaa994	-0.02669219
180	0x3d94e773	0.07270708
181	0xbd81a6b8	-0.06330627
182	0xbd44cb72	-0.048045583
183	0xbd992683	-0.07478049
184	0xbd4769c0	-0.048684835
185	0xbda88219	-0.08227939
186	0x3da1c597	0.078990154
187	0x3d96d69f	0.073651545
188	0xbd03351e	-0.03203308
189	0x3d117924	0.03551592
190	0xbd8294fb	-0.06376072
191	0xbb090840	-0.0020909458
192	0x3d7ca1a2	0.061677583
193	0xbcbbff08	-0.022948757
194	0xbd906602	-0.070507064
195	0x3d91d2c7	0.07120281
196	0x3cd8b814	0.026454963
197	0x3c46e368	0.012139179
198	0x3d6939fe	0.05694007
199	0x3da7db4d	0.08196125
200	0xbcccbaa0	-0.024991333
201	0x3d17e056	0.037079178
202	0x3b92bad0	0.004477836
203	0x3c89a140	0.016800523
204	0xbd086e80	-0.033308506
205	0x3db160a7	0.08661013
206	0xbd44293e	-0.047890894
207	0x3aebb100	0.0017981827
208	0x3d35e44a	0.044407167
209	0x3db453af	0.08805024
210	0xbda12af8	-0.07869524
211	0xbd40a825	-0.047035355
212	0xbd5051b5	-0.050859172
213	0x3d96496b	0.07338222
214	0xbcf98e74	-0.030463435
215	0xbd8c3388	-0.06845766
216	0x3d1ab7e6	0.037773035
217	0xbb462580	-0.0030234754
218	0xbd9502a0	-0.07275891
219	0xbc097e88	-0.008391984
220	0x3c502270	0.012703523
221	0xbd242627	-0.040075447
222	0x3c741850	0.014898375
223	0xbd472499	-0.048618887
224	0x3d780726	0.060553692
225	0x3c9da4f8	0.019243702
226	0xbd53e264	-0.051729575
227	0xbbf04370	-0.007332258
228	0x3c608068	0.013702489
229	0x3da9064f	0.082531564
230	0xbd4e1931	-0.050316993
231	0x3da3e2c5	0.08002237
232	0xbb32abe0	-0.002726309
233	0xbd797ff6	-0.06091305
234	0xbd3bc587	-0.045842674
235	0xbdb4b6ff	-0.08823966
236	0xbd8c19ea	-0.0684088
237	0x3db34c6b	0.0875481
238	0x3da61b65	0.08110694
239	0x3d4b9ede	0.049712054
240	0xbd953072	-0.07284631
241	0x3d5c2e22	0.053754933
242	0xbdb36761	-0.08759952
243	0x3d1ee76a	0.038794912
244	0x3c8d02cc	0.017213248
245	0x3d0fd1fe	0.035112374
246	0x3d30c51a	0.04315672
247	0x3ce72344	0.028215058
248	0x3d1e0486	0.038578533
249	0xbd51d728	-0.05123058
250	0x3d0cbcc4	0.03435971
251	0xb9cf2100	-0.00039506704
252	0xbb798920	-0.0038076118
253	0xbd97a342	-0.07404186
254	0xbdb4eed6	-0.08834617
255	0xbaa15740	-0.0012309328

bias f4 [128]
0	0x3d20890a	0.03919319
1	0xbba44ae0	-0.0050138086
2	0x3d648aaa	0.055796303
3	0x3d75aa3a	0.059976794
4	0x3d4e66a6	0.050390862
5	0xbc341b98	-0.010992907
6	0x3d22d256	0.039751373
7	0x3c2450b0	0.010029003
8	0x3ce82618	0.028338477
9	0xbd9571ab	-0.07297071
10	0xbd49721a	-0.04918108
11	0x3daff6c1	0.085919864
12	0x3d080774	0.033210233
13	0xbd7486a9	-0.059698734
14	0x3daa69f3	0.083209895
15	0x3db317ef	0.08744799
16	0x3d31f6b6	0.043448173
17	0xbc9cbb84	-0.019132383
18	0x3da4d2b9	0.08048005
19	0x3d39ad56	0.04533132
20	0x3cd83434	0.02639208
21	0xbd312125	-0.0432445
22	0xbd6a5db3	-0.057218265
23	0x3cf7ae0c	0.03023436
24	0xbd6b3452	-0.057422943
25	0xbc9a93ec	-0.018869363
26	0x3cd750ec	0.026283704
27	0xbd9617ef	-0.07328784
28	0xbd6e9ca0	-0.058254838
29	0xbb516f00	-0.003195703
30	0xbbdb2fc0	-0.006689042
31	0x3cd6a288	0.026200548
32	0xbd8a3637	-0.06748622
33	0xbbde7440	-0.0067887604
34	0xbdb3bc63	-0.08776166
35	0x3d1640f2	0.03668303
36	0x3d2cfffa	0.042236306
37	0x3cd524cc	0.026018523
38	0xbdb2fa3b	-0.08739134
39	0x3d56e18a	0.052461185
40	0x3cdd62f0	0.027024716
41	0xbcac6068	-0.021042064
42	0xbd905843	-0.070480846
43	0xbda14b92	-0.07875742
44	0xbdb39925	-0.087694444
45	0x3d903bc7	0.070426516
46	0xbcc94ae0	-0.024571836
47	0x3c5a7488	0.013333447
48	0xbc2fb620	-0.010724574
49	0x3d4e1c2e	0.050319843
50	0x3cacf204	0.021111496
51	0x3d94eba7	0.072715096
52	0xbdb4b3e3	-0.08823373
53	0x3d70b962	0.058770545
54	0x3daae04f	0.08343565
55	0x3cfc88bc	0.030826919
56	0x3d82a237	0.06378596
57	0x3cf33690	0.029689103
58	0x3b59d4c0	0.003323838
59	0x3d6afc7e	0.0573697
60	0xbcbba1f8	-0.022904381
61	0x3b59c120	0.0033226684
62	0x3d197726	0.037467144
63	0x3c1bc060	0.009506315
64	0x3da67679	0.081280656
65	0x3d9a6447	0.07538658
66	0xbd25ae4f	-0.040449437
67	0xbc2e16a8	-0.010625519
68	0x3d5d7a06	0.05407145
69	0x3c1a8ae0	0.009432524
70	0x3cd02bc0	0.025411487
71	0xbacd22c0	-0.0015650615
72	0x3be076f0	0.006850116
73	0x3c93a4b8	0.01802288
74	0x3d47e942	0.048806436
75	0xbd54fc8a	-0.051998653
76	0x3d89a699	0.06721229
77	0xbce46736	-0.027881246
78	0x3d11021a	0.035402395
79	0x3d3488f6	0.04407593
80	0xbcc4de1c	-0.024031691
81	0x3d65fade	0.05614745
82	0x3da9beb9	0.082883306
83	0xbbee0280	-0.0072634816
84	0xbc9d51a4	-0.019203968
85	0xbd1e90ae	-0.038712196
86	0xbd96f71d	-0.07371352
87	0xbd64e722	-0.055884488
88	0xbd35571e	-0.044272535
89	0x3daa8ad5	0.08327261
90	0xbd9bab13	-0.07600989
91	0xbd0042e9	-0.03131381
92	0x3d57beea	0.052672304
93	0xbca70f68	-0.020393088
94	0xbcecef38	-0.028922662
95	0xbc8870b4	-0.016655304
96	0xbd277ce9	-0.040890608
97	0x3d2cd72e	0.0421974
98	0xbd042c9b	-0.0322691
99	0xbcafddb0	-0.021468014
100	0xbd3e4f34	-0.046462253
101	0xbaa69b80	-0.0012711138
102	0x3d6d46ee	0.057928972
103	0xbc8f9654	-0.017527737
104	0x3da2ebeb	0.07955154
105	0x3d429406	0.047504447
106	0x3da4b4b1	0.08042277
107	0xbd9c9942	-0.07646419
108	0xbcbe2978	-0.023213133
109	0x3d93794b	0.07200869
110	0x3b9a0a90	0.004700966
111	0xbd538e67	-0.051649477
112	0xbda7fb92	-0.0820228
113	0xbd80fbe3	-0.062980436
114	0x3daef143	0.08542111
115	0x3da4baa7	0.080434136
116	0xbd4f7c7e	-0.050655834
117	0xbdb3e5aa	-0.08784039
118	0xbb62da80	-0.00346151
119	0x3da5b45d	0.08091042
120	0xbcdf0c4e	-0.027227547
121	0xbcaa5654	-0.020793118
122	0xbd9f375a	-0.07774229
123	0x3b7edda0	0.0038889423
124	0xbd345d99	-0.044034574
125	0x3c95478c	0.018222593
126	0x3d8a1a2f	0.067432754
127	0xbd2830ac	-0.041062042

weight f4 [10, 128]
0	0xbc9c73b4	-0.01909814
1	0x3d1f2612	0.038854666
2	0xbda86668	-0.082226574
3	0x3b375e00	0.0027979612
4	0x3c6a3650	0.014295176
5	0xbd9b0b4a	-0.075705126
6	0xbd1b25b6	-0.03787776
7	0x3d83ea93	0.06441226
8	0x3cc7ff7c	0.024413817
9	0xbbfa4010	-0.0076370314
10	0x3d6d5f42	0.057952173
11	0x3d8057cb	0.06266745
12	0xbd76f6d9	-0.060294006
13	0x3dadcec3	0.08486702
14	0x3daf2d73	0.085535906
15	0x3c29f8a0	0.010374218
16	0x3d9e0f45	0.07717756
17	0xbca6b210	-0.020348579
18	0x3d1d5856	0.03841432
19	0x3d389db2	0.045072265
20	0xbd41c354	-0.04730542
21	0x3da46463	0.0802696
22	0xbd6fefb1	-0.058578197
23	0x3c093200	0.008373737
24	0x3d90902f	0.07058751
25	0x3d114aa0	0.03547156
26	0x3da99caf	0.08281838
27	0x3b535a00	0.003224969
28	0x3db22c4b	0.086998545
29	0xbcd20220	-0.025635779
30	0xbdacd451	-0.08438934
31	0xbca8afec	-0.020591699
32	0xbd919d54	-0.07110086
33	0x3d9e2beb	0.077232204
34	0xbd7befcc	-0.061507985
35	0xbd3943c6	-0.04523065
36	0x3c6fcf98	0.014636897
37	0xbd187180	-0.037217617
38	0xbda87b96	-0.08226697
39	0xbd347f0a	-0.044066466
40	0xbdaab15f	-0.08334612
41	0xbc7b4218	-0.015335582
42	0xbc792d40	-0.015208542
43	0xbd0cec88	-0.03440526
44	0xbd8027a9	-0.062575646
45	0xbd0c4fd7	-0.03425583
46	0xbdb4ba61	-0.088246115
47	0xbdad97d8	-0.084762275
48	0x3d1a0f0a	0.037612
49	0x3cd052d0	0.025430113
50	0xbd7dc64c	-0.06195669
51	0x3d85ad75	0.06527225
52	0xbd95df29	-0.07317955
53	0x3c5e4868	0.013567068
54	0x3d34757e	0.04405736
55	0xbda9a2b2	-0.08282985
56	0xbd907b8c	-0.07054815
57	0x3d969ff7	0.073547296
58	0xbd4dae63	-0.050215136
59	0xbcfece72	-0.0311043
60	0x3d42b412	0.04753501
61	0x3d52c152	0.051453896
62	0xbc67c150	-0.01414521
63	0x3b24faa0	0.0025173798
64	0x3d6ccd22	0.057812817
65	0xbc358718	-0.011079572
66	0x3d15db86	0.036586307
67	0x3d6789d6	0.056527935
68	0xbaeb0000	-0.0017929077
69	0xbd314417	-0.043277826
70	0xbced6422	-0.028978411
71	0x3dafb3a1	0.08579183
72	0xbd03e881	-0.032204155
73	0xbcfe871e	-0.031070288
74	0x3c846ae0	0.016164243
75	0xbd405f1d	-0.046965707
76	0x3c124328	0.008927144
77	0x3cb1dea0	0.021712601
78	0xbd992807	-0.07478338
79	0xbb0fcbc0	-0.0021941513
80	0xbd891e4b	-0.06695231
81	0xbb583e20	-0.0032996014
82	0x3d84efbb	0.064910375
83	0x3c748b08	0.014925726
84	0xbd096822	-0.033546574
85	0xbdaec878	-0.0853433
86	0x3b9e0d00	0.004823327
87	0xbcbe4a7c	-0.023228876
88	0x3d2b77a2	0.041862138
89	0xbc7d5f78	-0.015464656
90	0xbd62eb49	-0.055400167
91	0xbc5d3f00	-0.01350379
92	0xbd8c2cf8	-0.068445146
93	0xbcc6af18	-0.024253413
94	0xbccc4790	-0.024936467
95	0x3d947311	0.0724851
96	0x3bbb41e0	0.00571464
97	0xbd918856	-0.07106082
98	0x3d989dcd	0.07451973
99	0x3d8bf7c5	0.06834368
100	0xbcfbaeaa	-0.030722935
101	0x3d4f57be	0.050620787
102	0x3b295660	0.0025838837
103	0x3d6d44b2	0.05792684
104	0x3d7f0b52	0.062266655
105	0xbce2ab80	-0.027669668
106	0x3d16b4d2	0.036793537
107	0x3da6200d	0.08111582
108	0xbc9dd328	-0.019265726
109	0xbc45cfe8	-0.0120734945
110	0x3d428e2a	0.04749886
111	0x3d1ecc2e	0.03876894
112	0xbd414b4c	-0.04719095
113	0x3c82fee0	0.015990674
114	0x3ad86480	0.0016509444
115	0x3c0d4660	0.008622736
116	0xbcf15d50	-0.02946344
117	0xbda9ad6a	-0.08285029
118	0xbdb4741a	-0.08811207
119	0xbd309a95	-0.04311617
120	0x3d82ed4d	0.06392918
121	0x3c2f9920	0.01071766
122	0xbd27a3a0	-0.04092753
123	0xbca1eb58	-0.019765541
124	0xbd48b6b3	-0.04900236
125	0xbdaa3b78	-0.08312124
126	0xbd8d6c1e	-0.06905387
127	0xbc8554c4	-0.016275771
128	0x3da1a9bb	0.07893702
129	0x3d520342	0.05127264
130	0xbda952b9	-0.08267731
131	0x3c235b18	0.009970449
132	0x3da27b5d	0.07933686
133	0xbba823a0	-0.0051312
134	0xbc5371e0	-0.012905568
135	0x3d5839fa	0.052789666
136	0xbd429fa6	-0.047515534
137	0x3dae7e6b	0.08520206
138	0x3cdf5aa4	0.0272649
139	0x3c605a78	0.013693444
140	0x3d990f79	0.07473654
141	0xbda41a86	-0.080128714
142	0xbd05dcbc	-0.03268121
143	0x3c5045d8	0.012711965
144	0xbdb09c9f	-0.08623623
145	0xbdafff94	-0.085936695
146	0xbcd85a0a	-0.026410121
147	0xbd965649	-0.07340676
148	0x3d4570ee	0.0482034
149	0xbd50c699	-0.050970647
150	0x3d9f2599	0.07770843
151	0x3d6fc746	0.05853965
152	0x3dab3fbf	0.08361768
153	0x3d6f4302	0.058413513
154	0x3cc28750	0.023746163
155	0xbd2204f9	-0.039555524
156	0x3cd5cdc0	0.026099086
157	0xbd0e22cc	-0.034701154
158	0xbd07276b	-0.032996576
159	0xbd40d673	-0.047079515
160	0xbcc4be94	-0.024016656
161	0x3bb1f370	0.0054306313
162	0x3c98f25c	0.018670253
163	0xb9db0400	-0.00041773915
164	0x3d7ce9e2	0.061746486
165	0xbd535235	-0.05159207
166	0xbce4e108	-0.027939335
167	0xbd4de371	-0.050265733
168	0x3d4eeb92	0.050517626
169	0x3d1c3b26	0.038142346
170	0x3c79e8d8	0.015253268
171	0x3dafbd71	0.08581055
172	0xbd434e4e	-0.0476821
173	0xbc06de58	-0.008231722
174	0xbd62313a	-0.055222727
175	0x3d43114a	0.04762391
176	0xbd8c87a7	-0.06861811
177	0x3d519782	0.05116988
178	0x3d056c82	0.032574184
179	0xbd213745	-0.03935935
180	0x3d85234f	0.06500875
181	0xbd055217	-0.03254899
182	0x3d26b2ba	0.04069779
183	0xbd63ba39	-0.055597518
184	0xbd92ac96	-0.071618244
185	0xbc88d5f0	-0.016703576
186	0xbd64ad64	-0.05582942
187	0x3d0d2680	0.034460545
188	0x3d50665a	0.05087886
189	0x3d907e33	0.070553206
190	0x3d9c5389	0.076331206
191	0xbd0e2839	-0.034706328
192	0xbc1e55b0	-0.009663984
193	0x3d8fefe9	0.07028181
194	0x3d64a90a	0.05582527
195	0x3d989e55	0.074520744
196	0x3da9de91	0.08294404
197	0x3cc4b3d4	0.02401153
198	0xbd1a5d50	-0.037686646
199	0xbd09f322	-0.033679135
200	0x3d9d48df	0.07679915
201	0xbbfd8760	-0.007737085
202	0xbd897105	-0.0671101
203	0xbd95eb63	-0.07320287
204	0x3d8d5115	0.06900231
205	0x3d92985d	0.07157967
206	0x3d652502	0.055943497
207	0x3d0c285e	0.034218185
208	0xbd60af1d	-0.0548545
209	0xbd9dca3f	-0.07704591
210	0x3d82c447	0.06385093
211	0x3d196462	0.037449248
212	0xbd274170	-0.04083389
213	0x3da90b99	0.08254165
214	0x3db4eeb1	0.08834589
215	0x3b3225e0	0.002718322
216	0x3d904995	0.07045285
217	0xbcc6a378	-0.02424787
218	0x3d263582	0.040578373
219	0x3b7b80e0	0.0038376376
220	0xbcf9b7d2	-0.03048316
221	0x3d640f4e	0.05567866
222	0x3d80477d	0.06263635
223	0x3d79cd02	0.060986526
224	0x3dab5dad	0.083674766
225	0xbcaba9e4	-0.020955034
226	0x3d9bbb67	0.076041035
227	0xbd9be2f9	-0.07611651
228	0x3d29cc1a	0.041454412
229	0xbd847750	-0.064680696
230	0xbcd40bcc	-0.025884531
231	0xbd9ac3dc	-0.075568885
232	0xbda408ba	-0.08009477
233	0xbccafb38	-0.024777994
234	0xbcf1a334	-0.029496767
235	0xbd295b75	-0.041346986
236	0xbd05a034	-0.032623485
237	0xbc0f80a8	-0.008758701
238	0xbd9d0da0	-0.076686144
239	0xbd57d6ba	-0.052695014
240	0xbc8e53b0	-0.01737389
241	0x3d51415a	0.051087715
242	0xbcecf016	-0.028923076
243	0xbdabffd2	-0.08398403
244	0x3d97e8e5	0.07417468
245	0x3da52b97	0.08064955
246	0xbdaafa27	-0.08348494
247	0xbda80f0b	-0.08205994
248	0x3c67b950	0.014143303
249	0xbd9ae0ae	-0.075623855
250	0xbdaeb354	-0.08530298
251	0xbc510668	-0.012757875
252	0x3dab6357	0.08368557
253	0x3d8c5035	0.06851236
254	0x3ca2fd88	0.019896284
255	0xbb9f0600	-0.00485301

bias f4 [10]
0	0x3cd9ec68	0.026601985
1	0xbda1560e	-0.07877742
2	0x3d90d587	0.07071977
3	0xbd8a2378	-0.067450464
4	0x3d7dcf3e	0.06196522
5	0xbd45909e	-0.04823362
6	0x3c1cd030	0.00957112
7	0xbd7aa120	-0.061188817
8	0xbd062233	-0.03274746
9	0x3d3c47d6	0.045966946

weight f4 [2, 128]
0	0x3c2a9228	0.010410823
1	0xbc24ac28	-0.010050811
2	0x3d735702	0.05940915
3	0xbb88c6f0	-0.004174106
4	0xbdac3209	-0.08407981
5	0x3d02d7ca	0.031944074
6	0x3d1fedbe	0.039045088
7	0x3aa38280	0.0012474805
8	0xbd0cc552	-0.034367867
9	0x3bd1af10	0.006399043
10	0x3d2cddfe	0.042203896
11	0xbd63e036	-0.055633746
12	0xbd9df0b1	-0.07711924
13	0x3db1d1d3	0.08682599
14	0x3ce5b6cc	0.028041266
15	0x3d5da0d6	0.054108463
16	0x3c0168a0	0.00789848
17	0xbcd4a6ac	-0.025958382
18	0x3cacb440	0.021082044
19	0xbcad40b8	-0.021149024
20	0xbcff8186	-0.031189691
21	0xbcd56efa	-0.026053894
22	0xbd784656	-0.060613953
23	0x3cf89b64	0.030347534
24	0x3cdd66f0	0.027026623
25	0xbd9c1ad3	-0.07622304
26	0x3d3cb42a	0.046070255
27	0x3d878ddd	0.06618855
28	0x3d3e4136	0.04644891
29	0x3d5a09ce	0.053232007
30	0xbd972404	-0.07379916
31	0x3c9601a4	0.01831133
32	0x3d726d4a	0.059186257
33	0xbd99820d	-0.07495508
34	0x3b8fac50	0.004384555
35	0xbc8cad8c	-0.017172597
36	0x3da10d99	0.07863922
37	0xbda64b0e	-0.08119784
38	0xbd10a8f0	-0.03531736
39	0xbd3e754a	-0.046498574
40	0xbcd97e30	-0.026549429
41	0xbcb95684	-0.022624262
42	0x3a16df80	0.000575535
43	0xbb58b020	-0.0033063963
44	0xbd81b984	-0.063342124
45	0xbda132c4	-0.07871011
46	0x3c5dc430	0.013535544
47	0xbd836ecb	-0.064176165
48	0xbd519b32	-0.051173396
49	0x3d138e62	0.03602446
50	0x3d8e7f6d	0.06957898
51	0xbcdc7ddc	-0.026915483
52	0x3d0afa16	0.033929907
53	0xbb2e31e0	-0.002658002
54	0xbd7bf8be	-0.061516516
55	0xbcb28618	-0.021792457
56	0xbdaf51eb	-0.085605465
57	0x3d3841aa	0.044984497
58	0x3d2fc362	0.04291094
59	0x3daae173	0.08343782
60	0x3c931d68	0.017958358
61	0xbc94cc7c	-0.018163912
62	0x3c4c5820	0.0124721825
63	0xbd9b8196	-0.07593076
64	0xbcb8fe10	-0.022582084
65	0x3cbfca4c	0.023411892
66	0xbc9711d0	-0.01844111
67	0xbc4ed278	-0.012623422
68	0xbd81d563	-0.063395284
69	0x3da59c51	0.080864556
70	0x3dac6f4f	0.08419668
71	0x3d7d48a6	0.06183686
72	0x3d7b9b5e	0.061427467
73	0xbc38ba10	-0.0112748295
74	0xbda0f3d4	-0.078590065
75	0x3d584aa6	0.052805565
76	0x3d694796	0.056953035
77	0x3d5c88fa	0.05384157
78	0x3d9348e5	0.07191638
79	0xbcbe91d8	-0.023262903
80	0xbbd186d0	-0.0063942447
81	0x3d1f36ce	0.038870625
82	0x3da143f5	0.0787429
83	0x3d058732	0.032599635
84	0x3c30d9b8	0.010794096
85	0xbd10e39e	-0.035373323
86	0xbd33af6b	-0.043868463
87	0x3db4c6af	0.088269584
88	0x3d39a47e	0.045322888
89	0x3cd4fdf0	0.025999993
90	0x3d093484	0.03349735
91	0xbd66ebb8	-0.056377143
92	0xbce35852	-0.027752075
93	0x3c6effa8	0.01458732
94	0x3d223742	0.03960348
95	0x3d24113a	0.04005549
96	0xbd95f313	-0.07321753
97	0xbd65460d	-0.05597501
98	0xbd3eb876	-0.046562634
99	0xbd6ec854	-0.058296517
100	0xbd820ef6	-0.0635051
101	0x3d9343ef	0.07190692
102	0xbd6aaeff	-0.057295796
103	0xbc43b1b0	-0.0119442195
104	0xbbccb350	-0.0062469617
105	0x3d30002e	0.04296892
106	0xbc859a70	-0.016308993
107	0xbc7eadf8	-0.015544407
108	0x3d0fd898	0.03511867
109	0xbcbe47dc	-0.023227625
110	0x3d06c714	0.0329047
111	0x3d8c0c8b	0.0683833
112	0xbdab5896	-0.08366506
113	0xbc4b5648	-0.012410708
114	0xbd0d51ce	-0.034501843
115	0xbd0333b4	-0.03203173
116	0xbd84a7f6	-0.064773485
117	0x3cb140fc	0.021637432
118	0xbd9e7eb4	-0.077390105
119	0xbbf462c0	-0.007458061
120	0xbd6641d3	-0.05621512
121	0xbca15f78	-0.019698843
122	0xbd9f4e8c	-0.077786535
123	0x3d6bccde	0.057568423
124	0x3c0f8f88	0.008762248
125	0x3cc29f84	0.023757704
126	0xbd0fec27	-0.03513732
127	0x3d1422b8	0.036165923
128	0xbd8b6ec4	-0.06808236
129	0x3d833da5	0.06408242
130	0x3d85372d	0.065046646
131	0xbd963242	-0.07333805
132	0xbd704a9c	-0.058664903
133	0x3c36be68	0.011153795
134	0xbd8ab21b	-0.06772252
135	0xbc4a7bd8	-0.012358628
136	0xbd45a83b	-0.04825614
137	0xbd083b4a	-0.033259667
138	0xbd3eda7e	-0.04659509
139	0xbdae7da6	-0.08520059
140	0xbd0e6511	-0.034764353
141	0x3b8517c0	0.004061669
142	0xbc227cc0	-0.009917438
143	0xbb7f6460	-0.003896974
144	0x3da90f1b	0.08254834
145	0x3d955bf1	0.07292927
146	0x3bbc8080	0.005752623
147	0x3ceeb8e0	0.02914089
148	0xbd543f00	-0.051817894
149	0xbb9afbb0	-0.0047297105
150	0x3d8b38ab	0.06797918
151	0xbd830fcd	-0.06399498
152	0xbd144504	-0.03619863
153	0x3c801ec4	0.01563967
154	0xbd096b01	-0.033549313
155	0x3d079862	0.033104308
156	0x3ca8dbd8	0.020612642
157	0x3d7f7352	0.062365837
158	0xbcd7fb7c	-0.026365034
159	0xbda0809c	-0.0783703
160	0xbd1f3074	-0.038864568
161	0x3ce393b8	0.027780399
162	0x3c693888	0.0142346695
163	0xbd9a4377	-0.07532399
164	0x3d72f7e2	0.05931843
165	0xbcd80dea	-0.026373822
166	0x3bb13ca0	0.0054088384
167	0xbd0e18b3	-0.034691524
168	0xbccfac38	-0.025350675
169	0xbdb05309	-0.08609588
170	0xbd7509fc	-0.059823975
171	0x3d79d612	0.06099517
172	0xbd5cbbc3	-0.05389
173	0x3af65c40	0.0018795803
174	0x3d6c2926	0.05765643
175	0xbd80915a	-0.062777236
176	0x3cd70a4c	0.026250027
177	0xbc0eba08	-0.0087113455
178	0xbc255c48	-0.010092802
179	0xbbe55000	-0.006998062
180	0xbd4219ee	-0.04738801
181	0xbd2539d0	-0.040338337
182	0xbd9333e1	-0.071876295
183	0xbc8b4064	-0.016998477
184	0x3d5a4b9a	0.053294756
185	0xbce00700	-0.027347088
186	0xbc7a7f60	-0.015289158
187	0x3cde632c	0.027146898
188	0x3d9aa647	0.07551246
189	0xbcbacf50	-0.022803932
190	0x3d302f06	0.043013595
191	0xbd431fb9	-0.047637675
192	0x3d0ccd4c	0.034375474
193	0x3d4f2d56	0.050580345
194	0x3d81bdc9	0.06335027
195	0x3d9d1f75	0.076720156
196	0xbc01fd98	-0.007933997
197	0xbd68c5a2	-0.056829102
198	0x3d1bb506	0.038014434
199	0x3d2ec72a	0.042670406
200	0x3d1996a2	0.03749717
201	0xbd86c0e5	-0.065797605
202	0xbcc2d2cc	-0.023782156
203	0x3c4a2e20	0.012340099
204	0xbd9e3188	-0.07724291
205	0xbd97ab51	-0.07405723
206	0x3d265d7a	0.04061649
207	0x3d11783c	0.035515055
208	0x3d92e41b	0.07172414
209	0x3d90593d	0.07048271
210	0x3ca0fcec	0.019651853
211	0x3c9a152c	0.018808924
212	0xbcd1ae38	-0.02559577
213	0xbd89884c	-0.0671545
214	0x3cd66f04	0.026175983
215	0x3c192a88	0.009348519
216	0xbd1623b7	-0.036655154
217	0xbc270530	-0.010194108
218	0xbc13c820	-0.0090198815
219	0xbc83cf4c	-0.016090058
220	0x3da8359b	0.082133494
221	0x3d7ba8fa	0.061440445
222	0x3d4c363e	0.049856417
223	0xbda80184	-0.08203414
224	0x3d4eef7a	0.05052135
225	0xbbc28e80	-0.0059373975
226	0xbdab6fbb	-0.0837092
227	0xbd6bf71e	-0.057608716
228	0x3cef6e68	0.02922745
229	0xbd7e06ec	-0.06201832
230	0xbd865952	-0.06560005
231	0x3dac4765	0.08412055
232	0x3da1397b	0.07872292
233	0x3d732ed2	0.059370823
234	0x3d95e6bf	0.07319402
235	0xbd0bc29c	-0.03412114
236	0x3da22a01	0.07918168
237	0x3d1b7d52	0.03796131
238	0x3d59c0d2	0.053162403
239	0xbd09e665	-0.033666987
240	0x3cd3fa94	0.02587632
241	0xbd82b7ce	-0.06382714
242	0xbdab0e36	-0.0835232
243	0x3da0f419	0.07859058
244	0xbd57ae93	-0.05265672
245	0xbd603869	-0.054741297
246	0x3d6e3396	0.058154665
247	0xbd66f491	-0.05638558
248	0xbd4d4753	-0.05011685
249	0xbd54f1bf	-0.05198836
250	0x3d710882	0.058846004
251	0x3d6e3a8a	0.058161296
252	0xbc95fba8	-0.018308476
253	0x3d2a511a	0.04158125
254	0x3b6584e0	0.0035021827
255	0xbd6f9fe9	-0.05850211

bias f4 [2]
0	0x3d6008e6	0.054695986
1	0x3d921417	0.07132738
