darts_logs/2022-11-19_12.48.36.780866_torch_model_run_7068/_model.pth.tar (torch, 74546 bytes, 16 tensors)

weight f4 [64, 2]
000000 ca 2e f8 be fa 5d ad be 98 a4 e6 bd ff 26 31 3f
       -0.48473197 -0.3386076 -0.112618625 0.6920013
000010 67 35 25 bf 9f 82 30 3f 6f 42 1a 3f b4 bd 1f 3e
       -0.6453461 0.6894931 0.6025762 0.1559971
000020 44 fa a5 be 2e 87 be 3e 42 ea fa 3e 3e dd e1 3e
       -0.324175 0.3721251 0.4900685 0.44114107
000030 bb 08 2a bf 89 1c d7 be 4b 03 06 3f b3 ca 12 3f
       -0.6641957 -0.42013958 0.52348775 0.57340544
000040 d3 7a ee be b0 6b e8 be a0 46 18 bf 30 10 a3 bd
       -0.46578082 -0.4539466 -0.59482765 -0.07962072
000050 1a 03 81 3e 05 7c 14 3f 92 ca 73 be ee aa 93 3e
       0.2519768 0.5800174 -0.23807743 0.28841347
000060 3e 5d 92 3e 26 35 bf 3e 5e 68 a0 3e 8f a6 33 3f
       0.28586763 0.37345237 0.31329626 0.70176023
000070 f0 ab 3d be 40 d2 07 3e c8 04 83 3d 68 78 8b be
       -0.1852262 0.13263798 0.06397396 -0.272403
000080 fb fc d0 be a0 f3 c9 bd 62 e0 fe 3e 0e 85 d5 3e
       -0.4081801 -0.09860921 0.49780566 0.41703075
000090 49 3e f1 be 6b 1f 01 3f fb 0f 1e 3f f4 e7 5f be
       -0.47117832 0.50438565 0.61743134 -0.21865827
0000a0 5f 54 18 3f df 8c aa be d4 ca 58 3e fe 9d bc 3e
       0.5950374 -0.333106 0.21171123 0.36839288
0000b0 86 70 e1 3e 40 60 33 be df 6e 06 bf 24 f9 83 be
       0.4403116 -0.17517185 -0.52512926 -0.25776017
0000c0 47 3f 12 bf 5b 22 2b 3f 00 d0 a6 bc a0 c3 1e bd
       -0.57127804 0.668493 -0.020362854 -0.03876078
0000d0 18 3e ac be 96 ff d4 3e 20 f1 86 3e b8 12 18 bf
       -0.33641124 0.41601247 0.2635584 -0.5940356
0000e0 74 a5 76 3e bc eb 29 bf 5e b5 a9 3e 08 3d 0d bf
       0.24086553 -0.6637533 0.33146185 -0.5517125
0000f0 50 ce 53 be 4a 5d a4 3e ec 48 3e 3e f9 4f 03 3f
       -0.2068417 0.32102424 0.18582505 0.51293904
000100 ad 07 06 bf db a1 0a 3f 33 ae 06 3f 3f 64 e3 be
       -0.5235546 0.5415322 0.52609557 -0.4441242
000110 87 92 1e 3f 78 5a f3 be c6 f4 c5 be 97 6e 28 3f
       0.61942333 -0.4752996 -0.3866331 0.65793747
000120 78 cf 84 3e 23 03 33 bf d9 4a 13 3f 6d 00 dc be
       0.25939536 -0.6992666 0.57536083 -0.42969075
000130 ae 03 a7 3e 83 3e 2f 3f dc b5 5e 3e 90 a6 21 bd
       0.32619995 0.6845476 0.21749061 -0.039465487
000140 38 a5 1a bf 29 95 99 be 62 f5 d5 3e fb 33 14 bf
       -0.60408354 -0.29996613 0.41788775 -0.57891816
000150 f7 d7 0c 3f 80 c3 af be 54 81 2d be 84 0e 07 3e
       0.55017036 -0.34328842 -0.16943866 0.13189131
000160 e1 12 27 bf 87 56 15 bf d6 5a 0d bf 09 e3 1c 3f
       -0.6526318 -0.58335155 -0.5521673 0.6128393
000170 f4 5b 5e 3e 1f 06 12 bf e0 0d 0b 3d 58 62 69 3e
       0.21714765 -0.5704059 0.03394878 0.22791421
000180 70 7b 59 3d ce 1b c4 3e 40 49 fb bc e0 e1 92 bc
       0.053096235 0.38302463 -0.030674577 -0.017929971
000190 a0 48 9c bd d2 9a aa 3e 30 73 6c 3e 17 e0 0c 3f
       -0.076310396 0.33321244 0.23090816 0.55029434
0001a0 9f f5 0f 3f 79 71 15 3f 28 24 fa 3d 28 22 48 3e
       0.56234163 0.5837627 0.122139275 0.1954428
0001b0 ee f4 6b be ce 0c 1f bf 20 9d f6 3c 58 62 13 bf
       -0.23042652 -0.62128913 0.03010422 -0.57571936
0001c0 98 55 d3 3d 5a 6d 88 3e 9c 22 33 be 0f 90 19 bf
       0.1031906 0.2664593 -0.17493671 -0.5998544
0001d0 ba 08 9e 3e 96 2f ed 3e 4a ac 10 bf da 72 f4 3e
       0.30866033 0.46325368 -0.5651289 0.47743875
0001e0 32 3f 2d bf 18 59 d9 3d e8 68 fc bd e7 f2 15 3f
       -0.67674553 0.106126964 -0.12324697 0.58573765
0001f0 18 df cd bd c5 27 31 bf 28 cd ba bd 29 23 0f 3f
       -0.100523174 -0.6920131 -0.09121162 0.55913025

bias f4 [64]
000000 6f 65 19 bf 89 5d 2d 3f d8 ae ec 3d e0 b6 46 be
       -0.599204 0.6772085 0.11556786 -0.19405699
000010 f4 e5 e1 be 0f a4 db be d8 b5 1a 3e e8 a5 42 be
       -0.44120753 -0.42898604 0.1510843 -0.190086
000020 d8 3a 43 3e 42 e6 eb 3e 39 52 09 bf 48 b5 bd 3d
       0.19065416 0.4607411 -0.53641087 0.09263092
000030 99 1e 31 bf 7d 3f dc be d8 05 d7 bd 4f 9e 2f 3f
       -0.69187313 -0.43017188 -0.104991615 0.68600935
000040 a9 cc 2c bf fb 05 0c 3f e8 de d6 bd 00 7e 87 3a
       -0.67499787 0.54696625 -0.10491735 0.0010337234
000050 8f 7b 80 be a0 4f f9 3d 0e da 8b 3e e8 0e 09 3e
       -0.25094268 0.121733904 0.273148 0.13384593
000060 86 97 fc 3e 28 75 0f 3e 00 ed 09 3e 3d 54 b6 be
       0.49334353 0.14009535 0.13469315 -0.35611144
000070 98 b8 7d 3e e4 cc 1b 3e c1 4b f3 be 7c f4 23 be
       0.24777448 0.15214878 -0.47518733 -0.16011232
000080 60 6b 87 3c ef 77 1a 3f b8 57 68 be 0a 09 5f be
       0.016530693 0.60339254 -0.22689712 -0.21780792
000090 be ab 8c 3e 2d 78 1b 3f b2 97 a1 3e d8 ca f1 bd
       0.2747478 0.6073025 0.31561047 -0.118062675
0000a0 60 37 1f bf 86 73 cd 3e 60 d8 7c 3d b2 1c b1 3e
       -0.6219387 0.401272 0.06172979 0.34592205
0000b0 10 bf 51 bd 72 e1 c8 be 1c 30 16 be e6 46 da 3e
       -0.051207602 -0.392345 -0.1466679 0.42632216
0000c0 0e b9 86 3e 6b 97 25 3f a4 e8 31 bf b8 03 6f be
       0.2631306 0.6468417 -0.69495606 -0.23341262
0000d0 2a 0b 11 bf ee 1c a0 3e 6d d9 a4 be 57 20 00 3f
       -0.5665766 0.31272072 -0.32197133 0.50049347
0000e0 6a 50 19 bf d0 d1 2a bf b5 c6 26 3f 36 22 18 bf
       -0.5988833 -0.667264 0.6514695 -0.594272
0000f0 9d dd 0e 3f 62 7a 5d be 8b fd 2b 3f ae ca b4 be
       0.55806905 -0.21628717 0.6718375 -0.35310882

weight f4 [64, 64]
000000 ce fa e2 3d 40 ea a0 bd 00 7e 4e 3d a8 92 cb 3c
       0.110829934 -0.0785718 0.05041313 0.024850205
000010 58 15 eb 3d 0c 54 fa 3d 82 4d f5 3d 80 48 4f bc
       0.1147868 0.12223062 0.11977674 -0.012651563
000020 2c 9a c9 bd 04 46 b4 3d 40 d8 d5 3d 00 13 f7 3b
       -0.09843859 0.08802417 0.10441637 0.007540107
000030 f6 d4 85 bd a4 d1 d1 bd 62 41 c6 3d 6c ea 36 3d
       -0.0653476 -0.10245064 0.096804395 0.044657156
000040 34 6f da bd 62 1b 83 bd 0c c6 c4 3d 6a 1e cb bd
       -0.106657416 -0.06401707 0.09608087 -0.099179104
000050 f6 3f e0 bd b8 ec d9 bc 30 02 df 3d a8 96 5e bd
       -0.109496996 -0.026602134 0.10889089 -0.054342896
000060 9c a6 1a 3d 30 dc 94 3d 10 9b ec bc a0 9f a0 3c
       0.037756547 0.0726856 -0.028882533 0.019607365
000070 08 ca 86 bd 60 ec f9 3b 16 9a d7 3d b4 68 08 bd
       -0.06581503 0.007627055 0.105274364 -0.033302978
000080 b4 8e 87 bd 9e 5d b6 3d 6c c9 3f bd a8 e0 b8 bc
       -0.06619015 0.08904575 -0.04682295 -0.022568062
000090 ec 77 8e bd c2 a8 fc 3d ac 39 ef 3d 00 80 bc 36
       -0.06956467 0.123368755 0.11680922 5.6177378e-06
0000a0 d0 03 43 bc ea 87 88 3d 26 f6 d0 3d 04 ad 0a bd
       -0.011902764 0.066665486 0.10203199 -0.033856407
0000b0 d0 6c cb 3c 7c 50 99 bd 08 8c b4 bd 2a 53 85 bd
       0.02483216 -0.07486054 -0.08815771 -0.06510003
0000c0 e0 6c d0 3d 1c 63 8d bd 54 12 99 bd 9c f7 94 bd
       0.10177016 -0.06903669 -0.07474199 -0.0727379
0000d0 b6 b5 94 bd 44 ea 84 bd d8 5d 18 bd 40 6c 4e bc
       -0.07261221 -0.06489995 -0.03719887 -0.012599051
0000e0 a0 4e 74 bd a4 8e 77 3d 70 92 4c bc 10 08 f1 bd
       -0.059645295 0.060438767 -0.012486085 -0.11769116
0000f0 4c ae e9 bd 64 e9 9e bd 60 63 15 bc c2 60 92 bd
       -0.114101976 -0.077593595 -0.009117931 -0.07147361
000100 12 aa 9a bd 82 75 cb 3d 70 07 f9 bc e6 9d 9b bd
       -0.075519696 0.09934522 -0.030399054 -0.07598476
000110 80 0b 72 3b 0a 88 a7 3d f0 42 e9 3d 0a 95 95 bd
       0.0036933124 0.08180244 0.113897204 -0.073038176
000120 7a c0 a9 3d 20 8c d1 3c a2 85 d2 3d d0 03 c0 bd
       0.08288665 0.025579512 0.10279395 -0.09375727
000130 e4 28 29 bd 98 f9 55 bd 24 25 3a 3d e0 81 bf 3c
       -0.041298762 -0.052239984 0.045445576 0.023377359
000140 a6 f7 97 3d d8 09 f2 3c a0 ff 53 3c 06 9d 96 3d
       0.07420282 0.02954571 0.012939364 0.073541686
000150 78 2b 64 3d 96 8d 85 3d e0 d0 3f bc 86 c9 c8 bd
       0.055705518 0.06521146 -0.0117075145 -0.098040625
000160 e4 66 90 bd f4 a4 90 bd a0 fe b4 3b 20 48 0e 3d
       -0.07050875 -0.07062712 0.0055235177 0.034736753
000170 10 fd 75 3d 44 55 64 3d 44 85 20 3d 1e ed f0 3d
       0.060055792 0.055745378 0.039189592 0.117639765
000180 5c d7 52 3d 96 2d ec 3d c8 44 87 bd 58 07 73 3d
       0.051474914 0.11532132 -0.06604916 0.059333175
000190 d8 fe 98 3d 92 12 87 bd 98 ca 80 bc 98 ec a2 3d
       0.074704826 -0.06595339 -0.015721604 0.07955283
0001a0 e0 57 8f 3d 40 02 ab bd 80 dd ad 3d 76 b6 a1 3d
       0.06999183 -0.083500385 0.084895134 0.0789613
0001b0 00 63 3b 3d 96 76 80 3d 52 64 e9 bd 08 9f f4 bc
       0.04574871 0.062726185 -0.11396088 -0.029860988
0001c0 0c d4 3e 3d c6 d5 ab bd 2c 61 c7 3d e0 9e 7c 3c
       0.046588942 -0.083903834 0.09735331 0.015418738
0001d0 c4 69 68 3d ae 28 8c bd 80 83 57 3d 4a 9b da 3d
       0.05674149 -0.068436965 0.052615643 0.1067415
0001e0 00 96 ff 3b 78 a8 31 3d 50 87 87 3d 1a c4 9f bd
       0.007799864 0.043373555 0.06617606 -0.07801075
0001f0 40 12 fd bd a8 52 ff bd 0e e9 c2 3d 0e 63 d0 bd
       -0.123569965 -0.12466937 0.09517108 -0.10175143
000200 20 9f 7a bc a4 a9 47 3d 54 3b b0 3d c8 7d 2b bd
       -0.015296727 0.048745766 0.08605066 -0.041868
000210 d8 62 31 3d 34 e3 fa bd 34 87 41 3d e0 eb fb 3d
       0.043307155 -0.12250367 0.04724808 0.12300849
000220 00 03 09 bc 00 be 12 ba b0 03 73 3c 30 51 6a 3d
       -0.008362532 -0.000559777 0.014832422 0.057206333
000230 e6 8b 98 3d 2a 3f 82 bd d4 27 94 3d 60 20 cc 3c
       0.074485585 -0.06359704 0.07234159 0.024917781
000240 b4 59 ad 3d 48 3c 8e bc 06 d6 bc 3d e4 4a 7a bd
       0.08464375 -0.017362729 0.09220509 -0.061106578
000250 1a 90 b4 bd e2 99 ec bd 48 22 a0 bd b0 8b 72 3c
       -0.08816548 -0.11552788 -0.07819039 0.014803812
000260 e0 33 af bd b0 93 f2 bc 98 fd d9 bc 9c f2 8c 3d
       -0.08554816 -0.029611439 -0.02661018 0.068822116
000270 ea 68 a5 bd 20 78 f1 3d fe 23 85 3d e0 9f b4 bd
       -0.080766514 0.1179049 0.065010056 -0.08819556
000280 72 b9 e9 bd f2 cc 9a 3d d8 ff e8 bc d8 cc ae 3c
       -0.11412324 0.075586215 -0.028442308 0.021337911
000290 90 e6 37 3d 38 9b 1f 3d 64 bb 4f bd c4 8a b2 3d
       0.044897616 0.038966388 -0.05071582 0.08717874
0002a0 e2 8e ec 3d 30 3f e8 bd 84 3b d1 bd 08 f7 93 3d
       0.1155069 -0.11340177 -0.1021643 0.07224852
0002b0 aa 94 86 bd 80 4f a1 3d e0 fa fd 3c 34 6a b0 bd
       -0.06571324 0.078764915 0.031003416 -0.08614007
0002c0 30 8d 8f bd 24 00 25 bd 0c 4e d1 3d a0 71 b4 3b
       -0.07009351 -0.040283337 0.102199644 0.005506709
0002d0 70 22 bf bc 78 69 be 3d ce e2 e5 3d 54 0b 85 3d
       -0.02333185 0.0929746 0.112249 0.06496301
0002e0 34 da 50 bd 00 75 5e 3a 84 76 7e bd 8c 83 b7 bd
       -0.050989345 0.0008486062 -0.062124744 -0.089606375
0002f0 30 91 98 3c d2 e0 ff 3d 9c c8 82 bd 40 c5 89 3d
       0.018623918 0.12494053 -0.063859195 0.067270756
000300 80 0b ad bb bc fc f9 bd 78 59 c2 3c 60 6c 43 bd
       -0.005280912 -0.122064084 0.023724303 -0.047710776
000310 0e 84 b4 3d 30 72 56 3c 96 43 93 3d d8 63 ce bd
       0.0881425 0.013088748 0.07190625 -0.100776374
000320 50 84 90 bd 46 20 9f 3d 64 50 21 bd 48 d4 75 bd
       -0.070564866 0.077698275 -0.039383307 -0.0600169
000330 10 f3 4b 3c 50 d2 ed 3d 36 08 8c bd dc 17 2b bd
       0.012448087 0.116123796 -0.068375036 -0.0417708
000340 7c cb b7 bd 32 7f d3 3d 24 f4 ce 3d 70 56 42 3d
       -0.089743584 0.10326995 0.1010516 0.047445714
000350 b6 c2 c0 3d 30 20 9b bc 40 52 4a bc 58 a0 89 3c
       0.09412138 -0.018936247 -0.0123487115 0.01680009
000360 58 ee 9c bc 78 14 f1 bd 9c ea bd 3d 40 b5 ba 3b
       -0.01915662 -0.11771482 0.09273264 0.005697876
000370 60 2a ad bc d8 38 b4 3c c8 56 ec 3d 00 96 19 bb
       -0.02113837 0.021999761 0.1153999 -0.0023435354
000380 7c 41 60 3d c0 c1 09 3c 54 d1 86 3d 90 ec ac bc
       0.05474995 0.00840801 0.06582895 -0.021108896
000390 28 2a 06 bd fa 6c 98 3d 80 de f4 ba 78 da ba 3c
       -0.032755047 0.07442661 -0.0018682033 0.022809252
0003a0 80 e9 26 bd b8 06 96 3c fc 1b 7c bd 4c 37 2e bd
       -0.040750027 0.01831375 -0.061550125 -0.042533204
0003b0 a8 38 97 bd 38 80 b5 bc f0 d7 d0 3d e0 69 a8 bd
       -0.07383853 -0.022155866 0.10197437 -0.08223319
0003c0 fc 55 71 3d e6 11 de bd 54 fe d3 3d 48 ef c0 bc
       0.05891989 -0.108432576 0.103512436 -0.023551598
0003d0 80 bd e0 3c e8 ae ac 3c 8a 6b fc bd 06 ce 9e 3d
       0.02743411 0.021079496 -0.12325199 0.077541396
0003e0 66 27 91 3d a4 fa db bd ce c4 f1 bd c8 5b 85 bd
       0.07087593 -0.10741165 -0.11805116 -0.065116465
0003f0 40 02 64 bc 18 6f a4 bd ee af aa bd e8 6b d9 bc
       -0.013916552 -0.08029002 -0.08334337 -0.026540712

bias f4 [64]
000000 80 43 58 3d 00 d6 f6 bb 22 fd ec bd d4 de 30 bd
       0.052798748 -0.007532835 -0.11571719 -0.043181255
000010 9c 5a 6d 3d 44 a1 61 bd 72 36 fe 3d f8 27 29 bd
       0.05794774 -0.055085436 0.12412728 -0.041297883
000020 ce 79 89 3d 80 41 55 bb fc c2 b8 3d 2a 27 93 bd
       0.067126855 -0.0032540262 0.09021565 -0.07185204
000030 f0 2e 36 3d 32 a4 cc 3d 9c 43 b6 bd ec 1f 0c bd
       0.044478357 0.09992255 -0.08899614 -0.03421013
000040 00 9c 7b 3d a6 60 e3 bd 10 b5 cb 3c 58 8f ad 3c
       0.06142807 -0.111024186 0.02486661 0.021186516
000050 20 c7 b3 3b 58 b4 c8 3c b4 a6 88 bd 18 20 fb bc
       0.005486384 0.024500057 -0.06672421 -0.030654952
000060 10 0a f5 3d 88 1a 02 bd c0 75 a1 bd 02 28 f9 3d
       0.1196481 -0.031763583 -0.07883787 0.12165834
000070 80 42 2c 3b 04 0b 58 bd 18 7f aa 3c 48 da c8 3d
       0.0026284754 -0.05274488 0.020812556 0.09807259
000080 f2 3b f7 3d 02 e1 d7 3d 3c ed e0 3d f2 a1 d7 bd
       0.120719805 0.10540964 0.10982749 -0.105289355
000090 84 e5 25 3d 68 50 37 bd 20 db 95 3b 46 c9 d7 bd
       0.040502086 -0.044754416 0.004573241 -0.10536437
0000a0 b2 16 b8 3d 6a 2f af bd 54 cc f4 bd 7e 2a f2 bd
       0.08988704 -0.085539654 -0.11953035 -0.11824511
0000b0 b0 66 08 bd 72 32 9a 3d f8 c2 c4 3c 90 6f 43 bd
       -0.033301055 0.07529153 0.02401875 -0.047713816
0000c0 b6 a5 97 3d 2a 4e ab bd 22 d2 c6 bd 40 e0 88 bb
       0.07404654 -0.08364518 -0.097080484 -0.0041771233
0000d0 60 e5 2d bc e4 ca 72 3d 00 20 fc bc f8 63 15 bd
       -0.010613769 0.059275523 -0.030776978 -0.03647229
0000e0 fe c4 be 3d ca 67 8a bd c0 07 eb 3c 90 d2 b2 bd
       0.09314917 -0.067580774 0.028690219 -0.08731568
0000f0 c8 1d ab 3d 68 c0 6c 3d 76 bd 85 bd a0 13 7c 3c
       0.0835529 0.05780068 -0.065302774 0.015385538

weight f4 [10, 64]
000000 c8 89 d8 3d 58 81 5b bd c8 1e bd 3d 76 d4 9e 3d
       0.10573155 -0.05359015 0.09234387 0.077553675
000010 ac b7 2a 3d 10 97 6f bc c6 6b 82 3d 82 18 a6 bd
       0.04167907 -0.014623418 0.063682124 -0.08110143
000020 c2 5e 9c bd cc ff 38 bd 40 53 bf bd be fd df bd
       -0.07635261 -0.045165822 -0.093420506 -0.10937069
000030 6c c6 2f 3d 7c c7 48 3d ec 4c c7 bd c2 2b 8f bd
       0.04291384 0.049018368 -0.097314686 -0.06990768
000040 7a 97 c8 3d 2c 63 45 3d bc 86 46 bd 3a 3a cb bd
       0.09794517 0.04819028 -0.048468336 -0.09923215
000050 9c 5b 52 bd d8 97 f3 bd 28 d3 4b bd 70 b8 87 bc
       -0.051356897 -0.11894196 -0.04976192 -0.016567439
000060 3c 5d 7e bd 60 2c 15 bd de 41 82 3d 88 f1 9a 3c
       -0.062100634 -0.036419272 0.063602194 0.018914
000070 f8 48 bc bd 46 15 c7 3d d2 f9 c5 bd b2 30 fe bd
       -0.09193605 0.097208545 -0.0966679 -0.12411632
000080 8e a7 f0 3d 28 5b d3 bc 46 e2 a0 bd 84 2d b8 3d
       0.117507085 -0.025800303 -0.07855658 0.089930564
000090 c8 3e e3 bd a6 dd a6 3d 22 a9 f5 3d 40 d7 cd bb
       -0.11095959 0.08147745 0.1199515 -0.0062817633
0000a0 72 47 cf bd c0 b3 bc bd 1c a5 f7 bd 18 85 ae bc
       -0.10121049 -0.09213972 -0.12092039 -0.021303698
0000b0 04 eb 05 3d 48 b9 d7 bc 24 27 30 bd 6a 2f ee bd
       0.03269483 -0.026333466 -0.043006077 -0.11630137
0000c0 32 f2 b9 3d 54 3a 26 bd ec 34 2d bd c6 49 e5 bd
       0.09079398 -0.04058297 -0.0422868 -0.11195712
0000d0 fe 7d d5 bd 00 a2 11 3b d8 82 dc bc a8 2b 3d 3d
       -0.10424422 0.0022221804 -0.02691786 0.046184212
0000e0 44 5a a4 bd 00 a7 5c 3c a8 ad ac 3c e0 96 ba 3b
       -0.08025029 0.01346755 0.0210789 0.005694255
0000f0 72 9e b6 3d 2e db e6 3d 0a 95 9a bd 8c db d7 bd
       0.0891694 0.11272274 -0.07547958 -0.10539922
000100 3c 6e b3 bd d0 fb fb bd 7c 44 e8 bd 2c 5c 12 3d
       -0.0876126 -0.12303889 -0.11341187 0.035732433
000110 b4 7b 24 bd 62 b0 c4 bd 8c fe c6 3d 00 55 eb ba
       -0.040157035 -0.09603955 0.0971652 -0.0017954409
000120 80 71 0e 3c 70 de 1f bd ba ec b3 3d 14 e0 05 3d
       0.008694053 -0.039030492 0.087853864 0.0326844
000130 0e 82 fe 3d e0 d6 97 bd c0 e8 05 3d b8 21 e7 3d
       0.1242715 -0.07414031 0.03269267 0.11285728
000140 d8 4f df 3c 82 cd f0 3d d6 0e 81 bd 5e 5a c6 3d
       0.027259752 0.117579475 -0.06301658 0.09685205
000150 10 4c 01 3d 78 fe 6a 3d f0 72 c2 3c 00 52 b4 ba
       0.03156668 0.057371587 0.023736447 -0.0013757348
000160 8c b7 04 3d 38 b6 e5 bd 90 ce b8 3d 10 83 e2 bd
       0.032401606 -0.11216396 0.09023774 -0.110601544
000170 e0 a8 a7 bc 80 4d f7 3b 46 5a c3 3d 02 66 d0 3d
       -0.020466268 0.0075470805 0.09538703 0.101757064
000180 20 a3 c4 3b 14 2e 8c 3d a8 3e bf 3c ca 04 88 3d
       0.0060008913 0.06844726 0.023345307 0.066415384
000190 96 4e fb bd bc 43 3d bd 76 3c cb 3d aa a5 fe bd
       -0.122708485 -0.046207175 0.099236414 -0.12433942
0001a0 ca c6 fe 3d f0 4c 2e 3c bc b7 c8 bd 24 8e c2 3d
       0.1244026 0.0106384605 -0.098006696 0.094997674
0001b0 70 b5 a8 3c 18 9d c5 bd e8 b9 8d bc 8e 0a 99 bd
       0.020594329 -0.09649104 -0.017300561 -0.07472716
0001c0 08 36 e7 bd c2 30 9f bd c8 d1 8e 3d 40 d2 eb bd
       -0.112896025 -0.07772972 0.06973606 -0.115147114
0001d0 de f0 fa bd a2 79 e4 3d d2 7e c2 3d 5c 02 fd 3d
       -0.12252973 0.11156012 0.09496845 0.12353966
0001e0 00 0e ab 3a 84 03 f7 bd 18 aa 63 3d 10 02 85 3d
       0.0013050437 -0.120612174 0.055582136 0.06494534
0001f0 ea 22 8c bd 16 e9 94 3d d6 10 e8 bd 28 49 c7 3d
       -0.06842597 0.0727102 -0.11331336 0.0973075
000200 cc cc 44 bd 30 40 37 3c 80 4d f8 bd f6 ec fd 3d
       -0.048046872 0.011184737 -0.12124157 0.12398712
000210 f8 37 d4 bd e2 2d e4 3d 2c 54 65 3d 00 20 c2 3b
       -0.10362238 0.11141564 0.055988476 0.005924225
000220 00 e9 5f 3b f4 00 97 3d a0 bb 9e 3b e4 a2 16 3d
       0.0034165978 0.07373229 0.004844144 0.03677644
000230 58 f7 93 bd f6 30 e6 bd 00 e0 61 3a b0 18 cc bd
       -0.072249115 -0.11239807 0.00086164474 -0.09965646
000240 9a 3c fd 3d 18 31 f6 3d d4 93 fd bd 60 12 bc 3d
       0.123650745 0.12021083 -0.123817116 0.09183192
000250 90 84 28 3c 28 6c 1b bd f6 1e f6 bd a0 16 60 3d
       0.010285512 -0.037944943 -0.12017624 0.054709077
000260 b2 04 ae bd c4 b2 f8 3d f8 37 cd bd 00 27 5a 3b
       -0.08496989 0.12143472 -0.10020441 0.0033287406
000270 dc 36 03 bd c4 4d ad 3d 0c 09 7f bd e8 07 2d bd
       -0.03203474 0.08462098 -0.062264487 -0.042243868
000280 32 70 fc bd 54 21 20 3d 24 5b c9 bd 3e dd d0 bd
       -0.12326087 0.039094284 -0.09831837 -0.101984486
000290 b0 93 e0 3d 74 ce 90 bd dc f8 5a 3d 40 aa c2 bc
       0.10965669 -0.07070628 0.053459987 -0.023762822
0002a0 44 18 3e bd 2a b6 f1 bd 00 ef 6b 3c fc e4 c9 3d
       -0.04640986 -0.11802323 0.014400244 0.098581284
0002b0 b2 43 c8 3d 8e 29 df 3d f8 36 22 3d a8 34 e8 bd
       0.09778537 0.10896598 0.039603204 -0.113381684
0002c0 10 1b 8f 3d 3a d0 85 3d c0 ad cb bb 18 bd 1c bd
       0.06987584 0.06533857 -0.006215781 -0.03826627
0002d0 76 e2 f8 3d 50 95 28 3d 08 cf d3 3d 50 0b b4 3c
       0.12152569 0.04115802 0.103422225 0.02197805
0002e0 0c 32 da 3d 34 ea 6d bd 10 a3 c7 3c 94 58 f8 3d
       0.10654077 -0.05808468 0.024369746 0.1212627
0002f0 08 4d 24 bd f8 17 bb bd 44 bc 1f bd e8 5b ce bc
       -0.040112525 -0.09135431 -0.038997903 -0.025190309
000300 40 73 37 bd 9a 83 f9 bd 28 92 06 3d 80 51 cc 3b
       -0.044787645 -0.12183304 0.03285423 0.0062353015
000310 aa 9a 90 3d 82 80 a0 3d 4c a5 a8 bd f8 72 56 bd
       0.0706075 0.07837011 -0.08234653 -0.052355736
000320 50 54 15 3c 9c 18 bd 3d 1e 56 b1 3d 80 17 0a bb
       0.00911434 0.092332095 0.08659004 -0.0021071136
000330 40 55 b6 bb d8 25 fc 3d 00 e0 05 bb 18 8c 87 3d
       -0.005564362 0.123119056 -0.0020427704 0.06618518
000340 80 76 9e 3c 9c dc 56 3d 3c b8 c0 bd 7c 6f 2b 3d
       0.019343615 0.052456483 -0.0941014 0.041854367
000350 88 c2 86 bc d8 08 33 3d 00 40 71 37 a6 60 83 bd
       -0.016450182 0.043709606 1.4379621e-05 -0.064149186
000360 b0 4a 9f 3d 6c b9 26 bd 6e 3c 8e 3d a0 a0 ad 3d
       0.077779174 -0.040704176 0.0694512 0.084779024
000370 ea b7 a1 bd 58 81 ef 3d 50 4c 8e bc 3c 68 2c 3d
       -0.07896407 0.11694592 -0.017370373 0.042091593
000380 42 0f 86 bd b8 78 b8 bc e8 b8 fc bd e0 3a db bc
       -0.06545879 -0.0225185 -0.123399556 -0.026761472
000390 38 3d b6 3d a4 f2 fa 3d c2 45 a1 bd 84 ed ea bd
       0.08898395 0.12253311 -0.07874633 -0.11471084
0003a0 c0 80 81 bd b4 e5 6a bd da 8d 9b bd f4 d3 ec 3d
       -0.06323385 -0.05734797 -0.075954154 0.11563864
0003b0 fa 33 e2 3d 68 d0 a8 3c 4e 0d a7 bd f4 78 54 bd
       0.1104507 0.020607188 -0.081568345 -0.051873162
0003c0 20 71 70 3d 00 1e 46 bd 7e cd d8 3d e6 c3 9a 3d
       0.058701634 -0.048368454 0.105860695 0.07556896
0003d0 00 89 f0 3b 44 32 fe bd 90 ba 40 3c 00 f7 72 3c
       0.0073405504 -0.12411931 0.01176323 0.014829397
0003e0 7e ec a5 bd 00 04 a0 3c ec 48 28 bd 00 b3 ae bb
       -0.08101748 0.019533157 -0.04108517 -0.005331397
0003f0 14 27 5a bd d2 34 9a 3d ba a6 85 bd 28 76 24 3d
       -0.053259924 0.07529606 -0.06525941 0.040151745

bias f4 [10]
000000 14 e5 e2 3d 50 1f 48 3d 0c 23 81 3d ba 3d 85 bd
       0.110788494 0.048857987 0.06305513 -0.06505914
000010 9c 94 87 3d f0 02 fd bc 44 e0 89 3d 78 e7 9a 3d
       0.06620142 -0.03088519 0.067322284 0.075636804
000020 ba c7 e0 bd a0 c7 45 3d
       -0.10975595 0.04828608

weight f4 [2, 64]
000000 e0 5d aa bc 48 f2 2b bd 44 1b 98 3d 92 db a2 bd
       -0.020796716 -0.041979104 0.074270755 -0.07952036
000010 c8 3d 08 bd cc 24 d1 bd b0 01 30 3d e8 a1 37 bd
       -0.033262044 -0.102120966 0.04297036 -0.04483214
000020 58 ce 67 bd 58 13 8d 3c 24 83 96 3d 66 dc e1 bd
       -0.05659327 0.017221138 0.07349232 -0.11028366
000030 1c ce 85 bd 40 ec 12 bb d8 ac e7 3c 2c bb d5 3d
       -0.06533453 -0.0022418648 0.02828066 0.10436091
000040 82 b3 f4 3d 00 68 97 3b 18 88 eb bc d4 cb a5 3d
       0.11948301 0.004620552 -0.028751418 0.08095518
000050 8e ef 8b bd 48 62 d4 bc 40 e9 97 bb 78 5c ec bd
       -0.06832801 -0.02592577 -0.00463596 -0.115410745
000060 64 82 6d 3d 40 96 4e 3d da e8 e5 3d e0 10 1c 3c
       0.05798568 0.05043626 0.112260535 0.009525508
000070 a8 4c e6 bd 08 26 2d bd 04 65 bf 3d a8 1b 19 3d
       -0.1124509 -0.042272598 0.09345439 0.03737989
000080 94 f6 b0 3d 70 1f 09 bc 48 b9 1e 3d 88 2b f6 3c
       0.08640781 -0.008369312 0.038750917 0.030050054
000090 28 a2 df 3d b4 e0 a6 3d 3a 6d ed bd 20 40 39 bc
       0.10919601 0.081483275 -0.11593099 -0.0113067925
0000a0 f8 bc d1 bd 46 40 eb bd ae 32 e9 3d ae d5 fe bd
       -0.10241121 -0.114868686 0.113866195 -0.124431
0000b0 1a 0f b3 3d 4c e0 ea 3d 90 dd 33 3c c0 f6 ed bc
       0.08743115 0.114685625 0.010978118 -0.029048324
0000c0 e0 dd 00 bc e0 ab b6 3b b8 f7 03 3d ec d9 ce 3d
       -0.007865399 0.0055746883 0.032218665 0.10100159
0000d0 56 89 bb bd 58 dd ed bd 1a cc f9 3d 14 46 e2 3d
       -0.09157054 -0.116144836 0.121971324 0.110485226
0000e0 48 12 ec 3c f0 f2 53 3d aa f3 f1 3d a6 1e b6 3d
       0.02881731 0.051745355 0.11814053 0.088925645
0000f0 8c 83 71 bd ce 58 c9 3d 4a 41 f5 bd d0 23 75 3d
       -0.058963344 0.09831391 -0.119753435 0.059848607
000100 94 0d bc bd 14 0c a0 bd 90 ad d2 bd e6 08 e0 3d
       -0.09182277 -0.07814804 -0.10287011 0.10939197
000110 48 bb 8c 3d 00 20 d1 bd 50 04 fe 3d e0 34 d1 bb
       0.068716586 -0.10211182 0.12403166 -0.006384477
000120 f8 8a b6 3c e0 fa 05 3c 20 64 89 bc 50 15 1d bd
       0.022283062 0.008177489 -0.016771376 -0.038350403
000130 c0 a3 d9 3b e2 73 fd 3d 8c 17 e8 3d 58 b4 bb 3d
       0.006641835 0.123756185 0.11332616 0.09165257
000140 f0 49 1e bc 54 47 77 3d 4e a3 a1 3d 08 87 05 bd
       -0.009661183 0.06037076 0.07892476 -0.03259948
000150 c8 72 87 bc ee fc eb bd 10 19 be bc d2 e8 f3 3d
       -0.016534224 -0.11522852 -0.02320531 0.11909641
000160 a0 47 2b bc 44 8c 0d bd 18 9f 97 bd 14 ca 0f 3d
       -0.010454088 -0.034557596 -0.074033916 0.035104826
000170 b0 81 71 bd 90 40 f9 3c c0 29 31 bc a0 27 41 bc
       -0.05896157 0.030426294 -0.010813177 -0.0117892325
000180 e2 e7 a6 3d 24 76 fc 3d a0 70 02 3c ca 5b d9 3d
       0.08149697 0.12327221 0.007961422 0.106132105
000190 d4 96 d0 bd e4 08 87 3d 10 3c 80 3d c0 c7 9e bd
       -0.10185018 0.065934926 0.06261456 -0.07752943
0001a0 c0 58 ff bd b4 02 4f 3d d8 3a f6 bc 5a 67 86 bd
       -0.124680996 0.050539687 -0.030057356 -0.065626815
0001b0 b0 91 5e bc b0 eb af 3c 30 fc c9 3d 72 8a f8 3d
       -0.013584539 0.02147469 0.09862554 0.12135781
0001c0 20 99 f6 3b bc 02 5e 3d 58 b8 b9 3c 50 5d 94 bd
       0.007525578 0.054201826 0.02267091 -0.072443604
0001d0 c8 6a 87 3c d0 72 f1 bc e8 ca a8 3d 3e eb ad 3d
       0.01653041 -0.029473692 0.08241826 0.084921345
0001e0 80 32 58 bc 66 99 91 bd d8 91 19 3d a0 a6 5d 3d
       -0.013195634 -0.071093366 0.037492603 0.054113984
0001f0 3e 49 fe bd 40 2a 25 bc c8 f8 62 bd f0 46 c5 3c
       -0.124163136 -0.010080874 -0.055413038 0.024081677

bias f4 [2]
000000 a6 71 be 3d ec ec 92 3d
       0.092990205 0.071740955

weight f4 [64, 30]
000000 e4 44 8e bd 70 3b 96 bc e0 3f d9 bd 78 37 df 3d
       -0.069467336 -0.018338889 -0.10607886 0.10899252
000010 26 5f 15 3e 5e 1a 38 be 40 8c cd bb c1 e4 cc bd
       0.14587077 -0.17978808 -0.0062728226 -0.10004569
000020 b7 41 0b be f8 8f ce 3c f1 82 95 bd 0c ae 29 bd
       -0.13599287 0.025215134 -0.07300366 -0.04142575
000030 26 7b 9c bd 86 85 09 be bc cd 3e bd 64 3c 31 3e
       -0.07640676 -0.13429841 -0.046582922 0.17308193
000040 c0 4a c0 3d 52 59 27 3e 98 e0 c0 bd e3 d0 07 be
       0.093892574 0.16342667 -0.09417838 -0.13263278
000050 ba 7b 81 3d b0 53 85 3d c8 25 22 3e 68 51 0b bd
       0.06322427 0.06510103 0.15834725 -0.034013182
000060 80 e5 d2 ba 94 5b 7c 3d 78 3a 63 3d 70 72 14 3c
       -0.0016090125 0.061610773 0.055475682 0.009060487
000070 b8 9d 07 3d ea 18 38 3e 87 0a 03 be 12 59 38 be
       0.033109397 0.17978254 -0.12796985 -0.18002728
000080 10 2f 21 be b4 b5 0a be 53 4f 3a be 78 78 77 3d
       -0.15740609 -0.13545877 -0.18194322 0.060417622
000090 04 82 57 bd 21 62 f5 bd cc 49 6e bd 88 d5 30 be
       -0.052614227 -0.11981607 -0.058175847 -0.17268956
0000a0 1c ba df 3d 44 01 96 3d 20 9d 3e bc 79 9d 31 be
       0.109241694 0.0732446 -0.011634141 -0.17345227
0000b0 e8 2d d3 bd de aa 15 3e 9c 20 00 be 6e aa 22 3e
       -0.1031149 0.14615962 -0.1251244 0.15885326
0000c0 44 62 cf 3d 22 4d 14 be 36 59 05 3e ed aa bf bd
       0.101261646 -0.14482549 0.13022313 -0.093587734
0000d0 44 a3 1a 3e 58 db 9d bc a9 34 c1 bd c4 a9 e8 3d
       0.15101343 -0.01926963 -0.09433872 0.11360505
0000e0 e0 8a db bb 2a b7 e1 bd 76 f3 0e 3e 38 ab f1 3c
       -0.006699905 -0.11021264 0.1396006 0.029500589
0000f0 78 22 e0 3d 40 e8 65 3d 23 39 e9 bd bc dc 14 bd
       0.109440744 0.056129694 -0.11387851 -0.03634332
000100 3a e3 00 3e 8f 55 39 be 53 f7 32 be 80 51 0e 3d
       0.1258668 -0.18099044 -0.17477159 0.034745693
000110 5c 3a 23 3e 36 28 21 3e 34 f0 1e 3d 5c 1d f0 3d
       0.15940231 0.15737996 0.038803294 0.1172435
000120 d7 cb 32 be 30 b2 e1 3d 36 b1 bb bd 0e 55 32 be
       -0.17460571 0.11020315 -0.0916466 -0.17415258
000130 e8 4b 39 be 1c 05 e6 3d c0 42 02 3e 18 43 15 3e
       -0.18095362 0.11231443 0.12720776 0.14576375
000140 a0 c0 d7 3d e0 e3 30 be fa a6 27 3e 50 d6 ac 3c
       0.10534787 -0.17274427 0.1637229 0.021098286
000150 83 d1 0f be a4 c5 10 be f6 39 1f 3e a2 78 89 3d
       -0.14044766 -0.14137894 0.15549454 0.06712462
000160 f3 36 84 bd 20 a2 57 bd 0c d3 a6 3d 64 12 94 3d
       -0.06455793 -0.05264485 0.08145723 0.0723007
000170 25 56 2a be 64 ce 2c bd 78 0a 37 3d 65 56 07 be
       -0.16634424 -0.042189017 0.04468772 -0.1321655
000180 c8 90 8c 3c c6 c7 8e bd e4 5c ae 3d f7 ca 09 be
       0.01715888 -0.069716975 0.08513811 -0.13456331
000190 c1 24 9f bd 0c 62 64 bd 6c 36 5e 3d b0 3d 73 3c
       -0.07770682 -0.055757567 0.05425112 0.01484625
0001a0 b8 18 fd 3d 50 12 47 3c 7c 54 35 be 4d 69 e5 bd
       0.1235823 0.012150362 -0.1770801 -0.11201725
0001b0 34 52 be 3d 00 07 5a bd bc 6e b3 3d 0a fb 36 be
       0.09293023 -0.053229332 0.08761355 -0.17869201
0001c0 a4 a5 23 3e 80 b0 60 3d d0 c6 a5 3c 7c 28 8a 3d
       0.15981156 0.054855824 0.020236403 0.06746003
0001d0 60 5e f0 3d 3c 8d 94 3d 90 6a a4 bc 52 67 ab bd
       0.117367506 0.07253501 -0.020070344 -0.08369316
0001e0 70 e0 e8 3d 2c 63 20 3d f8 09 a9 3c 34 8f d6 bd
       0.11370933 0.039157078 0.020634636 -0.104765326
0001f0 10 61 ff bd 3c 26 8f 3d 80 c5 39 bd d0 79 17 3e
       -0.12469685 0.069897145 -0.045354366 0.14792562
000200 78 38 f5 3d 14 fd 14 bd 48 c7 00 bd a0 ee fe 3d
       0.11973661 -0.036374167 -0.03144005 0.12447858
000210 3a 05 fe bd 7c 5c 08 bd 38 70 e3 3d 6e 13 32 3e
       -0.12403341 -0.033291325 0.111053884 0.17390224
000220 68 eb 3e 3d 1d a6 33 be 1c b9 8d 3d af 6a 07 be
       0.04661122 -0.17543836 0.069200724 -0.1322429
000230 e8 a6 3f bd f0 fb 48 3c d8 af 95 3c 9e 66 35 3e
       -0.046790034 0.012267098 0.018272325 0.17714927
000240 3c ae fa bd 18 57 29 bd 6d f4 20 be 57 ba d4 bd
       -0.12240264 -0.041342825 -0.15718241 -0.10387104
000250 d2 35 8c bd c0 60 a1 bb a8 c1 96 3c b4 13 0d 3e
       -0.06846203 -0.0049248636 0.01840289 0.13777047
000260 a0 a6 8f bc f8 41 cd bd 24 b3 fc 3d 68 52 a7 3d
       -0.017535508 -0.10022348 0.12338856 0.081700146
000270 58 38 ff 3d 46 de 17 3e 3c 9b 16 3d 84 6f 05 be
       0.124619186 0.14830884 0.036769137 -0.13030821
000280 80 b4 00 bd 18 38 e0 3c b2 4b 11 3e b0 e8 5d bd
       -0.03142214 0.027370498 0.14189032 -0.054176986
000290 00 9c fe 3d ac 22 c1 3d c4 0b c1 3d 06 48 17 be
       0.124320984 0.09430441 0.09426072 -0.14773569
0002a0 7a e2 ee bd c0 ba 1f 3e 0f 62 27 be 80 10 22 3d
       -0.11664291 0.15598583 -0.16346 0.039566517
0002b0 c8 00 20 be d9 67 2c be ee a2 0c 3e 32 c4 04 3e
       -0.15625298 -0.1683649 0.13734028 0.12965468
0002c0 f4 d5 1b 3e 59 ac 27 be 59 44 ef bd a0 dc c7 3c
       0.15218335 -0.16374339 -0.11682958 0.024397194
0002d0 4b ca 1f be 11 44 0d be fe 61 02 3e a0 55 b0 3d
       -0.15604512 -0.13795497 0.12732694 0.08610082
0002e0 98 8a a8 3d 00 47 51 ba 2c 6b 5f 3d 54 c4 01 3e
       0.0822956 -0.0007983297 0.054545566 0.1267255
0002f0 9c ed 3a bd e4 bf 81 bd a0 14 3c 3c 50 14 95 bc
       -0.04563676 -0.06335428 0.011479527 -0.018198162
000300 70 2b 93 3d 06 c6 85 3d a8 2e e8 3d f4 71 19 3d
       0.071860194 0.065319106 0.11337024 0.03746219
000310 a0 75 d1 bd 40 90 f2 bc 48 38 ff 3c df d0 08 be
       -0.10227513 -0.0296098 0.031154767 -0.13360928
000320 78 1c 31 3d 1c 40 b1 3d 8a 66 17 3e 00 45 d3 bc
       0.04324004 0.08654806 0.1478521 -0.025789738
000330 50 e4 d4 bc c0 74 ca bd e6 8d 07 3e 28 a2 cf bd
       -0.025987774 -0.098855495 0.13237724 -0.10138351
000340 cc 6a 1b 3d 88 76 47 3d b2 3f 2c 3e 2c 49 23 3e
       0.037943646 0.048697025 0.16821173 0.15945882
000350 34 3c b4 3d b0 f4 e6 bd 92 03 04 be 8a b1 30 be
       0.08800545 -0.11277139 -0.12891987 -0.17255226
000360 30 fb e1 3d 6e 19 8c bd d8 6e 3e bd b3 60 2e be
       0.11034238 -0.06840788 -0.046492428 -0.17029075
000370 38 3b b7 bc 68 89 06 bd c3 ac 1f be 2e c9 88 bd
       -0.022367105 -0.032845885 -0.15593247 -0.06678997
000380 56 0d 12 3e 28 a5 19 3e 68 8a 6b 3d 20 84 1c 3d
       0.142629 0.15004408 0.05750504 0.03821194
000390 3a aa ad bd 38 50 2f 3e 60 ec 7c 3c c4 30 c6 3d
       -0.08479734 0.17120445 0.015437216 0.0967727
0003a0 74 84 e7 3d c0 91 31 bd c1 95 19 be b0 e4 d8 bd
       0.1130456 -0.04335189 -0.14998533 -0.10590494
0003b0 cc 5f fa 3d 76 fd 0e 3e 59 e5 14 be 3c bd cb 3d
       0.12225303 0.13963875 -0.14540614 0.09948203
0003c0 e0 fb db bb 85 ca ad bd 5f 8e 36 be d0 ef 40 bd
       -0.0067133754 -0.08485893 -0.17827748 -0.047103703
0003d0 f0 86 b9 3d 1c c5 b2 3d 44 03 bf 3d c8 75 f7 bc
       0.090589404 0.08729002 0.09326795 -0.03020753
0003e0 1c 08 d3 3d 91 0c 95 bd f0 d4 bf 3c db 1b 32 be
       0.10304281 -0.072777875 0.023416966 -0.17393439
0003f0 ee c3 72 bd 84 a6 a7 3d f8 9e d5 bd 42 61 1d 3e
       -0.059268884 0.08186057 -0.104307115 0.15369132

bias f4 [64]
000000 0c cc e5 3d b0 4e 57 3c ae 37 39 3e 10 d5 69 bc
       0.112205595 0.013141319 0.18087646 -0.014271989
000010 6c 89 86 bd 30 a3 1b bc f8 61 8b 3d 5d 12 07 be
       -0.0656918 -0.009499356 0.068057954 -0.13190599
000020 88 e4 ef bc 14 4e a7 bd 9d 92 0a be 60 d8 b0 3d
       -0.029283777 -0.08169189 -0.13532491 0.0863502
000030 f0 9d 21 3e 00 5b a1 3c 28 fb a9 3d 30 35 fe 3c
       0.15782905 0.019696712 0.082998574 0.031031221
000040 66 a5 33 3e 40 73 b8 bc 4d 98 ec bd c6 a2 17 be
       0.17543563 -0.022515893 -0.115524866 -0.14808187
000050 ac 34 b9 3d ee 03 1a 3e 16 33 1c 3e 04 12 fb 3d
       0.090432495 0.15040562 0.15253863 0.122592956
000060 a7 3e ee bd e2 f6 31 be 62 01 6e bd 44 70 c6 3d
       -0.11633044 -0.17379335 -0.058106788 0.09689382
000070 ca b3 34 3e 5a 3c 2d 3e c0 1b 5a bc 44 4c 38 3e
       0.17646709 0.16917554 -0.01331228 0.17997843
000080 d2 85 31 3e d6 5b 76 bd 00 da 91 b9 18 22 14 3e
       0.17336205 -0.060146175 -0.00027818978 0.1446613
000090 a4 87 2c 3d 44 d0 2b 3e d0 b6 16 3e 23 5c 2e be
       0.042121544 0.16778666 0.14718175 -0.17027335
0000a0 7c dd 27 3d 57 61 2c be 62 b1 1b be 64 b6 67 3d
       0.04098271 -0.16834007 -0.15204385 0.056570426
0000b0 9e 7f d6 bd bb 1f a1 bd b7 e8 0f be e0 3c dd bb
       -0.1047356 -0.0786738 -0.14053617 -0.0067516416
0000c0 0a d0 af bd 80 ef c3 ba 9a c1 df bd 80 a6 68 bc
       -0.08584602 -0.0014948696 -0.109255984 -0.014199853
0000d0 30 05 3f bd f8 13 c5 3d 38 4e 23 3d 84 ec 3a be
       -0.046635807 0.09622949 0.039869517 -0.18254286
0000e0 24 b4 2a be 66 c0 1e 3e a0 d9 8e 3d 48 f8 4c bd
       -0.1667028 0.15503082 0.069751024 -0.050041467
0000f0 cc bb ac 3d 5a e2 2b be 36 a2 09 3e 10 2f 5a bd
       0.08434257 -0.16785565 0.13440785 -0.05326754

weight f4 [64, 64]
000000 68 16 9a 3d b0 55 f7 bc 1e 85 aa bd 6c 2b 3a bd
       0.07523805 -0.030192226 -0.08326171 -0.045451567
000010 32 3c 82 3d 6c 60 7b 3d 4c 3e d8 bd 40 71 51 bd
       0.063591376 0.061371252 -0.10558757 -0.051133394
000020 90 6e da 3c 24 7d d9 bd d0 f7 67 bd fc 29 1e 3d
       0.026664048 -0.10619572 -0.056632817 0.03861426
000030 fc 10 ce 3d 98 10 b6 bd 7e da f8 3d 7e ab bf 3d
       0.10061833 -0.08889884 0.12151049 0.093588814
000040 30 ae 93 3d 48 90 b5 bd 80 fd b9 3b 60 d6 6c bd
       0.07210958 -0.0886541 0.0056759715 -0.05782163
000050 36 fd 94 bd 20 a5 12 3d 0a cb de bd 9c 0b 43 bd
       -0.07274859 0.035802007 -0.108785704 -0.047618493
000060 5a 3b cd bd 88 7d fe bc 90 47 37 3c c0 0f 11 bb
       -0.10021086 -0.031065717 0.011186495 -0.0022134632
000070 70 5e 34 bc 78 0f dd 3c 20 4c f4 bd 20 89 71 bd
       -0.011008844 0.026984915 -0.11928582 -0.058968663
000080 86 58 f4 3d 68 22 d1 bc d0 90 4c 3c 7c 07 77 3d
       0.11930947 -0.025529101 0.012485698 0.060309872
000090 88 8e 22 bd aa e4 f5 3d 54 ba d6 3d 24 eb 75 3d
       -0.03968671 0.12006505 0.10484758 0.0600387
0000a0 7c 64 bc 3d 70 8d 87 3d 44 a5 eb 3d 4e 43 cb 3d
       0.091988534 0.06618774 0.11506131 0.09924947
0000b0 90 fe be 3d 50 bc 03 bc 94 3c 92 bd 24 fe 5f bd
       0.09325898 -0.008040503 -0.071404606 -0.054685727
0000c0 1a 92 a1 3d 80 44 d3 3d 50 c6 34 bc 8c 9a ff 3d
       0.07889195 0.103158 -0.0110336095 0.12480649
0000d0 f4 fd 36 3d 56 6a 9f 3d 18 cd 5b 3d 18 e3 ee 3c
       0.044675782 0.07783954 0.05366239 0.029161021
0000e0 9a d5 e8 3d b8 1b 91 bc 16 de 93 bd ae 09 e0 3d
       0.11368866 -0.017713413 -0.07220094 0.10939346
0000f0 48 02 88 3c a4 46 73 3d 1a 8c a8 3d 6a 94 81 bd
       0.01660265 0.05939354 0.08229847 -0.06327136
000100 80 ad a4 3d e0 04 c4 3c 70 cd 12 3d 88 e6 b2 bd
       0.08040905 0.023928106 0.03584045 -0.087353766
000110 94 3e 9a bd 00 f8 a9 3d 38 98 de bd 58 1c 0e 3d
       -0.07531467 0.08299255 -0.10868877 0.034695
000120 50 5d 30 3d 60 44 61 3c 32 c0 cf bd bc 48 c7 3d
       0.04305774 0.013749212 -0.1014408 0.0973067
000130 f4 61 b1 3d c2 53 a4 bd c0 50 06 3b 76 40 c2 3d
       0.08661261 -0.08023788 0.0020494908 0.09484951
000140 3c f3 df 3d 90 51 3f bd 7e 27 c1 3d 74 3c 5d 3d
       0.10935065 -0.046708643 0.09431361 0.05401273
000150 74 04 64 bd 70 5a 1a 3d da c5 f8 3d e2 60 ba 3d
       -0.05566831 0.037683904 0.12147112 0.0910051
000160 10 1b 99 bc ca 6e 82 3d 88 00 87 3d 40 eb d1 3d
       -0.018689662 0.063687876 0.06591898 0.102499485
000170 78 c3 ac 3d ee 1b b4 3d 84 61 a3 bd 96 1d a1 bd
       0.0843572 0.0879439 -0.07977584 -0.07866971
000180 20 0b d3 3b de 6f 88 3d fc 22 18 3d aa 39 f4 3d
       0.006440535 0.06661962 0.03714274 0.11925061
000190 1a 28 c3 3d ce 63 f7 bd ca 43 f9 3d 5c 00 0f bd
       0.09529133 -0.12079583 0.12171133 -0.034912452
0001a0 04 a6 48 3d 04 38 04 3d 4c 20 d2 bd 06 f1 c9 bd
       0.04898645 0.032279983 -0.102600664 -0.09860425
0001b0 c6 1b e1 3d a0 d5 07 3d a0 93 24 bd 18 3e 8c bc
       0.109916255 0.033162713 -0.04017985 -0.017119452
0001c0 b6 de b6 bd fa 30 fc 3d 7c 68 40 3d 00 46 7c bd
       -0.089291975 0.12314029 0.046974644 -0.061590195
0001d0 64 eb b1 bd 74 06 f9 3d e8 84 9f bd 88 fc c5 3c
       -0.08687475 0.12159434 -0.07789022 0.024168268
0001e0 e0 d4 5b bc 20 ee e9 3b 38 00 a0 bc ac 46 3f 3d
       -0.013417453 0.0071389824 -0.019531354 0.046698257
0001f0 64 4e 33 bd c0 c2 30 3b 12 5e b8 3d c8 89 f5 3c
       -0.04377593 0.0026971549 0.090023175 0.029972926
000200 48 19 d2 bc fe b1 bf bd 40 a3 44 3c 02 03 c8 3d
       -0.02564682 -0.09360121 0.012001812 0.09766199
000210 30 67 1d bd 20 65 98 3b 44 42 37 bd c4 3b d5 3d
       -0.038428485 0.004650727 -0.04474093 0.1041179
000220 14 6a 22 bd 5c 71 33 bd b8 05 34 3d 80 34 16 3d
       -0.039651945 -0.04380928 0.043950766 0.03667116
000230 d0 a2 59 3d 98 44 ca bd bc cc 29 3d 58 eb d3 bd
       0.053133786 -0.098763645 0.041455016 -0.10347623
000240 c2 3c e0 bd 6c 41 92 bd 68 69 05 bd 9a c9 8c 3d
       -0.10949089 -0.071413845 -0.032571226 0.0687439
000250 70 6f 1c bc 0c ee 42 3d f8 f5 cb 3c c0 7b 65 bc
       -0.009548053 0.0475903 0.02489756 -0.014006555
000260 40 d4 19 3c 54 13 5f 3d ae 5f f4 bd 54 20 e7 3d
       0.009388983 0.054461792 -0.11932312 0.11285463
000270 d2 af f4 3d a8 9a a5 3c 94 ee 64 3d 40 b4 d0 bb
       0.119475976 0.020215347 0.05589159 -0.0063691437
000280 94 f4 13 bd 18 c5 15 bd ac f9 b2 3d 6c bd f6 bd
       -0.03612192 -0.036564916 0.087390274 -0.12047848
000290 10 2c 9d 3d 20 98 e7 3b 3c 40 06 3d 10 b2 bc 3c
       0.0767442 0.0070676953 0.032776102 0.023034126
0002a0 fc 03 28 3d 10 0b fe bc f4 a8 06 bd 34 c5 6a bd
       0.041019425 -0.031011134 -0.03287597 -0.057316974
0002b0 e4 b4 68 3d b8 ad d3 3c 6c 08 ab bd f4 89 f9 3d
       0.056813136 0.025839671 -0.08351216 0.121845156
0002c0 b0 37 38 bd 44 54 16 3d 44 8e a5 3d 18 f5 22 3d
       -0.044974983 0.036701456 0.08083776 0.03978452
0002d0 44 06 9b 3d 1a 2a e7 bd 28 0d 2e 3d e8 0b ed bd
       0.075695544 -0.11287327 0.042493016 -0.115745366
0002e0 50 64 ca bc 68 9b e5 bc f2 17 8f bd 4a 9a d5 3d
       -0.024706036 -0.028028205 -0.06986989 0.10429819
0002f0 e0 0c 79 3c 70 bc 7d 3d 00 58 de bd 10 13 f5 3d
       0.015200824 0.061947286 -0.108566284 0.119665265
000300 ae 93 d3 bd aa 41 fd 3d bc 87 d8 3d 50 ca 9a bc
       -0.10330902 0.1236604 0.10572764 -0.018895298
000310 ac 15 29 3d 06 2e bf bd 30 47 59 3d 60 9c de 3c
       0.041280434 -0.0933495 0.053046405 0.027174175
000320 00 85 dd 3a 5c 35 1c 3d c6 ed aa bd a2 4a ca bd
       0.0016900599 0.038136825 -0.08346133 -0.09877516
000330 e0 c7 f2 3d f6 99 a0 3d 70 bd 51 3d 1e 3c 84 bd
       0.118545294 0.07841866 0.051206052 -0.06456779
000340 18 1e 7b bd 80 fd f8 bb 18 ce 9b bc e0 3f 7a bd
       -0.061307997 -0.007598579 -0.019019172 -0.061096072
000350 9c 92 b1 bd 3c f8 60 bd a0 94 8c 3c 80 6f 21 3b
       -0.08670542 -0.054924235 0.017160714 0.002463311
000360 8c dc 92 bd 30 36 4a 3d bc 3d 64 bd d8 45 a3 3d
       -0.07170972 0.049368083 -0.055722937 0.07972306
000370 ea 78 d7 3d da 04 ec bd 30 5b e0 3d e0 43 5b bc
       0.105211094 -0.11524363 0.10954893 -0.013382882
000380 c8 62 d4 bc fe ba ff bd 8c 04 83 bd 40 00 e3 bb
       -0.025926009 -0.12486838 -0.063973516 -0.00692752
000390 ac b1 38 bd 40 34 30 bd 42 f9 81 bd 2e af bc bd
       -0.045091316 -0.04301858 -0.0634637 -0.092131004
0003a0 2a c6 b2 3d e4 72 ca bd 96 92 e2 bd c0 42 1c bb
       0.08729203 -0.09885195 -0.11063115 -0.0023843497
0003b0 b6 cb dc bd 60 c7 81 3c 28 0a b6 3c b8 81 f3 bc
       -0.10781042 0.01584214 0.02222164 -0.02972494
0003c0 b8 d0 47 bd ba 91 9f 3d 48 a5 02 bd d6 d5 c6 3d
       -0.048783034 0.07791467 -0.031895906 0.09708755
0003d0 ac 70 72 3d 90 a9 e9 3d d0 18 4c 3c c6 36 8d bd
       0.059189484 0.114092946 0.012457088 -0.06895213
0003e0 fc 68 3d bd 24 77 91 3d 9a 04 f1 bd c8 74 ca 3d
       -0.0462427 0.071028024 -0.11768456 0.098855555
0003f0 22 8e c4 bd 30 c0 92 3d c2 23 98 3d a0 f9 84 bd
       -0.09597422 0.07165563 0.07428695 -0.06492925

bias f4 [64]
000000 c0 2a 06 bb fc 34 f9 bd 60 6a 24 bd 1c 7d 6b bd
       -0.0020472258 -0.12168309 -0.04014051 -0.05749236
000010 24 24 b1 3d 2c c9 1d bd 1c 3d 39 3d e0 09 83 3c
       0.086494714 -0.03852193 0.045224294 0.01599592
000020 88 41 7d 3d 08 83 ec 3d cc c2 a4 bd 38 46 3f 3d
       0.061830074 0.1154843 -0.08044967 0.046697825
000030 f6 de 89 bd e0 14 6c bd 20 3d 87 3c e2 33 ca 3d
       -0.067319795 -0.057637095 0.016508639 0.09873177
000040 c6 83 d1 3d 64 b1 a5 3d 48 8c ca bd 18 36 89 3c
       0.10230212 0.08090475 -0.09890038 0.016749427
000050 80 4e 3e bc aa ed 85 3d ec 58 86 bd 56 aa 8f bd
       -0.011615396 0.065394714 -0.06559929 -0.07014911
000060 ac a8 19 bd 74 26 c1 3d 00 00 e5 b7 d8 61 92 bc
       -0.037514374 0.094311625 -2.7298927e-05 -0.017868921
000070 ec 18 f2 3d f8 28 54 bd 86 45 c0 3d 58 31 6e bd
       0.1182116 -0.051796883 0.093882605 -0.058152527
000080 40 27 69 3d c6 50 c7 bd 56 00 c6 bd de 3a ba 3d
       0.056922197 -0.09732203 -0.09668033 0.09093259
000090 44 af 04 3d de 01 eb 3d 30 cf fe bd 62 9c e1 3d
       0.03239371 0.114749655 -0.12441862 0.11016156
0000a0 70 3d 39 bc b4 53 a5 bd 82 5d f9 3d 42 fb ec bd
       -0.011306152 -0.08072606 0.12176038 -0.11571361
0000b0 24 7d 2f 3d a0 30 3a bd ce a6 b6 3d 78 f2 91 3c
       0.042843953 -0.04545653 0.08918534 0.017815813
0000c0 9c 21 c8 bd ac 17 0a 3d 00 a7 2d 3c 88 00 03 bd
       -0.097720355 0.03371398 0.010598898 -0.03198293
0000d0 da 96 9e 3d 10 7d 9c 3d f6 d0 98 3d 28 16 b2 3d
       0.077436164 0.07641041 0.07461731 0.08695632
0000e0 18 ca 4e 3d 60 0b 63 bd 80 29 66 bc ce 7a ba bd
       0.0504857 -0.05543077 -0.01404798 -0.091054544
0000f0 e0 18 96 bc b0 f9 9d 3d 26 45 de bd f0 98 e7 bd
       -0.018322408 0.0771364 -0.10853033 -0.113084674

weight f4 [30, 64]
000000 40 4e 11 bb f0 84 53 3d 60 55 7a 3d a0 f0 97 3b
       -0.0022171885 0.05164045 0.061116576 0.004636839
000010 54 a4 9c bd a2 fc f4 bd 70 28 c8 3d cc ee 5f bd
       -0.076485306 -0.119622484 0.09773338 -0.054671094
000020 34 8e 82 3d 36 8c ab 3d b0 b5 e8 3c 40 3f 89 bc
       0.06374779 0.083763525 0.028406948 -0.016753793
000030 a8 42 79 bd 88 30 96 bc 34 b8 6e 3d 10 31 79 bd
       -0.060854584 -0.018333688 0.05828114 -0.060837805
000040 a0 ad 45 3d 54 a7 c8 3d c0 e1 62 bd ae 85 a1 3d
       0.048261285 0.0979754 -0.055391073 0.078868255
000050 72 0e a4 3d 34 ee 55 3d 9a 4a 8d bd 10 f8 10 bc
       0.08010568 0.05222912 -0.06898995 -0.008848205
000060 00 f0 f7 3a ec db 7e bd b8 d4 c4 bd 7c 13 99 3d
       0.001891613 -0.062221453 -0.096108854 0.074744195
000070 a0 cd c4 3d 94 4e 8a bd 7c 4c 11 3d 54 d0 c0 3d
       0.09609532 -0.06753269 0.03547333 0.094147354
000080 60 2c c4 3b d0 4f 40 bc c8 92 45 bd 80 a3 49 bd
       0.005986735 -0.011737779 -0.048235685 -0.04922819
000090 b2 f2 ba 3d 00 00 9d 36 0a 29 e1 3d 7c bf 5e bd
       0.09128322 4.6789646e-06 0.10994156 -0.054381832
0000a0 70 c8 2d 3c 78 82 d0 3c 00 ef 1a 3c bc fd f0 3d
       0.01060687 0.025452837 0.009456396 0.11767146
0000b0 50 c2 b5 3c d8 83 0a bd ee 03 a3 3d d0 40 07 3c
       0.022187382 -0.033817142 0.07959734 0.008255199
0000c0 de 23 80 bd f6 d5 c8 3d 00 de 6c ba 38 ea 7a bd
       -0.06256841 0.09806435 -0.0009035766 -0.061258525
0000d0 f0 e1 42 3d 52 f2 98 3d b8 5b 54 bd 06 ce f5 bd
       0.047578752 0.07468094 -0.051845282 -0.120021865
0000e0 42 84 82 3d e0 22 dc 3d 42 b2 de bd 3c ea ec bd
       0.063728824 0.107488394 -0.10873844 -0.11568114
0000f0 00 fd ad ba 48 f4 f8 bd b0 01 21 3c 80 24 e7 bc
       -0.0013274252 -0.12155968 0.0098270625 -0.028215647
000100 30 82 6c bd 50 98 f1 bc 98 5f 8d bd 98 f7 aa 3c
       -0.057741344 -0.029491574 -0.06902999 0.020870015
000110 e0 aa 70 bc dc 8c 80 bd 80 52 4a 3c f8 27 55 3d
       -0.014689177 -0.06276867 0.012348771 0.05204007
000120 c6 79 d3 3d 6c 02 bd bd 30 47 69 bd c8 5d 76 3d
       0.10325961 -0.092289776 -0.056952655 0.06014803
000130 c8 32 08 bd 62 db e0 3d 00 7f 75 3d e0 26 73 bd
       -0.033251554 0.10979344 0.05993557 -0.059363246
000140 e0 8a ee 3c 80 08 da 3c 4c f6 ad 3d fc 0f 40 3d
       0.029118955 0.026615381 0.08494243 0.046890244
000150 ea 47 a9 3d 48 7e be bd 00 b4 d6 3b 24 3c c2 3d
       0.0826567 -0.0930143 0.0065522194 0.09484127
000160 50 51 d8 bc b4 ae fc 3d 60 92 d0 3b 7e 06 95 bd
       -0.02640596 0.123380095 0.0063651055 -0.07276629
000170 c0 08 78 3d 20 9d fe bb 12 fb a2 bd 90 58 5a bc
       0.06055522 -0.0077701956 -0.07958044 -0.013326779
000180 30 3e 8f 3d fa 66 d6 3d 06 8f c9 bd de 80 b0 3d
       0.06994283 0.1046886 -0.09841733 0.086183295
000190 88 42 97 3d 80 a5 e7 3a 0c 0f 6f 3d b0 f4 94 bd
       0.07385737 0.0017673224 0.05836396 -0.07273233
0001a0 20 ce a6 bd 70 d2 19 3c c0 76 02 bd 78 1a 48 3d
       -0.08144784 0.009388551 -0.03185153 0.048853368
0001b0 c0 e8 03 3b a4 66 9e 3d 9e 7d c0 bd c0 99 f5 bb
       0.0020127743 0.07734421 -0.093989596 -0.007495135
0001c0 7c af 25 3d dc 9f 61 bd 38 09 89 bd 60 ce a6 3d
       0.040450558 -0.055084094 -0.066912115 0.08144832
0001d0 d6 19 a6 3d c2 22 86 bd a0 65 c5 3d 4a 56 80 3d
       0.081103966 -0.06549598 0.09638524 0.06266458
0001e0 d0 a1 71 bd 5c ed 01 3d c8 be ab bc be 1a a2 3d
       -0.058992207 0.031720504 -0.020964995 0.07915257
0001f0 4c 3b a5 bd a0 dc c3 bc 80 e9 24 bd f4 7f e4 3d
       -0.080679506 -0.023908913 -0.040261745 0.111572176
000200 bc 85 a8 3d ba b8 e2 3d 2c d6 5a 3d d0 4e f2 3d
       0.08228633 0.1107039 0.053426906 0.118314385
000210 14 11 76 bd 60 10 81 3d 42 dc 99 bd 2c f6 38 3d
       -0.06007488 0.063019514 -0.07512714 0.045156643
000220 00 47 ae ba b8 d4 21 bd e8 1a bc 3c aa 80 e2 bd
       -0.0013296306 -0.039509505 0.022962049 -0.11059697
000230 10 dd 09 3c c0 bc 29 3d e6 c9 a4 bd ac c7 64 3d
       0.008414522 0.04143977 -0.080463216 0.055854484
000240 0c 4f 4f 3d 60 eb 69 3c e0 a7 d5 bc 70 be 79 bc
       0.050612494 0.014277309 -0.026081026 -0.015243158
000250 a2 0a fd 3d 88 5f 50 bd e0 89 db bd 32 27 d5 3d
       0.12355544 -0.050872356 -0.10719657 0.104078665
000260 b4 6f 2a 3d 66 dc b8 3d 3c 93 e6 3d 00 b7 cc bd
       0.041610435 0.09026413 0.112585515 -0.09995842
000270 be 1d c4 bd 56 c6 e4 bd 40 19 67 bb a0 5e fb bd
       -0.09575985 -0.11170642 -0.0035262853 -0.12273908
000280 0c f1 9f 3d 40 5e 5e 3b 58 42 fa bc b2 66 b4 bd
       0.07809648 0.003393069 -0.030549213 -0.0880865
000290 9a e5 c4 bd ac 7f 88 3d b2 68 da bd 14 f7 d4 bd
       -0.096141055 0.066649765 -0.106645 -0.10398689
0002a0 00 ae 6c bd 60 4d 13 3d 20 88 64 bc 2c b0 26 3d
       -0.057783127 0.035962462 -0.01394847 0.040695354
0002b0 f0 87 1f bd 38 36 72 bd e0 d6 24 bc 04 c1 2c bd
       -0.038948 -0.05913374 -0.010060996 -0.04217626
0002c0 88 ac d9 bc ce 28 86 bd 00 ac ab ba b8 0a 04 3d
       -0.026571527 -0.065507516 -0.0013097525 0.032236785
0002d0 80 e9 94 bb 08 4e 5a 3d c6 52 e3 3d be 48 e5 3d
       -0.004544437 0.053297073 0.11099772 0.11195515
0002e0 f4 e3 ac 3d 38 c0 b4 3d cc de f6 3d 3a 5f f1 bd
       0.08441916 0.08825725 0.12054214 -0.11785741
0002f0 00 62 bc ba 40 5c 88 bd 70 e1 07 bc 2a ed d0 3d
       -0.0014372468 -0.0665822 -0.008293495 0.102014855
000300 a0 36 9a 3b f0 79 ee 3d e0 a6 93 bb 70 a7 b0 bc
       0.004706219 0.116443515 -0.004505977 -0.021564215
000310 a0 d1 9d 3d 7e 2b ad bd 32 b5 a7 bd 14 b3 79 3d
       0.077059984 -0.08455561 -0.08188857 0.060961798
000320 84 2d 3d bd 70 5b 1a 3c ba de e5 bd 44 e8 76 bd
       -0.046185985 0.009421214 -0.11224122 -0.0602801
000330 8c f3 86 3d c0 cf 7f bc a4 62 9f 3d 50 0b b6 bd
       0.06589422 -0.015613496 0.07782486 -0.088888764
000340 86 45 fb bd 98 af 78 3d 32 5d d2 3d 20 18 db 3b
       -0.1226912 0.060714334 0.10271682 0.0066862255
000350 64 5e ae 3d 80 f2 8f 3c ba d6 d8 3d b0 27 d6 bd
       0.08514097 0.017571688 0.10587831 -0.104567885
000360 e0 e0 02 3c 00 bb 38 3c 68 9d b3 bc a0 73 10 3c
       0.007988185 0.011275053 -0.021925643 0.00881663
000370 d0 93 74 3c 80 77 11 3d 88 6a 66 3d a8 1d d9 3c
       0.014927819 0.035514355 0.05625394 0.026503399
000380 28 46 aa 3c c0 5b d1 bd 10 24 eb bc 18 b1 fe bc
       0.020785406 -0.10222578 -0.02870372 -0.031090304
000390 94 a4 1d bd 60 47 e0 3c 26 c8 a7 3d 90 ec 51 bc
       -0.038487032 0.027377784 0.08192472 -0.012812749
0003a0 1c 34 1c bd 30 1b 2e 3c 1a 1a fa 3d 1c 93 74 3d
       -0.038135633 0.010626599 0.1221201 0.059710607
0003b0 62 f7 f6 bd 96 b3 99 3d 60 ea e1 3b 82 4a 94 bd
       -0.12058903 0.075049564 0.0068943948 -0.07240774
0003c0 dc c5 e4 3d c8 8e b1 bd 90 cc c4 bd 94 35 c5 3d
       0.11170551 -0.086698115 -0.0960933 0.0962936
0003d0 58 1b e5 bc ae 1b 84 3d f4 53 90 3d c8 33 e0 3c
       -0.02796714 0.06450592 0.07047263 0.027368441
0003e0 80 85 d0 bc f4 6e 5b 3d 50 ea 69 3d e0 c1 57 3d
       -0.025454283 0.05357261 0.057108223 0.052675128
0003f0 c0 3c 87 bb 70 d0 26 3d e0 b1 26 3c bc af f2 bd
       -0.004127115 0.040726125 0.010174245 -0.11849925
