darts_logs/2022-11-19_13.17.34.318508_torch_model_run_13760/checkpoints/last-epoch=0.ckpt (torch, 318580 bytes, 44 tensors)

stacks.0.blocks.0.layers.0.weight f8 [64, 2]
0	0xbfe0263ee0000000	-0.504668653011322
1	0xbfe299f9c0000000	-0.5812958478927612
2	0x3fd27b0382811fd8	0.2887581610161738
3	0xbfe8ccdc314896e4	-0.7750073397225745
4	0x3fbd6177ae173eb1	0.11476848602546387
5	0x3fd9ad3446a64b34	0.4011965455949167
6	0xbfbdb7f24713d593	-0.11608804927148801
7	0x3fe2d130431a613f	0.5880357084852575
8	0xbfd87e464f49990e	-0.382707192830268
9	0x3fd86e53e8918643	0.38173387252581764
10	0x3fd1cab194715d41	0.27799643989915884
11	0xbfb97675685f5695	-0.09946378515391026
12	0x3fdb72d004830e6c	0.4288826030790236
13	0xbfaa833eb69350d7	-0.05178256968216182
14	0xbfe91a124490ef68	-0.78443253890826
15	0xbfd4b518ff59c733	-0.32355332314101587
16	0xbfdd5a890b2a828c	-0.4586508378070355
17	0x3fc80954f4a3a0eb	0.18778478570244003
18	0xbfd8611440000000	-0.3809252381324768
19	0xbfe4be48e0000000	-0.648228108882904
20	0x3fb8a43afe530706	0.09625595769014347
21	0xbff657c78d52e428	-1.3964305420361232
22	0x3fc4d9f3d5bbbcab	0.16290138183783162
23	0xbfe5d6e56c31d5fc	-0.6824824441125084
24	0x3fe2e55f7e26ed72	0.5904996360690531
25	0x3fd2fd51fd1d507a	0.29671144216741363
26	0xbfe67c570f34f3d7	-0.702678231907721
27	0xbfea23c78e510f1c	-0.8168676166173756
28	0xbfd0fc2a00000000	-0.26539087295532227
29	0x3fb3e53500000000	0.0777161717414856
30	0x3fc3612f7b652c4d	0.15140336537510493
31	0xbff17873b7dd3613	-1.0919072324935584
32	0xbfcecbf42a08f202	-0.24059917500007094
33	0x3fe6b7d14a475da1	0.7099386645085596
34	0x3fe1db29b79d1e4d	0.5580032907682352
35	0x3fb84ccc82d796a7	0.09492185778034444
36	0x3fd0beb717d4f37f	0.2616403324826066
37	0xbfe6354cfb00969b	-0.6940064337147364
38	0x3fce6d9ef212f3ae	0.2377203638078788
39	0x3fa86aaa69f194be	0.04768879454858553
40	0xbfd3aa0740000000	-0.3072527050971985
41	0xbfae2fea00000000	-0.05895930528640747
42	0xbfdb8b07e8b48452	-0.4303607723723576
43	0xbff21ea2a2057db6	-1.1324793175661916
44	0x3fdcbe5af397f40d	0.44911836422380774
45	0xbfe311b622f06741	-0.5959120447543925
46	0xbfbef12900000000	-0.12086731195449829
47	0xbfe1709bc0000000	-0.5449961423873901
48	0xbfd6dd50a94b34ab	-0.3572580006846901
49	0x3fe21c023e521aaa	0.565919038505702
50	0xbfbbcf8132ae0556	-0.10863502013491674
51	0x3fe42667a8a1f5c0	0.6296881002050938
52	0x3fddcf24086fbbdf	0.4657678682696637
53	0x3f7fd4959dbc2c75	0.007771095693679721
54	0x3fc9aa1ff6dfb0b3	0.2005042987287929
55	0x3fd213ed6e7fe718	0.2824662760827876
56	0x3fd0e8f233fd306e	0.26421790196469075
57	0x3fd890bacc5549e9	0.38383359865579664
58	0xbfe379b8c0000000	-0.608608603477478
59	0xbfdedff3c0000000	-0.482418954372406
60	0x3fc750106a7059b9	0.1821308631630936
61	0x3fe3f3deee88208f	0.6235193880866222
62	0x3f7b63a0e0fa3bd3	0.006686809952625122
63	0xbfcf59e5e361cf98	-0.24493096926346136
64	0x3fdb66c1c0c630b7	0.428146780258213
65	0xbfd04067dec0725a	-0.253931014567376
66	0x3fdc230f43cbdf29	0.43963986988773
67	0x3fd2921f9b9d4669	0.2901686687156145
68	0xbfd822eaf842a0da	-0.3771312164704007
69	0x3fe2e4038f563fdd	0.5903337287472784
70	0x3fc630454d7165f0	0.17334810525316824
71	0x3fe1b14bc3202fdc	0.5528925715493602
72	0xbfd6afb820000000	-0.3544750511646271
73	0xbf925cf000000000	-0.017932653427124023
74	0xbfcf586970abe4c7	-0.24488561631713976
75	0x3fe506c1fb4966e8	0.6570749195045353
76	0xbff084754fb7c615	-1.0323384393672133
77	0x3fb4893a70605ae8	0.08021893733562602
78	0x3fcba39b37f52644	0.21593036873155047
79	0xbfe40f1c24c1345f	-0.6268444745889034
80	0xbfb9a4cad606158c	-0.10017078137578589
81	0x3fddc2d7532cd77a	0.4650171577699137
82	0x3fe616d9eadd471e	0.6902894580073029
83	0x3fe16ec2f33229d1	0.544770693771449
84	0xbfd5313af6e486f7	-0.3311297808705684
85	0x3fe2de1ddc0c5030	0.5896138475241113
86	0xbfe7283619398ebd	-0.7236586086914581
87	0x3fd25c622d239254	0.2868886414346765
88	0xbfb1f3fc59f6c650	-0.07012917705903843
89	0x3fdcbe84ab215f7e	0.449128310317512
90	0x3fd5e2f879635c2b	0.3419781861716184
91	0xbfe67482a3a3d746	-0.7017224498838253
92	0xbfe3f6a9c5ee243e	-0.6238602510285387
93	0xbfdbd86de16e9a47	-0.43508479132507144
94	0xbfab305a7bf0b228	-0.05310328257505531
95	0x3fae109589abd9f8	0.058720276885583844
96	0x3fcd2f6620783b17	0.22800900063926896
97	0x3fd6dcc125c69b1a	0.3572237843422258
98	0x3fcfc5c37b2fcf17	0.2482227660653897
99	0xbfc3d8d50ce76ff8	-0.1550546944625919
100	0xbfdae16280000000	-0.4200063943862915
101	0xbfd4035ea0000000	-0.3127056658267975
102	0x3fe496f4afaa1d35	0.6434272223422456
103	0x3f956403d98781e5	0.020889339591919315
104	0xbfe13147a0c8efb0	-0.5372656002359602
105	0x3feaa183ff35119b	0.8322162613408638
106	0xbfe696547d900dc1	-0.7058508350750615
107	0xbff43122744a8ffe	-1.2619957487704592
108	0x3fe44c043e4dd076	0.6342793671488056
109	0xbfd3de5d9853aadc	-0.3104471194807681
110	0xbf9baafb18227bd4	-0.027019427631440454
111	0x3fc759dff13e55f7	0.18243026046245323
112	0x3fe68a1f803a0a1b	0.7043607239177762
113	0xbfdeb32407e55265	-0.4796838833911237
114	0xbfdbc67b9ab8a8ee	-0.4339894305181947
115	0xbfe7b5278c9f963c	-0.740863585143138
116	0xbfe5f634061e14b8	-0.686304103801965
117	0x3fe4e0e9ebf42927	0.6524552925559747
118	0xbfc2a2d4ad5d8419	-0.1455942007551421
119	0x3fcbf0c7b57a021e	0.21828552590524536
120	0xbf927ec000000000	-0.01806163787841797
121	0xbfe0631640000000	-0.51209557056427
122	0xbfed3d424f443350	-0.9137279079601317
123	0xbfe6c7c1214138e8	-0.7118840837008777
124	0x3fe41a7ee41510d0	0.6282343344433006
125	0x3fad38d9de0a175e	0.05707436404649856
126	0xbfbd629000000000	-0.11478519439697266
127	0xbfd2c045e0000000	-0.2929854094982147

stacks.0.blocks.0.layers.0.bias f8 [64]
0	0xbfbc946f00000000	-0.11163991689682007
1	0x3fc3ef5243c635c0	0.15574100789346623
2	0x3fe433da9451fd05	0.6313298127060142
3	0x3fc5aee0348b0f1a	0.16939928594194315
4	0x3fe321a4582e42b9	0.5978566858558089
5	0x3fcd2a50ebf5fb2c	0.22785388490225367
6	0xbfc5ce075db855a9	-0.17034999920057928
7	0x3fe19a74e1ee4c80	0.5501045620643623
8	0x3fd66bae055b7cea	0.35032225154095775
9	0xbfd4a13b40000000	-0.32234078645706177
10	0x3fd58f86e887bf77	0.33688519199403494
11	0x3fe59c57fc5be223	0.6753349236378806
12	0xbfe6c298afe028ee	-0.7112544474669258
13	0x3fd1ccbca11ef4c7	0.27812114462342347
14	0xbfdf2bbc00000000	-0.4870443344116211
15	0x3fd8df6a00b23fa5	0.38863611286159944
16	0xbfc3317824527354	-0.14994718335665402
17	0xbfda71821863a384	-0.4131779897857586
18	0x3fd12349105b153e	0.26777865025754355
19	0x3fdb62b90118d4a1	0.4279005537712895
20	0xbfe4c3de20000000	-0.6489096283912659
21	0x3fde312fcbc24da9	0.4717521180948219
22	0x3fb698c65bfa668b	0.08826865907249208
23	0xbfe2186ae0000000	-0.565480649471283
24	0xbf7f35dd6b7d2b4c	-0.007619728967095462
25	0xbfe01f463e6938a7	-0.5038176745381592
26	0xbfb86bc4403a17f7	-0.0953943878940605
27	0xbfc8644becfba451	-0.190560808863014
28	0x3fe44b85681cae60	0.6342188867033194
29	0xbfde8db9a0000000	-0.4774002134799957
30	0x3fdc4d75de546383	0.4422278090656208
31	0x3fdb66f80f147bc9	0.4281597277894745
32	0x3fdfa2aa30279536	0.49430327131843244
33	0x3fe2665e2466b6d1	0.5749960623704401
34	0x3fa15acd08a23186	0.033895880988981594
35	0xbfe0c91d12038536	-0.5245499946433145
36	0xbfe524efe0000000	-0.660758912563324
37	0x3fe0640a0d83d016	0.5122118247950336
38	0x3fdf779944ababd0	0.4916747255908236
39	0x3fe30c4891ae885a	0.5952494473788292
40	0xbfe30cbb89f5ef38	-0.595304269270378
41	0xbfe761a64da143f7	-0.7306701198777991
42	0x3fd4973968ac2c06	0.3217299959366645
43	0x3fc7d317775dec78	0.18612950638257408
44	0xbfdbb14a2cd67219	-0.4326959073894457
45	0x3fe3dbd8d48e23f2	0.6205867911786511
46	0x3fc62c0cfd94a1f4	0.17321932203164148
47	0x3fe403e9c07a2c05	0.6254776725121479
48	0x3fe429ee6f1af421	0.6301185770058774
49	0x3fd56df8862236c9	0.334837084760562
50	0xbfe5bd16c0000000	-0.6793321371078491
51	0xbf85aaf1d5a43f6e	-0.01057995732529068
52	0xbfd26117554f80db	-0.28717597323521965
53	0x3fcc68bcdcd13ee3	0.22194634229753438
54	0x3fe2d1fd4d70f99e	0.5881334793592037
55	0xbfe0180e0a5e1a37	-0.5029363825313514
56	0xbfe5a76eafba452b	-0.6766885215930974
57	0x3fe6da287501da24	0.7141306195542865
58	0x3fdac7656543e68f	0.4184201706808403
59	0x3fd46e33bab31963	0.31922620041259203
60	0xbfb20fff00000000	-0.07055658102035522
61	0x3fcd713619af2edd	0.23001743558994905
62	0x3fdda49351946fc8	0.46316988913326584
63	0xbfd43cdba0000000	-0.3162144720554352

stacks.0.blocks.0.layers.3.weight f8 [64, 64]
0	0x3fa8c9d480000000	0.048414841294288635
1	0xbf79af7855d7a6bd	-0.006270856914378062
2	0xbfb371325696a7ff	-0.07594599355675767
3	0x3fb5dc4b83c1b93d	0.08539268461911305
4	0xbfb482e503783d07	-0.08012229284962667
5	0x3fadb2cc4dd710ed	0.05800474596211012
6	0xbfa75e3b62e4cb2d	-0.04564080793570322
7	0x3f5f3a62c0d3764b	0.0019060100924471908
8	0xbfb1adfcd64b149a	-0.06906109077233893
9	0xbf95295800000000	-0.020665526390075684
10	0xbfbcf83440000000	-0.11316229403018951
11	0xbfa205118464afe5	-0.03519491902474651
12	0xbf969255f683a0fc	-0.022042601748496246
13	0x3fb7fbafc0000000	0.09368418157100677
14	0xbfa5016c80000000	-0.041026487946510315
15	0x3f93a96a00000000	0.019200950860977173
16	0x3fb491da99c12581	0.08035055402537773
17	0x3f753fb2ddf7d614	0.005187700938667845
18	0xbfb48164b95993b7	-0.08009938740867893
19	0x3f5dedc641b1ab72	0.001826709375360305
20	0x3fbd4ba2c0000000	0.1144353598356247
21	0xbfa674ba80000000	-0.043859317898750305
22	0xbfbd61e0a706f2a4	-0.11477474286852868
23	0xbfa3534580000000	-0.037744686007499695
24	0xbfb77de137967a5a	-0.09176452262043125
25	0xbfbb04ba5795374e	-0.10554089201215541
26	0xbfb509ddb162be48	-0.08218179302888828
27	0xbfbae221030129b1	-0.10501295398095213
28	0xbfb06ec964994532	-0.06419047075293774
29	0x3fbe144440000000	0.11749674379825592
30	0xbfa504314a0c4d88	-0.041047611512250504
31	0xbfc190b4ad1c7839	-0.13722856953330778
32	0x3fa989a8cbd63481	0.04987838257066191
33	0xbfa47da69858a1ca	-0.04002113923735669
34	0xbf738d093202941b	-0.004773174208968302
35	0x3f7aed8490214871	0.006574170898675389
36	0x3fa8df0f80000000	0.04857681691646576
37	0xbf9027cb90b06e4d	-0.01577680655110063
38	0x3f8bd9fe76edf802	0.013599384312097843
39	0xbfbb36706204b640	-0.10629942315127838
40	0x3fa7f3fee418bdd3	0.04678341421492473
41	0xbf9e5351bb73c1ac	-0.029614712778256155
42	0xbfb02f1dcc630f35	-0.0632189392081813
43	0xbfa96a01f76eabbc	-0.04963689942754665
44	0x3fa8987b1441af78	0.048038336012580396
45	0xbfb035e485dec7d9	-0.06332233684841472
46	0xbfb0518bc0000000	-0.06374429166316986
47	0x3f9b079bab86c0c4	0.02639621004499372
48	0x3fb495d9b921d6f2	0.0804115368826748
49	0xbf9d861f5be61aec	-0.02883194921880776
50	0x3fbe5d8680000000	0.11861458420753479
51	0xbfc02524d389c8fb	-0.12613354043021005
52	0x3faa5d854720ad3a	0.05149475568063129
53	0xbfa7c8d600000000	-0.04645413160324097
54	0xbf970724c6ef0dc6	-0.022488188402133756
55	0x3fad692ac58426ea	0.05744298611723571
56	0x3fb414ee9cfe98e3	0.07844439823984177
57	0xbfbdb16f80000000	-0.11598870158195496
58	0xbfc0f009b3650fc8	-0.13232537517080645
59	0x3fa71628ec39dcc9	0.04509094127291175
60	0xbfa9d38200000000	-0.05044180154800415
61	0xbfafe39f80000000	-0.06228350102901459
62	0x3fba8361fb77cf6c	0.10356724156718905
63	0xbfad611280000000	-0.05738122761249542
64	0x3fb342b700000000	0.0752367377281189
65	0xbfb86a02b626748d	-0.09536759326006657
66	0xbfbc329400b3d99f	-0.11014676110412445
67	0x3faf840a6b20e8e8	0.06155426557275395
68	0xbfb38f94ec3f7369	-0.07640963332910435
69	0xbfbec2c570b8d8f9	-0.12015947343829571
70	0x3f9353edfeec8005	0.01887485378676958
71	0xbfc0f17f369fd3e0	-0.13236990134433224
72	0xbfb4626348c39287	-0.07962627912963614
73	0x3fa27cf000000000	0.03610944747924805
74	0x3f899d8607cca156	0.012507483590142126
75	0xbf934d5a19a6c128	-0.01884976178706768
76	0x3fb520941e4d4136	0.08252835979260884
77	0xbf9dcdc902240971	-0.029105320697462248
78	0x3fb01d9180000000	0.06295117735862732
79	0xbf8e1ec879135464	-0.014707151598864772
80	0xbfb2a53fb8c08cd7	-0.07283399830389513
81	0xbfb2c2b6725fcc13	-0.07328357975329451
82	0xbfbcd204bc78d3f1	-0.11257962800375744
83	0xbfbc3f92cc57d9c0	-0.11034505356642565
84	0x3fbbcf1540000000	0.10862858593463898
85	0xbfb22bf505118a2c	-0.07098323224776298
86	0xbfc49dbc88bfcc9c	-0.16106373479087643
87	0x3fb1bf43c0000000	0.06932471692562103
88	0xbfc4e8665b00c0cf	-0.1633422798490813
89	0xbfaec7c74b36e5ed	-0.060117938929987826
90	0xbfb4d14d8519b9de	-0.08131870746158351
91	0x3faf153c98635c2e	0.06070889816481216
92	0x3fa9511033baafab	0.04944658881626592
93	0x3fb1d7bbc0000000	0.06969808042049408
94	0xbf9c2c911b5a7231	-0.027513758940232506
95	0x3fb2cb22d9d439fb	0.0734121114548784
96	0x3fb0b443a218b245	0.06525061328347544
97	0x3fa3cf8873f4978e	0.038692726282803055
98	0xbfc4ca4cdf44582a	-0.16242371465404065
99	0xbfa4c4c4928fc45b	-0.040563719645327644
100	0xbf9561c500000000	-0.020880773663520813
101	0x3fa3d8df91864cb9	0.03876398707793655
102	0xbfa2f762d038e3d3	-0.03704365531707023
103	0x3fa7e49987cdb782	0.046665952518067946
104	0xbf99c7637f1cbf28	-0.025174669869726746
105	0xbfbd852b2e013bbc	-0.11531324265636916
106	0x3fb6f734828715c9	0.08970955073080868
107	0x3f8e29f63e0f5bce	0.014728473442955716
108	0xbf9a58f086ebaf23	-0.025729902491476452
109	0xbfb19f2af7fc4815	-0.0688349585946358
110	0xbfb3ed4483a5aa49	-0.07783916677514315
111	0xbfb161a35e955272	-0.06789609011804901
112	0xbfb9c9fdd4fa123e	-0.10073839616422561
113	0x3fb405dfb3a359a9	0.0782146276063488
114	0xbfb1769ec0000000	-0.0682162493467331
115	0xbfbb1011cd5eb460	-0.10571395172037645
116	0x3fa7bb583ba42fa8	0.046351201324881075
117	0x3fa14725b218ef8a	0.03374593543091382
118	0x3f95578b631f0c00	0.020841768193132992
119	0x3fb672652200bb20	0.087683029939154
120	0xbf723744526e220c	-0.004447237856660024
121	0xbfb45fb97be59f03	-0.07958564066722933
122	0xbfbfda4a4d42f4af	-0.12442459474819388
123	0x3fabbb530cdff233	0.05416354686892468
124	0x3fbff0ab00000000	0.12476605176925659
125	0x3f865a1a9d56b161	0.010914047171205867
126	0xbfa40827ea4e640b	-0.03912472472365643
127	0xbf669d6000000000	-0.002760589122772217
128	0xbfa5dafa80000000	-0.04268629848957062
129	0x3f9efedf55270f94	0.030269136020947565
130	0xbfab0057afd7ba41	-0.05273698827283058
131	0xbfb6a64b35e75fe4	-0.08847494188319122
132	0xbfa5e4ef9146406c	-0.042762266620344075
133	0x3fb805a7d69b1c90	0.09383629788782089
134	0x3fb7caba0dbc8acc	0.0929371150528297
135	0xbfb6ddf97132b92f	-0.08932456029535694
136	0xbfaa4bd1b2ad8fe7	-0.05135970407607698
137	0xbfa2132a00000000	-0.03530246019363403
138	0x3f8e494e7d54e52c	0.014788258743112147
139	0xbf73de31fe4afecd	-0.00485057381291627
140	0x3fa024614fa43464	0.03152755829987866
141	0xbfa1bbccafba69f9	-0.03463592190856341
142	0x3fb57c2800000000	0.08392572402954102
143	0x3f8e016d16b0d821	0.014651157622307011
144	0x3fab84129d15e0a4	0.05374200980708224
145	0x3fb949e0bf80e96a	0.0987835376298897
146	0x3fbbb1705ea935f0	0.10817625342425408
147	0x3faf6ae962ba2257	0.06136254625477438
148	0x3fb7a81fc0000000	0.09240911900997162
149	0xbfb6243e478a32de	-0.08649052855089276
150	0x3f8da1bad0d2ebc8	0.01446863126544952
151	0x3fa99d7400000000	0.05002939701080322
152	0x3fb5ca52b949cf43	0.08511845611229511
153	0xbfad0fd93dd6cfa4	-0.05676154022094629
154	0x3fb83eba3835c15e	0.09470714447320946
155	0x3fb16591a698defe	0.0679560691577272
156	0xbfb6258302cf794f	-0.08650988405813574
157	0xbfb89a3600000000	-0.09610307216644287
158	0xbf9dad25d5ddde6e	-0.02898081891859621
159	0xbf8ad5aabd28bf8b	-0.013102849862747032
160	0xbf7d9248a08f04d9	-0.007219585132532924
161	0x3fb034daa134effc	0.06330648837769098
162	0x3f980dfc6254d64d	0.02349085188071447
163	0xbfb31d809b09d673	-0.07466892037504085
164	0xbfb310f140000000	-0.07447727024555206
165	0xbfb0a413e8a28179	-0.06500362805900818
166	0xbfaddae0eb0602bd	-0.05831053608836132
167	0xbf854da907d9f787	-0.010402031471354224
168	0x3f992966a2c144e8	0.024571994479917786
169	0x3fb81441abe0599a	0.09405909010124561
170	0xbfa8f7e9fa54be15	-0.04876643353270197
171	0xbfc5e96cacfe4352	-0.17118605086263955
172	0xbfb1edb391fda43c	-0.07003328623035626
173	0x3fc5c92ee228a30b	0.17020212214381333
174	0xbf964331cda5aedb	-0.02174070184393782
175	0x3f9146b3507fb715	0.016871263302099388
176	0xbfa7fe44bbff9c2d	-0.04686178965476304
177	0x3fc130bd157bcc63	0.13429988430980008
178	0xbf8cd27e00000000	-0.014073356986045837
179	0x3f9c91db078d13fa	0.027900144897348135
180	0x3fb816b8bd7d8f87	0.09409670473320207
181	0xbfb7d7a534c61189	-0.09313423670216116
182	0x3fbbb80ca4670f67	0.10827712072119554
183	0x3fb7c93061178e7e	0.09291365023050877
184	0x3f994950d44de91c	0.024693739851025062
185	0x3fb17a109635ca2f	0.06826881091345947
186	0xbfb3b8bcb3e86e89	-0.07703761474879846
187	0xbfbc3595b7e44675	-0.11019263972800693
188	0x3f831e4200000000	0.009335055947303772
189	0xbf89294f0597452a	-0.01228582130252905
190	0x3fb26e03ff84f56e	0.0719912051035487
191	0xbfade06680000000	-0.05835266411304474
192	0x3faded1780000000	0.05844949185848236
193	0x3fb3416d8f5134a6	0.07521710156398118
194	0x3fa697f08cd6c75c	0.04412795752740692
195	0x3fa80bb2e9e41633	0.046964255381720575
196	0xbf9be1e385c0b655	-0.02722888473379322
197	0xbfc320265670d55d	-0.1494186327051165
198	0xbfb5130fbc9ec9e7	-0.0823221049784376
199	0xbfb6b265335b988b	-0.0886595964799161
200	0x3fa7fcb6b5b450cd	0.046849927597720865
201	0xbf987c4800000000	-0.023911595344543457
202	0xbf7b87682c69257c	-0.006720930984167036
203	0x3fa304e27b000b44	0.037146642222089216
204	0x3fb36ffa7193fbef	0.07592740319158485
205	0x3f938b60d502ac29	0.019086373330235915
206	0x3fa9cafa80000000	0.05037672817707062
207	0xbfbdfb10e9f1a5f8	-0.11711221419832174
208	0xbf9819c879769b6e	-0.023535854733974508
209	0x3fa58b79f1ba726f	0.042079745061731504
210	0xbfc6d3de106d5851	-0.17834068109613324
211	0x3fb54a6c5f40ee3a	0.0831668598702259
212	0xbfa34b5d80000000	-0.037684366106987
213	0xbfb91558afff9a89	-0.09798197075688554
214	0x3fb5b6238ed215a7	0.08481046902496435
215	0x3fa77c6500000000	0.04587092995643616
216	0xbfc3731068af2923	-0.15194897758039713
217	0xbfc1bc1dddc72186	-0.13855336503025856
218	0x3fa88fb468595469	0.04797137998381446
219	0xbfbe1f5ea096ac5c	-0.11766616268748592
220	0xbfbb58c751137a27	-0.10682340363880681
221	0x3fa74b4780000000	0.04549621045589447
222	0x3f972a15d80cc67d	0.022621480285300855
223	0xbfc1b8fae31d1747	-0.138457642455416
224	0xbf92da8ba6ba1bba	-0.018411809970100036
225	0xbfb2dc429188b6c3	-0.07367340138508909
226	0xbfccc33c26644692	-0.22470809816927734
227	0xbfb8e402c1059726	-0.09722916805693824
228	0xbfb3894d00000000	-0.0763137936592102
229	0xbfad676951d0907f	-0.05742959140505465
230	0x3fa50144ce521b12	0.04102530497134728
231	0xbf9aa7ac78005b0e	-0.0260302494280849
232	0x3fb0c058ffc7ce11	0.0654349922622759
233	0xbf94d4d613aa2b21	-0.020343155813445372
234	0x3fb58ef060814d10	0.08421232563096148
235	0x3f8b02993d9d8ed7	0.01318855017934288
236	0xbfb990f8bca187da	-0.09986834149597659
237	0x3fb291403cddcf26	0.07252885328290101
238	0xbfc0bdc2f50daf77	-0.13079106297970686
239	0x3fa6aff47e2fad6c	0.04431118049964308
240	0xbf60e27656f2def3	-0.0020611106225166763
241	0xbfb9e3be5e15832f	-0.10113134190534077
242	0xbfa3798780000000	-0.03803656995296478
243	0xbfaae94b3730a132	-0.05256114052491724
244	0xbfc5d9b5bf45c8a5	-0.1707064804027755
245	0xbfc2b231d97f61af	-0.14606307144164307
246	0xbfa5503bf396f4ca	-0.04162776325709101
247	0xbfc186a421b4200a	-0.13692142148670455
248	0xbf99644cf2b4f191	-0.02479667884220899
249	0xbfa5ffe5fdf9d442	-0.04296797490398109
250	0x3fa551656168f48e	0.041636627331606765
251	0xbfc0502531ca3961	-0.12744584017896002
252	0x3fba537f40000000	0.10283656418323517
253	0x3fba962a611c2ffa	0.1038538443646643
254	0x3fb0eacb67ce4c38	0.06608268055269739
255	0xbfa66f3c00000000	-0.04381740093231201

stacks.0.blocks.0.layers.3.bias f8 [64]
0	0xbfc23f261f7556fb	-0.14255215202381763
1	0x3fba0d7b674db01e	0.10176821968133296
2	0xbfa9dd55f6f6e464	-0.050516783139251925
3	0x3fb3a56047a9bcd9	0.07674218892656216
4	0x3faf69d47f84dc58	0.06135429436329137
5	0x3fa3052848399fc3	0.03714872247365932
6	0x3fc173f34a1da97a	0.136351023854626
7	0x3f959b730d65c6bd	0.021100804989550016
8	0x3fba1755df7aa2a1	0.10191857057601307
9	0x3fa88157e88e5b80	0.047861811769670304
10	0x3fb3c53419e89ffc	0.07722783691917806
11	0xbf89a04e7e0e08f7	-0.012512791845214795
12	0x3f8aaadb576ac002	0.013021195988898174
13	0x3fa12b6208a5e9dc	0.03353411059920905
14	0x3fa8a326002b68d7	0.04811972381658485
15	0xbf9e1d743183b913	-0.029409232637527326
16	0x3f9b84b8d9ec7737	0.026873482037550658
17	0xbfb9a42af7bcffad	-0.1001612524823929
18	0x3fad7f0563440b36	0.057609718673140284
19	0xbfa14bb5e3a2b01e	-0.033780750310455895
20	0x3fc1f3d2b419a120	0.14025338930083198
21	0xbfa7002b006eeb3e	-0.044923156550302754
22	0xbfac30966b8692c9	-0.05505819380349448
23	0xbfb58e2d279d4ba4	-0.08420068947934439
24	0x3fb11752837a62d9	0.06676212034143293
25	0x3f9149169c681d74	0.016880372330005014
26	0xbf4e1990ed8e71e8	-0.0009185750633267627
27	0x3fa5aa4b05766c23	0.04231485788042046
28	0x3f97c58958d4b530	0.02321447949104999
29	0x3fb7e1d44811df45	0.09328963050381585
30	0xbfac23a678352823	-0.05495948998812163
31	0x3fb4ba6f5d8a174c	0.08096977266003796
32	0x3fc65930d39b8f18	0.17459688503651516
33	0xbfbdb817ea8d9dd1	-0.11609029270549988
34	0x3fba4b4dbb15e426	0.1027115422965755
35	0x3fc3cdf46e975d34	0.15472274208034664
36	0x3fb3255f55284274	0.07478900746378675
37	0xbfc2aa97a91cf19e	-0.14583106763337822
38	0xbfb50eb72627c592	-0.08225578958060556
39	0x3facc7cdad8a25f5	0.05621187919048146
40	0x3fb98b567a765d81	0.09978237619212928
41	0xbfb2072a85e3047d	-0.07042184609146492
42	0xbf393711165768fc	-0.0003847519604655151
43	0xbf9a6fff82999ddb	-0.0258178637945131
44	0xbfc046cc11bdbba2	-0.12716055742518245
45	0x3faa3c2daac7512b	0.05124037465762606
46	0xbfb6b048a742887f	-0.0886273773526529
47	0xbfa1e619214cc6ce	-0.03495863467686676
48	0xbf9f5b22a55bba3e	-0.030621091215772937
49	0xbfc113d30516ad0c	-0.133417489514024
50	0x3f84abf1a6f8d606	0.010093582065660033
51	0x3fbe229ec72bab5d	0.11771576273501468
52	0x3fb325d34dddd7f5	0.07479591990508523
53	0x3fb8c1c3e99fd431	0.09670662358969719
54	0xbfb6089db793d502	-0.08606897098419
55	0xbf6b8ff4dd5b71c3	-0.0033645422471250976
56	0x3f6b2269bac14fca	0.00331230783744194
57	0xbfc231e5e1464a74	-0.14214776515708005
58	0x3fac94f6ff98726f	0.05582401151716431
59	0xbfb6b44bd499fbfb	-0.08868860187975251
60	0xbfb5daa4c9da9347	-0.08536748817512062
61	0x3fc3aa2f85197048	0.15363115309708264
62	0x3f90e8ed0e7326bf	0.01651354218191758
63	0xbfa74122c9f4c464	-0.04541882243427933

stacks.0.blocks.0.backcast_linear_layer.weight f8 [10, 64]
0	0xbfb9e2e9bda4f13f	-0.10111866836536353
1	0xbfa05a910b22dddf	-0.03194096814098279
2	0x3fd106c30850b660	0.2660377103046354
3	0xbf6e08ec8fa7aeea	-0.003666364701748627
4	0x3fc0b195d60219d3	0.13041947316760502
5	0x3fbe502cf3b8fff6	0.1184108824754729
6	0x3fa8064713ca917c	0.04692289463608554
7	0x3fb22be46d88364e	0.07098224329112066
8	0x3fc6b9f2e34e9ea9	0.17754970644931703
9	0x3fa9c203329e5d00	0.05030832283881104
10	0x3fc54912cea3413d	0.16629252519352092
11	0x3fb91b1d2b5e4e3d	0.09806997593687412
12	0x3fb0c30f3c2d311b	0.06547637194779947
13	0xbfd35d4dec0dbef4	-0.30256984760397576
14	0xbfb822c4b8fbeb25	-0.09428052440845798
15	0xbf9b67b0858f2445	-0.026762731696895043
16	0xbf9ef82697445ef0	-0.030243494970902896
17	0xbf9ce7bd8054bb5f	-0.028227768857671417
18	0x3fb3a2e461b6083a	0.07670428643726349
19	0xbf90ab06081d990d	-0.0162774031117801
20	0x3fa1ed73f381edc1	0.03501474711898878
21	0xbfaecaa73ccdc042	-0.06013987176163528
22	0xbfa4cce79a850949	-0.04062579880930401
23	0x3fd7bbaeba5142d6	0.37083023257313863
24	0xbf9dc38bb474bdd3	-0.02906626023212573
25	0x3fad452dd2dc9850	0.05716841887469626
26	0x3fbf8ee6231f277a	0.12327421529258045
27	0xbfa0c2a2400debc8	-0.03273493797220045
28	0xbf5832185df62607	-0.0014767873725268792
29	0xbf9449e8f1edc771	-0.01981319405189858
30	0x3fb15004fe009526	0.06762725068309247
31	0x3fb3aa49ac4ba9b8	0.07681713539537938
32	0x3f993d78f59968cc	0.02464856146830456
33	0xbfb1a74c273afc11	-0.06895900686048174
34	0x3fc4eda6ec253840	0.16350256472145652
35	0x3fc04a6705d4a1a0	0.12727058205315434
36	0x3fb11da1b7d23e1d	0.06685839402984368
37	0x3fbb45fcd84ef005	0.10653667717900824
38	0xbfbadf697282a646	-0.10497149511015733
39	0x3fc5eabaae75f232	0.1712258674487131
40	0xbf92865c0d891b3a	-0.01809066612829755
41	0x3fb24bd8afaf5325	0.07146982468777859
42	0x3f7a7821a07670fe	0.0064622224375876485
43	0xbf9ace79dee87b7e	-0.026178268652184304
44	0xbfb0f7cce94db97d	-0.06628113456620173
45	0x3fa73dc3b80be17a	0.045393100945093814
46	0xbfb6d163a8bcbe85	-0.08913252706110526
47	0x3f7eabf37a0c704b	0.007488204079688708
48	0x3fa9f5ab1610cde7	0.05070242542606334
49	0x3fa3080eeb8d0619	0.037170854810494265
50	0xbfcc3979ea48a7f5	-0.22050403537406252
51	0x3fabd17a20d27278	0.05433255816135313
52	0x3fb0b4ca853d28d8	0.06525865319159452
53	0x3f35aab9476afef1	0.00033061049854764187
54	0x3fb54f587fe732ed	0.08324196932444368
55	0x3fb26b09f1f9bd80	0.07194578321081302
56	0x3fa1fc10d1cf567a	0.03512623368412178
57	0x3f1c01183b568357	0.00010682783507444164
58	0xbf900aa525a88048	-0.015665607856249403
59	0x3fa7a6dd800bf074	0.046194955712025726
60	0xbfaf19f7ddbfc4d0	-0.06074499685190349
61	0x3fa5658bdf3d0e30	0.0417903623588497
62	0xbf7d34a68826fceb	-0.00713028956891935
63	0xbf9f40fda6d38176	-0.030521357829344585
64	0x3fb8b9ed0b97d52c	0.09658700497660239
65	0x3fa13729f41711b9	0.03362399201026584
66	0x3fd14f79c6ce9b07	0.27047581114531777
67	0x3f66ba91b1b029e8	0.002774509962823791
68	0xbf75bae4d4018396	-0.005305188999131702
69	0x3fc2598c7cef04ce	0.14335781193043434
70	0x3fb4f38e5631999d	0.08184136967029194
71	0x3fc1258730119e95	0.13395776602850576
72	0x3fbf38183e5f3aec	0.12194968722108585
73	0x3f81ce92c72bf8da	0.008694788649787833
74	0x3fbeb22a6c05aa92	0.11990609299906854
75	0xbfb433bf70fded71	-0.07891460903731741
76	0xbf809054a427f00f	-0.00808778882946373
77	0x3faa0bba8bcfee67	0.050870732848093785
78	0x3f81421c9dd90fb0	0.008426879470000731
79	0x3fc280dc151e605b	0.14455748587784253
80	0x3fb2fbd0609a7d07	0.07415487631304894
81	0x3fc4bd4ef0591917	0.16202723251098725
82	0xbf91156be219722c	-0.01668327872754298
83	0xbfa432f9ca479512	-0.03945141405328391
84	0x3fc679d2f43e9d2e	0.17559277463917894
85	0x3fb6ccb19620ba8e	0.0890608779452384
86	0x3fc3496af6ffe53b	0.15067803440596514
87	0x3fb7d686e0937600	0.09311717016995402
88	0x3fb6e1f2f786fc23	0.08938520949503519
89	0x3fc2a83bd87aa03c	0.1457590872789768
90	0x3fbd85826070f0b2	0.11531844000359362
91	0xbfb265cce1f98d37	-0.07186584965670738
92	0x3f8708fdab36fcd1	0.011247617518959892
93	0x3fb1b1e05a10a435	0.06912042807438541
94	0x3fbef3dd3d6aa2c9	0.12090857266833689
95	0xbf7fcd0456c01065	-0.0077638787734067615
96	0xbfa6a6493e6ebd5b	-0.044237412329830327
97	0xbfb42d4fd1602329	-0.07881640302379068
98	0x3fbf6081a0b77fd6	0.1225663201689707
99	0x3faf39a841389414	0.06098676487116719
100	0x3fb8a52bd9b59afe	0.0962703138844567
101	0x3fa6d03e7ef3d134	0.04455752658569381
102	0x3fb9b58b5c568cda	0.10042639736507245
103	0x3fc2e896f8b72c09	0.14772307533561982
104	0x3fc2ef480fbad048	0.14792729156545392
105	0x3fc48307dc15aca7	0.1602487396843106
106	0x3fcbed226f3695b4	0.21817427091916175
107	0x3fbc5b9ccae39f39	0.11077289536808345
108	0x3fc13671e45786aa	0.13447402619845167
109	0x3fc4dba06d926d12	0.16295247411913089
110	0x3fbb917f449ec1fb	0.10768886018082206
111	0x3fc94c1b8f735416	0.1976351213876632
112	0x3fc81494ff9cec47	0.18812811356642298
113	0x3fa7013f1f9e63b0	0.04493138562174381
114	0x3fc41837bdf69c30	0.15698906684448977
115	0x3fc5e0408e1fe725	0.1709061330764651
116	0x3fba5d8053e96a3b	0.10298921631457685
117	0x3fc556cb934cdd91	0.16671127979655556
118	0xbf9b0b76d3ad4978	-0.0264109198281601
119	0x3fa0a9f7d16119db	0.032546753224369694
120	0xbfb05812f6a513ec	-0.0638439037475817
121	0x3fb6cf510b2747c5	0.08910089990902666
122	0x3faf8e5976256d4f	0.061632915184157804
123	0x3fbeb2428f21ab83	0.11990753168508488
124	0xbf9ab0c37edad45d	-0.026064924829104153
125	0x3fb2cb4471703680	0.07341411370745199
126	0x3fc059e3ea70d1ee	0.1277432341318127
127	0xbf7f7988d684617d	-0.007684263728400584
128	0x3f7755eb43a9ac12	0.005697173119737735
129	0xbfb885185fe45ea4	-0.09578087178339928
130	0x3fd0adab4fe9199c	0.26059992603077275
131	0x3fb6d44f30378b1f	0.08917708327457462
132	0xbfaaa4440684d322	-0.05203449801994099
133	0xbfa0ef056e9f1405	-0.03307358718260648
134	0x3fb5b95e31b17ad8	0.08485974038328992
135	0x3fb99a9188e684e5	0.10001477806374089
136	0x3fb9c9d5ab63a223	0.10073600229555572
137	0x3fbe4853e87c2b12	0.11829113412765604
138	0x3fc6232ea7f3a2c0	0.17294867707030015
139	0xbfbf076d74c947f8	-0.1212070856211368
140	0xbfa3ae44768e71f2	-0.03843893000814437
141	0xbfd6d9df89425e10	-0.3570479240820257
142	0xbfb5b90b0204dc87	-0.08485478209773777
143	0xbf9135ec4fa66397	-0.01680726276535757
144	0x3f9a1c080c34ba0a	0.02549755644320765
145	0x3f8a74d2cbc9d18f	0.012918135494353304
146	0x3fa5fa30345589e4	0.04292441023678231
147	0x3fb98962af6c627f	0.09975258620068848
148	0x3fa1b478f059419e	0.034580020274577836
149	0xbfa5d0e3981cd584	-0.04260932189792313
150	0x3fb7365872630136	0.09067299645085289
151	0x3fd09da2c032680e	0.2596213223383764
152	0x3f830fd03928edc8	0.009307505363827753
153	0x3fb37a5aa16e8c37	0.07608572426993097
154	0x3fbeca654d4f487e	0.1202758134598145
155	0xbf77c1cdbe3e63cd	-0.0058000599709879365
156	0x3fb7af78b181b5df	0.09252123197230543
157	0x3faf465e7224cdb5	0.061083747323574945
158	0xbfab7c5edd8cfc12	-0.05368324713207796
159	0x3fc826a2a060fd42	0.18867905455588568
160	0x3fa382eb38e89a90	0.038108206459857574
161	0x3fbdce54226de24c	0.11642957535321691
162	0x3fb386e0e25bdeb3	0.07627683187808536
163	0xbf960c105b867b0a	-0.021530395113241098
164	0x3fb7e2976986d96f	0.09330126119934844
165	0xbfbb305e2a040b05	-0.10620678449417305
166	0x3fb6b4662d681ccd	0.08869017227708582
167	0x3fbb4c3d74ed221b	0.10663208107610737
168	0xbf67890abe46a9f0	-0.0028729638890656536
169	0xbfa815b3dedfb6ad	-0.04704057784679825
170	0x3fc723c43862efd3	0.18077900651212406
171	0x3fb5d703b0b242c9	0.08531210960269243
172	0x3f9d5167b53c722a	0.028630848347449035
173	0x3fc0cca9bacef630	0.1312458192968946
174	0xbf8a65b85028901d	-0.012889327951661806
175	0x3fc85efa5a2c61b0	0.1903984966563832
176	0x3fbf1b0fa0464bee	0.1215066686911965
177	0xbfa7a24350ac1c59	-0.04615984306115512
178	0xbfd355a81c9cc751	-0.3021030692499283
179	0x3fc2ddfef261f77a	0.14739977679340283
180	0x3fb66fce7acd8f62	0.08764353273505557
181	0x3fbcbd55cbc57654	0.11226402497182991
182	0x3fb3837a307b7b35	0.07622493442202656
183	0x3fb99f41660f7654	0.10008629552563636
184	0xbfa3aeaf95c92751	-0.038442122492212356
185	0x3f91c5e1e9d578be	0.017356424233519567
186	0x3fbec64cefb8d5ce	0.12021332600200837
187	0xbfa4d60103045af2	-0.040695220583236394
188	0x3fa6ec38755f07d3	0.04477096970323626
189	0x3fa112ea3a6bf896	0.03334743464618943
190	0x3fae8bf08e79115c	0.05966140498324776
191	0x3fba0c75577cf091	0.10175259958208673
192	0x3fa89783e302f8b9	0.04803096910608091
193	0xbfb0930e0dd287f0	-0.06474387967548956
194	0x3fc1025273ca1232	0.13288336423660635
195	0x3fb56b8d0b1ecd7e	0.0836723472737528
196	0x3f9a6a40259e051e	0.025795938774085696
197	0xbfc0b39d677b2ec9	-0.1304814105300152
198	0x3fa7571d7f03e7d1	0.045586511378089896
199	0xbfaed6c9182bf99a	-0.06023243351045267
200	0xbf70d819376bf92e	-0.004112337591094124
201	0x3fb21a0575f87c2a	0.07070955400602999
202	0x3fc5bc10e7e131fa	0.1698018200135179
203	0x3fb5302265ee1ae7	0.08276572216537269
204	0x3fbf4ac12b6eb862	0.1222344141994838
205	0xbfd68fc9b48da5cf	-0.35252611763152414
206	0xbfba35c351aa50dc	-0.1023828577402272
207	0xbfb0adb96f82ea1d	-0.06515082333036344
208	0x3fb87c159de152c7	0.09564337830063173
209	0xbfa7f94d62dc9563	-0.04682390052611642
210	0x3fae4ed7cc0e2f63	0.059195274027927146
211	0xbfa1f2e77acc32b5	-0.035056337108561854
212	0x3f90cff8e50d4918	0.016418351154535576
213	0x3f8111909da290e5	0.008334283648146765
214	0xbfa0c1cc75a45314	-0.032728566513617136
215	0x3fc5db9de3bf99ad	0.1707646715214656
216	0xbfa4eefa1ad9186c	-0.04088574960455635
217	0xbfa5139a9e2a0c47	-0.0411651914664835
218	0x3fb3f2348ae83b92	0.07791450873649655
219	0x3fb55e917a558b80	0.08347424732850861
220	0x3fa0ff5b501293c6	0.03319821693847973
221	0xbf857e97ce3a3aba	-0.010495363217413501
222	0xbf779f5daa69f18f	-0.005767217523154135
223	0x3fc02791612c1b80	0.12620751614323567
224	0xbfa965ff48d33787	-0.04960630191781861
225	0x3fbf6c57b4002966	0.1227469267325084
226	0x3fb8a09922af91dc	0.09620053383657229
227	0xbfa5de80b4965fb4	-0.04271318630634316
228	0x3fb4f322261389f5	0.08183492116544484
229	0xbfc187b76de96e64	-0.136954239528552
230	0xbfa8444050b83d9a	-0.0473957155737665
231	0x3fc39815c45388fe	0.1530787666916424
232	0x3f93be861de10aa4	0.01928147847525942
233	0x3fb0fecfbd7c6124	0.06638811470145761
234	0xbfaceb40c96d0b78	-0.056482338512544084
235	0x3fa067842e2be6f0	0.03203976691834309
236	0x3fb285090061811e	0.07234245547579518
237	0x3fb10b8276947a1f	0.06658187289256333
238	0xbfb974732ca39724	-0.09943313445873209
239	0xbfb6eaebf63c3c1e	-0.08952212106326882
240	0xbf97474f6bbd75b9	-0.02273296446889159
241	0x3fb2f2efa22957cf	0.07401941021939183
242	0xbfc76134b5dff870	-0.18265398865327453
243	0x3f96d1de8b6784c4	0.022284962900702934
244	0x3fc13a0e697ae4f0	0.13458423757928228
245	0x3fa1a6e878d83b4a	0.03447653269915081
246	0xbfa78c1ccd232dba	-0.045990848580540214
247	0x3fa65656efa559eb	0.0436274688278678
248	0xbfb338b776542545	-0.07508417738803981
249	0x3fb0b163daeaa163	0.0652067574943707
250	0x3fc03055c80d309d	0.12647506969586156
251	0x3facf01f01c55537	0.05651947876564594
252	0x3fbd59cad6b2fd91	0.11465137235335578
253	0x3fc4a3fa687b9463	0.16125421621032662
254	0x3fbce50b8c9313f2	0.11286995107646172
255	0xbfa0ebb2ef450d19	-0.03304824038289151

stacks.0.blocks.0.backcast_linear_layer.bias f8 [10]
0	0x3faf0ad143f73bde	0.06062940554294703
1	0x3fb22002d7ccbf7a	0.07080095070409512
2	0x3fb4541ab610144a	0.0794083303918153
3	0x3f9a9b6de9764a8c	0.025983540892023302
4	0x3fc3c6e52c884c5a	0.15450730013307884
5	0xbfb2c42c4fbb701e	-0.0733058638247148
6	0xbfb50aa1bbe58713	-0.08219347798651837
7	0x3fbf296f0a4b6f52	0.1217259788640466
8	0x3fbc61b6fad34013	0.11086600898420355
9	0xbfb3bd858a9d7802	-0.07711062082441347

stacks.0.blocks.0.forecast_linear_layer.weight f8 [2, 64]
0	0xbf9996cd9bf49785	-0.024989330905689684
1	0xbfb1f7aa4c504244	-0.07018532145617323
2	0x3fa3baaef83419c6	0.03853365688160042
3	0x3f8c4622a82b7e3f	0.013805647618425286
4	0xbfa240044370a208	-0.03564465831033564
5	0x3fa5113b7c702641	0.041147097530551686
6	0x3fb8ae04ae49dd99	0.09640530829516648
7	0xbfb3156cd58e856a	-0.07454567159449757
8	0x3fa98343848b3173	0.04982958786931393
9	0x3fbaadb4c9c5a716	0.10421304632259551
10	0x3fb4892263ba7c05	0.0802175038793252
11	0xbfa70163b82e8011	-0.04493247626601272
12	0xbfa304f1b415f1e6	-0.037147095902557756
13	0xbfb887bad5d07f04	-0.09582107276991897
14	0x3fb7092d6b497a3a	0.08998378629028361
15	0xbf564142962a3c93	-0.0013583326587285657
16	0xbf91ff6dffaf6266	-0.017575949412135826
17	0xbfab0e5db00af45b	-0.05284397863349773
18	0x3fbb4dc7c98a74ab	0.10665558500700693
19	0x3fb2a6dd457bb8b7	0.07285864778870886
20	0x3fb21c9eaab7aef3	0.07074920337589301
21	0xbf9d5af4ca846235	-0.028667282925285604
22	0xbfa4ce96eefb4ca5	-0.04063865344291998
23	0xbfb55b887f7c92aa	-0.0834279357191671
24	0x3fb558b0a28e586a	0.0833845517030071
25	0x3fa0c97a3c1237c1	0.03278715117731635
26	0x3fbb9dc2fe5d7a30	0.10787600240789952
27	0x3fa0ee18200b0d7e	0.03306651488449129
28	0xbfa6d280e7418cf3	-0.04457476447057642
29	0x3fa839ea8acd92d3	0.0473168653905184
30	0x3fb587f74099ed43	0.08410592391185383
31	0x3fb139a4e439de9b	0.06728582927632447
32	0x3fbada0269043bb4	0.10488905967598222
33	0xbfb0c6a7a91f05ee	-0.06553123358664667
34	0x3fb644de918bdf62	0.08698836377504685
35	0x3face635abcf3bd8	0.056443860266533086
36	0x3fb2aef89e338c2c	0.07298234808290321
37	0x3f97701203140e26	0.022888451993834512
38	0xbfa46c122083b691	-0.03988701483636448
39	0x3fbb72700ae011ca	0.10721493020543629
40	0x3fc5108f749e9308	0.16456788248356014
41	0xbf8c91cd4d49323b	-0.013949970170096573
42	0xbfa6353edc1bbac8	-0.04337498127812506
43	0x3fbf324617c27e25	0.12186086731025421
44	0xbfa791a14739d217	-0.04603294367271731
45	0xbf9319b1823c966c	-0.018652700017943877
46	0xbfb2517bd68d0fcc	-0.07155584323942249
47	0xbfa15bfa7ef70b27	-0.03390486526361363
48	0xbfac1a67ad1bf646	-0.05488895404958476
49	0xbfb63f5fb91461bd	-0.08690450924439737
50	0x3fb1f75e8e4e400d	0.07018080686816593
51	0x3f99f87a408498e8	0.02536192911898008
52	0x3fb8df5f7c376c75	0.0971584013235985
53	0xbfa0bac41c969702	-0.032674911966109846
54	0x3fb72f830f7d1996	0.09056872490064047
55	0x3fb78468d72a2da4	0.09186415913625595
56	0x3fa2abff104f2fc8	0.03646847795570768
57	0xbf95cfd71b65ad1a	-0.021300660178366383
58	0x3fb53ac95f11916f	0.0829282624341141
59	0x3fa0419551317c9f	0.031750360642712076
60	0x3fb8fc1e7bd31ccb	0.0975970318132681
61	0x3fa9d60c656f35d5	0.05046118486607624
62	0x3fbb160395fd1791	0.10580465709526111
63	0x3fb45f8d0353d7ab	0.07958298999059703
64	0x3f87017dd4a2e89a	0.011233313609740048
65	0x3fbf4397d5f0b944	0.1221251389804126
66	0x3fa4bf3a0de01bc1	0.04052144450547913
67	0xbfb11a377f3ac66e	-0.06680628639403505
68	0xbfa3b274955a56df	-0.038470881682924
69	0xbfb76632c993f332	-0.09140317365013287
70	0x3fb86936179d4f6d	0.09535539700055802
71	0x3fa3f632199d12cb	0.03898769915261865
72	0x3fa99b20632fe63d	0.05001164637355913
73	0x3fba6ef023f9edeb	0.10325528028800306
74	0x3fb4a379975c5241	0.08061943002059825
75	0xbfa6f82048ae4b45	-0.04486180197922932
76	0xbfafb396625f6de2	-0.06191701842154963
77	0xbfb727316e61babf	-0.09044178910128674
78	0xbfbbf8d926cf0cb1	-0.10926587293129121
79	0x3fbc5a6bc2b0e6c5	0.11075471404265176
80	0x3f8ad8996da6e82e	0.013108442934811473
81	0xbfab6891d4ca383c	-0.0535321781400033
82	0x3fbafef1244d68f9	0.10545260559357307
83	0x3fb2261af028845a	0.07089393962134363
84	0x3fb21ec37f6c0213	0.07078191624533074
85	0xbfb90273012a0ee7	-0.09769362238335653
86	0xbf85df5fa768c6d6	-0.010679957672525314
87	0xbfb512c0530fd6a1	-0.08231737163427023
88	0x3fb5586f7a77b715	0.0833806680672889
89	0x3fa1bc734e85b6a0	0.03464088758015049
90	0x3fbb5f0cbbde0916	0.10691909395794527
91	0xbfb8a8cf05bcd284	-0.09632581605985463
92	0x3f822eb5a9d01f59	0.008878154034405549
93	0xbfb109d988839118	-0.06655654509410558
94	0x3fb546489b8032d6	0.08310369297414452
95	0x3fb13a06ee480790	0.06729167287269733
96	0x3fba9238a37836ae	0.10379365912396096
97	0x3fbf0b6d26c598c2	0.12126810261324564
98	0x3fb67b5f8e70fd2d	0.08782002666065543
99	0x3fac87548a2802f9	0.0557199877403089
100	0x3fb2dc44d85500c7	0.07367353707832357
101	0xbfa90937f790edbc	-0.048898457499002984
102	0xbfb583187ae93e69	-0.08403161049613463
103	0x3fbbb7f3bb6a3fa3	0.1082756359630808
104	0x3fc4ce5356216403	0.1625465555723907
105	0x3fbc0b887e3ec9df	0.10955098230514392
106	0xbfa7b4ea5c2ec2aa	-0.0463021504905375
107	0x3fbf0ef6cd0624dd	0.12132208352535963
108	0xbfa4b1b556f3fec2	-0.04041830717505725
109	0xbf95034ef62ca123	-0.02052043321160214
110	0xbfa72c23b4e5ff97	-0.04525863250000766
111	0xbfa2946c9e582b06	-0.03628863747515791
112	0xbfae913bb2c9373e	-0.05970179135748176
113	0xbf841b70f7600dd1	-0.009817965077678988
114	0x3fb19f16533b2801	0.06883372814186829
115	0x3fa0126c9dcce94f	0.0313905661227688
116	0x3fb8f56c5eb0ca31	0.09749486266881814
117	0xbfa1bb1c1eee6b64	-0.034630659843250894
118	0xbfb27e1a1e4b9d36	-0.0722366641963291
119	0x3fb75a87fb2e448f	0.09122514612524156
120	0xbfa9293d8df3fc23	-0.04914276464295877
121	0xbfb1b788560b6d7e	-0.06920673466395574
122	0x3fb54632162d6d96	0.08310235063020452
123	0x3fa1853a26983bec	0.034219567500365006
124	0x3fb8be4f68e2337e	0.09665390310892794
125	0x3facb0d79e983f21	0.05603669939966794
126	0x3fbb0409907ad94e	0.10553035523739604
127	0x3fb3d4ed30e30bae	0.07746775096442945

stacks.0.blocks.0.forecast_linear_layer.bias f8 [2]
0	0x3fa3c6179e411d11	0.038620698993833476
1	0xbfa4e7c70544ea8e	-0.04083082141228998

stacks.1.blocks.0.layers.0.weight f8 [64, 30]
0	0x3fa7aea2f785a995	0.046254246440031434
1	0xbfba61cc70f03713	-0.10305478818210316
2	0xbf8ccfdd8f3984cb	-0.014068346913690985
3	0x3f80bbb4df3ee59f	0.008170521796148132
4	0x3fa0f5a33fc3d457	0.033124066861923644
5	0x3f87acde669d9d73	0.011560189730245729
6	0xbf901701b55b693e	-0.015712763494641672
7	0xbfa43e820bcc5c97	-0.03953939813634937
8	0x3fa829eddd4ff316	0.047194894090330106
9	0xbf7c8b54a7c8244a	-0.006968813595912124
10	0xbfae8c995b8526d7	-0.059666435644044995
11	0x3fa3f3c43b7f9836	0.03896916605280902
12	0x3fb34d82a32d944b	0.07540146335448232
13	0xbfaeed92523ad7a6	-0.06040627721578966
14	0xbfb34863d6232a9a	-0.07532333353007417
15	0xbf75a8df96a4497d	-0.00528800334201873
16	0xbfa8b9c044339067	-0.0482921679738702
17	0x3fc3310a330a7179	0.14993407718874233
18	0x3f83af0296303680	0.009611149032959121
19	0xbfab31e3f2580a49	-0.053115008671757176
20	0xbf91bd4880d7bdaf	-0.017323620666443492
21	0xbfa5da75b97253b9	-0.04268234146835632
22	0xbfa869a1f82b77c1	-0.047680913490452344
23	0xbfa5ce5740b2ef9b	-0.04258988060743648
24	0xbfc1574dffc1e4da	-0.13547682750848972
25	0xbfbe6b6b0c122e53	-0.11882657093718167
26	0x3fb3360cf1e749db	0.07504349618765309
27	0xbfc0cef755625561	-0.13131610554834608
28	0xbfd13f85dc9561c9	-0.2695021299491854
29	0xbfd37182a5dfa775	-0.303803121553407
30	0xbfc0dcdb0131adbd	-0.13173997457793787
31	0x3f9592e4edd7fd5e	0.02106816960985946
32	0xbf9b9858a4be12bf	-0.026948342375834097
33	0xbf94a525816103cb	-0.02016123392263917
34	0x3fc02ed4c2b43905	0.12642917162924774
35	0x3fa47e31b20f315b	0.040025284753570665
36	0xbf8e99847444bdae	-0.014941248701318379
37	0xbf909e9e187f8d13	-0.016230077977422996
38	0xbfa2997af68dc1f8	-0.03632721194924565
39	0x3fb56042e9b9a76e	0.0835000820749465
40	0x3fa4abc21e96eb5a	0.04037291167647679
41	0x3fbffb0f462d7d17	0.12492461646387586
42	0x3fbf5f834211aa87	0.1225511585522928
43	0x3fb3b68f5b19b67d	0.07700439428455215
44	0x3f7f78522215d573	0.007683106262779449
45	0x3fa3cce40f343175	0.03867256818384394
46	0xbfb2032fdd30fdd0	-0.07036112928562166
47	0xbfb16f124390d1b5	-0.06810106420090885
48	0x3fbb6bcacf1fb490	0.10711352879271119
49	0x3fa54687fd07544b	0.04155373538711923
50	0xbf908db8c40a6539	-0.016165625539177973
51	0x3fc042a627b1a4be	0.12703396738223732
52	0xbfb573978600b79c	-0.08379504224350715
53	0x3f96029f97802575	0.02149438249765497
54	0xbfc021c5c9e98d4d	-0.1260306583309138
55	0xbf69bd332dc37c49	-0.003141975363277126
56	0xbfb693664ef06623	-0.08818664004538639
57	0xbfb1a43f3db6c77b	-0.06891246086777685
58	0x3fbbfe068d579de3	0.10934487295855137
59	0x3f7fcbb2fd009ac0	0.007762622044572509
60	0x3fafcb39657d9e03	0.06209735263729146
61	0xbfa407bf71d6f875	-0.03912161125798345
62	0xbfa9608acdf9128f	-0.049564683573895534
63	0x3fa63e874989bc8c	0.043445804335413646
64	0xbf746960b9532a2f	-0.004983308627922996
65	0xbf8f63554eec6cab	-0.015326181860976304
66	0x3f77d67a884b8251	0.005819777147480013
67	0xbf986c2ceb3896b7	-0.02385015664744713
68	0x3fb02e3c12e04879	0.0632054849704974
69	0xbfad88c3de159b4a	-0.05768405996314259
70	0xbf975cebfa842552	-0.022815406003279755
71	0x3f7adfd9f495b3e3	0.006561137569730288
72	0x3fadda56d29bea65	0.05830642052565763
73	0xbfb8969a92b3aacd	-0.09604803163135074
74	0xbf8b6b0b5a1fd7e0	-0.013387764633062404
75	0x3fa4ff3b388ce625	0.041009760525821094
76	0xbfa7656439ae4a65	-0.045695430794826554
77	0x3fb407ff2c2a4329	0.07824702099084092
78	0xbf7c98173d041cad	-0.0069809825656711845
79	0xbf819e761ff7ef9d	-0.008603022432900615
80	0xbf9eda90f7f84d5d	-0.030130639204867794
81	0xbf80cb8479d75fb4	-0.008200678795148388
82	0xbf953b1d993cf22c	-0.02073332069197613
83	0xbfa40522b3d932d6	-0.03910168118873052
84	0xbfb082dcb58b6043	-0.06449679786908384
85	0x3f9fff8ee5ee9852	0.031248314651428473
86	0xbfb5684da6c6d3b4	-0.08362279245086662
87	0xbf8fa82531144d26	-0.015457430420190276
88	0x3fb0b8f3d4159032	0.06532215049588855
89	0x3fe3e960bad91e02	0.6222385072114209
90	0xbf7c6bd45be9470e	-0.006938771750883322
91	0x3fb6c88e2efc8ffb	0.0889977326119719
92	0xbfb50c90d563d26d	-0.08222298822131231
93	0x3fbc6f38ad70abf2	0.11107210382822055
94	0xbfbb0455f936ff3c	-0.10553490957590567
95	0x3fa679c4627a6c83	0.04389775945784271
96	0xbf96ac8376dabb91	-0.022142461900041936
97	0x3fbddd6c1648be72	0.11665988487288262
98	0x3f1a156850065a56	9.950112508359232e-05
99	0xbfae86ebd858d2b1	-0.05962311759905015
100	0xbf9a56a1a80ceb41	-0.025721097833620424
101	0x3fa9fc9de3de33ab	0.050755437913813616
102	0x3f84bfd286108094	0.010131497112581912
103	0x3fa8c5b0468f2a9e	0.04838324414557359
104	0xbfbebbaa1f376aad	-0.12005103361245047
105	0x3fa4cf2b4a0e8e17	0.0406430747891841
106	0x3fc0a19998adffdd	0.12993164019644513
107	0xbfc10ad56311e3f4	-0.13314311349293428
108	0x3fc082b8c5f25abb	0.12898931184164106
109	0xbf97e64aa8c9571c	-0.023339430381688606
110	0x3fb86a3950261eb4	0.09537084776649857
111	0xbfb30b55951bdcb8	-0.07439169779159982
112	0x3fc101c23d558d2a	0.1328661727412535
113	0xbfc0ecb6df0d2fbb	-0.13222394839465132
114	0x3fc07842436cf681	0.12867000858561897
115	0x3f85ba3849090a14	0.010609092453823833
116	0xbfa300c9ddb38da7	-0.03711539107623745
117	0x3fc191e61ff25e8d	0.13726498184108885
118	0x3f7b255f66dbf6f0	0.006627438224084278
119	0x3fc5b86936c0a80d	0.16969027684655238
120	0x3fba37b677265168	0.10241260918548323
121	0xbf87c8a0b7b13139	-0.011613135915603411
122	0x3fb0f3ee24cce4f1	0.0662220802158975
123	0xbfafab6e2cffa1db	-0.061854784958828644
124	0x3fadaf84553be1ec	0.05797971287205769
125	0x3fb455e6628ce129	0.0794357290841431
126	0xbfb8b1665afd7c48	-0.09645690652313121
127	0xbfac395a6507041b	-0.05512506945843417
128	0x3fb34fb1fcda6bd9	0.07543480323003794
129	0x3f86fdb520386f1c	0.011226096196927986
130	0xbf9b42b79c3e0606	-0.026621693526527344
131	0xbfb7723d0cc97cf9	-0.09158689081367645
132	0x3f98100a61d6e4e2	0.023498689862866302
133	0x3fc3107ab245364a	0.14894040779693035
134	0x3fbd581b18836cc3	0.11462563847037459
135	0x3f9b6590bcbaca72	0.026754628676551602
136	0xbf90446030c86447	-0.015885832765068632
137	0xbfb484e32272f4f8	-0.0801526984314086
138	0x3fb759ce8ab8fdee	0.09121409308226422
139	0xbfc35810d3976f85	-0.15112505275362423
140	0x3fc4ce2be0b8620e	0.1625418517367198
141	0x3fb04d2cdd2baab5	0.06367760085746961
142	0x3fb8c64c344db0cf	0.09677578236523064
143	0xbfaf676245dd5169	-0.06133563139761373
144	0xbf8d4ae4475c46dd	-0.014303000858066845
145	0x3fc61a1ceee86c89	0.17267190614152053
146	0xbfb4249af1f0c000	-0.07868355185269138
147	0x3fcd9e27e0038145	0.23138903082054632
148	0xbfb3251a4a7e8061	-0.07478489226059672
149	0x3fca03501c545386	0.2032261026694437
150	0xbf8ccde529681cb0	-0.014064588857776478
151	0xbfb2ec4cd44ca4d7	-0.07391815360155661
152	0x3f794a2486193ab9	0.006174223586255572
153	0xbfbe14c79803aa98	-0.11750457249915269
154	0x3f7fd71adc92a772	0.0077734994203327735
155	0xbf87d0cf5af3f9aa	-0.011628742182890079
156	0x3fbbaba9a0815b53	0.10808811348520679
157	0x3fb9620e30cbb943	0.09915245715430836
158	0xbf9b1f851b7665f7	-0.026487426568200658
159	0x3f9bca3199958af9	0.02713849544432898
160	0x3f9b99b64ba53b71	0.026953552596121925
161	0xbfbd83921955e887	-0.11528885954422395
162	0x3fb4c9e5170687ff	0.08120567142626099
163	0xbf8707a5861ef55b	-0.011245053439661026
164	0xbfb7a2d42c744e85	-0.09232832036314605
165	0xbfc8f29fbd792d9c	-0.19490429641369367
166	0x3fbaf1ba8bd8273b	0.10525098718804042
167	0x3fbc4c1ea56dc7a1	0.11053649462499361
168	0xbf9a7d138e0fba12	-0.025867753549329527
169	0x3f26ee4c272a6668	0.0001749484977906946
170	0x3f8acc638f2f729a	0.013085153395814775
171	0xbfaa6758d4922635	-0.05156972498759808
172	0xbfb3e786eb432c99	-0.07775157207213325
173	0xbfb927793e86cea8	-0.09825856949356171
174	0xbfcbfeab686bd868	-0.2187093982572066
175	0xbfc16f9c55d9d09a	-0.13621858779845725
176	0x3fc055af189b354e	0.1276148672244894
177	0xbfba29c677c6bcd0	-0.10219993995882537
178	0xbfc47fc6e1142944	-0.1601494406716687
179	0xbfa11c73ad033735	-0.03342019545526257
180	0x3fb278354a63d2d8	0.07214673105392977
181	0x3f951e00c0af388d	0.020622264633680266
182	0xbfbfc91283e64776	-0.12416187019542044
183	0x3fc2307f514f9e20	0.14210502119316093
184	0xbf90c82592515474	-0.016388499312899943
185	0xbfc2fc30980dd5d1	-0.14832122253908023
186	0xbf96f509cd8f52d8	-0.022419121905687373
187	0x3fbecaa6c25df550	0.12027971501625712
188	0x3fac11fa8e8f08ee	0.05482466688364861
189	0xbf92b8592a2f8015	-0.018281357955743333
190	0x3fc0aeba2a7d4842	0.1303322513072676
191	0x3f9af078861e6c2e	0.026307948289837117
192	0xbfc74ddf189e8e5a	-0.18206394865147751
193	0x3fbb1b74e88fb5ab	0.10588770559089393
194	0xbfbd0b04d45dbefb	-0.11344938454362456
195	0xbf96b6d6979921fc	-0.022181847575014388
196	0xbfb24f76a24061ae	-0.07152501546113996
197	0xbfc147e867cac942	-0.13500695293402926
198	0x3fa0127ae1a311e6	0.03139099125249682
199	0xbfa55b51f7ba08e8	-0.04171234272964047
200	0x3fc037b68294a140	0.12670022369389677
201	0x3fa4ab9c56594287	0.0403717856794446
202	0x3fa43abe83ee031a	0.0395106826827087
203	0x3fb1b8db26679006	0.0692269295464599
204	0x3faa02c55caea655	0.05080239063620399
205	0xbfc0027b79ec6091	-0.12507575467384816
206	0xbfc68ee50fed2fb2	-0.17623580243741582
207	0xbfc6ff6cc5c73fa2	-0.1796699491228511
208	0xbfb2f78e6dd6406f	-0.07408991033139654
209	0xbfc13769e2aada85	-0.13450358932250964
210	0x3fc06e50fc83607e	0.1283665879225317
211	0xbfc48c095402aa69	-0.1605235729415029
212	0x3fb240dbd5210995	0.07130216554018028
213	0x3fb8d6a447b09da7	0.09702517271272502
214	0xbfba8efd5e1262df	-0.10374434992480584
215	0xbfafdd3eadf74d85	-0.06223483918770526
216	0x3fb607351571d424	0.08604747556258069
217	0x3fb84eb195bda3b6	0.09495077043324227
218	0x3f84cbac65bf7838	0.010154101233578058
219	0xbfb8ad7203389fba	-0.09639656618730799
220	0xbfb4b3d3efb7bf49	-0.08086895563587605
221	0x3f98448997d06b2c	0.023698949709891767
222	0xbf9f17972911cf48	-0.0303634280030132
223	0x3fbd7bf49c9b5898	0.11517266105087953
224	0x3f95c02ab6a05c51	0.02124087085402621
225	0xbf94687672ac9610	-0.019929743527560773
226	0x3fbf0869f15e7bbe	0.12122213499831866
227	0x3fb2b8e8290bddc1	0.07313395502193655
228	0xbfb638f2b320c90d	-0.08680645821803896
229	0xbfbcedff01759bcd	-0.11300653253202526
230	0xbf86bfe63a950cb7	-0.011108206427371632
231	0xbf979f5b56dcba88	-0.023068835426949735
232	0x3fa3487e990dd73f	0.03766246431670916
233	0x3fc5b42391f496cf	0.1695599043534259
234	0xbfc3ef9edbd501cb	-0.15575013860690343
235	0xbf9337a11650146d	-0.01876689623533816
236	0x3fb7e059ab31cf92	0.09326706342272775
237	0x3fc99b21cf409abc	0.20004675502533142
238	0x3fa5deee2cb73c9a	0.04271644874426635
239	0x3fd34492c3bb33dd	0.30106038202648994
240	0x3f51755aaeb071e9	0.0010655770845523444
241	0x3fa84821a4ed419c	0.04742531908289324
242	0xbfbd7902f8727145	-0.11512774053193649
243	0x3fa35e5447edbc4d	0.03782904985461553
244	0x3fba322a4510aaa1	0.10232795892867809
245	0xbfb4e9a85cc8e064	-0.08169033303500012
246	0xbfb54da66f2635ed	-0.08321609700779904
247	0x3faba870755f6bbe	0.05401946480534246
248	0x3fa258f9a1dc8e57	0.035835076340188614
249	0xbfab4158799b123f	-0.05323292240567356
250	0xbfa4d8963e899f49	-0.04071492684744144
251	0xbfbaa4d4e3ee03a7	-0.10407763065997121
252	0xbf5bd45f1e67fafd	-0.0016985825437811346
253	0x3fb039c551aa0c4b	0.06338151210552316
254	0x3fa635fb41aec52d	0.043380595939547774
255	0x3f997c3e0d3b2fa9	0.024888009603088488
