darts_logs/2022-11-19_13.34.11.863391_torch_model_run_12548/checkpoints/last-epoch=0.ckpt (torch, 318132 bytes, 44 tensors)

stacks.0.blocks.0.layers.0.weight f8 [64, 2]
00000000: 0000 00e0 3e26 e0bf 0000 00c0 f999 e2bf
00000010: a18d 5ff3 abe6 d23f 3eed 7d7f 28a8 e7bf
00000020: d2e3 2167 a1ae bd3f 9fc0 ddaf ebcc d93f
00000030: acc6 12bc bbb7 bdbf e2e8 af8f 2afa e23f
00000040: 2b36 4a9c af08 d9bf c4a9 103c 88fc d73f
00000050: 915e 20c7 7787 d13f 49bd f30d 7e6a bbbf
00000060: 08ad 9aae f85f db3f 5bb8 9903 44e8 acbf
00000070: 2700 3a4d ecc4 e7bf 6899 5046 530c d2bf
00000080: 063d 5fb3 f7e7 ddbf 4361 6056 83c4 c33f
00000090: 0000 0040 1461 d8bf 0000 00e0 48be e4bf
000000a0: cac3 0e9a 7eea b03f db4c 3e2d 789a f3bf
000000b0: 10c4 c570 a91d c13f eb70 3cdc f4f1 e6bf
000000c0: 4074 03e6 9304 e33f 2385 dbd5 1330 d33f
000000d0: 7095 89be cc8d e3bf a7a8 2aaa 24ec e6bf
000000e0: 0000 0000 2afc d0bf 0000 0000 35e5 b33f
000000f0: 0905 9a0e 1c62 b03f 935a 25b2 9122 f0bf
00000100: 58b7 46d3 c14f cfbf 9599 a6bf da94 e63f
00000110: c53b 56ec 3d02 e23f 69b0 f044 7c7b b93f
00000120: 15ba dac6 a7cb d03f da2a 212b 6c71 e5bf
00000130: 2cce a537 a284 ce3f f6ac 63e8 4e8d a83f
00000140: 0000 0040 07aa d3bf 0000 0000 ea2f aebf
00000150: f633 4c19 16ef d8bf 796b eae5 d6f8 efbf
00000160: 9ee0 b658 7ab0 db3f cba1 1017 b599 e3bf
00000170: 0000 0000 29f1 bebf 0000 00c0 9b70 e1bf
00000180: ff6a af63 9093 d7bf d29a ca55 6bdd e13f
00000190: 1ca0 6dc9 ce6d bcbf 4fce bf20 9410 e43f
000001a0: 1d9a 671f fdc3 dd3f a95f 7477 7c9d 613f
000001b0: a662 0f12 95b4 c93f edf2 7ab1 9919 d23f
000001c0: 121d 3eac 6ad5 d03f 20b3 d30c 4785 d83f
000001d0: 0000 00c0 b879 e3bf 0000 00c0 f3df debf
000001e0: d4b8 25b9 b707 c73f aab0 0c7c 7ee4 e33f
000001f0: 3cc3 a696 7fb8 80bf c594 66f7 e811 d1bf
00000200: a125 c845 22b3 da3f a897 6699 d939 d1bf
00000210: a650 790a b7af db3f 0ce8 f7e7 6f16 d23f
00000220: de12 f361 c439 d9bf cbc3 f394 b45a e23f
00000230: 75b5 6cd3 8dee c53f 9c17 e3c5 7cb2 e13f
00000240: 0000 0020 b8af d6bf 0000 0000 f05c 92bf
00000250: f101 409a 9651 d0bf 6712 7a8e ebd3 e43f
00000260: 49d4 75e0 f5eb eebf db89 eeb2 aae7 973f
00000270: b56b f9b9 26ad c83f 9286 7d21 a5ce e4bf
00000280: 8dfa 573b bdb7 bcbf 408e 4930 35ab dd3f
00000290: 5ac6 5fb8 08e6 e53f fd3e 89e8 fa38 e13f
000002a0: b7ee fed7 4f81 d5bf b768 7df9 adba e23f
000002b0: bf90 bfc5 9151 e6bf 78b0 953d 55db cc3f
000002c0: d7ab 4b1e f4f9 b1bf 9194 13c6 d3dd dc3f
000002d0: 5fdc bf50 d2aa d43f a9ea 26df 38fa e6bf
000002e0: 9fee 0b60 0edd e0bf 28d4 fa69 c3ff d6bf
000002f0: eedd e2c4 0a2c b0bf 55ab f249 c46d a93f
00000300: b624 c2c6 8ad8 cc3f fe75 a14f 8ad6 d63f
00000310: 0e3c 808c c7de cd3f cf3c 069d 4907 c6bf
00000320: 0000 0080 62e1 dabf 0000 00a0 5e03 d4bf
00000330: edaa 86ce 30b0 e43f a232 9fc0 a3e5 963f
00000340: b92c 7146 a987 e1bf 57d6 e7a2 6a94 ea3f
00000350: 4439 5608 3105 e1bf 6383 21de 3dcc f0bf
00000360: c265 5b00 d532 e43f fcce 8dce f329 d4bf
00000370: 3614 3aa8 74de 9bbf 2607 d3e9 b9cf c53f
00000380: 68c3 b14a 9108 e63f 622d b95d daa5 dfbf
00000390: ec26 af9d 6624 dbbf 3aca 1db4 adec e6bf
000003a0: c373 78c3 d954 e6bf 7662 201d 2786 e43f
000003b0: 57a5 b1f4 47b9 c3bf 0e2e 5f79 efdd ca3f
000003c0: 0000 0000 c07e 92bf 0000 0040 1663 e0bf
000003d0: 511a 5e59 ea7c e8bf cf3e 9e64 fb2b e2bf
000003e0: 308a 6eff 3124 e43f 3ad2 7b8f 11eb ab3f
000003f0: 0000 0000 9062 bdbf 0000 00e0 45c0 d2bf
-0.504668653011322 -0.5812958478927612 0.29532908217353265 -0.7392771234584996 0.11594589965706284 0.40313236402927005 -0.11608479825624823 0.5930378729238124
-0.3911551500576446 0.37478834024173246 0.2738933033556146 -0.10709369507434476 0.42773263026420283 -0.056459546508322155 -0.7427884586650223 -0.282002276102864
-0.4672831775360041 0.15443460195161593 -0.3809252381324768 -0.648228108882904 0.06607810269521433 -1.2252122657126197 0.13371770864935728 -0.7170357038008012
0.5943088047457721 0.29980941662332067 -0.6110595437464053 -0.7163260768477543 -0.26539087295532227 0.0777161717414856 0.0639970336578878 -1.0084397276711214
-0.24462149444792192 0.7056707137278858 0.5627736679033367 0.09954048808202888 0.2624301378190535 -0.6700955240606519 0.23842265813037622 0.04795309626373438
-0.3072527050971985 -0.05895930528640747 -0.3895926711127794 -0.9991259089032233 0.4326463571883411 -0.612513108299987 -0.12086731195449829 -0.5449961423873901
-0.3683815930832423 0.5582787204374091 -0.11105053346329935 0.6270237578996304 0.4650872046171644 0.00215029058348289 0.20082343465653202 0.28281252224023384
0.2630259210640854 0.38313461544639615 -0.608608603477478 -0.482418954372406 0.17992302456281684 0.6216423437922647 -0.008164402756706594 -0.2667181411764655
0.4171834641898276 -0.26915588360349796 0.43259979269829285 0.28261945393717336 -0.3941508251703406 0.5735724362585811 0.17134259055584847 0.553038012026025
-0.3544750511646271 -0.017932653427124023 -0.25497975409964996 0.6508691580534788 -0.9663037666310937 0.023344676180963347 0.19278415756965975 -0.6502252248867129
-0.1121786374933242 0.4635746928745199 0.6843303299958265 0.5382055799218218 -0.3360175713857915 0.5852880356644822 -0.6974572050353557 0.22544351107660865
-0.0702202390636296 0.45103926032454306 0.3229261196679029 -0.7180446966588835 -0.5269843936834667 -0.35936055516805476 -0.06317202860633817 0.04966557886776594
0.22535834031103769 0.35684449936329077 0.2333611904182082 -0.17209739844518032 -0.4200063943862915 -0.3127056658267975 0.6465076478683308 0.022360380775171003
-0.5478102088758511 0.8306172544241218 -0.5318837321117731 -1.0498636891354287 0.6312050826047015 -0.3150605694893185 -0.027215788619759894 0.1704018012733794
0.6885458430170788 -0.4944978633181646 -0.424096731174912 -0.7163914220712464 -0.6978577440055392 0.6413760727765083 -0.15409182975717314 0.20989793230397463
-0.01806163787841797 -0.51209557056427 -0.7652484651051258 -0.5678688969801103 0.6294183720495479 0.054527806058022724 -0.11478519439697266 -0.2929854094982147

stacks.0.blocks.0.layers.0.bias f8 [64]
00000000: 0000 0000 6f94 bcbf 9f98 1327 704d c23f
00000010: b774 87cb 018f e43f 313f 1fcb ecad c73f
00000020: 81dc f19a eb5d e33f 0b0f 23b4 e2a8 cd3f
00000030: d10a aa96 4003 c5bf 0662 1c0a 67e1 e13f
00000040: a5c1 71f7 c3c4 d43f 0000 0040 3ba1 d4bf
00000050: 3667 a811 126b d53f 3485 128c 340f e53f
00000060: 0e8d e6fa a668 e6bf 3c91 bc8a 9f24 d23f
00000070: 0000 0000 bc2b dfbf 5f71 c734 ae44 d83f
00000080: 31d2 b6db 15f8 c1bf 1dca 53fe f7c2 d9bf
00000090: 31b5 0de1 5dac d03f 8b36 de38 91bf db3f
000000a0: 0000 0020 dec3 e4bf 67cc 42af 5b7b de3f
000000b0: 48fc 37fb 75d2 b23f 0000 00e0 6a18 e2bf
000000c0: ce07 3e41 9603 43bf fbe8 191d 163a dfbf
000000d0: 2cf7 2f63 a501 b7bf 01f0 dd3e 47d6 c7bf
000000e0: e72c 4818 4b73 e43f 0000 00a0 b98d debf
000000f0: 5380 a39a cfa7 dc3f f53e ec32 4ea4 da3f
00000100: 4c48 76a1 e5e0 df3f b2b0 6fea 3873 e23f
00000110: 19d3 ccf8 3adf ad3f 5218 5459 d567 e0bf
00000120: 0000 00e0 ef24 e5bf 33e9 b691 348c e03f
00000130: bb96 4a7b 84b3 de3f f183 f1d5 2352 e23f
00000140: 8e70 6067 99a1 e2bf bc5b fa7e 294c e7bf
00000150: 70f2 a0ea c7f1 d43f 6c83 6df3 b5eb c43f
00000160: 1a2d 318e 2e81 dbbf 08ac 349a a599 e33f
00000170: 85da f948 8dad c53f fd94 171a 1b07 e43f
00000180: 4804 389e f632 e43f bedc 9646 f5ec d43f
00000190: 0000 00c0 16bd e5bf 8f20 4ed0 2dec 3fbf
000001a0: ffc2 1c5f 89cd d1bf 9ef4 c2df 1d23 c83f
000001b0: ea23 5336 eeec e23f 9e12 6245 8d7a e0bf
000001c0: fa92 135d 1034 e6bf aed6 a6e3 cbdc e63f
000001d0: 16de 89bc 4fa5 da3f f620 d859 08b6 d43f
000001e0: 0000 0000 ff0f b2bf e6ad 6a11 1e74 cc3f
000001f0: c7c7 1284 b79d dd3f 0000 00a0 db3c d4bf
-0.11163991689682007 0.14298822315249013 0.642456910627195 0.18499526899403798 0.6052148844018036 0.2317164783072417 -0.1641617522874044 0.5587649533727592
0.3245096126984442 -0.32234078645706177 0.33466006969830475 0.6581061111248006 -0.7002749348070283 0.28348530338759637 -0.4870443344116211 0.37919192461210643
-0.14038346508245206 -0.4025249465622965 0.26052042940030434 0.4335673385001903 -0.6489096283912659 0.47627918353391013 0.07352387793797377 -0.565480649471283
-0.0005802615801118129 -0.4879203113738552 -0.08986886664930854 -0.1862267548530099 0.639073893952994 -0.4774002134799957 0.44774236775811466 0.4162784096997563
0.49810162322785767 0.5765652254899776 0.058343737479310494 -0.5126749748894872 -0.660758912563324 0.5171149106966254 0.4797068790452205 0.5725268534262097
-0.5822264689518464 -0.7280471305883718 0.3272571364684955 0.16344332109568016 -0.42975963483759616 0.6125057231741957 0.16935888350754538 0.6258674153911269
0.6312211122714269 0.32696277516829386 -0.6793321371078491 -0.0004870998239359181 -0.27816995895686597 0.1885716765008611 0.5914221821814156 -0.5149599414003949
-0.6938554590129506 0.7144526907274746 0.4163398114392022 0.3236103894601138 -0.07055658102035522 0.2222936234514769 0.46275127313412806 -0.3162144720554352

stacks.0.blocks.0.layers.3.weight f8 [64, 64]
00000000: 0000 0080 d4c9 a83f bda6 d755 78af 79bf
00000010: 1204 3541 b8c6 b3bf 6394 e1b6 02bf b53f
00000020: 966d dee6 ba02 b5bf 689d ccc4 37a1 ae3f
00000030: cc16 95a9 5e3e a7bf 4b76 d3c0 623a 5f3f
00000040: 5db6 b44f 67c0 b2bf 0000 0000 5829 95bf
00000050: 0000 0040 34f8 bcbf e5af 6484 1105 a2bf
00000060: 03e5 c07d 52ff 94bf 0000 00c0 affb b73f
00000070: 0000 0080 6c01 a5bf 0000 0000 6aa9 933f
00000080: 01ac ca35 a871 b43f 94f9 1e38 c832 753f
00000090: b793 59b9 6481 b4bf f321 64cb 065a 763f
000000a0: 0000 00c0 a24b bd3f 0000 0080 ba74 a6bf
000000b0: 66fb ce62 8b1a babf 0000 0080 4553 a3bf
000000c0: 1969 de00 7e07 b8bf 77ee b881 3edd bcbf
000000d0: 19aa 6fa9 99b2 b4bf ab0c 6172 1fac babf
000000e0: a3bc cf29 93dc b0bf 0000 0040 4414 be3f
000000f0: 8e6f 11fa 8586 a4bf 3978 1cad b490 c1bf
00000100: d72a 2ca2 7160 a83f 1dbe 5fef 7278 a5bf
00000110: 4319 40d0 dd6c 7abf ca79 84bc 787e 833f
00000120: 0000 0080 0fdf a83f e138 ea53 f2b9 8cbf
00000130: 6029 1cca a4bc 7d3f 40b6 0462 7036 bbbf
00000140: 3c36 b67a 100e a43f c009 0698 cc4a a0bf
00000150: a048 c4ef f603 b1bf d303 df9d 73bc acbf
00000160: 8ade ed78 d8a9 a93f 4e80 8c4f b7ef afbf
00000170: 0000 00c0 8b51 b0bf 5f0d e041 2b42 9a3f
00000180: 5ee0 7619 1887 b43f c90e c8f7 ff31 9dbf
00000190: 0000 0080 865d be3f 3b41 8dfd 6025 c0bf
000001a0: 3351 4b01 f81a a83f 0000 0000 d6c8 a7bf
000001b0: dfce 4b49 1b9f 92bf d552 0647 3a56 ad3f
000001c0: 22eb a83f edf7 b43f 0000 0080 6fb1 bdbf
000001d0: 6636 8797 c074 c0bf 020e fc84 eeb9 a63f
000001e0: 0000 0000 82d3 a9bf 0000 0080 9fe3 afbf
000001f0: 8d2a f56a eb7d ba3f 0000 0080 1261 adbf
00000200: 0000 0000 b742 b33f 59ec c6e5 f447 bdbf
00000210: 329e 88c9 e047 bcbf a6bd b7df 6cb0 af3f
00000220: 831d d700 c362 b2bf 0e15 6422 ac3e bdbf
00000230: 2262 8510 c253 983f 1855 3f8e 63f9 c0bf
00000240: a023 b3c1 7a5a b4bf 0000 0000 f07c a23f
00000250: 37e5 04c6 fdfc 873f 7d73 6d80 a37d 93bf
00000260: f278 2826 6465 b63f 11a3 e400 c9cd 9dbf
00000270: 0000 0080 911d b03f 71c4 925a 019f 8fbf
00000280: 36ba 5041 4b5c b2bf 6fa3 c29c f99e b1bf
00000290: a9ce 9cd9 a8e0 bcbf 718c 0a6b dbcd babf
000002a0: 0000 0040 15cf bb3f 19a0 5d04 f52b b2bf
000002b0: 4c21 49ad 4e24 c5bf 0000 00c0 43bf b13f
000002c0: 2d22 8801 b124 c3bf 09f8 4037 3d0f acbf
000002d0: fccd faef 78ba b4bf 09c1 87f1 58c6 b03f
000002e0: b233 c4dc 96bb ab3f 0000 00c0 bbd7 b13f
000002f0: ee36 b9ab d972 97bf 1270 278d f3e5 b23f
00000300: 1090 fdb9 f5d0 b13f d9fc 8470 a232 a63f
00000310: 24f1 193f 34d9 c1bf 3633 f59b 7227 a2bf
00000320: 0000 0000 c561 95bf 00f8 f737 6074 a63f
00000330: 621b 8e69 fe06 a3bf 3765 2d8c d7c0 a73f
00000340: 7e17 b58b bac3 5d3f 6c03 2d3e 18b9 bdbf
00000350: be81 1876 f335 b83f 5587 2c7e e1a2 8d3f
00000360: 7b2a cd39 c1dc 93bf 5861 7022 aea2 b1bf
00000370: 9538 f082 44ed b3bf b256 a07e d51e b0bf
00000380: 7a4f 843f 0103 babf 3e24 a875 674c b53f
00000390: 0000 00c0 9e76 b1bf 6db6 a6dc 650e bbbf
000003a0: 6b33 2406 579a ab3f aacd 6fb8 2547 a13f
000003b0: a447 8b7a ea61 993f 20bb 0022 6572 b63f
000003c0: c625 4861 dd1a 6ebf 5201 9798 9170 b4bf
000003d0: e843 1fbc ce37 bfbf be51 3967 3dfa ad3f
000003e0: 0000 0000 abf0 bf3f a217 7fa3 1a5a 863f
000003f0: ec77 9825 a9c9 a1bf 0000 0000 609d 66bf
00000400: 0000 0080 fada a5bf a193 dc6b 923b a23f
00000410: 4681 448b 13d6 b0bf 61c9 b5d8 e5d6 b9bf
00000420: c603 aa3d 0466 b2bf 9da6 443d e929 b53f
00000430: e16d 8aa9 0626 b53f f55c 4602 3b7d b4bf
00000440: 0ca9 64bd 0222 9cbf 0000 0000 2a13 a2bf
00000450: e600 96f3 b45c ac3f fc9c c46d b2a0 973f
00000460: 6d37 6fa4 37ec 953f aa23 b052 fbae 73bf
00000470: 0000 0000 287c b53f 30b4 d746 6ccb b13f
00000480: 9f2c 932e 6fb8 a23f 364c c91f c92c b73f
00000490: 3251 3bc5 e753 bf3f 34be 0cc8 0f36 ab3f
000004a0: 0000 00c0 1fa8 b73f 9f0f 5d56 57d7 aebf
000004b0: 30ad c6fa ccba 9d3f 0000 0000 749d a93f
000004c0: 0dd4 d19f 1e90 9d3f 162e 3dc0 8a18 b2bf
000004d0: 5dd0 486c ec80 b53f 155f 0bec 88d7 ac3f
000004e0: c6f6 61c5 a5fa b7bf 0000 0000 369a b8bf
000004f0: ca09 8df9 70a9 a5bf 3675 27c5 445a 923f
00000500: e3c7 b8ec cce5 8dbf bb09 e38d bc53 a83f
00000510: 63bb d203 25af b1bf 6e55 e434 6be2 b5bf
00000520: 0000 0040 f110 b3bf e159 df2d 222b b5bf
00000530: bba2 20da b87b 9abf 0ef4 5b0f fefb 983f
00000540: 9b25 829c 6183 93bf 1167 ba9f 0475 b43f
00000550: 04be 549b 3204 afbf e2cd d632 69d3 c2bf
00000560: 7bef af36 043d b6bf 9c91 0d95 c9d6 c93f
00000570: 0ccf f4f6 b331 853f 30b6 f165 f530 57bf
00000580: c900 0bed 7d49 afbf e58d 1f0f 9867 bd3f
00000590: 0000 0000 7ed2 8cbf bf42 aa67 143c 963f
000005a0: 3f38 4e51 0de2 b03f 7802 b45e ab5c abbf
000005b0: 9aa1 260c 4ea4 b93f 1055 d434 a85a b73f
000005c0: a4d8 a1ae 0cf4 a83f 2989 4d17 7a60 ba3f
000005d0: 7233 cf44 6adf bfbf b104 a517 73fe c0bf
000005e0: 0000 0000 421e 833f ce35 5109 328c 9c3f
000005f0: 8bfc 3dea 212b af3f 0000 0080 66e0 adbf
00000600: 0000 0080 17ed ad3f 7c35 c7e1 df79 b83f
00000610: 024a bdde 93d7 a43f fcb7 fe99 9194 a73f
00000620: 2e8a c732 2c1b 9bbf c5ae 07e5 f023 c3bf
00000630: 2f7e 55d0 0786 b6bf ec26 2c7e a552 b6bf
00000640: 978a 260f bfbe a93f 0000 0000 487c 98bf
00000650: eb95 2933 f4e7 75bf f427 8435 3fb2 a43f
00000660: b4c2 17a6 5d57 b23f 0996 2798 b470 963f
00000670: 0000 0080 faca a93f 33eb 6be0 4a6c bdbf
00000680: 80f9 1562 4d25 98bf 61db 64e1 5178 a33f
00000690: 8a4c e3f4 1e74 c6bf 7e1f 6c35 ba78 b43f
000006a0: 0000 0080 5d4b a3bf 2131 c77c f399 b8bf
000006b0: 3dac a4d7 7a39 b83f 0000 0000 657c a73f
000006c0: d446 62a9 f6f9 c1bf a765 a060 06ce c1bf
000006d0: f621 5010 66d5 a63f eaba 7719 72ba bfbf
000006e0: 4e62 b92a 38a9 bbbf 0000 0080 474b a73f
000006f0: 873c 8be6 5414 933f 4712 45f5 a9a5 c1bf
00000700: 7adf 4d5c f60a 97bf 39d3 5b45 3e9b b2bf
00000710: 12ca 9248 8aba cabf 4647 a739 f6ea b8bf
00000720: 0000 0000 4d89 b3bf 8399 fb7a 9864 afbf
00000730: ddb2 bb4e d467 a63f a41e 8c02 70b2 98bf
00000740: 00fd 7ca0 a3c4 b03f 4a29 009c af48 99bf
00000750: 6d6a 479e 44b4 b53f b768 1b3e b651 903f
00000760: 2868 7d42 989c b9bf be30 9c9c 0b8d b33f
00000770: 168e dccb 0b6b c0bf 026f 41bd aed2 a63f
00000780: e0f6 7ccd 3570 72bf 80f4 4426 1612 babf
00000790: 0000 0080 8779 a3bf ad72 9020 86ba adbf
000007a0: 8304 607c 341f c6bf 0e36 58e5 677b c0bf
000007b0: 9d2b 6b9e 7849 a6bf 0a20 b421 a486 c1bf
000007c0: cda5 6433 8078 93bf 7b55 7721 c4c2 a4bf
000007d0: 0977 ff75 8d3b a53f 694f eb08 8fe0 c0bf
000007e0: 0000 0040 7f53 ba3f b2c9 ed51 0a6a bb3f
000007f0: 434d b117 5d0b b03f 0000 0000 3c6f a6bf
0.048414841294288635 -0.006270856914378062 -0.07725097267122319 0.08494584050056768 -0.08207290779539841 0.05982374455771372 -0.04539771862122918 0.0019060100924471908
-0.07324834533638964 -0.020665526390075684 -0.11316229403018951 -0.03519491902474651 -0.020505227017769034 0.09368418157100677 -0.041026487946510315 0.019200950860977173
0.07985926926873789 0.005175382715547978 -0.08009938740867893 0.005456949749949025 0.1144353598356247 -0.043859317898750305 -0.10196753656690091 -0.037744686007499695
-0.0938643219109604 -0.11275091807413583 -0.08085022341371263 -0.1041888860936974 -0.06586570521152395 0.11749674379825592 -0.040088831687824386 -0.13722856953330778
0.04761080841679693 -0.04193457767530282 -0.006451479395769791 0.00951856923398688 0.04857681691646576 -0.014026539979820675 0.007259982785181002 -0.10629942315127838
0.039169802646125323 -0.03182067256695431 -0.06646674493484506 -0.056125271817570564 0.05012394405542604 -0.06237576337866867 -0.06374429166316986 0.025643039603904124
0.08018637296379569 -0.02851104688490017 0.11861458420753479 -0.12614071255166856 0.04708075538443026 -0.04645413160324097 -0.01818506846298262 0.05729848973274946
0.08190806202121029 -0.11598870158195496 -0.12856299780689823 0.04438729642245322 -0.05044180154800415 -0.06228350102901459 0.10348388062736032 -0.05738122761249542
0.0752367377281189 -0.11437922105589972 -0.11047177238707986 0.06189289313249029 -0.07181948442950241 -0.11423755492804252 0.023757011659968914 -0.13261074491189428
-0.07950560788152794 0.03610944747924805 0.011713011365474741 -0.019033961022944624 0.08748460704416397 -0.02910532062483912 0.06295117735862732 -0.015439997269228041
-0.07172079414952112 -0.06883201672702709 -0.11280303299718732 -0.10470363009749108 0.10862858593463898 -0.07098323208413183 -0.16517051182951048 0.06932471692562103
-0.14955723357003717 -0.05480376529202153 -0.08097034319762736 0.06552654167876794 0.054165567826295016 0.06969808042049408 -0.02289905653588325 0.07382127948898212
0.06959472456725302 0.04335506080178115 -0.13944104272003088 -0.0354572120073499 -0.020880773663520813 0.04385662730418005 -0.03716273344530553 0.046393142568101835
0.0018166848884262061 -0.11610557096447643 0.09457322724529768 0.01447082678129489 -0.01939680018703392 -0.06888855305476704 -0.07783916661012065 -0.06297048894370041
-0.10160835076049848 0.08319708464127104 -0.0682162493467331 -0.10568844449036315 0.0539118952748144 0.0337459361689086 0.024787582139488187 0.087683029939154
-0.0036749194935097066 -0.07984266257608866 -0.12194530575585782 0.0585498035913221 0.12476605176925659 0.010914047350421733 -0.0347416742699663 -0.002760589122772217
-0.04268629848957062 0.03561074797315845 -0.06576654577339011 -0.10093533077978158 -0.07186914926025087 0.082670762498902 0.08261148108652307 -0.08003586583651041
-0.02747349053348906 -0.03530246019363403 0.05539479707204169 0.023073947858532215 0.021408910189897257 -0.004805547457189011 0.08392572402954102 0.06951023797564981
0.03656337207356696 0.090527124653179 0.12237404408671607 0.05314683262838252 0.09240911900997162 -0.06023667268030341 0.029032900625378832 0.05002939701080322
0.028870085243813338 -0.07068698113760549 0.08399846690810038 0.05633190041925055 -0.09366832798874744 -0.09610307216644287 -0.04230835958744057 0.01792247250874831
-0.014598465894866968 0.04751385910050795 -0.06907874434794574 -0.08548612633997774 -0.07447727024555206 -0.08268941516812546 -0.025862587274022113 0.024398774802637795
-0.01905586736441976 0.07991055392849612 -0.06057890077715558 -0.14707674963356882 -0.08686853728425874 0.201867292194163 0.01034870717430849 -0.0014154812304484447
-0.0611075736865146 0.11486196870060146 -0.014073356986045837 0.02171356089326326 0.06594928011892963 -0.053441386518902456 0.10016334339764513 0.09122706689625582
0.048736950223358805 0.10303462094228578 -0.12450279407421563 -0.13276518492242453 0.009335055947303772 0.027878553217581196 0.060875949710856046 -0.05835266411304474
0.05844949185848236 0.0956096578804217 0.0407072266958899 0.046055364654748104 -0.02647084293301754 -0.14953433211427672 -0.08798264347341765 -0.08719858484633008
0.05028340396826996 -0.023911595344543457 -0.005348161607434214 0.0404224160029826 0.07164559655189856 0.021914312159330183 0.05037672817707062 -0.11493366221467909
-0.02357979689758727 0.038027342571175245 -0.17541872937599506 0.07996715358978965 -0.037684366106987 -0.09609910770740672 0.09462707295158253 0.04587092995643616
-0.14044078131387627 -0.13909988134473147 0.04459685277112506 -0.12393868562478941 -0.10805083315916272 0.04549621045589447 0.018632246562273493 -0.1378681609732146
-0.022502755531121 -0.07268132394149242 -0.20881775420782894 -0.09733523280672526 -0.0763137936592102 -0.06131435872321147 0.043760904894815524 -0.02411818519160981
0.06550047557992755 -0.024691337486765698 0.08478192199928865 0.015936706104959977 -0.10004569648063522 0.07637093137253978 -0.12826678709198863 0.04457613048790955
-0.0045015432040693415 -0.1018384784155888 -0.03803656995296478 -0.05806368968499007 -0.1728273017215863 -0.12876604746308867 -0.04352929052182406 -0.13692142148670455
-0.019014361511983147 -0.04054844769022289 0.04146997514156509 -0.1318529885817228 0.10283656418323517 0.1070867967626217 0.06267339542801147 -0.04381740093231201

stacks.0.blocks.0.layers.3.bias f8 [64]
00000000: b9be cb94 8543 c2bf aab9 8c0e 4f1d bb3f
00000010: 75a0 c2c7 1d61 b3bf 1fb3 a43f ed0c b33f
00000020: bd0f 8b0c 0510 a83f 6142 abe3 32fe a13f
00000030: 0e5a 343b aaff c03f 096b ac4d d0d2 9e3f
00000040: a869 fb27 f0ed b73f fa91 1e52 0df6 a63f
00000050: 7007 79e9 a34d a93f f708 0e7e 4ea0 89bf
00000060: a923 837a 7d3d 8a3f 6713 2f89 741b 833f
00000070: 8948 8a00 26a3 a83f 2249 210a d586 8ebf
00000080: 5089 a75a cb39 9a3f a877 b592 f9e7 bcbf
00000090: 2b72 0035 f886 ac3f e6d9 38d2 536e abbf
000000a0: 249d 7cc1 28eb c03f 26a2 623a 1bc5 a8bf
000000b0: 836c 492c 24e0 a6bf 9b09 840b b6ac b6bf
000000c0: a766 866d 1a9a b03f 3d9f 733b 52be 653f
000000d0: a962 cb31 5a8f a9bf 2132 7416 e7d8 a13f
000000e0: 17e2 ba01 a40e 9b3f 0a92 3c67 b3a1 b63f
000000f0: ce4c 9584 19d9 aebf d0f2 d5a5 f7fe a73f
00000100: b960 2abd ca81 c23f 465e b903 4689 bfbf
00000110: 21db 7407 c15b b73f 481e 3d12 3088 c13f
00000120: 18e8 c3f8 60bd b23f 8403 1fe5 3513 c3bf
00000130: 17e6 25ef 0141 b5bf a465 3570 23c8 a83f
00000140: 0bc9 dd89 f2c9 b33f ee03 0987 a885 b0bf
00000150: 4ad5 ae0e 8d93 91bf e235 12ac 5ccb 9fbf
00000160: 5080 1b00 1cc0 bfbf deb3 4a49 8373 a63f
00000170: de2d 2464 f9e9 b6bf ff0a e37c 1055 a9bf
00000180: ee85 9d57 5c13 9ebf 96da cdc2 f57c c1bf
00000190: 3b6e e87e 270c 3dbf 549b 4dac 72a5 bd3f
000001a0: b5de cc30 aad5 a33f 476a b2ac 4640 b63f
000001b0: 305e a110 bda1 b6bf 98cf fcae 38b9 a0bf
000001c0: bfd8 a605 6164 743f 744a 46e1 e531 c2bf
000001d0: 603e 4ec6 78f6 aa3f c8c5 c60a 9ffc b8bf
000001e0: 1f3d 11e5 6372 b7bf 4220 3beb 22c4 c23f
000001f0: 5ff3 bc0b 52e9 913f 707d fc1b a9e5 b1bf
-0.1426856018583658 0.10591596703736764 -0.0757006275840711 0.07441599658768581 0.04699722078433364 0.03514250783121465 0.1328022755703419 0.0301010653885028
0.09347439743161223 0.04484597804483666 0.04942047333726307 -0.012512791845214795 0.012812595654752306 0.009329710423011851 0.048119723859728465 -0.014905609485286467
0.02561109295664582 -0.11291465598830419 0.05571723601335451 -0.05357610646426618 0.13217648933025672 -0.04837880218230266 -0.04467881241426943 -0.08857286244532363
0.0648514287371663 0.0026542287920285055 -0.04992181642382338 0.03485796116919838 0.026423037152854514 0.08840485830712211 -0.06025008910605721 0.04686712169038787
0.14458593594168237 -0.12318837729378015 0.09124380523722354 0.13696862116397512 0.0732021910988866 -0.14902375876956964 -0.08302318657469986 0.048401935050331774
0.0773002230251089 -0.06453946396597107 -0.01716442491643492 -0.03104920196760997 -0.12402510645506593 0.043850043007615844 -0.0895076627240807 -0.04947711491106154
-0.02937073025475983 -0.13662597667617565 -0.00044322933436699894 0.11580578524227053 0.03873950811106167 0.08691827503427262 -0.08840543418897862 -0.03266312728956605
0.004978541367043287 -0.14214776515708005 0.05266168041918884 -0.09760469449135833 -0.09158920614685372 0.14661060796629682 0.0174916095413552 -0.06991059239634523

stacks.0.blocks.0.backcast_linear_layer.weight f8 [10, 64]
00000000: 83c6 1590 a249 b8bf bf0d 57de c154 a2bf
00000010: afff d8ae 552a cf3f 789e 7182 d461 59bf
00000020: 72f3 b7ab 26a8 c23f c104 e3c1 c223 be3f
00000030: fdb5 594a 1d8b a73f b3aa 4eea 1bd2 b43f
00000040: 5d84 ef32 a1d6 c73f ebad bcc4 7ce7 aa3f
00000050: 4a99 2f15 a0cc c53f 3d4e 5e2b 1d1b b93f
00000060: 410a 3092 9469 b43f 551a 1d7b dc37 cdbf
00000070: 0d88 b9b8 c422 b8bf 415b f3e8 6b7e a0bf
00000080: 9823 0704 9be3 a1bf 669f 7376 2a17 a0bf
00000090: 936f 2f71 a17b b43f f8b8 5f84 f481 8dbf
000000a0: 0c1b 103e 07c9 a33f a973 942e 426c afbf
000000b0: 731e 28ad a1da 98bf b262 2f98 40c0 d63f
000000c0: 07e0 8ee0 3983 a0bf d2c3 7ec0 2350 a83f
000000d0: aaf7 7791 7d94 c23f 95a5 1a30 6eca 9abf
000000e0: f1fe 5c9e eb6e 303f e3c9 44b8 c980 90bf
000000f0: ea37 4d36 05b7 b23f e818 595f 0898 b33f
00000100: 5e28 49d9 875a 7b3f cafb d296 4aec b0bf
00000110: 59f9 cd6f ebb2 c43f 947f cce4 04de c03f
00000120: 6813 e39e 9f47 b13f 7f50 9af1 d0b8 b93f
00000130: c225 4f65 d70a b8bf 2729 2f99 a79d c73f
00000140: 97c6 3762 e1f6 94bf 1425 edca 45d0 b43f
00000150: 681a 9e06 c6d1 97bf c6c3 8cc8 1a9f 8bbf
00000160: 9f1b cdf4 3913 b1bf 2f84 6c44 f6e8 7f3f
00000170: 6a6f c389 e3db b6bf 0bf7 0a08 d387 663f
00000180: 189b 2ee8 645d ae3f 1d9f 6b51 6686 a83f
00000190: 20d5 ee8e 9553 c8bf 9a8d 14ea 03e3 a23f
000001a0: 78c6 01f3 332f ae3f 8cf0 9117 f4ad a1bf
000001b0: 7c65 221f 6262 b53f 54c7 42c8 fd24 b33f
000001c0: 0ce4 355a ca3e a33f 5783 563b 1801 1c3f
000001d0: 33f2 5ba8 c2ed 9cbf 5f00 42a1 e242 ab3f
000001e0: 7fb8 e168 a9a3 b0bf 096e f869 6260 a63f
000001f0: 479c 0cf2 c9c0 86bf 8a4a 550c 4e65 a0bf
00000200: 2670 8d9e e6cc b83f af4f 0d8d f402 a33f
00000210: 3801 34ec 5cc3 d13f a8d0 aaa3 a58f 253f
00000220: 34c7 ad19 5bc6 72bf e75e 7da3 1be2 c13f
00000230: 2829 a1c7 558e b43f f14f b033 b737 c03f
00000240: 60dc d1cf 3947 c13f f466 ef66 b531 873f
00000250: 3fa3 9779 cc05 c13f 71ed fd70 bf33 b4bf
00000260: 4c20 dc67 873a 66bf 94dc 76bc f85f 96bf
00000270: dc98 bf9d 1c42 813f fd4f 1f99 d9d6 c33f
00000280: 7e32 a665 a6b6 b33f 8d68 aa62 f630 c43f
00000290: 00af 0057 938a 93bf 31d3 dbc0 dea0 a9bf
000002a0: 3a3f bbf9 5f7a c73f 58cf bb21 74df b73f
000002b0: 7ca2 3dca 5787 c33f 750b 5a01 129f b23f
000002c0: 6d0a 3795 4977 b63f 684e e251 91c7 c33f
000002d0: 8969 f902 a0f1 bb3f 288f a6ca 3998 b3bf
000002e0: 3ad7 2a75 31d6 823f eafb 65b8 3aa0 b23f
000002f0: 220a 7c3e 286e c03f 42da 8cb8 a079 72bf
00000300: 4648 50ff 4705 a9bf 86a2 bffd 5d98 b3bf
00000310: a7a3 91eb 97d2 c03f 8fd1 d9ac 57ff b13f
00000320: 2c18 3e3e 197d ba3f a8b2 9f32 c6a4 a63f
00000330: 9acc 2ad2 4a43 b93f 37c9 2b03 9e43 c13f
00000340: 286d bf5f 3d81 c43f bb75 0dad 5408 c43f
00000350: 1f52 c3aa e9f6 ca3f 29a3 bafe 2b06 bf3f
00000360: d448 52d1 aee6 c13f d3e3 4146 5da4 c43f
00000370: afe7 bf94 8384 bb3f 2cc5 306e 54f9 c83f
00000380: d0d9 85ee e111 c83f ec2e 702c 55f3 aa3f
00000390: 6da1 9844 6324 c03f 051e 975f 129c c43f
000003a0: da76 84d6 ec33 bf3f 3eda 5379 9030 c53f
000003b0: 86e9 ea36 3eb1 99bf 54ae a5c0 51f8 a03f
000003c0: b435 ac57 16a0 aebf c547 270b 51cf b63f
000003d0: b783 7859 fd77 b33f e586 b9a2 d62f c03f
000003e0: e545 5b90 0415 a2bf d12b 6549 43cb b23f
000003f0: abcc bebb 1c02 c13f 8721 9a7e 90d9 7abf
00000400: 4bca f72e 4a79 753f a64b 98da 9158 b9bf
00000410: e832 bce3 e511 cd3f fb8b a144 42ba b73f
00000420: 7390 7c23 f3b5 adbf be8b 1e17 4375 9bbf
00000430: 0cf0 ea82 ca00 b33f 70f0 313e a2b9 b73f
00000440: 0fcc 3da9 a4f8 ba3f bdf4 a247 7cbd bb3f
00000450: 2e01 d2c2 3ae6 c53f f847 c974 6d07 bfbf
00000460: 18d5 c745 7c8e a2bf 9126 f24e 3b1d d2bf
00000470: f4ce 3f02 0bb9 b5bf 4a33 87cd 00a0 6dbf
00000480: a629 eb05 8523 9a3f 9caf d9f7 b242 9d3f
00000490: a5bd 4c41 80f7 9f3f 86bd c1c4 6ad1 b83f
000004a0: e99a 0a76 26ff a03f 048c 50b9 3af5 a6bf
000004b0: 5b43 9529 06f7 ba3f 88f4 930a f816 ce3f
000004c0: a4a8 0cf2 39e8 51bf beca e329 1a33 b73f
000004d0: 7acc ad86 431a b93f 5631 d482 c7d8 5bbf
000004e0: 8b1c dfa9 47ff b73f 1860 74ee 341e af3f
000004f0: 5542 475a ffbf b1bf 94b1 a294 1227 c83f
00000500: 370d c124 dcb6 863f b9db e345 f041 be3f
00000510: 2cde d3d6 0191 aa3f 3924 97c9 b2d0 a1bf
00000520: 550c 1c1f 6ab9 b83f 9ffe ebb8 3e76 b9bf
00000530: 884c 0e73 d67a b83f d2af bbd3 70fd bb3f
00000540: 6d73 a392 665e 9cbf 58a9 20b5 19d0 a8bf
00000550: bfa1 64fd 30ad c13f 96fe 190d fbca b53f
00000560: 3c7f bcab f221 a03f 6ab8 748f c305 bc3f
00000570: 6f7a 0773 6bc3 8abf 1848 4099 404c c73f
00000580: 7497 a278 7bcd b93f 8919 f962 3d75 a7bf
00000590: ad81 5151 0446 d1bf ea23 c83c 822a c43f
000005a0: 2fb3 67fd ae5a af3f 0103 bb18 409d b63f
000005b0: ffb9 c5a2 550c b33f 7a94 f464 93b7 b63f
000005c0: c925 bae0 584f a1bf be78 d5e9 e1c5 913f
000005d0: ae6c fb38 8e1a bb3f 440d 3c43 3302 a3bf
000005e0: 1cf6 5dc9 1547 a03f 9a9b 5663 5937 a13f
000005f0: 5cad 4d02 d3bf a73f a2c5 0fe6 fce7 b73f
00000600: ded0 4949 cd09 aa3f bacd 8d06 f5b4 b1bf
00000610: ba3e daaf 6f5c c13f 13d7 68fd 6bb0 b63f
00000620: 4c39 7b4f 776b 833f 2ccc 544c ce64 c0bf
00000630: 54e3 bfcd fa3a a83f 0e70 a4e5 5540 a5bf
00000640: 4232 c91a 7b39 7cbf 24a8 2c30 0280 b23f
00000650: 7d39 f363 f636 c63f e71a ee65 2230 b53f
00000660: a622 8969 ef43 bf3f d6eb 4e45 f6bc d5bf
00000670: fb46 7b51 c335 babf 7670 0947 3c9d aebf
00000680: b9c7 9348 36dc b73f dfa7 1404 8cdb a3bf
00000690: 62ac 11e9 bd11 af3f 59ba b75e c4bc a4bf
000006a0: 00d3 6ed4 77fb 8c3f b99c 18b9 0bcb 813f
000006b0: 4aa8 866a 5ef9 9ebf b308 a2e3 81ef c53f
000006c0: 690f 2398 6eb6 a6bf 1afd d5cd 5fb9 b1bf
000006d0: 8337 3737 150c b13f dbf9 04f0 d10a b63f
000006e0: 6fa8 80d1 4800 a63f 3f93 dd6d bd1b 83bf
000006f0: ff26 93c5 c132 493f 179e 7f22 4d8c c03f
00000700: 6d97 6737 2b82 b4bf c96c 8c5f fc5a c13f
00000710: 6a5e 7454 fc2b b83f 2980 804c 7f28 a5bf
00000720: 4852 e693 fa5e b83f eb6e e78b bf96 c1bf
00000730: 8078 aa16 7907 acbf 03cf c991 ca53 c43f
00000740: b2ee db8e bd93 853f f295 196d b087 ab3f
00000750: e67f beaa a55e b4bf 4e62 cd04 9030 a23f
00000760: 3e01 906b 2f5e b33f 01eb 9643 87a2 af3f
00000770: f0fc f0d7 407d b9bf 1fef 01e6 dd2a bcbf
00000780: 5235 38df 4c01 a5bf 5b1d e903 3506 b23f
00000790: adb1 b320 4e04 c3bf d0d4 59f6 6da6 993f
000007a0: 489b 3235 fd46 c13f 1db1 b09e 585c a93f
000007b0: 812a ebf3 fc44 a8bf c20b 726b e800 a33f
000007c0: 2db8 0fa2 f853 b4bf 63a1 eada 63b1 b03f
000007d0: 5e37 1426 0cfe c03f a91c a05e b98f b13f
000007e0: 62f2 7bfb d930 c03f 2959 b130 ff66 c53f
000007f0: e1be 0677 f59b bd3f ad92 bf3b 1a7b 9ebf
-0.09487358110143344 -0.03580289687263471 0.24347945249064426 -0.0015492034233605383 0.1457565630406879 0.11773316606106034 0.0459832337627226 0.08133100958245158
0.186237478133111 0.052547358527899345 0.17030716928929684 0.09806997593687412 0.0797360283759554 -0.2282672501698523 -0.09428052434807928 -0.03221451967845335
-0.03493961738747159 -0.0314267415613461 0.08001145375550171 -0.014408026017886474 0.03864309914211192 -0.061372821985265454 -0.02427151316990579 0.3554841505224814
-0.032251175557974014 0.04748641705317137 0.1451565704628 -0.02616283577541408 0.0002507519951571022 -0.016116287109250293 0.07310516906474587 0.07653858497460286
0.006678133639590992 -0.06610552007894835 0.16171019515236187 0.13177548572366204 0.06749913815572273 0.10047632120614657 -0.09391542647713094 0.18449873904894185
-0.02047302400564507 0.08130298809296149 -0.023261160043626466 -0.013487061734481897 -0.06669962145416129 0.007790529233518347 -0.08929273713459698 0.002750312968003215
0.05930629095319356 0.04790038818265272 -0.1900507877268547 0.0368882392160927 0.058953879751141025 -0.03453028476448691 0.0835324598323463 0.07478319300824171
0.03758842803194548 0.00010682783507444164 -0.028250733877017885 0.05324466913680292 -0.06499728022183325 0.04370410483917559 -0.011109903048760595 -0.032022894864572285
0.09687653895292722 0.03713192197633874 0.27754900995934717 0.00016449830021303857 -0.004583698139741622 0.1397127674379057 0.08029686092155386 0.1267003061662986
0.1349861397500005 0.011325280383903437 0.13298946320653646 -0.07891460903731741 -0.0027134556429509234 -0.021850477698276707 0.00842687946710579 0.1549942014377165
0.07700576764745823 0.15774421518000672 -0.019083311257573676 -0.05005546669227668 0.18342208570401813 0.09325338195395483 0.15256783843075883 0.07273972065926933
0.08775768177933126 0.15452782152407285 0.10915565559972697 -0.07654153058552693 0.009197603595889715 0.07275740625298935 0.12836173106195853 -0.004510524574291854
-0.048868417659961014 -0.07654368824990784 0.13142680170429097 0.07030246706000852 0.10347135324090634 0.04422587745634604 0.09868304854426171 0.13487601427875415
0.16019408393081247 0.15650423478920836 0.2106601795009206 0.1211879250428295 0.1398523828580155 0.16126600199257143 0.10749075299818743 0.19510894184490135
0.18804573198913355 0.05263773124178592 0.12611046647476645 0.1610129324674149 0.12188606488458778 0.1655445663852379 -0.025090190984636183 0.033144526258948176
-0.05981511898253747 0.08910089990902666 0.07604964670510027 0.12645991273443893 -0.03531660329975831 0.07341404477953907 0.1328769604420804 -0.006555141860765785
0.0052426240722405855 -0.0990077170065847 0.22710870380287607 0.0926858346515899 -0.05802879150567799 -0.02681450680359964 0.07423082061990288 0.09267629640993547
0.10535649425382608 0.10836006878794797 0.17108854782782984 -0.1212070856211368 -0.036243327634944034 -0.28303415975151675 -0.08485478215134973 -0.003616334503226436
0.025526121603243766 0.02857474935301206 0.031217578874188984 0.09694545081742065 0.03319664183555011 -0.04483970176831778 0.10533178820811655 0.2350759555483004
-0.0010929647325590786 0.09062350771618363 0.09805700338420023 -0.0016996334409809708 0.09373901269201405 0.060777334316469644 -0.06933589891492294 0.1886924005278955
0.011090965148588523 0.11819364267635891 0.051887567018578856 -0.03479536734409589 0.09657920131216831 -0.09946052565282536 0.09562435444813577 0.1093359486509933
-0.027703859996893444 -0.04846268020658567 0.13809788105687734 0.08512848920690383 0.03150900217428762 0.1094629502519823 -0.01306804604331299 0.1820145366951358
0.10079166121667332 -0.04581634362380089 -0.26989849034546404 0.1575472637926219 0.06123873561214165 0.08833695033809975 0.07440695976195143 0.08873864378672805
-0.033808495934021084 0.017356424233519567 0.10587395564236843 -0.03712616153463924 0.03179233630269726 0.03362540567041279 0.04638537791364669 0.09338360420931349
0.0508560325587568 -0.06916743669517347 0.1356334313063508 0.08862948357349536 0.009482318986013503 -0.12807635047065113 0.04732497941581096 -0.04150646618128927
-0.00689075553652835 0.07226575542577557 0.17355232124686984 0.08276572216537269 0.12213035894923027 -0.3396583248938304 -0.10238285769744586 -0.05979336135052986
0.09320391914277949 -0.03878438520253246 0.06068223447876943 -0.040502678453653025 0.014151512308538283 0.008688060365854221 -0.030248141528922447 0.17137168517007736
-0.044360595771222595 -0.06923483634271968 0.06659062002219511 0.08610260114526318 0.042970920156521035 -0.009330253520326457 0.0007689901496174821 0.12928165611741413
-0.08011121847775167 0.13558916726547057 0.09442116796378178 -0.041324594582193015 0.09519926176864957 -0.1374129708409478 -0.05474451448138584 0.1588071071488387
0.0105356988165036 0.053769601171364104 -0.07956920069273074 0.03552675303098295 0.07565590263402996 0.061786868096040955 -0.09956746360784385 -0.11002909531992743
-0.04102554535721005 0.07040721269105658 -0.14856888386510772 0.025048940812173737 0.13497891519110738 0.049532670375216116 -0.04740133740923103 0.037116301647095465
-0.07940629917695281 0.0652067574943707 0.13275291308712672 0.06859930572692242 0.12649082927227356 0.16720571401192189 0.11566099315563917 -0.029766473671673555

stacks.0.blocks.0.backcast_linear_layer.bias f8 [10]
00000000: ab57 1f72 cca4 ad3f 2e38 e746 c726 b23f
00000010: 7ec7 7067 a7c3 b23f f959 6184 3c5e 933f
00000020: 11e3 a4c2 042e c13f 1cf3 78c6 5213 b0bf
00000030: 2ab6 f710 f959 b1bf cb9a c252 d162 bd3f
00000040: 1930 4f33 4314 bb3f 79e7 832d 563b b5bf
0.057897938662491676 0.07090421181712322 0.07329794192699343 0.01891417081818678 0.1342168760691256 -0.06279485078352959 -0.06777912773369424 0.11478908796798774
0.10577793123883374 -0.08293665515148331

stacks.0.blocks.0.forecast_linear_layer.weight f8 [2, 64]
00000000: 029f dd2f 4597 96bf 1541 3836 2dcb b0bf
00000010: 3e95 acd6 bc97 a03f 129e bba6 9af2 8b3f
00000020: 5e17 87d9 c30d a2bf 63d7 ff24 ccee a53f
00000030: 0b91 70af cf71 b83f 96fd df01 9bd6 b2bf
00000040: 323f d6b8 46f3 a73f 09a5 2455 aa6e ba3f
00000050: c6ab f93a 4748 b43f 1180 2eb8 6301 a7bf
00000060: 8952 03fe d342 a4bf 1108 4b43 cdfe b6bf
00000070: 5bb6 236b 2d09 b73f f496 4dfb 806e 723f
00000080: e69b 169d 01dd 92bf 45bb ca01 67cf aebf
00000090: 6453 435c a210 bb3f 99bf 5b93 f45a ac3f
000000a0: 2b01 e2c6 3149 b13f 34d0 be19 5c19 a0bf
000000b0: 7c0a 766c d818 a9bf f743 4677 ac51 b6bf
000000c0: 2be0 dda6 169a b43f 01c4 e04d 011f 953f
000000d0: 90bf af08 ae2e b83f adac 9daa 5446 a03f
000000e0: 4bb0 7889 794d a1bf e2bb 869e 2bdb a53f
000000f0: 87a6 3a60 6abb b43f 86df 3a02 a01a b13f
00000100: 3500 25c0 a856 ba3f 1b0f bc91 4015 afbf
00000110: f5af 4423 7f71 b23f 19ce ea5c 13b4 ab3f
00000120: a3e7 e74a 74ec b13f faca 1b6c 3e90 923f
00000130: 0110 9ecc 9d04 aabf bb2d 1978 0a58 bb3f
00000140: 9ad9 0ae0 7cb9 c23f c633 118c 414a 73bf
00000150: d3c2 faf1 5185 a6bf 5e24 4571 cfc0 bb3f
00000160: 3b2d 629d 43c7 a9bf 8070 a34a 2905 41bf
00000170: 77b5 a331 2360 b2bf 1dc2 2b22 d37a a3bf
00000180: 992a 314c e4df b3bf 525e b116 00f4 b4bf
00000190: 5c80 c529 3ad0 ae3f 5e22 19ac b3a3 773f
000001a0: eb2d 4048 5cd8 b83f f828 7b9b 95cc 96bf
000001b0: e325 267d 860d b73f bf58 9c8d 8439 b73f
000001c0: 2e04 cb23 82b2 a23f 1aad 651b d7cf 95bf
000001d0: 05ec b972 1a1b b53f a766 9a75 beea 9c3f
000001e0: d8a3 1e81 26da b83f 9358 671d c0ef a33f
000001f0: 45db c049 851b bb3f 472c 1e85 66d6 b33f
00000200: a015 8ddf 82fe 823f 775b e5db ba25 c03f
00000210: 9cb8 d0ab 649b a03f e164 c9ea cda8 afbf
00000220: cc9a da7f 1323 a4bf 86c4 c6f5 2223 b7bf
00000230: 1d7c 0106 fb51 b73f e41a dfab be10 a43f
00000240: cc61 30cf ce24 a93f b7f5 8d86 86ea b93f
00000250: 3436 0d03 6b4b b43f 454b ae48 20f8 a6bf
00000260: 4df0 cb82 ef68 b2bf 2787 a283 8569 b3bf
00000270: 85b9 fe26 d9f8 bbbf 2e20 fd7d d69f bb3f
00000280: 00f6 9445 d737 853f 3beb e880 c0cf a8bf
00000290: fec6 c84f cc9c ba3f ee4a 6f00 d3b8 ab3f
000002a0: f957 96ef 532f b13f f0e5 da56 b756 b9bf
000002b0: 3fcf 402e 5d65 8bbf 259c 8efe 626b b7bf
000002c0: 6bbd 2d10 4e95 b43f 8ccd 8edd 7979 813f
000002d0: 131d 2173 7e7b b73f 24ed e04b fcc8 b4bf
000002e0: 8a55 f805 dfc3 913f bcbc 749a c230 b1bf
000002f0: 981a 6be9 c04a b43f 1e4e 11ae 863a b13f
00000300: d9d7 104e 449d b93f 69f9 eacc 3134 bc3f
00000310: 3b5b 3510 e6ef b33f 1732 2d35 b43c ab3f
00000320: 64c7 120b f28c b23f 35c1 98c8 47ca a7bf
00000330: 02a0 59ac dfa1 b5bf 7edd 8af9 4e86 bb3f
00000340: 9709 38f0 39d0 c23f cee5 575b c781 bd3f
00000350: 88e9 4755 eab1 a6bf 0532 95cf 95e5 ba3f
00000360: ce37 4cb5 717f a2bf 5408 0a31 4643 90bf
00000370: 0145 e576 28fc a6bf facd 43f6 0c77 a3bf
00000380: a1fc c1dc 8fa9 b3bf cfe4 70a2 f90c 8cbf
00000390: 20dd 4c85 92bd b03f f39a 6fc9 35de 993f
000003a0: 5885 4e3a 7d7f b83f e15e 7a08 da8a a0bf
000003b0: 5919 3105 f7d9 b1bf e337 7ea8 06f9 b63f
000003c0: d90a 179e fd7b a8bf 7e6d 0b56 88b7 b1bf
000003d0: 4777 c51d f7d6 b43f 8b0d 8f7e 4af1 a03f
000003e0: 7fee 6408 d713 b83f 2b83 d43b 7bc6 a93f
000003f0: f8f5 302b ee77 ba3f 1465 0189 cbe4 b23f
-0.022061425253382623 -0.06560022901272007 0.03240766640218816 0.013646324361118043 -0.03526126890532909 0.042837504879499354 0.09548662217327235 -0.07358712001586407
0.046777925551508295 0.10325111941041966 0.07922787847353083 -0.04493247626601272 -0.0395723579000889 -0.08982546704194784 0.08998378625593643 0.0044999159189040745
-0.01842119714060777 -0.06017610451578163 0.10572256805910524 0.05538143442924976 0.06752310853517389 -0.0314434796740958 -0.04901768039691931 -0.08718374168371655
0.08047620366949164 0.02062608754949125 0.0944622775275532 0.031786580874574845 -0.03379421046369709 0.04268776235709716 0.0809847340521178 0.06681251577799516
0.10288481417683289 -0.06070901659953006 0.07204432116549227 0.05410824307673696 0.07001425579792779 0.018128371570990766 -0.05081647036334403 0.10681214744652483
0.1462856382328937 -0.004709487956529429 -0.04398590163089513 0.10841080203421558 -0.05034838958916984 -0.0005194141024520565 -0.071779441470161 -0.038046453400856196
-0.07763506755979178 -0.08184814981483982 0.06018239746003992 0.005771352619895779 0.09705139888699647 -0.022264802565396175 0.09005013041873826 0.09072140176099007
0.0365181606953303 -0.021300660178366383 0.08244481373724007 0.028239227226186128 0.09707871105514643 0.03893852576190784 0.1058886818944816 0.07749024152705984
0.009274504134405614 0.12615142571550184 0.03243555638651793 -0.0618347500901082 -0.039330109936874885 -0.0903798913993957 0.09109467407823542 0.03919025276223012
0.04910894660151008 0.10123482499144286 0.0792757875871864 -0.04486180197922932 -0.07191369002606614 -0.07582888091795024 -0.10926587297465147 0.10790768218896638
0.010360414324732226 -0.04846002172094762 0.10395504901751093 0.05414447193438386 0.06712841605471444 -0.098979433731891 -0.01337693021205377 -0.09148234095356196
0.08040321249949549 0.008532478403003883 0.09172811804556984 -0.08119179584985098 0.017348751773246053 -0.06715027113817745 0.07926564882937226 0.06729928731629584
0.10005595117476619 0.11017142537000314 0.07787931342805347 0.05319750928046945 0.07246315737100201 -0.046465152012731194 -0.08450124700323161 0.10751813499779492
0.1469795630401449 0.11526151638090384 -0.04432613650347422 0.10506569211901969 -0.03612857187373174 -0.015881630652536963 -0.0448925633560382 -0.03801765924609053
-0.07680606021493698 -0.013696623105817455 0.0653926444473325 0.025261726779627968 0.09569533036712607 -0.03230935433856331 -0.06973213078263053 0.08973733533477417
-0.047820973919007144 -0.06920673466395574 0.0814051101383174 0.03309090418727142 0.09405273394525614 0.050342417767984614 0.10339249186014132 0.07380363554820618

stacks.0.blocks.0.forecast_linear_layer.bias f8 [2]
00000000: 230a efee 37b6 a53f 9d2f cf5b 3679 a4bf
0.04240584174796804 -0.03998727675170175
