darts_logs/2022-11-19_16.24.24.966506_torch_model_run_10440/_model.pth.tar (torch, 141170 bytes, 16 tensors)

weight f4 [64, 8]
00000000: f731 81be cecf 94be 70da 8f3d 7e30 b2be
00000010: 906c 2e3d d646 363e d840 46bd b362 9a3e
00000020: edb9 54be 6acb 313e 5c8b f93d 2468 9bbd
00000030: faea 653e 008b bcbc acf0 80be 50d2 d1bd
00000040: 0ab7 57be 1889 dd3d a208 43be 47f2 a5be
00000050: 5070 8dbd 7f78 b3be 4078 543c 4242 b1be
00000060: 67a3 9c3e e26e 193e eb65 38be 7418 5abe
00000070: 50e1 07be a829 1f3d 1ee2 f0bd 6967 97be
00000080: 517d 06be 933b ad3e c74b 903e 48ad 2c3d
00000090: 500b 2a3d c44b 93be 4088 fd3d 40aa b73c
000000a0: 3a50 1dbe 507f f1bc 5fdb 41be 3bb3 96be
000000b0: 623a 333e 4cd4 a4be 4889 77bd de84 8bbe
000000c0: 28a4 97be 921c 463e 28c0 33bd 033e a23e
000000d0: de9e 6d3e c01e 0abc d86a c53d 6044 073e
000000e0: 6ab5 1c3e 466f 5b3e c6cd 9bbe 9eff 76be
000000f0: d4aa ce3d 8f74 a43e 40d2 d1bb 58a9 c6bd
00000100: 4e6e 503e 8bcd 16be bab4 6e3e b28b 183e
00000110: fbd7 a9be 0eb8 433e a45d b53d 6b24 8d3e
00000120: c17d 35be 80e7 12bc 47aa 07be 01b3 a03e
00000130: e960 aabe 406b 1d3d a092 1f3d ac77 94be
00000140: a28d febd 02fc 2b3e fdea b43e 2537 8f3e
00000150: ef86 1ebe 0545 9c3e e5ff 8abe e26e 093e
00000160: 58e7 73bd 2a43 4c3e 3e47 213e 2e73 acbe
00000170: b6cc 04be f8e5 85bd 288c 59bd 00d8 afb9
00000180: b426 dc3d 327d 2b3e 7893 dd3d 4c42 c8bd
00000190: 140b 57be f51a 20be a94c ad3e f074 a13c
000001a0: 1080 aebe 2f53 b33e 45aa 17be c265 9ebe
000001b0: 5168 a13e c18a 27be 0060 abbb f4a9 c23d
000001c0: b119 b23e 62cd 74be ed0d 5cbe 290e 7bbe
000001d0: ccb0 b4be 2741 a23e 60cb 8fbd 6cba e63d
000001e0: 00f6 13bc b218 83be dafa 6dbe f0c9 d3bd
000001f0: 4f24 a13e 7016 c33c 8014 6bbd 2f02 16be
00000200: 78a3 64bd 307e c6bd 9185 ab3e 8c55 0d3e
00000210: 5794 9f3e e820 e13d 6842 96bd ab05 923e
00000220: 165f 3e3e da09 25be 6ae2 093e 1d3e a03e
00000230: 19c9 b0be 7483 fd3d e05d 79be 96e8 2f3e
00000240: 646b adbd 8953 51be 10f0 773d 46c4 6b3e
00000250: f11e a6be 1a91 5c3e 48e1 41bd 57c3 90be
00000260: 9441 c4bd 63be 6cbe 105a 49bd 7061 c9bd
00000270: d924 b23e cd6d 74be fae4 763e 5ac4 713e
00000280: 69fa 843e 3f05 a13e 70ef 56bd 8ba6 82be
00000290: 7f27 a9be 3d6e 8c3e e6e7 7b3e bbce 953e
000002a0: d4bc b4be 50dc b4be c66f 373e 5827 b43d
000002b0: 1cdb 73be 8389 a13e 082a 9c3d b9de 9a3e
000002c0: fb08 a53e 7a33 273e b6e8 adbe d006 aa3c
000002d0: df37 59be 803b 403c 0fed 9d3e 6893 7dbe
000002e0: 1cd2 b1be c93f af3e da54 553e e657 2e3e
000002f0: f87f 10bd d0c3 ac3d 26d6 783e dde6 21be
00000300: 7039 0c3e 48b7 03bd a719 35be 2323 963e
00000310: 6de1 2cbe 8eeb 613e e066 9cbd f864 97bd
00000320: 5b03 14be 406a 6fbd 62e0 a3be 04f2 c9bd
00000330: 80f4 d4bb 4fab 873e 9aa6 edbd 9872 5e3d
00000340: 8104 923e f0ef 863d accb 76be 10db 633d
00000350: 59b8 a53e 700f febd 7b12 95be fca3 dabd
00000360: 1f3a 32be 70ea 81be 291c 33be 1ec7 7cbe
00000370: cc82 0abe 4927 aa3e 982b 88bd 5b32 aebe
00000380: a27a 463e 8c14 8abd 301d 073e 1801 8c3d
00000390: 88b1 0c3e c089 d63b f8ac 673d e591 87be
000003a0: 66e7 553e 2855 12bd 16a7 05be 2437 ffbd
000003b0: 2afc 493e 02a0 f4bd 899f 38be 86a1 0e3e
000003c0: 8d01 903e d039 c4bc b3c5 ab3e bbcd a5be
000003d0: c5a8 8d3e a88b 06be c07a 19bc 468e 433e
000003e0: 8be3 903e 36f8 a7be 7e15 a8be 3a38 363e
000003f0: 5618 12be 6d64 34be 896a b13e 9c31 26be
-0.25233433 -0.29064792 0.070240855 -0.34802622 0.042584002 0.1780046 -0.048401684 0.30153427
-0.2077405 0.17362753 0.12184784 -0.075882226 0.22452918 -0.0230155 -0.25183618 -0.10245192
-0.21065918 0.10817164 -0.19046262 -0.32411405 -0.069061875 -0.3505287 0.012968123 -0.34620863
0.30593416 0.14983705 -0.18007629 -0.2129839 -0.13269544 0.038858086 -0.117618784 -0.29571083
-0.13133742 0.33834514 0.28182814 0.04215744 0.041514695 -0.28768742 0.12379503 0.022420049
-0.15362635 -0.029479653 -0.1893134 -0.29433617 0.1750274 -0.3219322 -0.060433656 -0.27249807
-0.2961743 0.19346836 -0.043884426 0.31687936 0.23205134 -0.008430183 0.096395195 0.13209677
0.15303579 0.21429166 -0.3043043 -0.24120948 0.10091177 0.32120177 -0.0064032376 -0.097002685
0.20354578 -0.14726846 0.23311129 0.1489704 -0.33172593 0.1911318 0.08855751 0.27566847
-0.17723753 -0.008966327 -0.1324855 0.3138657 -0.33277062 0.03843236 0.038958192 -0.28997552
-0.12429358 0.16795352 0.35335532 0.2797176 -0.1548116 0.30521408 -0.27148357 0.13421205
-0.0595468 0.19947496 0.15749833 -0.33681625 -0.12968716 -0.06538004 -0.05311218 -0.00033539534
0.107495695 0.16746977 0.10819143 -0.0977827 -0.2100032 -0.15635283 0.3384755 0.01970908
-0.3408208 0.35024402 -0.14811046 -0.3093701 0.315249 -0.16361524 -0.00522995 0.09505072
0.34785226 -0.23906472 -0.21489687 -0.2451712 -0.35291135 0.31690332 -0.070212126 0.11266026
-0.009030819 -0.2560478 -0.23240224 -0.10341251 0.31473014 0.02381441 -0.057392597 -0.1464927
-0.05581996 -0.09692037 0.3350034 0.13802165 0.31167862 0.109926045 -0.07336885 0.2851995
0.1859096 -0.1611704 0.13465276 0.3129739 -0.34528425 0.12378588 -0.24352217 0.17178568
-0.08467749 -0.20442022 0.060531676 0.23024091 -0.3244548 0.21539727 -0.047333986 -0.28274032
-0.095828205 -0.23119502 -0.049158156 -0.09833038 0.34793738 -0.2387001 0.24110785 0.23610058
0.25972298 0.31449315 -0.05247444 -0.25517687 -0.33037946 0.27427855 0.24600181 0.29259285
-0.35300314 -0.35324335 0.17913732 0.08796567 -0.23814052 0.31550226 0.07625204 0.3024805
0.32233414 0.1632823 -0.33966607 0.020755202 -0.2121272 0.011732936 0.30844924 -0.24763262
-0.34730613 0.34228352 0.2083315 0.17025718 -0.03527829 0.08435786 0.24300441 -0.15810724
0.13693786 -0.032157212 -0.17685567 0.29323682 -0.16882868 0.22062513 -0.07636809 -0.07392305
-0.14454405 -0.058450937 -0.32007128 -0.09860614 -0.0064988732 0.26497886 -0.11604042 0.054308504
0.2851906 0.06588733 -0.24101132 0.055628836 0.3236721 -0.12405288 -0.29115662 -0.10675809
-0.17404984 -0.25374174 -0.17491211 -0.24685332 -0.13526458 0.33233097 -0.0664894 -0.34022793
0.19382718 -0.067422 0.13194728 0.06836146 0.13739598 0.006547183 0.05656144 -0.26478496
0.20889053 -0.035725743 -0.1305202 -0.12461689 0.19725099 -0.119445816 -0.18029608 0.13928804
0.28126183 -0.023953348 0.3354927 -0.32383522 0.27667823 -0.13139212 -0.009367645 0.19097242
0.28298602 -0.32806557 -0.32828897 0.17794886 -0.14267096 -0.17616434 0.34651592 -0.16229862

bias f4 [64]
00000000: f6c3 9cbe 1000 823c f817 f13d 5cff 60be
00000010: 9b73 a53e 809a 97bc f0c8 82be 3c0d fa3d
00000020: 3a79 7f3e bedd e4bd ce1e 80be b31a a8be
00000030: c370 13be 47f0 adbe c0dc ec3d 0e49 90be
00000040: 4420 a1be 28a2 0b3d 6bad aa3e 7c21 883d
00000050: 2421 aabe 88af 1d3d 1498 fc3d f1ee 983e
00000060: b112 a93e 009e 12be 006e f3bb 6215 743e
00000070: 37d7 8dbe 086f f43d f745 943e 20d9 c63d
00000080: 2ef1 7c3e 70a5 c73c aeed 2b3e c670 053e
00000090: 0ac9 70be 007a 2f3b 5c75 d63d ed72 9ebe
000000a0: 1801 2d3d 10eb 44bd 44ba 113e f400 ba3d
000000b0: 2f32 61be 21cf 50be 0737 b13e 44b4 b93d
000000c0: 05f2 41be da34 503e 3818 44bd a6dd 533e
000000d0: c325 3ebe 831d 5fbe 1179 7dbe 52bc b1be
000000e0: dc1b 94be 20b2 083e b683 683e 6e30 23be
000000f0: 28ea 333d 0040 983a 6a31 fbbd b6f6 413e
-0.30618256 0.01586917 0.1177215 -0.21972412 0.32314762 -0.018506289 -0.25543928 0.122095555
0.24948588 -0.111751065 -0.25023502 -0.3283287 -0.14398484 -0.3397238 0.11565542 -0.28180736
-0.3146993 0.03409019 0.33335432 0.06647012 -0.3322841 0.038497478 0.12333694 0.29869798
0.33022073 -0.14318085 -0.0074288845 0.23836282 -0.27703258 0.1193524 0.2895963 0.09709382
0.24701378 0.024370879 0.16789886 0.13031301 -0.2351419 0.0026775599 0.10471603 -0.30947056
0.04223737 -0.048075736 0.14231211 0.09082213 -0.219918 -0.20391513 0.34612295 0.09067586
-0.1893998 0.20332661 -0.04787466 0.20690021 -0.18569092 -0.21788602 -0.24753214 -0.3471399
-0.28927505 0.133492 0.22706494 -0.15936443 0.04392448 0.0011615753 -0.12265284 0.18941769

weight f4 [64, 64]
00000000: a0eb 173d 741d 943d d4a5 883d 5c5a 5abd
00000010: 2895 b3bc 90a0 183d 44cb 633d 7879 773d
00000020: 3667 c0bd 408c 803b 3090 b9bc 1238 b93d
00000030: e03a 453d 56b6 a3bd 1255 9b3d f860 edbc
00000040: c89c ed3c e6a5 ce3d 0c59 ef3d 2010 acbd
00000050: 90f4 66bd b80f e6bc b0aa 71bc 988e 9b3c
00000060: 0092 8c3d d6f9 d7bd 304b b4bd 8013 1abc
00000070: b447 d1bd 1069 cbbd b047 a2bc b4a6 e23d
00000080: 3808 34bd 1861 123d 6416 383d b876 84bd
00000090: a696 9abd 8071 dcbc 525b 8ebd 78a0 e03d
000000a0: c8c0 a2bc 7034 033d 96d0 d0bd aa5a ab3d
000000b0: 581d ea3c 349c b9bd bcde 053d a0c4 f5bb
000000c0: 82fa d43d a8f8 5cbd f862 043d 86c0 97bd
000000d0: 70f2 a5bc b091 1a3d 08b4 acbc d020 503c
000000e0: 08f3 f13c ae94 d3bd 009c 61b9 9c39 913d
000000f0: c2bb 88bd 0047 f9bc 1077 e03d d0d3 2b3c
00000100: 807b e13c 8a1e 863d b03e a13c d019 41bc
00000110: b405 543d d03f d73d 14e5 cd3d b0d7 debc
00000120: 18d4 23bd 162a 95bd 0068 d1b9 6818 ef3c
00000130: 64cc 183d 24bd ffbd 2c00 85bd c4c6 4cbd
00000140: e414 44bd c045 423c 5821 d9bd 20f1 9fbd
00000150: f0ea 4f3c 9824 f7bd 1c5d e2bd e41c f1bd
00000160: 44d9 93bd e881 9abc 404f fabd e0c8 04bc
00000170: ca5c bd3d 4c04 483d e053 f43d a63b fb3d
00000180: 8070 0c3b 4473 df3d 12d3 b63d 9ae6 9a3d
00000190: c0bd 8dbc d47c 3abd 803b efbb 3e72 a23d
000001a0: c614 c93d 98e5 733d f602 cf3d 8c10 eb3d
000001b0: 6072 49bd ccb7 a73d a0ae b33d f8cf ebbd
000001c0: 7696 e4bd 88ae 923c 7cd4 173d 0000 aa3d
000001d0: 241c a03d 90d5 783c 348a bc3d 6c76 62bd
000001e0: 88b9 0dbd 90e1 0fbd 5885 f23d f038 e13d
000001f0: 9e45 d1bd 2015 0dbc 4c7a 193d 503a a83c
00000200: a06b 4ebc d470 373d ac17 c23d 064d bb3d
00000210: 8c97 e43d e095 92bd b6f7 ddbd b80b d9bd
00000220: bc8f df3d 78a2 ffbc fedf a8bd 809c f93c
00000230: 20d9 64bc b8c1 d7bc eed4 a5bd 70dd 293c
00000240: d4f9 0fbd 90f0 dcbc d2aa d5bd 40ae c6bc
00000250: 0864 f43d fce8 44bd f0d4 f8bd 5c41 3b3d
00000260: d069 d4bc 26fa e2bd 34ac 693d 00bb dd3a
00000270: 64fc 1fbd e04b 88bb b4ad f93d b8c1 82bd
00000280: 686b 40bd 90ca 4fbd ccfe 253d 0884 f63c
00000290: 36c5 f23d 20e8 cdbc 5ca9 8fbd 382a 69bd
000002a0: 007f 6bba 844a 0abd 2094 85bb 969c 94bd
000002b0: b871 4e3d 24ef 4e3d d867 a63c f23e 8bbd
000002c0: 96f2 f23d d07d 263c 4838 14bd fc52 303d
000002d0: 7245 8f3d 4a2c cc3d ace8 953d 0cfa 7dbd
000002e0: a053 bfbd 809c f43d b8f8 423d 10c7 7d3c
000002f0: ec73 dabd ecbb 163d 905c cd3d 7062 e83d
00000300: 44f3 24bd 8489 633d 44a8 003d de6b 88bd
00000310: 4c7c 24bd 849b 433d 0004 d639 301a 443c
00000320: 5ec8 f63d e853 003d a8ca 373d 589c 9dbc
00000330: c458 ac3d c072 bf3d 2020 2fbc 242e b53d
00000340: 9e4d b0bd 28fe d33d f0f6 973c 0068 ca3a
00000350: 0830 383d d2a4 f5bd 00a8 e1ba 30a8 a3bc
00000360: 1833 87bd 1806 fbbd f04d 97bc 0c10 553d
00000370: 9056 d0bd 10d5 c0bd dae6 813d 4ed6 febd
00000380: c80e f83c c86b 953c 98a6 34bd ec0f 66bd
00000390: 32f4 b63d 8426 dbbd 1030 cdbc e8e0 d1bd
000003a0: 309d 183d 24f1 1fbd 32bf bf3d 0004 dcba
000003b0: 20fc 66bd 0413 e6bd e00b 603d 0040 3fbb
000003c0: e4db 6f3d 2006 56bd 8c51 bcbd 346d 3dbd
000003d0: 388f cfbc 60a3 033d 68cc 9d3c 58e1 1ebd
000003e0: 38e6 773d e0eb 02bc 18b5 4b3d 3817 c93c
000003f0: e0a1 2ebd 507a 863d 923c d93d 108d 85bd
0.037089944 0.0723218 0.06672254 -0.05330883 -0.02192171 0.0372625 0.05561377 0.060418576
-0.09394686 0.003922969 -0.022651762 0.09043898 0.04815185 -0.07993762 0.07584585 -0.028976902
0.029005423 0.10090236 0.11686906 -0.08401513 -0.056385577 -0.028083667 -0.014750168 0.018988892
0.06863785 -0.10545699 -0.088034034 -0.009404063 -0.102187544 -0.099321485 -0.019809574 0.11066952
-0.04395315 0.035737127 0.04494323 -0.06467956 -0.07548265 -0.02690959 -0.06951012 0.10968107
-0.019867316 0.03203243 -0.101960346 0.08366902 0.028578445 -0.090629965 0.03268312 -0.007500246
0.10399343 -0.053948075 0.032320946 -0.07409768 -0.020257205 0.037736595 -0.02108194 0.012703136
0.029534832 -0.10331093 -0.00021515787 0.07091066 -0.06676437 -0.030429363 0.10960209 0.010487512
0.02752471 0.065487936 0.019683212 -0.011785939 0.05176325 0.10510218 0.10053459 -0.027202457
-0.03999719 -0.07283418 -0.00039941072 0.029186442 0.037304297 -0.124872476 -0.064941734 -0.049994245
-0.047871485 0.01185745 -0.10602063 -0.07809663 0.012690291 -0.120675266 -0.110529155 -0.117730886
-0.072191745 -0.018860772 -0.12222147 -0.008104533 0.09246214 0.048832223 0.119300604 0.122672364
0.002142936 0.10910657 0.08926977 0.07563515 -0.017302394 -0.0455292 -0.007300794 0.07931946
0.09818415 0.05954513 0.10107987 0.114777654 -0.049181342 0.08189353 0.087735415 -0.11514276
-0.11161511 0.017905489 0.037067875 0.08300781 0.078178674 0.015187636 0.09206048 -0.055288717
-0.034600765 -0.035127223 0.118418396 0.10997188 -0.102183565 -0.008610994 0.037470147 0.020535618
-0.012598902 0.044785336 0.09477171 0.091455504 0.11161718 -0.07157493 -0.10838263 -0.10597938
0.10916087 -0.0312054 -0.08245848 0.030470133 -0.013967782 -0.02633749 -0.08097254 0.010367736
-0.035150364 -0.026970178 -0.10432972 -0.02425301 0.11933142 -0.048073754 -0.121499896 0.04571663
-0.025929362 -0.11082868 0.05704899 0.0016916692 -0.039059058 -0.0041594356 0.12191334 -0.06384605
-0.04697743 -0.050730288 0.040526196 0.030092254 0.11854021 -0.0251351 -0.070147246 -0.05692503
-0.0008983463 -0.03376247 -0.0040764958 -0.07256429 0.05040142 0.05052103 0.020313188 -0.06799115
0.11862676 0.010161832 -0.036186486 0.04304789 0.069956675 0.09969385 0.07319769 -0.06200604
-0.09342122 0.119439125 0.047600478 0.015489355 -0.106666416 0.03680031 0.100274205 0.113469005
-0.04027106 0.055551067 0.03141047 -0.06661199 -0.0401576 0.047755733 0.0004082024 0.011969134
0.12049936 0.03133002 0.044871002 -0.01923959 0.08415368 0.09348059 -0.010688812 0.08846691
-0.08608554 0.10351211 0.018550366 0.0015442371 0.04496768 -0.119943276 -0.0017216206 -0.019977659
-0.06601542 -0.12257022 -0.01846978 0.052017257 -0.101727605 -0.094156384 0.063428596 -0.12443219
0.030280486 0.01823987 -0.04410419 -0.056167528 0.08933295 -0.10700706 -0.025047332 -0.102479756
0.03725928 -0.03904833 0.093626395 -0.001678586 -0.05639279 -0.11234096 0.054698825 -0.0029182434
0.058559313 -0.052251935 -0.09195241 -0.046246722 -0.025336847 0.03213823 0.019262508 -0.038789123
0.060522288 -0.007990807 0.04973325 0.024547204 -0.042634845 0.06566298 0.10607256 -0.06521046

bias f4 [64]
00000000: b093 1c3d 7253 863d 10da 203d 1cfb f73d
00000010: 309f c53d 5001 bcbd 5e4c f5bd 70b2 753c
00000020: 30b3 5e3c 30ad 67bd 5eba b03d 204b 7abd
00000030: f0e7 f93c 2ecc bebd 24b5 723d 7ac5 e1bd
00000040: 005e f4bc 5219 fa3d 6491 583d 06c4 dbbd
00000050: 2a63 d13d 781a 9e3c 9085 193d fc64 5abd
00000060: 24dc c33d 2001 42bd 16f1 ff3d dcad 90bd
00000070: c0b7 0fbb 0039 f3bd 5aae d8bd a4d3 9c3d
00000080: 7c7c cbbd 8851 e2bc cc1c 63bd eeb4 fabd
00000090: dc14 fcbd 92ee e0bd 982d d6bc 0c27 613d
000000a0: aae4 ffbd 3080 523d 06d9 c93d 9a61 e73d
000000b0: 0078 eeb9 c05b 223c 44ed e4bd b2a4 87bd
000000c0: badc b0bd 0adc 933d 2838 96bd 9037 49bc
000000d0: 72db c93d fc30 41bd d4fe 033d 80c6 60bc
000000e0: 9025 f7bd 5892 873c 54fc 4d3d c0dc 993b
000000f0: 2476 06bd 805f a9bc a042 ee3b 92ca d7bd
0.038226783 0.06558885 0.03927046 0.12108442 0.09649503 -0.09179938 -0.119774565 0.014996156
0.013592526 -0.05656165 0.08629297 -0.0611068 0.030506104 -0.09316288 0.05925478 -0.11023994
-0.029829979 0.12211861 0.05287303 -0.10730748 0.10223992 0.01929973 0.03748089 -0.053318962
0.09563473 -0.047364354 0.12497155 -0.07064411 -0.0021929592 -0.11876106 -0.1058013 0.07657555
-0.09935853 -0.027626768 -0.055447385 -0.12241541 -0.12308666 -0.10983004 -0.026144788 0.05496888
-0.12494786 0.05139178 0.09855847 0.11297913 -0.00045484304 0.00990957 -0.11178067 -0.0662321
-0.0863585 0.072197035 -0.0733493 -0.012281314 0.09856309 -0.047165856 0.032225445 -0.013719201
-0.12067711 0.016549274 0.050289467 0.004695505 -0.03282751 -0.02067542 0.007271126 -0.10536684

weight f4 [40, 64]
00000000: 8843 3bbd ea4c a93d b24c bdbd 2cf7 ff3d
00000010: 8cf8 0cbd 44df cebd 1e9e ecbd 0055 703a
00000020: 52ec c93d 90a1 57bc a0e4 8f3c 0077 59bb
00000030: b867 cdbd f09d 88bd d0c5 d23d 2003 bfbc
00000040: 540c cc3d 603d bb3c 5252 c83d 5cac acbd
00000050: 86da fdbd aa48 b43d d8bc 68bd 10e8 ee3c
00000060: c4e4 3d3d f417 503d b443 9fbd 1aed f63d
00000070: 8445 edbd 1e9e d7bd e230 a93d b865 b5bc
00000080: 28a2 863d 9458 6c3d 4019 12bb aa85 c13d
00000090: a81d 563d 0e7d eb3d 00a8 e0bd 8035 10bc
000000a0: f439 2cbd 28d8 a4bd 7e51 9a3d 4496 5fbd
000000b0: 70f9 ffbd d0df b9bd 6040 57bd 9812 76bd
000000c0: 14e9 a1bd 58b2 ebbc ae14 8dbd 6a5e d83d
000000d0: 00ba 55ba 04ad 203d bcc4 033d b2be d83d
000000e0: 2035 07bc fe94 ab3d 4aec d8bd 2089 d23d
000000f0: c8c0 9b3c 6453 bf3d 940a cabd a25e a4bd
00000100: 4842 f93d 8043 25bd 70dd c1bc 9083 543c
00000110: f0a5 8e3c 185c b53d 7043 11bc 404c dfbb
00000120: a8f0 8ebc f003 7f3c 5ada d23d 90f1 143d
00000130: b000 12bd 00a0 8d3a c029 86bd 9016 6e3c
00000140: 1239 eabd 5a27 913d 301f 34bd 08f6 16bd
00000150: 5868 463d acf4 9abd 003d 96ba e4d6 85bd
00000160: b201 d7bd 424d ef3d 68c8 993c c4d2 bd3d
00000170: b0dc 9a3d 883c 623d 704e 413d 0457 0dbd
00000180: f80b 363d 56d7 a7bd 6862 9f3d dc2b 08bd
00000190: 2864 e73d 506d dcbc 001c b63d 70eb 653c
000001a0: 3a9e fd3d fa70 a33d b68c dabd dc9c 49bd
000001b0: 40cf 603b 2ccc 9f3d f84f 91bd 60cf f8bc
000001c0: 340f 003d 3efe c43d 3eb1 8c3d 0229 f4bd
000001d0: a252 a23d 0049 ab3a 80ca d3ba ae77 d93d
000001e0: 0021 25bd 32d4 97bd c0ce 34bc f48c c03d
000001f0: e8a6 9cbc 6823 493d f0b8 9b3c 3cb5 123d
00000200: 4a70 87bd 66ad bbbd ee33 9cbd f056 acbc
00000210: 7836 be3d ead0 fc3d f811 f6bd 8869 4abd
00000220: daa3 d03d acce cbbd ca95 cdbd d010 59bd
00000230: 86a3 f93d 6eb5 dc3d 4c80 d63d d86d aabc
00000240: a835 d8bc 144e 333d 2861 81bc a69f 9f3d
00000250: 88d5 76bd 7c71 7d3d e2b0 bfbd 4859 a4bd
00000260: f820 c63c d01f 3abc 9201 8f3d 404e 143d
00000270: b08b 12bd d4ba c63d c0d4 52bd 5831 0f3d
00000280: 362d acbd 801b e9bd f81a 913d 28fa ac3d
00000290: 4090 5fbb 0847 893d 8428 bfbd ae55 f03d
000002a0: 8c62 2c3d 4842 93bd b84e 9cbc 22a2 a1bd
000002b0: 6e27 80bd 60d4 6c3d d8f5 0f3d 68d4 f93c
000002c0: 40e8 0e3c 706b 3fbc 485e 2e3d fe88 823d
000002d0: 1c67 073d 3869 4b3d 9eb2 d93d ec9b 92bd
000002e0: 1020 313c 509e 253d f0d9 f5bc ae1e d63d
000002f0: 8a8b dbbd 9cd6 503d 44d0 3abd a2d6 81bd
00000300: 6099 eb3c 8063 44bd e6c5 f93d 8c1b 183d
00000310: 88eb e03d 00b3 a53c 10d9 573d d44f 1cbd
00000320: 0037 afba 3eff c93d 44fe a63d 1811 a7bd
00000330: 60b5 0cbd 5090 2ebc 544c 393d 0276 d93d
00000340: e2c7 bcbd 88ff e5bd d2bd 943d a817 0d3d
00000350: f6d8 bebd d04e a43c 5826 773d 84b1 4bbd
00000360: 6cfc d1bd 80b4 e63a 9e5c de3d b079 3e3d
00000370: f08c f3bc f814 89bc de20 e7bd 7678 d43d
00000380: c0be 533c 7895 79bd 00c0 4fba 801c ec3d
00000390: 38f5 cdbd 7464 85bd a010 f13c 940e 3f3d
000003a0: d861 373d 7081 483d 7050 c8bc 00cd 26bd
000003b0: 66c9 fb3d aaa3 813d 0c02 403d 38ae e4bc
000003c0: 66fa eb3d 166d e43d 5a05 9abd 8823 5a3d
000003d0: ae85 fa3d 9069 9f3c b4e5 503d 5224 f63d
000003e0: 5007 75bd 64e4 af3d 40ea 683b 40ae d0bd
000003f0: 60bc 07bc 40d8 efbd 3816 bbbc 8069 cb3d
-0.0457187 0.08266623 -0.09243144 0.12498316 -0.03441672 -0.10101178 -0.11553596 0.00091679394
0.09859528 -0.013161078 0.017565072 -0.0033182502 -0.100295484 -0.06670749 0.10291636 -0.02331692
0.09963289 0.022856414 0.09781326 -0.084313124 -0.12395196 0.08802922 -0.05682072 0.02916339
0.046360746 0.050804093 -0.07776585 0.12056942 -0.11585525 -0.10528205 0.08261277 -0.02214323
0.065738976 0.057701662 -0.0022292882 0.094493225 0.052274376 0.11498462 -0.109695435 -0.008801818
-0.042047456 -0.08049041 0.07535075 -0.054586664 -0.12498748 -0.09075892 -0.052551627 -0.060076326
-0.07905784 -0.028771564 -0.0688871 0.10564883 -0.00081530213 0.0392275 0.032170042 0.10583247
-0.008252412 0.083780274 -0.105919436 0.10280061 0.019012824 0.093420774 -0.09865299 -0.08025862
0.12170845 -0.040347576 -0.02366516 0.01297082 0.01741311 0.08855456 -0.008866176 -0.0068145096
-0.017448738 0.015564904 0.102955535 0.036363184 -0.035645187 0.001080513 -0.06550932 0.0145317465
-0.114366665 0.07087584 -0.043975055 -0.036855727 0.048439354 -0.07566199 -0.0011462271 -0.06535128
-0.1049837 0.11684658 0.018772319 0.09268716 0.07561624 0.05523351 0.047193944 -0.034506813
0.044445008 -0.08195369 0.077824414 -0.033244953 0.112984 -0.026907593 0.08892059 0.014033183
0.12383695 0.07980533 -0.1067137 -0.04922186 0.0034303218 0.078026146 -0.07095331 -0.030372322
0.0312645 0.09618805 0.06869744 -0.11921884 0.07925917 0.001306802 -0.0016158372 0.1061853
-0.040314674 -0.0741352 -0.011035621 0.09401885 -0.019122556 0.04910603 0.019009084 0.03581737
-0.06613214 -0.091639325 -0.07627092 -0.021037549 0.09287733 0.12344535 -0.12015146 -0.04941705
0.10187502 -0.09951529 -0.100383356 -0.05299455 0.12189393 0.107767925 0.104736894 -0.02080433
-0.026392773 0.043775633 -0.015793398 0.077941224 -0.060262233 0.061875805 -0.093599096 -0.080248415
0.024185643 -0.011360124 0.069827214 0.036207438 -0.035777748 0.097036034 -0.051472425 0.034959167
-0.08407061 -0.11382198 0.07085222 0.08446151 -0.003411308 0.06703001 -0.093338996 0.11735092
0.04208617 -0.071903765 -0.019080505 -0.078922525 -0.062575206 0.057819724 0.035146564 0.030496791
0.008722365 -0.01168333 0.042570382 0.063737854 0.033057317 0.04966089 0.10629772 -0.07158646
0.010810867 0.04043418 -0.030011147 0.104550704 -0.10719974 0.050985917 -0.045608774 -0.06339766
0.028759658 -0.047946453 0.12195949 0.037135646 0.10982424 0.020226955 0.05269724 -0.038162068
-0.0013367832 0.09863137 0.08153966 -0.08157557 -0.03435266 -0.010654524 0.045238808 0.10618211
-0.09217812 -0.11230379 0.07262768 0.03444639 -0.09318726 0.020057112 0.0603393 -0.04972984
-0.10253224 0.0017601401 0.10857509 0.04650277 -0.02973029 -0.016733631 -0.11285566 0.103745386
0.012923896 -0.06093356 -0.00079250336 0.115288734 -0.100565374 -0.065133005 0.029426873 0.046644762
0.044771045 0.048951566 -0.024452418 -0.040722847 0.12294273 0.063300446 0.046876952 -0.027915105
0.11522369 0.11153619 -0.07520552 0.05325654 0.122325286 0.019459516 0.051000312 0.12018646
-0.059821427 0.08588484 0.0035540015 -0.101894855 -0.008284658 -0.11711168 -0.022837743 0.09932232

bias f4 [40]
00000000: e0df 9dbc 300c d23c 887e 503d 58c2 94bc
00000010: b629 c4bd e65a a03d 40ac 1c3c 00d9 f13c
00000020: 30e3 bbbd daf9 ce3d 489d 96bd 0467 01bd
00000030: caee 9abd 186c 753d c41f f2bd f605 a1bd
00000040: 1816 74bd 5cd7 f13d 9041 083d b04f 4b3c
00000050: 08fd b1bd 80f8 93bb 7090 ac3d bc0a cabd
00000060: 084e b0bd 380e 953d 20d3 9fbc 0ce6 b0bd
00000070: 72d2 d0bd c02b a6bd 3c09 683d b8cf 22bd
00000080: f499 463d 584f 883c 8894 d4bc 0a9c b83d
00000090: c06f f8bc b874 7cbd d055 6b3c 5ce1 4dbd
-0.019271791 0.025640577 0.05090192 -0.018159077 -0.09578268 0.078298375 0.009562552 0.029522419
-0.09174192 0.10106249 -0.07354218 -0.031592384 -0.07565077 0.05991754 -0.11822465 -0.07862465
-0.059591383 0.11808655 0.03326565 0.012409136 -0.0869084 -0.0045157075 0.08425987 -0.09865329
-0.08608633 0.07278103 -0.019509852 -0.08637628 -0.10196389 -0.081138134 0.05664943 -0.039748877
0.048486665 0.016639397 -0.025949731 0.09014137 -0.030326724 -0.06163475 0.014363721 -0.050263748

weight f4 [9, 64]
00000000: 5e02 ae3d 2c27 f93d 50ae 703d 6e73 c6bd
00000010: 806e 7dbb b0e8 acbc 4083 673c a4b6 333d
00000020: 74d6 b9bd 1030 0fbc 6001 4c3c 54d2 fb3d
00000030: 3cf5 f43d 1e93 b53d dce4 8dbd 06b6 c6bd
00000040: b0b6 56bc b491 09bd 50fe 413c 32f6 d5bd
00000050: a0ba bcbb 94bf e63d c6b3 ff3d e0fe a5bd
00000060: 2005 d53d 1478 50bd 8cc6 31bd 62d2 adbd
00000070: 96cf 8cbd e020 e4bb e0e0 96bd ecb7 6dbd
00000080: fedf ab3d 3804 9d3d ee2c c9bd 3024 6c3d
00000090: c843 5b3d 68e6 923d a802 0a3d f07b 2b3c
000000a0: e860 35bd 80f0 293c 40e0 2a3d d493 573d
000000b0: 8084 633b 6432 dd3d 9ea8 f83d c88c c13c
000000c0: 4831 8c3c f400 6ebd 2896 fe3d 7220 acbd
000000d0: 906a acbc 8ca7 e1bd b0db ca3d 3448 0abd
000000e0: 52d9 fdbd 588a 3c3d 28cc ed3d 2043 5cbd
000000f0: 8cb7 f43d 0ecc a93d ec85 fcbd 9e67 ea3d
00000100: e218 9bbd 2ecc bebd 7e7d a93d c0d2 f43b
00000110: 78f8 b1bc 8e7e fb3d dea9 c9bd 8086 a3bd
00000120: 104d 7f3c 6096 80bd 4472 0d3d 4029 ec3d
00000130: 4019 3dbc d62d ddbd 28d4 b73d 7ce6 523d
00000140: 1205 a53d 102c 9cbc 240c abbd 382b 55bd
00000150: becd 8e3d 825a b9bd 6a7d ae3d 5c1c 643d
00000160: 082c 7d3d f0f1 cf3d 325b b63d 4085 ce3b
00000170: 3c40 5fbd 1017 ed3c f67d b4bd 4021 7cbb
00000180: 70ac 0ebd 8072 e23b a099 513c e03d 583d
00000190: e85e 423d 8ce2 7cbd e073 1c3d a00b e5bb
000001a0: b079 d4bd 70c5 da3d 0c86 abbd ba2f b03d
000001b0: c0d2 c6bc 287b 473d a050 ee3d 20c1 9e3d
000001c0: 4613 ef3d b843 123d 4af7 ddbd e8c3 3ebd
000001d0: 3428 413d 4a5a e53d 7af6 e2bd 1807 393d
000001e0: 78d7 fd3d da0a a53d e0b8 d6bb 3e5e e7bd
000001f0: 5ede 983d c0c5 2d3b c0c1 83bb d273 edbd
00000200: e02e c73b 44c5 583d e02f d13b 60d3 d6bc
00000210: f404 aa3d a284 873d f4d5 5f3d 6c12 a7bd
00000220: 70c4 d3bc 9819 b73d 54af 5abd b808 c53d
00000230: e084 45bc 24f6 6dbd 84b9 de3d de84 d9bd
00000240: c09d 8dbd b83e 573d 0402 8bbd 4032 dc3d
00000250: 08c5 50bd 0068 073b 0810 a53c e6c0 a8bd
00000260: a45b 51bd 64b3 febd 680e a2bc 5807 cfbd
00000270: 96c4 91bd 641d 26bd f0f4 51bc 6cac 173d
00000280: 9477 103d 603a 18bc 90a2 573d 2c0b 843d
00000290: d08a 1ebd 1ca0 d63d 3c78 f4bd 504f 3fbd
000002a0: fc29 793d 00f5 ee3b de43 a9bd 8076 193b
000002b0: 6c5f 14bd e8b2 b83d 7891 6a3d 98e7 a3bc
000002c0: d826 603d 9066 c4bd b8f1 32bd ccb9 e93d
000002d0: c803 7a3d 3048 ca3c 08f3 2d3d dad9 d3bd
000002e0: 28d0 2e3d 80c2 f33c b83b bb3c 80e6 c2bd
000002f0: 9a3d f9bd 9ab3 9c3d 9cc1 563d eea5 8d3d
00000300: 12e1 dfbd f08a 6cbc 3683 8dbd 2e68 943d
00000310: 94c1 6fbd 800f 643d 60c2 05bc 1088 703d
00000320: fa5c c2bd 9885 a93c 4cfa 7abd 7abf 95bd
00000330: fadc 913d 3060 5bbc 0cb6 313d d439 5dbd
00000340: cef0 9abd 5cf8 073d 7012 2fbc 2068 b3bc
00000350: bc5a 3a3d 384b 97bd 503a 7b3d dc39 c13d
00000360: 046f 643d 103f 093d 62d6 dfbd 9452 4cbd
00000370: 22ee d8bd 0406 eebd 4412 803d 5cc9 623d
00000380: 2205 b03d 4ad8 813d 00fc aebd b065 02bd
00000390: d80d a13c aa20 b83d 5019 5cbd 005b 7dbb
000003a0: 1842 a03c 92d3 80bd 10e8 60bc 4290 c33d
000003b0: 761f b3bd c4ae 8bbd 1889 4e3d 8069 263c
000003c0: d093 153d 408a 433b cc33 823d 58e2 cc3c
000003d0: 143a bc3d aa8d d9bd 8c37 d3bd bc6d e53d
000003e0: 0094 9a39 c081 aabd 4cb7 29bd 9e33 a0bd
000003f0: 00d6 b3b9 3acc 843d 64c3 cbbd e894 44bd
0.08496545 0.121656746 0.058759987 -0.09689985 -0.00386706 -0.021107048 0.0141304135 0.04387535
-0.09074107 -0.008739486 0.0124515 0.12295976 0.11960837 0.08865951 -0.06928417 -0.09702687
-0.0131050795 -0.03358622 0.011840418 -0.10447349 -0.005759552 0.112670094 0.12485461 -0.08105254
0.10401368 -0.050895765 -0.04340224 -0.08487393 -0.068755314 -0.006961927 -0.0736711 -0.05803673
0.083923325 0.0766682 -0.09823023 0.0576517 0.053531438 0.07172853 0.03369394 0.010466561
-0.04428187 0.010372281 0.041717768 0.052631214 0.0034716427 0.10800627 0.12141536 0.0236267
0.017113343 -0.058106378 0.12430984 -0.08404626 -0.021046907 -0.11018285 0.09905183 -0.033760265
-0.12394966 0.046030372 0.11611205 -0.053774953 0.11949071 0.082908735 -0.12330231 0.11445545
-0.075731054 -0.09316288 0.08275889 0.0074714124 -0.021724924 0.12279998 -0.09846853 -0.07984638
0.015582338 -0.06278682 0.0345328 0.11531305 -0.011541665 -0.10799758 0.089760125 0.05148934
0.08057608 -0.01906398 -0.08351925 -0.05204317 0.06972836 -0.09050466 0.085200146 0.055691108
0.06180957 0.10153568 0.08904113 0.0063025057 -0.054504618 0.028941661 -0.08813088 -0.0038471967
-0.034832418 0.006910622 0.012792975 0.052793384 0.04745379 -0.06173949 0.038196445 -0.006989911
-0.103747725 0.106821895 -0.08375177 0.08602853 -0.024270415 0.048701435 0.11636472 0.077516794
0.11673598 0.035709113 -0.10838182 -0.04657355 0.04715748 0.11198862 -0.11082168 0.04517278
0.12394613 0.080587104 -0.0065528005 -0.11297272 0.07464288 0.0026515573 -0.0040208995 -0.115943566
0.006078586 0.052922502 0.006383881 -0.026223838 0.08301726 0.066170946 0.0546474 -0.081578106
-0.025850505 0.089404285 -0.053389862 0.096208036 -0.012055606 -0.058096066 0.10875228 -0.106210455
-0.06914854 0.052550048 -0.06787494 0.10751772 -0.050969154 0.0020661354 0.020149246 -0.082399175
-0.051112786 -0.1243656 -0.01978226 -0.101088226 -0.07117574 -0.040555373 -0.012814745 0.03702967
0.03527029 -0.009291261 0.052645266 0.06447443 -0.0387066 0.10479757 -0.119369954 -0.046706498
0.060831055 0.00729239 -0.08264898 0.0023416579 -0.036223814 0.09018499 0.057267636 -0.020007893
0.054724544 -0.09589875 -0.043687552 0.11412391 0.061038762 0.024692625 0.0424681 -0.10344286
0.042678982 0.02975583 0.022855625 -0.09516621 -0.12169953 0.07651444 0.052430734 0.06916414
-0.10931601 -0.014437422 -0.06909792 0.07246433 -0.05853422 0.055678844 -0.008164018 0.05872351
-0.0949039 0.020693585 -0.061273858 -0.07311912 0.07122226 -0.013389632 0.043386504 -0.054010227
-0.07565461 0.03319584 -0.010685548 -0.021900237 0.045496687 -0.07387394 0.061334908 0.09434864
0.055769935 0.033507407 -0.10929562 -0.04988344 -0.10592295 -0.11622241 0.06253484 0.055367813
0.08594729 0.06340082 -0.08544159 -0.031835258 0.019659922 0.08990605 -0.053735077 -0.0038658977
0.019562766 -0.06290354 -0.013727203 0.09548999 -0.08746235 -0.06820443 0.05042371 0.010156989
0.036517918 0.0029837042 0.06357536 0.025010273 0.09190765 -0.106227234 -0.10313329 0.11202571
0.00029483438 -0.08325529 -0.04143457 -0.07822345 -0.00034300983 0.064842656 -0.09949377 -0.04799357

bias f4 [9]
00000000: 684e 5c3d 0cbd 7b3d d855 fabc f057 92bc
00000010: 1e35 823d 3426 dabd 1c25 05bd 9852 783d
00000020: 1225 ecbd
0.05378571 0.061459586 -0.030558512 -0.017864197 0.063577875 -0.10651818 -0.032506093 0.060625643
-0.11530508

weight f4 [64, 120]
00000000: 0c4f 0d3d 9235 823d 4e7b 86bd 50e4 bcbb
00000010: b8b5 8abc a072 f63c d87d f33c 3a1e b9bd
00000020: 900e 9c3d 3c9f 9abd 0c13 643d 691f 24bd
00000030: 906e 38bc c8a5 7cbc 4054 9f3b 78cd 523d
00000040: e8e1 82bc c4a6 84bd e854 283c d286 38bd
00000050: a243 aa3d 40d6 03bc f6fa 843d ee66 9d3d
00000060: 9cd1 9d3d 923c 093d d8f7 703c a840 cc3c
00000070: f48b a33c f002 ab3d b047 b33b 3c14 723d
00000080: 04d9 a3bd 00bc 663b 04c0 9abc 30ae d2bc
00000090: e4da b53c d09b b2bc 7474 783d 20ab 0cbb
000000a0: cee0 083d d8db 3cbc 2421 103d b848 07bc
000000b0: 0098 ff3a 8069 183d 5cf1 c73c 33c4 a1bd
000000c0: 90d5 86bd 037a b8bd 0eaa 94bd 52dc ad3d
000000d0: 847f dbbc f6d2 8d3d b072 283d 0f40 85bd
000000e0: 1cd2 7b3d 3467 a73d 6526 72bd 803e 2aba
000000f0: a006 823c a989 30bd 00b5 d93c 8c26 913d
00000100: dce3 5b3d 70a7 493c 7050 6ebc c47a fdbc
00000110: 70ab 9abd a008 3ebd b8ec ee3c 18fc 9ebc
00000120: 4c1c 6f3d 301b 583c 586b 123d 4c0f 253d
00000130: e621 a23d 5815 ec3c 10c1 ba3d dd78 25bd
00000140: 2098 75bc 20c1 533d bc3d 8cbd a80b bbbc
00000150: 98e6 9b3d c412 ad3c 3016 2c3d 7810 2f3d
00000160: 68bb 6f3d 4356 afbd 107b 8a3d 3239 a73d
00000170: c830 ac3d d04f 313c 16e7 a43d 3cbe af3d
00000180: 3c2c eabc b407 c73c 7cb8 97bd 271f a2bd
00000190: 5ce2 b7bc faed 63bd 8087 afba 7322 aebd
000001a0: 927c 9b3d 1e3b a13d 5660 8c3d 6c10 81bd
000001b0: 4815 8e3d 0a25 37bd 6404 68bd bb7d abbd
000001c0: d817 c23c b2cf 28bd 4093 f53c 70ae d93c
000001d0: 3c7b 063d 84ee 823c 84f8 33bd 7edb 873d
000001e0: 8055 3e3c f8f4 adbd 7089 db3b a0aa 80bc
000001f0: 90b3 093c e073 0e3b 9411 233d 002e d83c
00000200: 98f2 883d e40d 173d 2cb9 ffbc 3409 c23c
00000210: fe3e a0bd b86e f73c eecb a63d 60e5 1c3d
00000220: 02e5 20bd 1d07 75bd 0934 58bd d218 31bd
00000230: 7590 40bd ec7f 5a3d 4087 5d3c aa87 aebd
00000240: 280b 9a3d 3015 25bc d878 1a3d 544a 8cbc
00000250: 97e3 88bd f09c 463c 3345 31bd a040 6c3c
00000260: 2090 473d 801a d6bc ecd0 a93c 138f a2bd
00000270: acbb 82bc beb5 a13d 58ef 8bbd b0f2 ed3b
00000280: 901c 033c 224e 8b3d 518d 6abd 6aa5 b3bd
00000290: ac46 c5bc 58d0 b3bc 3ffb 2dbd b81d c8bc
000002a0: bc5f 063d e6e9 b63d 7cab 203d 0e76 863d
000002b0: bcc3 74bd c6e6 ac3d e893 293d 2050 b13c
000002c0: 40f8 d23b 4a1f 803d 5429 10bd 5ca8 b13d
000002d0: 14e5 6abd 9036 a5bc c810 b23d ecaf 6a3d
000002e0: 607d 803d 6072 ecbb ce91 53bd 70a0 3abc
000002f0: 342a 9ebc 6f3a 4cbd a4ad 413d 63e1 61bd
00000300: 2354 a4bd 807a 4f3b 08ce 523d 7806 223d
00000310: 00ae 823b 3a68 77bd 15fa 81bd 184f a0bd
00000320: c856 813d e71a 86bd 68d5 2d3c 5083 1fbc
00000330: 8549 abbd 7428 983d 3fee 85bd 6055 2cbd
00000340: 2826 9c3d 7103 a2bd 7417 eebc 4043 babb
00000350: b630 9ebd 4564 4abd 12bc 81bd 988f b3bd
00000360: 29bf 12bd 38a4 f9bc 709a abbb d2ee 0abd
00000370: 80c7 0a3b 90fb 0e3c 5a11 93bd ba43 43bd
00000380: d48b 873d a884 9abc 5cd4 4c3d de27 afbd
00000390: 7463 5e3d 0490 e03c 74aa a23c a0f0 48bb
000003a0: cf06 1abd aac6 b23d b839 b3bc aca0 e4bc
000003b0: 60eb 49bc 78c1 413d a6bc f2bc d9e3 0bbd
000003c0: 5c38 ac3d 848f cbbc 046c 6b3d e847 e6bc
000003d0: 3484 ad3d 22a6 8ebd e647 fdbc 4031 2cbc
000003e0: 648d a9bc 6abb 77bd 90fd e63c 5c27 643d
000003f0: 6152 8cbd 0ddc 74bd a696 8dbd f09f 4c3d
0.034499213 0.06357874 -0.06566487 -0.0057645217 -0.016932353 0.030083954 0.029723093 -0.090389684
0.07619965 -0.07549903 0.055682227 -0.040069018 -0.011256829 -0.015420385 0.0048623383 0.05146548
-0.015976861 -0.064771205 0.0102741495 -0.04505045 0.08313681 -0.008046687 0.064931795 0.07685648
0.077059954 0.03350503 0.014707528 0.024933174 0.019964196 0.0835017 0.0054711923 0.05910133
-0.08000377 0.0035207272 -0.018890388 -0.025717825 0.022199102 -0.021802813 0.060657933 -0.0021464303
0.033417515 -0.011527024 0.035187855 -0.008257084 0.0019500256 0.037209988 0.024407081 -0.0789875
-0.065837026 -0.09007647 -0.07258998 0.084892884 -0.026794203 0.06925003 0.041125 -0.06506359
0.061479673 0.08173981 -0.059118647 -0.00064942986 0.0158723 -0.043100033 0.026575565 0.0708743
0.0536841 0.012307987 -0.014545545 -0.030942328 -0.0755223 -0.046394944 0.02916561 -0.019407317
0.058376595 0.013190076 0.035746902 0.04029779 0.07916622 0.028818771 0.09118855 -0.040398467
-0.014989883 0.05169785 -0.068477124 -0.022832707 0.07612342 0.021127112 0.042013347 0.042740315
0.058528334 -0.08561375 0.067617536 0.08165206 0.08407742 0.010822251 0.08051889 0.08581206
-0.028585546 0.024295665 -0.074082345 -0.07916098 -0.022446804 -0.055646874 -0.0013391823 -0.085026644
0.07592119 0.07872604 0.06854312 -0.0630196 0.06937653 -0.044713058 -0.056644812 -0.083735906
0.02369301 -0.0412137 0.02997744 0.026572436 0.03283237 0.015982874 -0.043938175 0.06633662
0.0116170645 -0.0849399 0.0066997334 -0.01570636 0.008404627 0.0021736547 0.039811686 0.026389122
0.06686896 0.03687848 -0.031216227 0.023686029 -0.07824515 0.030204162 0.08144365 0.038304687
-0.0392809 -0.059821237 -0.052784 -0.04323656 -0.047012765 0.053344652 0.013521016 -0.085219696
0.07521659 -0.010075852 0.0377129 -0.017125286 -0.06684034 0.012122378 -0.043278884 0.014419705
0.048721433 -0.026135683 0.020729505 -0.079374455 -0.01595863 0.07895993 -0.068327606 0.0072615966
0.008002415 0.06802012 -0.057263676 -0.087717846 -0.02408155 -0.021949932 -0.042475935 -0.024428234
0.032806143 0.08931331 0.03922604 0.06565486 -0.05975698 0.08442454 0.04140082 0.021644652
0.006438285 0.06255968 -0.035195664 0.0867469 -0.057347372 -0.020167619 0.08694607 0.05729668
0.062739134 -0.007215783 -0.051652722 -0.01139079 -0.019307233 -0.049860414 0.047284737 -0.055146586
-0.0802386 0.003165871 0.051466018 0.03955695 0.0039880276 -0.060402133 -0.063465275 -0.07827586
0.0631538 -0.065481 0.010609962 -0.009735897 -0.08363632 0.07429591 -0.065395825 -0.042073607
0.07624465 -0.07910813 -0.029063918 -0.0056842864 -0.077241346 -0.04941203 -0.063347 -0.08767623
-0.035826836 -0.030473813 -0.0052369162 -0.033919163 0.002117604 0.008726969 -0.07181044 -0.04767201
0.06618467 -0.018862084 0.05000721 -0.08552526 0.054294065 0.027412422 0.019856669 -0.0030661002
-0.03760415 0.087292984 -0.021878108 -0.027908646 -0.012324184 0.047303647 -0.02963097 -0.03415284
0.08409187 -0.024848707 0.05747606 -0.02811046 0.08472481 -0.06965281 -0.030918073 -0.010509789
-0.020697303 -0.060481466 0.02819708 0.0557016 -0.0685165 -0.05978017 -0.069134995 0.049957216

bias f4 [64]
00000000: 7802 39bc 1098 233c 18d3 cd3c 90f6 f53b
00000010: 60a1 4abc 4074 3ebb 60c6 963b e828 3e3d
00000020: 7ce6 783d 6e71 a13d e5bf a1bd a1a9 24bd
00000030: 4749 a1bd 5054 e13c 81e0 0bbd f4a2 223d
00000040: 1eb9 ac3d 18cd 753c a0bf d8bc 9097 a8bc
00000050: e80b 913d 6818 2e3d 8872 603d b46f b4bd
00000060: e0eb a53d dc68 723d 48d3 183c 80d5 ba3d
00000070: e421 6cbd 5830 2e3d bc99 b7bc 2288 1fbd
00000080: e632 b5bd 6c7d 253d d0a1 d8bb 0481 a53c
00000090: 7e31 a63d c205 b03d 208b a7bb 16c3 9c3d
000000a0: b829 613c 68e1 48bc 906e 9bbc f69c 1cbd
000000b0: de0e adbd 10b3 dc3b c2f0 83bd 8df8 8dbd
000000c0: acfe 453d 0aa2 97bd ecff 223d 1ed9 a03d
000000d0: f08f 133d 50aa ffbb 842b 663d 18fa c8bc
000000e0: a803 793d 00f4 bbb9 3834 203c 40d8 8c3a
000000f0: 6403 d9bc 002e cc3b a2d6 963d 60ec 693d
-0.0112920925 0.009984985 0.025125071 0.007506199 -0.012367576 -0.002906099 0.004601285 0.04642573
0.060766682 0.07882963 -0.07897929 -0.040200833 -0.07875305 0.027506024 -0.03414965 0.039706185
0.08433746 0.015002511 -0.026458561 -0.020580083 0.07082349 0.042503744 0.054796726 -0.08810368
0.0810163 0.059182033 0.009327717 0.09122753 -0.057649508 0.042526573 -0.022412173 -0.038948186
-0.08847599 0.040402815 -0.0066110864 0.020203121 0.08114909 0.08594848 -0.0051130205 0.07654397
0.013742857 -0.012260772 -0.018973619 -0.038235627 -0.08450101 0.006735213 -0.06442405 -0.06932173
0.048338577 -0.074039534 0.039794847 0.07853912 0.03602594 -0.0078022853 0.056193843 -0.024533316
0.060794502 -0.00035849214 0.009778075 0.00107456 -0.026490875 0.0062310696 0.07365157 0.05711019

weight f4 [64, 64]
00000000: c4c3 38bd b059 513c cade b73d 2841 abbd
00000010: 8618 e73d 2e4b 8cbd a8ec 58bd 9cd2 803d
00000020: ee0b b8bd 304a 75bd 4c1c 13bd c0e1 0e3b
00000030: 02fe f4bd 805f 84ba 2cd9 7e3d eebe d93d
00000040: 72ae ff3d 582d d9bd ea9b 88bd 18ef 293d
00000050: ca31 c43d 6294 b7bd b83d f93d 0809 f1bc
00000060: c00a 32bb 9e76 b4bd f4de 353d 20aa 23bc
00000070: 183a a4bd 58bb 12bd 0099 76ba e017 d13c
00000080: e8b3 de3d 4031 84bd 56e3 e9bd 240b ca3d
00000090: 4ab3 80bd 9a33 853d 3264 88bd f4de 5c3d
000000a0: e4b6 c23d 6046 8d3c 4841 8fbd 1053 923c
000000b0: 405f 6c3b 8023 fa3c 3879 b3bd 82f8 c1bd
000000c0: 02b9 843d 76b6 babd c01c c53b 28be c3bd
000000d0: d428 62bd 1494 72bd 8cf9 bb3d 3025 7e3c
000000e0: f410 6c3d 546d 8fbd 0a39 d5bd 82aa f63d
000000f0: f0a9 203d 845d d33d e439 6b3d a0e6 a53c
00000100: 16c2 bd3d 1459 003d 5088 853c c0a3 90bd
00000110: bc06 f13d cc4e 6dbd 8419 ffbd 709e 0d3c
00000120: f889 97bd f260 923d 642c 40bd b0b3 38bc
00000130: 20b5 903d caaf b8bd acb1 c1bd fe8c eabd
00000140: 50ef 153c a88e 4dbd cace d2bd b64a 893d
00000150: 4085 10bd c8c1 3fbd 20f8 d8bd 363e 9dbd
00000160: ecc7 453d 72ff f63d 7834 a33d c8ea 873d
00000170: c635 ec3d 4077 ddbb d2c1 82bd 5020 1d3c
00000180: 00c4 493c 1c94 2bbd 3689 9fbd ca6e ef3d
00000190: 80d0 a8bb f894 8bbc 103b b6bd c23a 953d
000001a0: 482f c6bd e804 eabc ce60 e83d 0090 2239
000001b0: 3001 cabc b64d f6bd 4cea 7ebd ae84 b13d
000001c0: 7c50 54bd 606f 6bbc e4f1 3cbd 528b aa3d
000001d0: 5c7e c8bd d0a7 36bc e2a2 a2bd 48b7 dc3c
000001e0: 7439 3dbd ac6c e3bd 2ea3 cfbd 22ea e1bd
000001f0: 38df 95bc 886c ee3d ac47 c5bd 4073 e93c
00000200: 8cba a6bd 281e 813d 9c18 7d3d b07a 40bd
00000210: 500c f33c d47f 25bd ec77 903d aa3f d73d
00000220: d0e8 7f3c 30f8 e6bc 5caa 6c3d 389a 163d
00000230: e453 34bd 7008 3bbd dcfc 0cbd 6440 68bd
00000240: 0051 a2bb 4031 943c 989c babc a072 a0bc
00000250: 7031 d6bd 70c5 e53c 7031 81bd fc40 41bd
00000260: 8886 e93d 80f5 06bc 8076 c33c 78f1 473d
00000270: 7cdc 1e3d b4f7 0c3d f429 e7bd 1483 803d
00000280: c616 f83d 0a52 db3d d0a8 403d 8269 f93d
00000290: 3cf1 973d ccf4 35bd 8800 fa3d 2c3e 233d
000002a0: 0019 4aba a40a af3d 863a db3d b0d0 25bc
000002b0: ec32 b03d 0025 8a3a 282f a4bc 1414 53bd
000002c0: 089f 83bc 5254 e63d b048 afbc aa6d 97bd
000002d0: 6a03 c9bd 8297 a23d 3a8b b6bd 26b6 fa3d
000002e0: 5cf9 93bd 641c 35bd a0db c3bd a450 18bd
000002f0: 206f 87bd 6c0f f6bd a8d8 35bd b051 10bd
00000300: 643e 9c3d 702b 7abd 3efd acbd 9866 81bd
00000310: 003b d13c f6cc 9cbd 80b7 8cba 96ff a8bd
00000320: 48c0 d93c 60db e0bd 1eb1 963d 6ed4 913d
00000330: f822 403d e235 b03d b8a7 133d a2f3 e2bd
00000340: 604e 78bc feee fe3d 0eee 9d3d 90db c13c
00000350: 8689 c03d 144f 86bd 846d 183d 2c53 65bd
00000360: 9814 e23c 880f a43c 40c0 4bbc 38ef 3cbd
00000370: 1853 eabc 80aa e7bd b4b6 843d 34de e43d
00000380: c090 5dbd 22d0 acbd 386e 993d 906b ba3d
00000390: a229 bcbd b06a e0bd c05c 3e3d 6845 a63d
000003a0: 90be ecbc f4bd bb3d 6816 f23c 46bd ff3d
000003b0: ecf4 18bd 0cf1 423d 2037 fd3c 6893 ecbc
000003c0: 6804 163d 9623 9bbd b626 823d 16d6 d53d
000003d0: 4090 833b 2e9f 98bd 60b5 283c 4c2d d53d
000003e0: e89d 8fbc 00a6 aa3d c061 b33c 94fc eabd
000003f0: a81a a43d 2ea4 aebd b031 adbc 90fe debd
-0.04510857 0.012777731 0.089780405 -0.08362037 0.11283974 -0.06850277 -0.052960068 0.062901706
-0.089866504 -0.059885204 -0.035915658 0.0021802038 -0.11962511 -0.0010099262 0.06221883 0.1063212
0.12484445 -0.10604352 -0.06670363 0.041487783 0.09579809 -0.08963849 0.12169975 -0.029423252
-0.0027167052 -0.08811687 0.044402078 -0.009989291 -0.08018893 -0.035823196 -0.0009406954 0.02552408
0.10874158 -0.06454706 -0.11420314 0.09865406 -0.06284197 0.06503983 -0.06659736 0.053923562
0.0950754 0.017245471 -0.06994873 0.017861873 0.0036067516 0.030534506 -0.08763355 -0.09471227
0.064806 -0.09116833 0.00601539 -0.09557754 -0.055214718 -0.05922325 0.09178457 0.015511796
0.057633355 -0.070032746 -0.1041127 0.120442405 0.039224565 0.10320571 0.057428256 0.020251572
0.092655346 0.03133495 0.01630035 -0.07062483 0.117688626 -0.057936475 -0.124560386 0.0086437315
-0.07399362 0.07147397 -0.046917334 -0.01127331 0.07065797 -0.09017904 -0.09457716 -0.114526734
0.009151295 -0.050184876 -0.10293348 0.06703703 -0.035283327 -0.046815664 -0.10594201 -0.076778814
0.048286363 0.12060441 0.07968992 0.06636578 0.11533694 -0.0067586005 -0.063846245 0.009590223
0.012314796 -0.041889295 -0.07789843 0.11691053 -0.0051518083 -0.017038807 -0.08897984 0.07286598
-0.09676987 -0.028566793 0.11346589 0.00015503168 -0.02465877 -0.12026541 -0.06223516 0.08667885
-0.05183457 -0.014369816 -0.046129122 0.083273545 -0.09789726 -0.011148408 -0.07941224 0.026942864
-0.04619737 -0.11104712 -0.10138546 -0.110309854 -0.018294916 0.116417944 -0.09632811 0.028497338
-0.0814105 0.0630458 0.061791047 -0.046992004 0.029668957 -0.04040511 0.07054123 0.1051019
0.015619472 -0.028194517 0.057779655 0.03676817 -0.044025317 -0.045662344 -0.034420833 -0.056702033
-0.0049535036 0.01808989 -0.022779748 -0.019585907 -0.10458648 0.028048247 -0.063082576 -0.047181115
0.11402613 -0.008237243 0.023860216 0.048814267 0.03878449 0.034415916 -0.11287299 0.06275001
0.12113719 0.10709007 0.047035992 0.12178327 0.07419059 -0.04442291 0.122071326 0.039854214
-0.0007709414 0.085469514 0.10704522 -0.010120556 0.086034626 0.0010539591 -0.020042017 -0.05153282
-0.016067043 0.112465516 -0.021396965 -0.07393964 -0.09815104 0.07939054 -0.08913274 0.12241773
-0.07225296 -0.04421653 -0.095633745 -0.03718628 -0.06612992 -0.1201466 -0.044396073 -0.035234153
0.076290876 -0.06107658 -0.084467396 -0.06318396 0.025540829 -0.07656281 -0.001073584 -0.08251874
0.026580945 -0.109793425 0.07358001 0.07120596 0.04690835 0.08604027 0.03604862 -0.110816255
-0.015155405 0.12447928 0.07711421 0.023664266 0.094012305 -0.06558052 0.037213817 -0.055987522
0.02759771 0.020026937 -0.012435973 -0.046126574 -0.028604075 -0.11311817 0.0648016 0.111751944
-0.054093122 -0.08438136 0.07491726 0.09102547 -0.09187628 -0.10957849 0.046475172 0.08118707
-0.028899461 0.0916709 0.0295517 0.12487273 -0.03734295 0.04759316 0.030910075 -0.028878883
0.036625296 -0.07575147 0.0635504 0.10441224 0.0040149987 -0.07452236 0.010297149 0.1040903
-0.01753135 0.08332443 0.021897197 -0.11473957 0.08012897 -0.085274085 -0.021141857 -0.10888398

bias f4 [64]
00000000: 6ab6 cc3d e0e1 b0bd ac1c 463d a0ea 233c
00000010: 201a 6cbd b40b 1bbd 107b 953c e02d 3ebd
00000020: 54ca b0bd dc32 283d 201f 44bd 00dd b13a
00000030: c0fb 963d aced 693d 706b fcbc 0cc4 8f3d
00000040: f8d0 9d3c b0ec bf3d 20ea de3c 2077 123c
00000050: 84fb 833d e064 863c 4845 c7bc 720e debd
00000060: 3e19 b3bd a0dc a53d 64d2 0b3d b456 68bd
00000070: f671 cdbd 9eb1 c43d d08d 6d3d 38b0 413d
00000080: 5c84 0f3d 8402 6fbd 9625 f9bd 5c17 e23d
00000090: 04db 903d cea7 c83d 0046 e83c 1a5e 89bd
000000a0: 989b ba3c 007d 273d 3c73 563d c0ea bd3c
000000b0: 9861 a9bd 708a 8a3c 1089 a6bc 482a 753d
000000c0: 4e1f cabd 745a 1fbd 86ed 853d 4cc8 d8bd
000000d0: 426a eebd 98bc cfbd 2488 b2bd e0cc b1bd
000000e0: 3ecf a2bd c0eb 4c3b 4099 4cbd 8ead b43d
000000f0: 1444 debd 88a8 a7bc 2098 02bd f4bf 403d
0.0999573 -0.08636832 0.048367187 0.010004669 -0.057642102 -0.037852958 0.018247157 -0.04643047
-0.08632341 0.04106413 -0.047881246 0.0013569891 0.07372236 0.057111427 -0.030812949 0.07019815
0.019264683 0.093713164 0.027211249 0.008939534 0.06444457 0.016405523 -0.024325028 -0.10842599
-0.08745049 0.080987215 0.03413619 -0.05672331 -0.10031502 0.0960419 0.05799657 0.047287196
0.035038337 -0.05835201 -0.12165372 0.11039612 0.07073024 0.09797631 0.028353691 -0.067074016
0.022779271 0.040890694 0.05235599 0.023183227 -0.08270568 0.016911715 -0.020329028 0.059854776
-0.09869252 -0.038904622 0.065394446 -0.105850786 -0.11641361 -0.10143393 -0.08717373 -0.08681655
-0.079496846 0.0031268448 -0.049950838 0.088221654 -0.108528286 -0.020466104 -0.03188336 0.04705806
