darts_logs/2022-11-19_12.43.39.245792_torch_model_run_13992/_model.pth.tar (torch, 74610 bytes, 16 tensors)

weight f4 [64, 2]
000000 f1 a8 22 3f e5 aa 06 3f c8 1f 9b 3d 77 9d 2e 3f
       0.63539034 0.52604514 0.07574421 0.6820902
000010 4a 11 9b 3e e4 38 12 be 69 e9 0c 3f 64 ed 8f 3e
       0.30286628 -0.14279515 0.55043656 0.28110802
000020 d2 9c d5 be ee 60 e3 be 30 0c 69 bd 68 a5 02 be
       -0.41721207 -0.4440989 -0.05689639 -0.1275841
000030 56 47 ce 3e ad de 1c 3f c8 8f f8 3d db 75 12 bf
       0.402888 0.61277276 0.12136799 -0.57211083
000040 38 c4 30 be 00 08 cd bb 57 42 26 3f e4 31 ec be
       -0.17262352 -0.006257057 0.64944977 -0.46131814
000050 a4 f5 3b 3e ed f5 cf be 48 b2 93 bd ff 93 28 bf
       0.18355423 -0.40617314 -0.07211739 -0.65850824
000060 ca 63 fe 3e 2c 05 0d bf 47 b0 02 bf e8 b5 d7 3d
       0.49685508 -0.55086017 -0.5105023 0.10532743
000070 ac d4 32 bf 8d de 2d 3f 77 6c 2f 3f b0 f8 5e 3e
       -0.6985576 0.6791771 0.6852488 0.21774554
000080 18 0e 07 bf 20 52 d7 3d d6 02 10 bf 08 ca f0 be
       -0.5275588 0.10513711 -0.5625433 -0.47029138
000090 be 1a 0e bf 88 93 c3 bd b0 4f cb 3d 95 76 24 3f
       -0.55509555 -0.09549624 0.099273086 0.6424344
0000a0 f0 80 2c bd 10 58 6b 3d e5 a5 03 3f 98 ae 92 3d
       -0.042115152 0.05745703 0.5142501 0.07162207
0000b0 05 d5 13 3f 48 d8 7c 3e 96 b1 07 bf 02 7a ae 3e
       0.57746917 0.2469188 -0.5300535 0.3407746
0000c0 c4 7d 89 3e fa 80 e7 3e d6 f4 de 3e 3c 66 40 be
       0.26853764 0.4521559 0.4354617 -0.18789
0000d0 80 a3 02 3d 0a 0e fc 3e 2c 8d 26 3e e2 80 76 be
       0.031894207 0.4922946 0.1626479 -0.24072602
0000e0 45 0a c9 be 00 de e0 3a cf 69 b1 be 30 ad 65 be
       -0.39265648 0.0017156005 -0.34651038 -0.22429347
0000f0 c2 7a d3 3e 1b 07 31 3f 56 cc e1 3e c9 1c 14 3f
       0.41304594 0.6915147 0.44101208 0.5785642
000100 80 67 37 bc 68 ad fc 3d 32 fb c8 3e 2e 5a a2 3e
       -0.01119411 0.12337762 0.39254147 0.31709427
000110 df 52 96 be b5 c2 02 3f 4e c7 da 3e 78 df bf 3d
       -0.293601 0.5107835 0.42730182 0.09368795
000120 4c c8 59 be dd 78 0a bf 22 b7 d3 3e 89 d2 18 3f
       -0.21267813 -0.5409067 0.41350657 0.5969625
000130 40 f1 0c 3e dd 3d 1a 3f c4 e2 1f bf 64 a6 8d be
       0.13763905 0.60250646 -0.6245539 -0.27666008
000140 24 90 49 3e fa 67 fb 3e b4 30 8f 3e 60 f0 ac be
       0.19683892 0.49102765 0.27966845 -0.33777142
000150 32 f3 fd be d6 1c f6 3e 96 57 c0 3e 5b 15 1a bf
       -0.49599606 0.48068875 0.37566823 -0.60188836
000160 1d b3 0f bf 66 43 1a bf c0 f7 5e bd 6d 3d 24 bf
       -0.5613268 -0.6025909 -0.05443549 -0.6415623
000170 c4 95 5d 3e 28 74 54 3e e7 d1 2c bf 5f eb 1e 3f
       0.21639162 0.20747435 -0.67507786 0.620779
000180 7b b0 21 3f dd 00 1d 3f 50 6f e9 3d b0 bc 53 bd
       0.6315991 0.6132944 0.11398184 -0.05169362
000190 10 3b b8 3d db fa 9c be 34 25 3f be a9 58 ad be
       0.0899564 -0.30660138 -0.18666536 -0.33856705
0001a0 fd d8 2a 3f 4c 50 ff be 8c fd 23 3e 85 ea 09 3f
       0.6673735 -0.4986595 0.16014689 0.53873473
0001b0 73 fd 08 3f 86 8b 67 be e6 a8 d3 3e 49 f8 a8 be
       0.5351173 -0.22611818 0.41339797 -0.33001927
0001c0 fa 79 fc 3e 10 ee 45 bd 9f d2 ac be 56 44 98 3e
       0.4931181 -0.048322737 -0.3375444 0.29739636
0001d0 aa 6c 06 bf ca fc 96 3e e8 64 29 bf be 15 f5 3e
       -0.5250956 0.29489738 -0.66169596 0.4786815
0001e0 ec 85 1e 3e 4e 2c b6 3e c3 f3 10 3f 10 ac 1b bf
       0.15480775 0.35580677 0.5662195 -0.6080942
0001f0 50 fa 39 3e ed 05 a1 be 90 06 6b bd 70 bb c3 3d
       0.18161893 -0.31449834 -0.057379305 0.09557235

bias f4 [64]
000000 3a 11 7a be ea fb d4 3e cb 71 97 be b8 77 a0 3d
       -0.24420634 0.41598445 -0.29579005 0.078353345
000010 75 bb 05 bf 6a 9c ce 3e 20 49 00 bd 70 a7 2f bf
       -0.5223916 0.4035371 -0.031319737 -0.68614864
000020 81 1b 0f 3f d5 8c 0d 3f 7a 2f f7 3e fe 4e 86 3e
       0.5590134 0.5529302 0.4827841 0.2623214
000030 c2 92 25 bf e8 b2 34 be e6 b0 d8 3e 00 2e cd 3d
       -0.6467706 -0.17646372 0.42322463 0.100185394
000040 7b 27 0d 3f ba f6 a3 3e 80 48 5c 3c 2e 89 d1 3e
       0.5513837 0.32024175 0.01344502 0.40924972
000050 35 d7 95 be 2b 88 05 3f 9d 03 e1 be 5c 82 28 bf
       -0.29265752 0.521609 -0.4394807 -0.6582391
000060 9c ac 33 3e 47 45 8a be f9 a1 19 3f b7 41 23 3f
       0.17546314 -0.2700598 0.60012776 0.6377215
000070 e8 c7 84 3e 90 1e cc bd ce 6f 19 bf c8 5a 8b bd
       0.25933766 -0.09966767 -0.59936225 -0.068044245
000080 01 0f 12 bf b4 b3 ee be bb 7f 00 3f 65 ac 30 bf
       -0.57054144 -0.46621478 0.501949 -0.69013053
000090 e6 2e 7f be c8 7f 8e 3e 64 cd 49 3e 07 72 12 bf
       -0.24920234 0.27831864 0.19707257 -0.5720524
0000a0 cc 9a 17 be 40 c5 77 3c 58 bd 7d 3e 36 d5 01 bf
       -0.14805144 0.015122712 0.2477926 -0.5071596
0000b0 fd 3a 20 3f 92 f4 cd 3e 70 0f f2 3d 49 7d 20 bf
       0.6259001 0.40225655 0.11819351 -0.6269117
0000c0 e9 19 19 bf f6 22 0c bf 28 2e 8e 3d 68 f2 d8 3d
       -0.5980516 -0.54740846 0.06942397 0.1059311
0000d0 72 c2 8f be 44 e1 7b 3e a0 b4 c3 3d 70 ac aa be
       -0.28078038 0.24597651 0.09555936 -0.33334684
0000e0 73 89 f1 be 2b 9e 13 bf 3e d2 65 be 1c 4b 39 be
       -0.47175178 -0.5766322 -0.22443482 -0.18095058
0000f0 ec ef 72 be a8 7c 8b bd 3c 40 1c bf f8 54 a1 be
       -0.23724335 -0.06810886 -0.61035514 -0.3151014

weight f4 [64, 64]
000000 28 57 5d 3d e8 f8 ef bc e8 c3 02 3d 5c b1 fe 3d
       0.054038197 -0.029293492 0.031925112 0.12436172
000010 48 a3 cd bc 70 5e fa 3c 22 42 9b 3d c0 89 2a bb
       -0.025102273 0.03056261 0.07580973 -0.0026022047
000020 12 cf b7 bd ca 02 c0 3d de 32 a8 3d 58 a7 48 3d
       -0.089750424 0.09375532 0.08212827 0.048987716
000030 ae 6b d7 bd 10 f6 b9 bc 70 ac 50 3d 64 03 24 bd
       -0.10518585 -0.02270034 0.0509457 -0.040042296
000040 a8 c1 94 bd 9e 9a ba bd d6 ed bb 3d 28 65 f5 bc
       -0.072634995 -0.09111522 0.09176223 -0.029955462
000050 84 c5 17 3d ce 7d ad bd aa 62 fe 3d f8 98 e0 bd
       0.0370536 -0.08471261 0.124211624 -0.109666765
000060 3a a6 8e 3d 18 15 14 bd 8c d1 51 3d e2 07 9b bd
       0.06965299 -0.03615293 0.05122523 -0.07569863
000070 66 5e f9 bd 8c 05 87 bd ac 8f b0 bd e6 04 f4 3d
       -0.12176208 -0.06592855 -0.08621153 0.11914997
000080 00 a2 b5 3a 40 32 0f bc 7c 83 80 3d 4a 71 95 3d
       0.0013857484 -0.008740008 0.06275079 0.07296999
000090 c0 1f c7 bc c0 d9 13 3d c0 5a 4a 3c a0 13 a4 bd
       -0.024307132 0.036096334 0.012350738 -0.08011556
0000a0 1e 41 de bd 42 c6 e4 3d a8 f8 dc 3d a6 f6 b2 3d
       -0.10852264 0.11170627 0.10789615 0.08738451
0000b0 72 55 e7 3d a0 70 09 bd 1c c7 25 3d b0 9c 2f bc
       0.11295594 -0.033554673 0.04047309 -0.01071851
0000c0 ec 38 27 bd b8 49 b6 3c 14 63 14 bd 92 bc a2 bd
       -0.04082577 0.022251949 -0.0362273 -0.07946123
0000d0 48 3e 87 3c 12 8f 81 bd 50 99 c9 3c 7e 6c 97 bd
       0.01650919 -0.063261166 0.024609238 -0.0739374
0000e0 ee a0 91 bd 0c cb 8a bd 06 9b b4 bd 00 f6 ab 3c
       -0.07110773 -0.06777009 -0.08818631 0.020991325
0000f0 a2 d1 c4 bd 38 17 2e 3d 4c 7c 0c bd 78 a4 8e bd
       -0.09610297 0.042502612 -0.034298226 -0.06964964
000100 70 18 dd 3c 18 59 03 bd 10 a8 80 3c b0 5c 4d bd
       0.026989192 -0.03206739 0.015705138 -0.05013722
000110 20 30 ad 3c 00 a5 8f bd 20 c8 da bd e6 37 c4 bd
       0.021141112 -0.07013893 -0.10682702 -0.09580974
000120 b0 6a f1 3c 50 6f dd 3d c0 51 ff bd 12 e7 84 bd
       0.029469818 0.10812247 -0.124667645 -0.06489386
000130 a4 b9 c9 bd a0 5c ca bd bc ce 73 3d 72 d6 e4 3d
       -0.09849861 -0.09880948 0.05952333 0.11173715
000140 78 c0 e9 3c 1c 71 3d 3d 7c 38 6f 3d 8e 03 fa bd
       0.028534159 0.046250448 0.058403477 -0.12207709
000150 00 40 da 3a 98 5b 06 bd 00 36 f8 39 24 53 e0 bd
       0.0016651154 -0.032802194 0.0004734248 -0.10953358
000160 b0 9f 71 3d 30 5b e9 bd a0 ab a4 3c 50 56 ec 3c
       0.05899018 -0.11394346 0.020101368 0.02884975
000170 40 5e c5 3d 46 f4 92 bd f4 a9 aa 3d 60 cd f9 3b
       0.096371174 -0.07175498 0.08333197 0.0076233596
000180 86 83 dd bd e0 17 d6 3b e0 6c c4 bc aa 62 d8 3d
       -0.10816102 0.006533608 -0.023977697 0.10565694
000190 30 72 50 bc 16 82 cd bd f0 ff de 3c a0 6e cc 3c
       -0.012722537 -0.100345775 0.02722165 0.024955094
0001a0 dc 2c 16 3d 94 25 7b bd 84 42 e3 bd 74 02 0b 3d
       0.036663875 -0.061315134 -0.11096671 0.033937886
0001b0 50 a3 43 3d 98 fd 4f bd c0 41 11 3c 50 79 ab 3d
       0.04776317 -0.050778955 0.008865774 0.08372748
0001c0 c8 f7 b2 3d 7c 4f 1b 3d 80 0e 1d 3d d6 a7 aa 3d
       0.08738667 0.0379176 0.038343906 0.083327934
0001d0 1a 5f d4 3d ae ac 9a 3d c2 42 93 3d c8 b4 29 3d
       0.10369702 0.07552467 0.071904674 0.041432172
0001e0 50 a5 28 bd a4 21 5a 3d 8e 58 db bd f8 5a d0 3d
       -0.04117328 0.05325474 -0.1071025 0.10173601
0001f0 68 e8 ec bd 44 3e 46 bd 3a f2 fb bd 68 24 60 bd
       -0.115677655 -0.048399225 -0.123020604 -0.05472222
000200 92 3d 9e 3d 80 82 be bd b6 f7 da 3d bc 81 57 bd
       0.07726587 -0.09302235 0.10691778 -0.05261396
000210 e0 f6 ed bb 00 09 05 3b ce 2b b6 3d c8 0f c1 3d
       -0.007262096 0.0020299554 0.08895074 0.09426838
000220 74 2f 5d 3d dc 2f b4 bd 3a 16 e9 3d 2e 59 80 3d
       0.054000333 -0.08798191 0.113811925 0.0626701
000230 f0 c4 c2 3c c0 40 40 3c c8 f5 81 3c 60 8a 8d bd
       0.023775548 0.011734188 0.015864268 -0.069111586
000240 e8 62 54 bd 4a 55 c8 3d 1c 65 94 bd ac 59 34 bd
       -0.051852137 0.097818926 -0.072458476 -0.04403083
000250 80 27 02 3b b8 d8 86 3c c8 ab 26 3d 28 38 ef bd
       0.001985997 0.016460761 0.040691167 -0.11680633
000260 0c 25 eb 3d b0 3a 9b bd 30 ae 02 bd ac 37 b8 bd
       0.114816755 -0.07579553 -0.0319044 -0.089949936
000270 6c 79 17 3d 40 b9 6d 3b a0 f1 12 3d d0 14 c0 bd
       0.03698103 0.0036273748 0.035874963 -0.0937897
000280 08 9a 94 3c 0c c8 62 bd e0 d1 bc 3d 68 42 aa bc
       0.018139854 -0.05536656 0.09219718 -0.020783618
000290 f0 e0 75 3d 30 35 b8 3c 20 6d ff bd cc 0d c3 3d
       0.06002897 0.0224863 -0.12471986 0.09524116
0002a0 fa e1 fd bd 00 26 41 ba 50 98 a5 bc da de ac bd
       -0.12396617 -0.0007368028 -0.02021423 -0.08440943
0002b0 00 d1 4e 3d 3a 13 c1 bd d0 ce db 3c 56 9f d3 3d
       0.050492287 -0.09427495 0.026832014 0.10333125
0002c0 f0 0e c8 3c e8 19 b9 bc e0 d6 f0 3b 60 a4 29 bc
       0.024421185 -0.02259536 0.007349834 -0.010354131
0002d0 40 e7 74 bb ae 1c a6 3d c2 9d d1 3d 20 94 d5 3b
       -0.003736928 0.08110939 0.10235168 0.006517902
0002e0 00 07 66 bc 7c 0a 94 bd f6 e2 b9 bd e8 33 b0 3d
       -0.014039755 -0.07228562 -0.090764925 0.0860365
0002f0 60 ba 81 3c 70 91 41 bc 04 9c eb bd c0 ab 5a 3b
       0.01583594 -0.01181446 -0.11504367 0.003336653
000300 82 df ba bd ea f8 bd 3d c0 c0 f9 3d 14 fd 15 3d
       -0.09124662 0.09275992 0.12194967 0.036618307
000310 c0 b1 ad 3b fc 94 e8 3d 22 6b a6 bd a8 7a 9b bc
       0.0053007305 0.113565415 -0.08125903 -0.018979385
000320 a0 81 9f 3c b0 d4 4a bd 56 bd 8a 3d 88 56 bc bd
       0.01947099 -0.04951924 0.06774394 -0.09196192
000330 14 4f 27 bd de 9c d0 bd 68 8a 8a 3d 56 3d a7 bd
       -0.0408469 -0.1018617 0.0676468 -0.08165996
000340 5e ba dc 3d 90 ef 5d bc b8 9d f0 bd 38 3a a1 bd
       0.10777734 -0.013545886 -0.117488325 -0.078724325
000350 2a 14 ba 3d 92 7b b5 bd e0 c8 70 3d 20 b7 d2 bc
       0.09085877 -0.0886146 0.05878532 -0.025722086
000360 14 65 55 3d cc 46 d0 bd c0 4b 13 bc 20 69 ac 3c
       0.05209835 -0.101697534 -0.008990228 0.021046221
000370 00 b0 43 ba f8 56 dc bd 2e 31 f8 3d 48 b1 35 bd
       -0.0007464886 -0.107587755 0.12118755 -0.04435852
000380 ac b6 74 bd 1e cd 92 3d 80 e7 eb 3c e4 d6 05 3d
       -0.059744522 0.07168029 0.028796911 0.03267564
000390 24 99 b6 3d 6a 96 e0 bd 90 48 97 bc e2 aa c3 3d
       0.08915928 -0.10966189 -0.018467218 0.09554078
0003a0 f6 2d 99 bd 50 1c ff 3d 10 2a 1e 3d 20 d1 63 3d
       -0.074794695 0.12456572 0.038614333 0.05561936
0003b0 c8 82 c0 3c b0 3b 75 3c a0 36 09 bd 94 2f 3a 3d
       0.023499861 0.014967844 -0.03349936 0.04545553
0003c0 92 50 fe bd 9a 10 c6 3d 34 0b 96 3d e0 2e e0 bb
       -0.12417711 0.09671135 0.073263556 -0.0068415254
0003d0 48 46 bb bc fa 7a be bd 4c 00 2b 3d 8c 91 ec 3d
       -0.022860661 -0.093008 0.04174833 0.11551198
0003e0 e6 55 fa 3d 3c 8a 9c 3d 80 b9 23 3c 4c 39 00 bd
       0.12223415 0.076435536 0.009992957 -0.031304643
0003f0 ce fc cb 3d 0a 64 9f bd 80 df 19 bb 68 48 d3 bd
       0.09960328 -0.07782753 -0.0023479164 -0.10316545

bias f4 [64]
000000 8e b6 dc 3d e4 16 39 3d 20 fa b8 3b 20 e2 ac 3b
       0.10777007 0.045187846 0.0056450516 0.0052759796
000010 98 12 72 3d 80 7c 8a 3d 12 89 9f bd 00 0b 8a bd
       0.059099764 0.06762028 -0.07789816 -0.06740379
000020 5e a0 af bd 46 61 c8 bd c6 61 a0 bd 4c 31 dd bd
       -0.085755095 -0.097841784 -0.07831149 -0.10800418
000030 f4 dd eb bd 26 bb a7 3d 6a 01 f2 bd 20 cf ec 3c
       -0.115169436 0.081899926 -0.11816676 0.028907359
000040 c8 14 9d 3c 70 ea ff bc 60 64 54 bc f4 80 07 bd
       0.019174948 -0.031239718 -0.012963384 -0.033081964
000050 68 48 0d 3d 1a 1e d7 bd b0 46 30 bd 9c e0 5f bd
       0.03449288 -0.10503788 -0.043036163 -0.054657564
000060 d8 bd d7 3d 08 97 ee 3c 24 4b 52 3d 60 63 ef bc
       0.10534257 0.029124752 0.05134119 -0.02922219
000070 cc 41 b2 bd 90 c5 59 3c 70 4c 24 3c 18 28 50 bd
       -0.08703956 0.0132917315 0.01002799 -0.050819486
000080 e6 2d 9f bd 3e 68 8e 3d a4 78 a1 bd 40 ba ea 3c
       -0.07772426 0.06953476 -0.078843385 0.028653264
000090 00 00 1c b8 9c 00 df 3d ec cf ee 3d c8 48 b6 3d
       -3.71933e-05 0.10888788 0.11660752 0.08900601
0000a0 36 74 ac 3d 90 e7 b3 bc 9e 03 d1 bd 44 a5 2a 3d
       0.08420603 -0.021961004 -0.10205768 0.041661516
0000b0 00 93 16 3c 60 f3 ed 3c 08 b4 bf bd 50 8d 29 bc
       0.009190321 0.029046714 -0.0936051 -0.010348633
0000c0 70 fd 82 3d 30 77 f8 bd fc bd b3 3d a8 a5 fd bd
       0.063959956 -0.12132108 0.08776471 -0.12385112
0000d0 d8 70 b1 3c e8 6e 22 bd e6 f0 8a 3d 68 43 24 3d
       0.021660253 -0.03965655 0.06784229 0.040103346
0000e0 c8 bb 7f 3d 52 3b cd 3d 10 8d 68 bc 88 4e 90 3d
       0.06243494 0.1002108 -0.014193788 0.07046229
0000f0 0a 3a 8d bd de 50 b5 bd 52 30 96 3d 30 03 39 bd
       -0.06895836 -0.08853315 0.07333435 -0.045169055

weight f4 [10, 64]
000000 68 ca 65 3d 76 9c ff 3d a2 4d b2 3d c8 07 d1 bc
       0.056101233 0.124810144 0.087062135 -0.025516406
000010 0a 3e fa bd 4a aa 84 bd 14 8f c4 bd b2 1b c7 bd
       -0.12218864 -0.064777926 -0.095976025 -0.09722079
000020 38 de 66 3d 74 0d e2 bd 40 8a 06 3c 18 06 34 3d
       0.056364268 -0.11037722 0.008211672 0.043951124
000030 b2 71 dd 3d 64 57 de bd aa 6d a2 bd cc 1d 8a bd
       0.10812701 -0.10856512 -0.07931073 -0.067439646
000040 b8 d9 c1 bc 04 8c 20 bd 8a 91 fb bd 64 28 7a 3d
       -0.023663387 -0.03919603 -0.12283619 0.061073676
000050 60 02 fb 3b 54 8c 17 bd a8 80 f1 3c 40 ea 01 3c
       0.007660195 -0.03699906 0.029480293 0.007929385
000060 28 7b 80 bd c8 7a 01 bd 34 a1 72 bd 2c bf 4f bd
       -0.0627349 -0.031611234 -0.059235767 -0.050719425
000070 74 53 3f bd 70 eb 10 bc ec 1a 30 bd 98 ee 99 bc
       -0.046710446 -0.008845195 -0.042994425 -0.018790528
000080 88 13 95 3c 40 4c 97 bd cc ac 30 bd 18 61 5c 3d
       0.01819779 -0.073875904 -0.043133542 0.053803533
000090 ac 44 b9 3d 40 31 e9 bd 38 e0 70 bd a0 57 1d bd
       0.09046301 -0.11386347 -0.05880758 -0.038413644
0000a0 f4 ad 83 bd 28 35 83 bd 90 97 7b 3d ba f6 f8 bd
       -0.06429663 -0.06406623 0.06142384 -0.12156434
0000b0 1c 25 64 bd 40 d3 3a bd 24 c1 fc 3d 48 79 d0 3d
       -0.055699453 -0.04561162 0.12341526 0.101793826
0000c0 94 d1 73 bd 78 59 e2 bd a0 7a 3f 3d 38 1b b1 bd
       -0.05952604 -0.11052221 0.046747804 -0.0864777
0000d0 d0 be 56 bc 1c e0 19 3d b6 78 83 3d 14 9e d3 bd
       -0.013107017 0.037567243 0.06419508 -0.103328854
0000e0 2a 66 e7 3d 7c 26 b3 3d 80 82 79 bb 54 a0 f3 3d
       0.11298783 0.08747575 -0.0038072169 0.118958145
0000f0 50 78 a2 3d 90 27 40 3c 44 27 d1 3d a0 fd be bd
       0.07933104 0.011728182 0.102125674 -0.09325719
000100 58 96 86 bc a0 4b d2 bb 3c db e6 3d b0 c6 94 3d
       -0.016429111 -0.0064177066 0.112722844 0.07264459
000110 10 e5 51 3d 12 3a f8 bd 78 9a a7 bd 18 2d 6d 3d
       0.05124384 -0.12120451 -0.081837595 0.057904333
000120 bc d6 c6 3d 80 dc fb 3d 20 bc 44 3d 78 ae e2 bd
       0.09708926 0.122979164 0.048030972 -0.110684335
000130 1c 8c b4 3d c0 1b 60 bd 00 03 44 ba 20 d1 2b bc
       0.08815786 -0.054713964 -0.00074772537 -0.010486871
000140 18 aa 8a 3c de a7 e1 bd 42 de e1 bd 90 0b 0a bd
       0.01692681 -0.11018346 -0.110287204 -0.033702433
000150 dc 19 1b 3d b0 ae 70 bc d0 84 17 bc 32 c6 dc 3d
       0.03786646 -0.014690086 -0.009247974 0.1077999
000160 84 8d f8 bd 78 5e 46 bd 88 00 47 bd f0 d1 bf 3d
       -0.12136367 -0.048429936 -0.04858449 0.09366214
000170 6a 64 b7 3d 88 94 32 bd 70 a7 35 3d 04 b0 72 3d
       0.08954699 -0.04359868 0.044349134 0.059249893
000180 cc 33 f5 bd 10 e6 9d bc 88 ff d6 3d d4 26 68 3d
       -0.1197277 -0.019274741 0.104979575 0.056677654
000190 c0 90 3d bd 68 05 c0 bc 30 bd 07 bd 50 7e af bc
       -0.046280622 -0.023440078 -0.033139408 -0.021422535
0001a0 c8 7a 78 3d 4a 3c e0 bd ac 69 c3 bd 20 51 63 3d
       0.06066397 -0.10948999 -0.0954164 0.05549729
0001b0 be 35 e0 bd 78 2f cd bc 4a 19 bc bd a0 a8 fd 3d
       -0.109477505 -0.025047049 -0.09184511 0.12385678
0001c0 58 02 d1 3c 7a 09 f3 3d 68 ed c8 bd 9c a3 08 bd
       0.025513813 0.11867042 -0.09810907 -0.033359155
0001d0 e0 0f 09 bd 90 85 8a bd 12 e6 93 3d c8 3e fa bd
       -0.033462405 -0.06763756 0.07221617 -0.12219006
0001e0 e8 a5 fd 3c c8 40 12 bd 38 c5 40 3d e0 1d 51 bd
       0.0309629 -0.03570631 0.047063082 -0.05105388
0001f0 ee fe ef bd 78 b5 eb 3c a6 01 cc 3d fc ae 5d 3d
       -0.11718546 0.028773054 0.09961252 0.054121956
000200 00 de 20 bd d4 cf 8b 3d da 90 dc bd 1c 22 e6 bd
       -0.039274216 0.068267494 -0.10769816 -0.112369746
000210 94 79 6c bd a8 c9 ae bc 2a 43 99 3d c8 63 ba 3c
       -0.057733133 -0.021336392 0.07483514 0.022752658
000220 d2 93 ca 3d f8 14 46 bd 94 f7 24 bd e0 8b 93 3d
       0.09891476 -0.04835984 -0.04027517 0.072044134
000230 62 2a ec bd 34 49 a7 3d 6a ad 8e bd 86 bc 98 bd
       -0.115315214 0.08168259 -0.0696667 -0.07457833
000240 60 74 cd 3d fc f0 84 3d 58 2a 1d 3d 34 d3 fc bd
       0.100319624 0.064912766 0.03837046 -0.12344971
000250 28 6f 09 3d 12 22 db bd 9e 14 97 bd 70 21 5d 3c
       0.033553272 -0.10699858 -0.07376979 0.013496742
000260 06 b5 da 3d 30 6d 24 bd 14 1a 9c 3d 84 f4 69 bd
       0.10679059 -0.04014319 0.076221615 -0.057117954
000270 a0 fd f1 3b 40 68 c5 3d 8e de ad 3d 80 d5 00 3c
       0.007384971 0.09639025 0.084897146 0.007863402
000280 30 08 ee 3d f0 19 5f bc b2 ff 86 3d e0 28 eb 3d
       0.116226554 -0.013617024 0.06591739 0.11482406
000290 a0 4e 6f bd a0 bc 4b 3c b8 b9 74 bd 22 f7 88 3d
       -0.058424592 0.012435108 -0.059747428 0.06687762
0002a0 6e f2 e8 3d 54 4d 51 3d 64 da 07 bd ba 08 c9 3d
       0.11374365 0.051099136 -0.033167258 0.098161176
0002b0 58 03 39 bd 22 b8 99 bd 1c d4 d0 bd 8c aa c0 bd
       -0.045169204 -0.07505824 -0.10196707 -0.09407529
0002c0 b8 96 e9 3c 70 02 6c bd a0 ee ee bd a2 2a ab 3d
       0.028514251 -0.057619512 -0.11666608 0.08357741
0002d0 ee 82 e5 3d da d0 8f bd bc 79 8c bd cc 0c 0f bd
       0.112066135 -0.07022257 -0.068591565 -0.034924313
0002e0 34 1d 7c bd b8 eb 70 3d 24 37 48 3d c0 49 64 bd
       -0.061551288 0.05881855 0.04888071 -0.055734396
0002f0 68 e3 9c 3d 34 92 97 3d d0 bb 98 3d 00 26 3b bb
       0.07660562 0.07400933 0.074576974 -0.0028556585
000300 64 10 05 3d f0 66 6f 3d b0 1b c9 bc 4c 18 fd bd
       0.032486334 0.05844778 -0.024549335 -0.1235815
000310 30 4e 60 3d 98 d4 df 3c 20 15 2b bc 0c bc 91 3d
       0.054762065 0.027323052 -0.010442048 0.07115945
000320 dc 3c 89 bd 18 48 d2 bd 60 70 b4 3b 00 a6 0c bc
       -0.06701061 -0.10267657 0.00550656 -0.008584499
000330 68 3d 29 bd ac 26 9b bd e4 d7 bc bd e0 d9 fc bb
       -0.041318327 -0.075757354 -0.09220865 -0.0077164024
000340 c6 c5 92 3d 34 e1 ef bd d2 08 f6 3d f0 89 a8 3c
       0.071666285 -0.11712876 0.12013401 0.020573586
000350 00 67 e7 bb dc 9c 00 bd 8e 96 b4 3d a8 d7 f8 bc
       -0.007061839 -0.031399593 0.088177785 -0.03037627
000360 f2 26 95 bd 00 81 75 3a 00 41 9e bc 2c d4 f3 bd
       -0.07282819 0.0009365231 -0.019318104 -0.11905703
000370 40 e9 dd 3c 44 df 45 3d 54 b8 3b 3d c0 65 ea 3d
       0.027088761 0.048308626 0.045830086 0.114451885
000380 d0 dc 48 3d 24 5b cb bd 6c 95 c6 3d f0 29 a4 bd
       0.04903871 -0.09929493 0.09696469 -0.080158114
000390 a4 1f d0 3d c0 f5 ed 3d 00 7d 69 3d 0a a6 d6 bd
       0.10162285 0.11619139 0.057003975 -0.10480888
0003a0 64 9d 7f bd c8 dd d5 bc 70 83 9a bd c0 ae 63 3d
       -0.06240596 -0.02610673 -0.07544601 0.055586576
0003b0 a0 b8 54 3d a4 d3 2e 3d 70 7d d5 bd b4 1c f1 bd
       0.051933885 0.042682305 -0.10424316 -0.11773053
0003c0 44 ba f7 bd 8a 07 ae bd d6 8b b2 3d ec d9 0a bd
       -0.12096074 -0.08497532 0.08718078 -0.033899233
0003d0 9c dd 8a bd c0 42 04 3b 46 a5 90 bd 38 68 b9 3d
       -0.0678055 0.0020181388 -0.070627734 0.09053081
0003e0 50 9f 17 bd 48 1b 06 bd a0 7e 48 bc 16 63 ec 3d
       -0.037017167 -0.03274086 -0.012237221 0.11542337
0003f0 2c b1 22 bd 5a cf b4 3d ac ba 29 3d fa 00 bb bd
       -0.039719746 0.08828612 0.04143779 -0.09131046

bias f4 [10]
000000 14 98 9c bd 78 42 bc 3d 18 24 be 3c 40 2b ca bc
       -0.07646194 0.091923654 0.02321057 -0.024678826
000010 44 8a 86 3d 1c 88 70 bd 14 09 9c bd e0 f3 e6 3d
       0.06569341 -0.058723554 -0.07618919 0.11276984
000020 74 65 3f 3d 44 a3 0a 3d
       0.046727613 0.03384711

weight f4 [2, 64]
000000 80 bb f0 ba d0 46 47 bc 34 bf 8b bd fc db b8 3d
       -0.0018366426 -0.012162879 -0.068235785 0.09026334
000010 c8 65 d2 bc c8 fd 58 bd ec 0e a7 bd e4 b9 3a bd
       -0.025683299 -0.0529764 -0.08157143 -0.045587435
000020 38 64 56 3d 00 35 7c bb 38 5e d1 bc c0 b4 eb 3c
       0.05234167 -0.003848374 -0.025557622 0.028772712
000030 b0 d2 34 3c 5a 60 c0 bd fe cb e6 3d b0 56 92 3d
       0.01103656 -0.093933776 0.11269377 0.071454406
000040 00 8a f2 3a 10 b3 a1 bd 28 cf 5f 3d 00 2d c2 3a
       0.0018504262 -0.078954816 0.05464092 0.0014814436
000050 bc 21 a0 3d 8a 70 a4 bd c0 57 8f bc c8 53 fa 3c
       0.07818934 -0.080292776 -0.017497897 0.030557528
000060 1c a2 dd 3d cc 87 4b 3d 02 4a 8e 3d 54 a3 2f bd
       0.108219355 0.049690053 0.069477096 -0.04288037
000070 ae a3 bc 3d a0 ce c8 bb 68 cc ec bd c0 55 00 bb
       0.09210907 -0.0061281472 -0.11562425 -0.001958236
000080 0a 69 f2 bd 80 e3 0a 3c de b9 e8 3d 6e a6 88 bd
       -0.11836441 0.008477092 0.11363576 -0.06672369
000090 84 75 53 3d e0 b8 15 3c 80 fd cc 3d e8 40 9b bd
       0.051625744 0.009138316 0.10009289 -0.07580739
0000a0 94 9a 6b bd 74 de 4f 3d 34 93 da bd 80 e0 f6 bc
       -0.057520464 0.050749257 -0.10672608 -0.030136347
0000b0 60 04 7f bc e6 40 9b 3d 10 a9 a6 bc a8 87 8e 3c
       -0.015565008 0.07580738 -0.020344287 0.01739867
0000c0 5c 21 bd bd ec b1 4a 3d 80 57 99 3d 20 01 d6 bd
       -0.092348784 0.049486086 0.074873924 -0.10449433
0000d0 38 d8 ba bd d6 09 c2 3d c4 f4 0d 3d bc d7 2c bd
       -0.09123272 0.09474532 0.034657255 -0.042197928
0000e0 7e 20 fa 3d d8 5f 04 bd 68 a3 dd 3d 40 b6 51 3b
       0.12213229 -0.032317966 0.10822183 0.0031999499
0000f0 4e 56 b4 bd 84 a9 1d bd d0 db d6 3c a4 46 d0 3d
       -0.08805524 -0.03849174 0.026227862 0.10169724
000100 00 27 49 ba 18 ab 26 bd 4c e2 b9 bd 38 fe c0 3c
       -0.0007673353 -0.04069051 -0.09076366 0.023558721
000110 14 dc b7 3d 62 6d dd bd d8 9e 8c 3c e0 4b a7 bb
       0.089775234 -0.10811879 0.017165586 -0.0051054806
000120 0c 6c 18 3d 54 3c d3 3d 76 64 8c 3d 7e 52 c9 3d
       0.037212417 0.10314241 0.06855099 0.09830187
000130 54 57 a8 3d e2 ee 87 3d 00 9a ea bc b2 b2 a4 bd
       0.082197815 0.0663736 -0.028637886 -0.08041896
000140 20 fd a0 3c 04 85 16 bd 48 6e 4a bd e0 db c4 3b
       0.01965195 -0.036747947 -0.04942158 0.0060076565
000150 36 e1 ef bd fa 6c f0 3d ae 6d c2 3d f8 82 7e bd
       -0.117128775 0.11739536 0.09493576 -0.06213662
000160 b8 80 8c bc f0 34 da 3c e0 c1 43 bc 00 7c 3c 39
       -0.017151222 0.02663657 -0.011948079 0.00017975271
000170 e0 bd de bd b0 c0 ff 3d 3a 19 b6 bd ba 1e cc bd
       -0.108760595 0.12487924 -0.0889153 -0.09966798
000180 a8 f6 1b 3d 08 bf 03 bd c0 7b 1f bd 74 35 15 bd
       0.038077027 -0.032164603 -0.038936377 -0.03642793
000190 00 d3 78 3c 08 a7 18 bd 28 58 38 3d b2 9d aa 3d
       0.015187025 -0.03726867 0.045005947 0.08330859
0001a0 28 91 af bd 00 f4 04 3c c0 95 e2 3c 3c ee ca 3d
       -0.08572608 0.008114815 0.027659297 0.09908721
0001b0 e0 f0 fd bc 70 5a 6b bc d4 c5 d0 bd dc 77 03 3d
       -0.030998647 -0.014364824 -0.10193983 0.03209673
0001c0 5e 53 a0 3d 0c d1 d8 3d de 26 d0 bd f6 a2 c0 bd
       0.07828401 0.105867475 -0.10163663 -0.09406082
0001d0 28 eb 38 3d 9c 35 4f bd 7c b7 21 bd d0 c7 fa 3c
       0.045146137 -0.050588235 -0.039481625 0.030612856
0001e0 a8 3c 84 bc f4 17 76 3d d0 f6 5d bc 0a 5a f3 3d
       -0.016142204 0.060081437 -0.013547614 0.11882408
0001f0 b4 22 51 bd 38 ff a1 bd c8 11 b8 3d f8 7a df 3c
       -0.051058486 -0.07910007 0.089877665 0.027280316

bias f4 [2]
000000 80 b1 8d 3c c0 02 2f 3d
       0.017296553 0.042727232

weight f4 [64, 30]
000000 58 4f f4 bc 9f 04 d3 bd 50 52 8a 3c 18 4b db 3c
       -0.02982299 -0.10303616 0.016884953 0.026769206
000010 48 0b 06 be 64 7a 2e be f4 a4 c1 3d 0c df 64 3d
       -0.13090241 -0.17038876 0.094552904 0.055876777
000020 f2 ca 10 be 20 5f 24 3e 00 ff 76 3b d6 70 01 be
       -0.14139917 0.16051912 0.0037688613 -0.126407
000030 d2 33 8a bd 70 98 08 3c fd 16 9d bd 6b 75 2e be
       -0.06748165 0.008337125 -0.076704 -0.17036979
000040 a0 b7 60 bd 04 4e 3a 3e 3a 07 e3 bd 35 32 9e bd
       -0.05486262 0.18193823 -0.11085363 -0.0772442
000050 d4 62 86 bd 30 4d 92 3c 98 42 1a 3e e4 7a 31 3d
       -0.06561819 0.017859071 0.15064466 0.04333009
000060 36 7f 07 be c0 33 ef bc d4 2b 2e 3e f5 7d 3a be
       -0.13232121 -0.029199481 0.17008907 -0.18212111
000070 8c 12 28 3e e8 eb 0e 3d 3d 5a a3 bd f1 21 29 be
       0.16413325 0.034892946 -0.07976196 -0.16516854
000080 0c 39 d0 3d ad 0e 01 be c8 b5 ad 3c c8 f1 b7 3d
       0.10167131 -0.12603255 0.021204844 0.08981663
000090 94 33 5f 3d d9 5b 32 be 14 75 e8 3d 20 63 98 bb
       0.054492548 -0.1741785 0.11350456 -0.0046504885
0000a0 60 e3 fe bd d4 b6 2c bd c0 38 bc 3b 2c b9 34 bd
       -0.12445712 -0.042166546 0.00574407 -0.044121906
0000b0 34 2b 0b 3e 28 13 e9 3d 5c 0b 34 be 98 8a da 3d
       0.135907 0.11380607 -0.17582458 0.10670966
0000c0 68 c8 d2 3c 8e 18 19 3e b4 ef c9 3d 14 57 98 3d
       0.025730327 0.14950773 0.09860173 0.07438484
0000d0 b1 5c 2f be 40 92 02 3d 0c 9c 9e 3d 2c 80 17 bd
       -0.17125203 0.031877756 0.07744607 -0.03698747
0000e0 0c 13 17 be 30 cf 05 bc 00 c2 3f 3d 10 02 85 bd
       -0.1475336 -0.008167073 0.046815872 -0.06494534
0000f0 f4 88 23 3e 28 cf 14 3d 24 2e a6 3d b6 0d 2e 3e
       0.15970212 0.036330372 0.081142694 0.16997418
000100 d8 d1 23 bd b8 22 d0 3d c0 7b 8e 3d cc b0 7c 3d
       -0.039995044 0.10162872 0.06957197 0.061692044
000110 76 43 2c 3e aa 8e b2 bd bc 81 52 bd f0 71 c0 3d
       0.1682261 -0.08718617 -0.051393256 0.09396732
000120 a0 5d 00 3c 80 9a eb 3d b6 4d 08 3e b6 fc 0a 3e
       0.007834822 0.11504078 0.13310894 0.13572964
000130 50 a9 ba 3d 58 09 53 3d a7 6e 0c be 99 5b 17 be
       0.09114325 0.051522583 -0.13714086 -0.14781035
000140 34 15 3a 3d a7 e0 d9 bd 5a d3 35 be 58 e4 cd bd
       0.045430377 -0.10638552 -0.17756405 -0.10053319
000150 e2 41 af bd e9 c4 a3 bd 70 97 38 3e 1a 14 1d be
       -0.08557488 -0.07996542 0.18026519 -0.153397
000160 48 ae f8 bc 03 17 0c be 0a 29 6d bd 32 ed 23 be
       -0.030356541 -0.13680653 -0.057900466 -0.16008452
000170 d0 9b 78 bc 78 24 8d bd 8c db 35 bd f0 b5 01 3d
       -0.015173867 -0.068917215 -0.04439883 0.03166765
000180 2c b3 30 3d 77 7c c4 bd 30 be 2d 3c 70 4b 00 be
       0.04313962 -0.09594052 0.010604426 -0.12528777
000190 4c 22 ba bd dc a8 3a 3e 12 c1 cc bd b8 44 92 bc
       -0.09088573 0.18228477 -0.09997763 -0.017855033
0001a0 34 de 64 bd b4 c7 9c bd 3c ea 20 3d 40 bf 7e bc
       -0.055875972 -0.07655278 0.039285883 -0.015548527
0001b0 14 33 f0 3d 88 3b 86 bd cc 3a 1d 3e ad ae 33 be
       0.117284924 -0.065543234 0.1535446 -0.17547102
0001c0 f5 12 a7 bd 9f 18 2c be 28 a5 88 bd 92 82 31 be
       -0.08157913 -0.16806267 -0.06672126 -0.17334965
0001d0 00 65 82 3d 20 4a c5 3d 29 46 ee bd 23 02 d1 bd
       0.063669205 0.09633279 -0.11634476 -0.10205486
0001e0 a8 50 87 bc ea 80 b6 bd 38 05 e2 3c e0 f8 75 3d
       -0.016517952 -0.08911307 0.02759038 0.0600518
0001f0 c2 96 fa bd 48 02 33 3e 6c b4 1e 3d 9c 9b b5 3d
       -0.12235786 0.17481339 0.038746282 0.08867571
000200 d0 47 29 3c 79 a1 0e be 78 48 ec 3d 77 06 e4 bd
       0.010332063 -0.13928784 0.1153726 -0.111340456
000210 e6 54 20 3e 10 5a cf 3d b0 91 5a bd df 5a 9d bd
       0.15657386 0.101246 -0.053361595 -0.07683348
000220 58 71 03 3e 44 3a c0 3d f8 91 8d 3d 44 cf 9c 3d
       0.12836206 0.09386113 0.06912607 0.0765672
000230 d0 e6 3e bc 10 bc ea bc f8 7e da 3d 69 93 12 be
       -0.01165171 -0.028654128 0.106687486 -0.14314045
000240 d0 85 1f 3d a0 84 b3 bd a0 2d 18 3e 68 f0 e1 3d
       0.038945973 -0.087655306 0.14861155 0.11032182
000250 9d ab c3 bd c3 b0 f9 bd 3b 62 c7 bd 56 10 25 3e
       -0.09554217 -0.12191918 -0.09735533 0.16119513
000260 4a 94 03 3e d4 f2 75 3d d0 17 ae bc 7e 25 76 bd
       0.12849537 0.060046032 -0.021251589 -0.06009435
000270 b8 e0 ce 3c 20 a1 4c 3d 48 46 13 3e 08 e8 8f 3d
       0.025253639 0.04995835 0.14382279 0.07026678
000280 ad fd 11 be f8 87 cd 3d 2c d2 fd bd 98 c4 a8 bc
       -0.14256926 0.100356996 -0.12393603 -0.020601556
000290 40 8d 7a 3d 70 0b 13 bd 5c 67 76 bd 80 dd b1 3c
       0.061169863 -0.03589958 -0.060157165 0.021712065
0002a0 13 52 e4 bd 38 0e 20 be 9c a8 2d 3e 50 9e 15 3d
       -0.11148467 -0.15630424 0.1695885 0.03652793
0002b0 d8 b1 d9 3c 84 93 d4 3d 94 49 28 3e e8 e1 bf bc
       0.02657406 0.10379699 0.16434318 -0.02342315
0002c0 48 4d e1 3d 98 06 ca 3d 6a ff 2b be 88 cf 95 3d
       0.11001068 0.09864539 -0.16796651 0.07314974
0002d0 70 b5 6a bc e4 c5 81 3d 83 de b4 bd 28 c4 90 3d
       -0.014325485 0.06336573 -0.08831503 0.07068664
0002e0 30 3f 68 bd f5 d6 10 be 39 5e 1e be 70 80 63 3d
       -0.056700885 -0.141445 -0.1546563 0.05554241
0002f0 85 8f f1 bd 2e 42 fd bd ba 49 14 be ed 91 f1 bd
       -0.11794952 -0.123661384 -0.1448125 -0.11795411
000300 58 c2 ea 3d b0 2f 0d bc 31 4c f7 bd 70 6b da 3c
       0.114628494 -0.008617327 -0.12075079 0.026662558
000310 78 5d 99 bc 04 bf 95 3d fe 81 0d be d6 e1 19 3e
       -0.018721327 0.07311824 -0.1381912 0.15027556
000320 40 43 3b bb c2 97 2e be 36 1a 0d 3e b4 8b b9 3d
       -0.002857402 -0.17050079 0.1377953 0.090598494
000330 fc 5a d6 3d 75 95 03 be 50 00 10 3e 54 ff 38 be
       0.10466573 -0.12849982 0.14062619 -0.1806615
000340 5c e3 34 3d e1 d2 04 be 44 f5 ca 3d 96 b2 1d 3e
       0.04416214 -0.12971069 0.09910062 0.15400156
000350 c0 ec 08 3e 20 86 bf bc 48 e3 af bc 3c 13 66 3d
       0.13371563 -0.023379385 -0.02147068 0.056170687
000360 94 d8 75 3d 1c 66 04 3e f4 b1 53 bd e0 49 44 bc
       0.060020998 0.12929577 -0.05168338 -0.011980504
000370 a1 d0 20 be f8 e1 eb bc 20 c8 ba bc 85 ca d0 bd
       -0.15704586 -0.028794274 -0.022800505 -0.101948775
000380 4f a3 81 bd 04 89 1b be 90 9b 9e 3d 54 dd 34 3e
       -0.06329977 -0.15188986 0.07744515 0.17662555
000390 97 80 2b be 40 f2 a6 3b 08 cb db 3c ce 92 35 be
       -0.16748272 0.0050947964 0.026830211 -0.17731783
0003a0 ec fe 33 3e 84 19 4c 3d 80 45 fb 3d 76 1e 7c bd
       0.17577714 0.04982902 0.122691154 -0.061552487
0003b0 44 3a ea 3d b3 5f 0e be 28 60 d3 3c 93 91 0d be
       0.114368945 -0.13903694 0.025802687 -0.13825063
0003c0 28 11 37 3e da c3 2f 3e ea b9 2e 3e 6c 63 7d bd
       0.17877638 0.17164555 0.17063108 -0.061862394
0003d0 4c 09 11 3e 28 7c a6 3d 1b 62 29 be d4 be 11 be
       0.14163703 0.0812915 -0.1654133 -0.14232951
0003e0 e0 f3 8c 3d 24 b2 c5 3d 42 49 2b be 58 61 08 be
       0.06882453 0.09653118 -0.16727164 -0.13318384
0003f0 c3 5b c7 bd 70 31 4c bc 8c b9 45 bd 40 80 ce 3d
       -0.09734299 -0.012462959 -0.048272654 0.100830555

bias f4 [64]
000000 82 50 f1 bd f0 7f e4 3d 08 80 cd bc 14 a5 cc 3d
       -0.11782934 0.11157215 -0.025085464 0.09992424
000010 ec 2c 46 bd 00 92 19 3d 8e a7 36 3e c8 39 ae 3d
       -0.048382685 0.037492752 0.17837355 0.08507115
000020 e8 f7 a6 3c 78 1a 2d 3e 80 f1 c4 bb 3c f5 5d bd
       0.020381883 0.16904628 -0.0060102344 -0.05418895
000030 d7 ab 1c be 9e a7 18 be c0 64 2d 3e e8 ae 86 bd
       -0.15299927 -0.14907691 0.16932964 -0.065763295
000040 50 6c 51 bd 40 c7 f0 3b 94 6c bc 3d 28 a5 35 3e
       -0.051128685 0.007347971 0.09200397 0.17738783
000050 66 c6 19 3e 30 86 43 3c b6 87 1f be 3c 08 f8 3d
       0.15017089 0.011933848 -0.15579113 0.121109456
000060 00 b2 37 3d a0 f1 dc 3b a8 f9 e3 3d fc 07 f9 bd
       0.04484749 0.006742671 0.111316025 -0.12159726
000070 e4 fc 2d 3d e0 d2 22 3e ac a4 4a bd e6 28 18 be
       0.042477503 0.15900755 -0.04947345 -0.14859352
000080 a0 6d ee 3b b1 0e d9 bd 40 fd 4d bc 48 bf 1d be
       0.007276252 -0.10598505 -0.012572587 -0.15405
000090 c0 db 53 bb 51 49 cd bd 60 ab cb 3d dc 18 fe 3d
       -0.0032327026 -0.100237496 0.099447966 0.12407085
0000a0 2b 55 00 be 18 10 b6 3d 50 aa af 3c a0 b8 e6 3b
       -0.12532489 0.088897884 0.021443516 0.007041052
0000b0 2a 04 0f be 9c fe ae 3d a4 0c a5 3d 20 46 fe 3c
       -0.13966432 0.08544657 0.08059052 0.031039298
0000c0 00 ea 3a 3e 3a 05 1e 3e 84 c0 7d 3d ae f6 7e bd
       0.18253326 0.15431681 0.061951175 -0.06224697
0000d0 18 79 8a 3d 3c a1 85 3d 1c 1a 2a bd 88 8c 38 3d
       0.06761378 0.06524894 -0.041528806 0.045055896
0000e0 d8 91 00 3e 64 df 13 3d d0 2d f5 3c 66 dc 30 be
       0.12555635 0.036101714 0.029929072 -0.17271575
0000f0 08 96 33 3e 36 9f 0a 3e b0 1d 20 bd f0 d6 0e 3c
       0.17537701 0.13537297 -0.039090812 0.008718237

weight f4 [64, 64]
000000 6e b7 83 3d 14 ca 64 bd be 45 e3 bd 00 67 36 bd
       0.06431471 -0.05585678 -0.11097287 -0.044531822
000010 9e f3 b0 bd c0 04 2d bc f2 7a e0 3d 50 df 4a bd
       -0.08640216 -0.0105602145 0.1096095 -0.049529374
000020 dc ad 66 bd 28 d8 a5 3c b0 d4 68 bc d8 ba 79 bd
       -0.05631815 0.020244673 -0.014210865 -0.060969204
000030 96 90 96 bd 20 c5 00 bc 1c 23 94 3d 36 16 8c 3d
       -0.07351796 -0.007859498 0.07233259 0.06840174
000040 1a 0d 96 3d 80 bc 0e 3b aa 83 8c bd ac 6b 4f 3d
       0.07326718 0.0021779835 -0.068610504 0.050639793
000050 82 a3 86 3d da 79 af bd a0 c0 ba bb f8 3a 22 3d
       0.065741554 -0.08568163 -0.005699232 0.03960702
000060 36 b6 ed 3d de 5b c0 bd bc ba 62 bd 20 2d b9 bc
       0.116070196 -0.09392522 -0.055353865 -0.022604525
000070 66 9a e1 bd 88 e8 29 bd 48 9a d2 bc 00 27 2d bc
       -0.11015777 -0.041481525 -0.025708333 -0.01056838
000080 22 59 ed 3d 66 f2 fd 3d fc 57 bd 3d 34 f2 61 bd
       0.11589266 0.123997495 0.09245297 -0.055162624
000090 90 22 ee bd 5e 5b b1 bd 68 7c ac bc ea 58 cd bd
       -0.11627686 -0.08660005 -0.021055415 -0.10026725
0000a0 c8 11 0f 3d 4c 2c f0 3d c0 93 f2 bc 40 b9 a2 bc
       0.034929067 0.11727199 -0.029611468 -0.019863725
0000b0 c0 7b 11 3b 68 b1 c8 bd 48 d4 80 bd 96 ff ff 3d
       0.0022199005 -0.097994626 -0.062904894 0.12499921
0000c0 90 53 94 bc d8 94 c5 3d a8 b8 24 3d 6a 5c ad 3d
       -0.018106252 0.0964753 0.040215164 0.08464892
0000d0 a0 1e ff 3b 3a 84 96 3d 44 a6 7b bd a8 85 56 3d
       0.007785633 0.07349439 -0.06143786 0.05237356
0000e0 78 79 37 bd 72 20 ab bd a0 15 db 3b 78 4c 4a bd
       -0.044793576 -0.08355798 0.0066859275 -0.049389333
0000f0 d4 10 28 3d 78 7a 70 3d f8 cf 4e 3d c0 43 94 bd
       0.041031674 0.058710545 0.050491303 -0.07239485
000100 18 95 bc bd f4 7f 57 bd be 07 cf bd e4 16 0c bd
       -0.09208125 -0.05261226 -0.101088986 -0.034201518
000110 28 77 7e bd 1c 99 53 3d 8c c2 22 bd c0 26 b2 bd
       -0.062125355 0.05165969 -0.039736316 -0.08698797
000120 ac ea ec 3d 14 db 13 bd 1e f5 cd 3d 7a 5a db 3d
       0.115681976 -0.0360976 0.10056518 0.107106164
000130 e8 15 ea bd 12 b2 c7 3d 26 c8 9f 3d 68 c4 f0 3d
       -0.114299595 0.09750761 0.07801847 0.117562115
000140 c6 89 8e bd b8 d6 84 bc f8 e7 e9 3c 1c 23 6c bd
       -0.06959872 -0.016215667 0.028552994 -0.05765067
000150 f4 8a 7b 3d 70 b9 87 3d 80 ba 5c 3c 38 79 96 bd
       0.061411813 0.06627166 0.013472199 -0.073473394
000160 c2 65 ed bd 88 7c 8f 3d 90 33 e4 bc 18 78 43 3d
       -0.115916744 0.07006174 -0.027856618 0.047721952
000170 ec 06 ea 3d e8 7f f8 bc 90 e2 48 3d 80 2b e1 ba
       0.114271015 -0.030334428 0.04904419 -0.0017179102
000180 4a 06 d7 bd 20 f6 b7 bb 72 89 e0 3d f0 45 98 bd
       -0.104992464 -0.005614057 0.109637156 -0.074352145
000190 e0 63 b5 3c 40 f9 49 3c 88 dd d4 3d 14 0c ea 3d
       0.02214235 0.012327492 0.10393816 0.11428085
0001a0 e6 74 8d 3d 28 8f e1 3d 88 ea b4 3c 08 f8 a9 bd
       0.06907062 0.11013633 0.02208449 -0.08299261
0001b0 c0 e0 51 bc e4 bc ac bd 0c 90 ca 3d 86 82 e4 3d
       -0.012809932 -0.084344655 0.09890756 0.11157708
0001c0 f6 b6 c4 3d 60 b1 b8 bb e4 0d 46 bd 06 3e 93 3d
       0.096052095 -0.005636379 -0.04835309 0.071895644
0001d0 00 4b be 3d 00 84 ab 39 dc d9 a7 3d 32 cb ca 3d
       0.09291649 0.0003271401 0.0819585 0.09902038
0001e0 68 5f 9c bd 10 9b 8b bc 2c f9 43 3d 8a fc af 3d
       -0.07635385 -0.017041713 0.04784505 0.0859309
0001f0 0e 04 86 bd 74 d9 58 3d 6c 83 97 3d 00 0e 25 bd
       -0.06543742 0.052941754 0.073981136 -0.040296555
000200 88 b0 af bd 74 80 7d 3d 5e 5b f2 bd 00 b2 02 3a
       -0.085785925 0.06189008 -0.11833833 0.00049856305
000210 80 3d d1 3c 9e 0e ea 3d 88 69 f5 bc 42 5e bf 3d
       0.02554202 0.11428569 -0.029957548 0.0934415
000220 f2 1d cb 3d 70 31 4f 3d 94 2d 2c 3d b0 f9 82 bc
       0.09917821 0.050584257 0.042035654 -0.0159882
000230 80 c1 7b 3b 4c 29 0d bd ce 18 c8 bd 9a 14 b3 bd
       0.0038414896 -0.034463212 -0.09770356 -0.08744164
000240 0e e6 86 bd d4 61 72 3d a2 0b c2 3d 40 80 6b bd
       -0.06586848 0.059175327 0.09474875 -0.057495356
000250 22 76 a0 3d c0 b5 f8 3b 38 e7 33 bd 00 c3 6f bd
       0.07835032 0.0075900257 -0.04392168 -0.058535576
000260 68 e0 ef bc 48 6a 73 3d 20 41 16 bd a6 1d fe bd
       -0.02928181 0.05942753 -0.0366832 -0.12407999
000270 c0 57 4c bb f0 b1 56 3c 78 b6 de 3d d8 cd 4b bd
       -0.0031180233 0.013103947 0.10874647 -0.049756855
000280 20 f5 ea 3b c0 f3 60 bc 9a 26 ad bd fe 80 c7 3d
       0.0071703345 -0.0137299895 -0.08454628 0.097414
000290 fc bd 3a 3d a0 b4 12 3d 58 32 a0 bd 90 73 64 bc
       0.04559134 0.03581679 -0.07822102 -0.013943568
0002a0 da 97 be bd 00 1b 1a 3d 66 53 eb bd 3c 71 f1 3d
       -0.09306307 0.037623405 -0.11490516 0.11789176
0002b0 00 18 8d 3c 7e 24 92 3d d8 20 5c 3d 00 ec 16 39
       0.017223358 0.071358666 0.05374226 0.00014393032
0002c0 84 2d 7e 3d 60 24 d0 bd 4e 3c d9 3d aa 59 a2 3d
       0.062055126 -0.10163188 0.10607205 0.07927258
0002d0 5c eb 2e 3d ce 62 8e bd 70 3b de bd d2 62 eb bd
       0.042704925 -0.06952439 -0.108511806 -0.11493458
0002e0 00 ff 5c bc b8 d6 08 3d 20 6d 8b bd e8 4c a8 3c
       -0.013488531 0.033407897 -0.06807923 0.020544484
0002f0 6a 6d d1 3d 26 78 d7 3d dc 9e 51 3d 38 b1 99 bc
       0.10225947 0.10520963 0.05117689 -0.018761262
000300 06 00 e2 3d 34 40 8c 3d ca 1e 9c 3d a0 88 20 3d
       0.11035161 0.06848183 0.0762306 0.039192796
000310 d8 80 d1 bc 90 f7 f9 3c 3c f8 fd bd 0c 89 b6 3d
       -0.025574133 0.030513555 -0.124008626 0.08912858
000320 9c 99 2d 3d f2 81 dd 3d dc 52 81 3d 30 5e 30 bc
       0.04238282 0.10815801 0.06314632 -0.010764644
000330 d8 e1 4d 3d d0 ef be 3d e0 a4 f1 3b 54 81 ef 3d
       0.05026421 0.09323084 0.007374391 0.11694589
000340 10 cd 10 bd 80 75 47 3d 78 3c 2b 3d cc c0 85 bd
       -0.035351813 0.04869604 0.041805714 -0.06530914
000350 e0 bd b5 3d d8 7a 67 3d 46 87 f1 bd 78 5d 6a 3d
       0.088741064 0.056513637 -0.117933795 0.057218045
000360 18 37 40 bd 38 88 df 3c 08 66 00 3d f2 cf fd 3d
       -0.04692754 0.027286634 0.031347305 0.12393178
000370 16 74 93 3d 48 e2 ff bd 70 e6 b6 bd 04 0c a6 bd
       0.07199876 -0.124943316 -0.08930671 -0.081077605
000380 d4 f4 c5 3d e0 9c 3b 3d 40 22 11 3c 66 5f c8 bd
       0.09665838 0.045803905 0.0088582635 -0.09783821
000390 90 43 81 bd 88 a8 2d bd 38 14 8e 3c 30 2a 51 bc
       -0.06311715 -0.042397052 0.017343625 -0.012766406
0003a0 98 87 59 3d 50 7c 44 bd 50 c1 c5 3c 84 d3 de 3d
       0.053107828 -0.047970116 0.02414003 0.10880187
0003b0 bc b9 4a bd 54 01 c7 bd 28 29 87 3c 70 3a c6 3d
       -0.049493536 -0.0971705 0.016499117 0.09679115
0003c0 54 3c 79 3d 58 8b 93 3c 3c 6e 00 3d c0 b3 4e bb
       0.06084855 0.01801078 0.031355128 -0.0031540245
0003d0 fa a3 f0 3d 80 9c 83 3d 80 d0 b8 bd 54 ef 9c 3d
       0.11750026 0.064263344 -0.09024143 0.07662836
0003e0 de 01 a3 bd 48 bd 9b 3d 50 1e d2 3c 04 0a 9b 3d
       -0.079593405 0.07604462 0.02564922 0.0757027
0003f0 3a 52 ec 3d 20 0c a2 3c a0 48 06 bd 30 5a a0 3d
       0.11539121 0.019781172 -0.032784104 0.07829702

bias f4 [64]
000000 ec fd e8 3d 70 2b c5 3c dc ae 12 bd da b4 8b bd
       0.11376557 0.024068564 -0.03581129 -0.06821604
000010 e4 9f 43 bd f0 6f eb bc ac 69 3d 3d 5c 84 3e 3d
       -0.047759905 -0.0287399 0.046243355 0.046512946
000020 de f4 c2 3d 6e 94 90 bd bc 34 35 bd 86 93 ce bd
       0.09519361 -0.07059561 -0.044239745 -0.100867316
000030 1e 05 db 3d f4 0a c1 3d dc 9a 79 3d 34 3c cf 3d
       0.106943354 0.09425917 0.0609387 0.10118905
000040 b0 b3 25 3c a0 39 37 3c 48 e9 92 bd 90 ec 10 3c
       0.010113642 0.011183172 -0.07173401 0.008845463
000050 74 c8 eb bd 80 9e a7 3d 94 24 35 bd 9c ed a5 3d
       -0.11512843 0.08184528 -0.044224337 0.08101961
000060 a0 d4 58 bc b4 41 c3 bd e8 9e fe 3d 84 e2 55 bd
       -0.0132342875 -0.09534016 0.12432653 -0.052217975
000070 68 9d a2 bd aa 63 8f bd f6 35 ee bd 44 5c 0b 3d
       -0.07940179 -0.07001431 -0.11631386 0.03402354
000080 d6 ea e3 3d 40 c8 34 bb bc 55 4d 3d c0 31 05 bc
       0.11128776 -0.0027585179 0.05013059 -0.008129537
000090 74 df cf bd d0 76 14 bc 70 04 d8 bd 50 5f c4 bd
       -0.10150042 -0.00906153 -0.105477214 -0.09588492
0000a0 66 11 9c bd 00 14 48 3c 54 b6 c9 bd 8e b3 eb bd
       -0.07620506 0.0122118 -0.098492295 -0.11508857
0000b0 f4 51 88 3d 68 fb 4e bd 7c 27 18 3d 50 a0 09 3c
       0.06656256 -0.05053273 0.03714703 0.008400038
0000c0 a8 08 d0 bd 40 45 b6 bd 94 f9 bc bd 12 0a d1 3d
       -0.10157901 -0.08899927 -0.09227291 0.10206999
0000d0 b0 31 59 3c 8a 05 a5 bd d2 b6 ec 3d f4 50 8c 3d
       0.013256475 -0.08057697 0.11558308 0.06851378
0000e0 b0 48 cb 3d 4c ef 6b bd 5a 73 b2 bd 9c b3 2c 3d
       0.099259734 -0.05760126 -0.08713408 0.042163476
0000f0 32 c9 bf bd 78 9b c2 3d 18 a7 b8 3d c8 4e a1 3c
       -0.09364547 0.095023096 0.090162456 0.019690886

weight f4 [30, 64]
000000 08 60 df 3c d0 05 05 bc b8 01 e8 3c d0 fb db bc
       0.027267471 -0.008119062 0.028321132 -0.026853472
000010 16 83 8b bd 0e 5e ca bd d0 ba 3c bd 08 ab 17 3d
       -0.06812112 -0.09881221 -0.046076596 0.037028342
000020 fc 9d e0 bd ee dd bd 3d 3e 5c da 3d 92 8f 8c bd
       -0.10967633 0.09270845 0.10662125 -0.06863321
000030 7c c6 a8 3d 08 46 f4 3d 7e 51 bb 3d 66 67 da bd
       0.08240983 0.1192742 0.09146403 -0.10664253
000040 20 6a 12 bd 04 28 08 bd e0 6d 30 3c 5c 02 5d 3d
       -0.03574574 -0.033241287 0.010768384 0.05395733
000050 76 d6 f3 3d 68 b8 f1 3c e4 7a fc bd ee d8 95 3d
       0.119061396 0.029506877 -0.12328127 0.07316767
000060 28 84 e3 3c be 3c 95 3d da f0 b5 bd 20 68 ec bd
       0.027772978 0.07286976 -0.088838294 -0.11543298
000070 c0 43 bf 3c e4 8f e5 3d d8 db 9c 3c ec 21 03 bd
       0.023347735 0.112090856 0.019147798 -0.032014772
000080 5e 58 8a 3d 68 ba dc bc 34 42 e2 bd 48 04 87 3d
       0.06755136 -0.026944354 -0.110477835 0.065926135
000090 72 d4 99 3d d8 bd 53 bd 3c 4e c4 3d 78 39 43 3d
       0.07511224 -0.05169472 0.095852345 0.04766223
0000a0 90 ab 0a 3d 04 92 87 bd da 36 b8 3d 50 2c 6d bc
       0.03385502 -0.06619647 0.08994837 -0.014475897
0000b0 20 29 2f 3c 76 87 95 bd 56 4f 80 bd 06 e9 82 3d
       0.010690957 -0.07301228 -0.06265132 0.06392102
0000c0 58 f2 41 bd 50 07 7c 3d e0 a5 bd bc 60 9e e8 bb
       -0.047350258 0.06153041 -0.023150384 -0.007098958
0000d0 a0 97 a9 3d 7c 6f aa bd 44 9c 6d 3d 3c 4e 77 bd
       0.08280873 -0.08322045 0.058010355 -0.060377344
0000e0 1a 84 ac bd 00 39 61 bd 30 04 5d 3c aa 53 9a 3d
       -0.08423634 -0.054986 0.013489768 0.07535489
0000f0 d6 71 f7 3d 48 5d 37 bd 1a 93 c6 3d e8 cf bf 3c
       0.12082259 -0.044766694 0.09696026 0.023414567
000100 4c 5c 81 3d b6 fe d7 bd 82 2d 90 bd 60 74 1a 3c
       0.06316432 -0.10546629 -0.0703993 0.00942716
000110 48 30 94 3d 20 bc 21 3d c0 0a f6 bd f0 9e f1 bc
       0.072357714 0.03948605 -0.12013769 -0.029494733
000120 98 56 9e bd c8 86 ea 3d c8 c6 b0 3c c8 80 e8 3d
       -0.0773136 0.11451489 0.021579161 0.11352688
000130 38 1f e2 bd c0 1d bd bd 90 11 8e 3d a6 fc 8a bd
       -0.11041111 -0.0923419 0.069369435 -0.0678647
000140 e0 47 95 3b 28 ca db 3d c0 13 19 3d d0 f4 aa 3d
       0.0045556873 0.107319176 0.03737235 0.083474755
000150 48 57 7a bd 76 09 ee 3d 26 68 93 3d 50 01 54 3c
       -0.061118394 0.11622898 0.07197599 0.012939766
000160 d0 0c 33 3d 00 a6 6e 3d 3a 61 f8 3d ce 5f 9a 3d
       0.04371339 0.05826378 0.121279195 0.075378045
000170 10 32 e1 bd 60 2c a1 3b d8 a9 be 3d 04 39 64 3d
       -0.10995877 0.00491862 0.09309739 0.055718437
000180 8c 47 99 3d f4 b4 d9 bd 10 80 2a bd ce 69 97 3d
       0.074843496 -0.10630217 -0.041626036 0.073932275
000190 36 9c be 3d 54 a6 68 bd dc 4b 67 3d 60 9c 8c bc
       0.093071386 -0.056799248 0.05646883 -0.01716441
0001a0 66 ea ae 3d 84 a1 09 bd d0 10 15 3c 80 ab 39 3b
       0.08540802 -0.0336013 0.009098247 0.0028330982
0001b0 e0 3b e4 bc 40 a8 21 bc 84 95 43 bd 96 29 dd 3d
       -0.027860582 -0.009866774 -0.04775001 0.107989475
0001c0 88 72 03 bd de d5 db bd 9e ea 95 bd 58 d1 1e bd
       -0.032091647 -0.10734151 -0.0732014 -0.038773865
0001d0 c2 2b b2 3d 16 8b d2 3d f4 12 43 bd ac d9 63 3d
       0.086997524 0.10280435 -0.047625497 0.05562751
0001e0 cc f8 c8 3d ea 2c 81 bd 1c a5 fd 3d c0 22 f3 3c
       0.09813079 -0.06307395 0.12385008 0.029679656
0001f0 e6 7e c9 3d 88 a5 0f bd c0 40 0b 3c 50 69 a1 bd
       0.09838657 -0.035069972 0.008499324 -0.07881415
000200 a4 d0 bb bd a6 bf ae bd 08 1d 87 3d 80 45 bd bc
       -0.091706544 -0.08532648 0.06597334 -0.02310443
000210 b0 37 a0 bc 30 05 04 3d 54 0d be 3d 70 b8 4f 3d
       -0.019557804 0.03223151 0.09279886 0.050713003
000220 22 dc f2 3d e0 f8 9a bd 90 04 53 3c 44 c5 6b bd
       0.11858393 -0.075670004 0.012879506 -0.057561174
000230 9c 82 22 bd 30 fe 8f bd 68 04 e5 3d d4 4d 1e 3d
       -0.03967534 -0.07030904 0.11182481 0.03864844
000240 d0 25 c3 3c 88 6a ea bd e4 46 7b bd f0 98 62 bd
       0.023821741 -0.114461005 -0.061346903 -0.055321634
000250 1e 59 95 3d 20 fd 56 3c 40 49 f0 3c 24 a8 30 3d
       0.072923884 0.013121873 0.029331803 0.0431291
000260 5c de 4c bd 98 6d b0 3d 44 d4 a9 bd 30 2a 4b 3d
       -0.050016746 0.08614653 -0.082924396 0.04960078
000270 1c ca a5 3d a0 0f d3 3d 30 d6 ed bd 70 39 8a 3d
       0.0809519 0.103057146 -0.11613119 0.067492366
000280 ec dd 67 bd 04 d0 86 3d 38 4f b5 bc 64 36 72 3d
       -0.056608126 0.065826446 -0.022132501 0.059133902
000290 2c f0 2e bd b0 f3 77 bd 52 b1 fc bd 0e 8e a7 3d
       -0.042709514 -0.060535133 -0.12338509 0.08181392
0002a0 d0 00 bc bc fa 6f 85 bd 2c a2 76 bd f0 c0 af bc
       -0.022949606 -0.065154985 -0.060213253 -0.021454304
0002b0 60 62 45 bd 74 c5 8d 3d a4 df 8f 3d d0 b0 0f bc
       -0.04818952 0.06922427 0.07025078 -0.008770183
0002c0 fa dd dc 3d 00 42 75 ba 00 4a 30 ba 00 00 0b bb
       0.10784526 -0.0009355843 -0.0006724894 -0.0021209717
0002d0 80 c7 dd ba 32 03 af 3d 78 b2 d0 3d e8 58 83 3d
       -0.0016920418 0.08545531 0.1019029 0.06413442
0002e0 74 03 92 bd 40 10 16 bc 58 4e ec bc 70 90 d5 bc
       -0.07129565 -0.009159148 -0.028845951 -0.02606985
0002f0 50 aa 5b bc fc 79 00 3d c8 2e 64 bd 18 dd ef 3c
       -0.013407305 0.031366333 -0.055708677 0.02928023
000300 70 33 63 bd 58 03 14 bd a8 e8 d7 bc 18 e2 05 3d
       -0.055468976 -0.036136 -0.026356056 0.032686323
000310 08 5d 54 3d 8c 38 ff bd 28 91 50 3d 28 b4 98 3c
       0.051846534 -0.12461957 0.05091968 0.018640593
000320 58 17 3c 3d b0 9e 47 3c 00 5c ab 3a 08 16 34 3d
       0.0459207 0.01218383 0.0013073683 0.043966323
000330 76 b0 a2 bd 04 78 ee 3d 7c 5d f4 bd 7e c7 ac 3d
       -0.079438135 0.11643985 -0.11931893 0.084364876
000340 00 82 9c 3b 50 f0 0e 3d b0 b0 a5 3c 02 56 a0 bd
       0.0047762394 0.03489715 0.020225853 -0.07828905
000350 30 af f2 bc 18 de c9 bd d4 04 9d bd 44 27 24 bd
       -0.029624552 -0.09856814 -0.076669365 -0.04007651
000360 00 58 92 b9 c8 0c 80 3c b0 0d e9 bd 10 95 eb 3d
       -0.00027912855 0.015631095 -0.11379564 0.11503041
000370 88 63 8d bc 2a d9 ae bd 4a 62 cb 3d d8 12 79 3d
       -0.017259374 -0.085375145 0.099308565 0.060808986
000380 94 20 d2 3d 84 f0 b4 bd 08 62 e7 3c 34 26 b0 3d
       0.1026012 -0.08834937 0.028244987 0.08601037
000390 78 63 92 3d 10 09 90 3d 00 fa 92 bc 44 d8 f5 3d
       0.071478784 0.070329785 -0.017941475 0.1200414
0003a0 20 c0 e0 bc b6 ac 82 bd e8 1f cb 3d 64 e9 96 3d
       -0.027435362 -0.06380598 0.09918195 0.073687345
0003b0 50 41 ca bd 3c ca 7a 3d ea 93 ca 3d 80 0d 7c bb
       -0.098757386 0.061228022 0.098914936 -0.0038460195
0003c0 e0 4c d9 3c e0 b4 28 3d fa 60 ae 3d 00 d5 0e ba
       0.026525915 0.04118812 0.085145906 -0.00054486096
0003d0 14 27 95 bd 74 59 ab bd 00 bf fb bd 94 a5 b1 3d
       -0.07282844 -0.08366671 -0.1229229 0.0867416
0003e0 50 a0 af bd c0 f9 1b 3c 88 7a 60 bd c8 a5 88 bd
       -0.08575499 0.009519994 -0.054804355 -0.06672245
0003f0 7c 4b f9 bd 90 47 3e 3c 76 b6 9f 3d f0 f2 f3 3c
       -0.121726006 0.0116137415 0.077984735 0.029778928
