darts_logs/2022-11-19_16.13.07.377985_torch_model_run_3320/checkpoints/last-epoch=0.ckpt (torch, 318132 bytes, 44 tensors)

stacks.0.blocks.0.layers.0.weight f8 [64, 2]
0	0xbfe0263ee0000000	-0.504668653011322
1	0xbfe299f9c0000000	-0.5812958478927612
2	0x3fc1fb4e00000000	0.14048171043395996
3	0xbfe6460fc0000000	-0.6960524320602417
4	0x3fbb2ddddd8a2525	0.10616861971552234
5	0x3fd977a1d71f95bc	0.3979267693342441
6	0xbfbdcfc987b4883b	-0.11645183146586728
7	0x3fe35a09cb5b0cea	0.6047409984388683
8	0xbfdb06fb2ec6e221	-0.4223010975652262
9	0x3fd5e3e7bc622b27	0.34203523060630164
10	0x3fd135845a94ad04	0.2688914188936027
11	0xbfbb42094c2d0493	-0.10647638425600041
12	0x3fdc751374cf2ca2	0.44464575202136747
13	0xbfa0453ce7796c8b	-0.031778243309156094
14	0xbfe1a0ddae9b3bfc	-0.5508869562416971
15	0xbfd00de2bf5d2855	-0.2508475178516439
16	0xbfd6670f703c3e6e	-0.3500403018997308
17	0x3fd295136ab32312	0.2903488676061424
18	0xbfd8611440000000	-0.3809252381324768
19	0xbfe4be48e0000000	-0.648228108882904
20	0x3f96b5b26db98687	0.022177493998589284
21	0xbff520288ac65a55	-1.3203511639491314
22	0xbf84bff30238c26d	-0.010131739144612706
23	0xbfe9bf803dc58983	-0.8046265799023761
24	0x3fe45568d0de5b03	0.6354259566749935
25	0x3fd767d9905426b2	0.3657134923420059
26	0xbfd71b16046514af	-0.3610281985205103
27	0xbfed169dc0d3bdd6	-0.9090107694773291
28	0xbfd0fc2a00000000	-0.26539087295532227
29	0x3fb3e53500000000	0.0777161717414856
30	0xbfbaa0ccd71dd1b9	-0.104016115683243
31	0xbfebb06ec7a9512a	-0.8652871989857307
32	0xbfce3559f5b02d56	-0.23600315567487468
33	0x3fe73f45b1e2a676	0.726473662788705
34	0x3fe2e95264adbcc6	0.5909816709880935
35	0x3fc24ef09890a05e	0.1430340523668318
36	0x3fcd41272c79c1f0	0.22855081245098985
37	0xbfe8d7b248eedce3	-0.7763301300500668
38	0x3fcef6793eb61301	0.24189677774497656
39	0x3fae129adfd93492	0.05873569471860053
40	0xbfd3aa0740000000	-0.3072527050971985
41	0xbfae2fea00000000	-0.05895930528640747
42	0xbfd0f222ffde6040	-0.26477885234044507
43	0xbfeac1bfe8f6bd48	-0.8361510801386567
44	0x3fdbdbec75318cf6	0.43529807514842334
45	0xbfe6d7f960b40f3c	-0.7138640297639323
46	0xbfbef12900000000	-0.12086731195449829
47	0xbfe1709bc0000000	-0.5449961423873901
48	0xbfd42ddda84f1535	-0.3152994292871257
49	0x3fe3365fd24b278b	0.6003874881073313
50	0xbf8ea7ca5e390c11	-0.014968472481205837
51	0x3fe724435415ef3b	0.7231766359613866
52	0x3fdcefc4dfa0942f	0.45213434065437047
53	0x3fa35d274afba3fb	0.03782007971114606
54	0x3fca41569c270680	0.20511896729117396
55	0x3fd2f394081520f5	0.29611683644590353
56	0x3fd01aa18b5e829c	0.2516254292513993
57	0x3fd80418f3d4ae8b	0.375250089756016
58	0xbfe379b8c0000000	-0.608608603477478
59	0xbfdedff3c0000000	-0.482418954372406
60	0x3fc5acc6c30523b0	0.1693352176901306
61	0x3fe3a8f6356e14cf	0.6143752139620576
62	0xbfbc96f378266af3	-0.11167833026267342
63	0xbfd44ded34a5c5db	-0.31725626126634915
64	0x3fdaad7192e8501c	0.4168361601489339
65	0xbfd0db3623039d8c	-0.2633796064314644
66	0x3fd9aa3828bc9f25	0.40101436594203427
67	0x3fd088c3885a4e2e	0.25834739986132405
68	0xbfdbc93fda530d55	-0.43415829010719637
69	0x3fe390706ec48985	0.6113817370826814
70	0x3fca22b18291b6bb	0.20418375850151968
71	0x3fe2b587251bc500	0.5846591686987779
72	0xbfd6afb820000000	-0.3544750511646271
73	0xbf925cf000000000	-0.017932653427124023
74	0xbfd1b66294b5bf2f	-0.27675690195518404
75	0x3fe4b21c731221a3	0.6467420814015451
76	0xbfe8c1f813690d13	-0.7736778620823394
77	0xbfa1c301b94d36df	-0.03469090830786369
78	0x3fad8ae11821965a	0.057700189777091196
79	0xbfe390c0abc8ec5c	-0.6114199977086048
80	0xbfcfd1b440000000	-0.24858716130256653
81	0x3fd57f8040000000	0.3359070420265198
82	0x3fe6a56f90f16210	0.7076948004642549
83	0x3fe22e32fa4ab46e	0.5681395424377464
84	0xbfd5fa2986ffb1b0	-0.34339368995167785
85	0x3fe294bfc5547185	0.580657849702718
86	0xbfe6b2c8251b6757	-0.7093239521738991
87	0x3fc60f7dcc255f38	0.17234775989595064
88	0xbfbe7ceb00000000	-0.11909359693527222
89	0x3fd9886540000000	0.39894992113113403
90	0x3fcd790d49cd674d	0.23025671104078996
91	0xbfe8fcfc36d60425	-0.780881983853878
92	0xbfde853736c383df	-0.4768808398057995
93	0xbfd7272aaea8c23e	-0.36176554733814104
94	0xbfb4e480c6580b50	-0.08161167948132442
95	0x3fa322e6f6e86142	0.03737565769205499
96	0x3fcca6efc19378e5	0.22384449912983154
97	0x3fd6cdeab866a1d4	0.35631816871548705
98	0x3fca7722e3921318	0.20676075088354007
99	0xbfc99e9c6031ce6c	-0.2001529187870007
100	0xbfdae16280000000	-0.4200063943862915
101	0xbfd4035ea0000000	-0.3127056658267975
102	0x3fe506b8f58e394f	0.6570706172949857
103	0x3fa615c3001e8752	0.04313477875190465
104	0xbfde2826cf26fa30	-0.4712006590815774
105	0x3fece37a1b640301	0.902768186089901
106	0xbff258a741a891cf	-1.1466438832077193
107	0xbff80be7a200b7f6	-1.5029064491495752
108	0x3fe4094978b79116	0.6261336667780906
109	0xbfd40a37067620ef	-0.31312347060203555
110	0xbf856c0000000000	-0.01045989990234375
111	0x3fc8553e80000000	0.19010144472122192
112	0x3fe6121192f6c716	0.6897056455984252
113	0xbfde99ac40000000	-0.47812944650650024
114	0xbfde7af8fae00682	-0.4762556505157606
115	0xbfe34d2a94f06805	-0.6031697186438129
116	0xbfe6c4d035b27b9c	-0.7115250633977328
117	0x3fe3fb3930a75efe	0.6244169187802695
118	0xbfc3b0e168915bb4	-0.15383546453332786
119	0x3fcb7598de32eada	0.2145262799220607
120	0xbf927ec000000000	-0.01806163787841797
121	0xbfe0631640000000	-0.51209557056427
122	0xbfef3dc8bf24c424	-0.9762920125268733
123	0xbfe213e507f220b7	-0.5649285464469561
124	0x3fe417fbdb797f10	0.6279277121174989
125	0x3fafcea571798065	0.06212346086681534
126	0xbfbd629000000000	-0.11478519439697266
127	0xbfd2c045e0000000	-0.2929854094982147

stacks.0.blocks.0.layers.0.bias f8 [64]
0	0xbfbc946f00000000	-0.11163991689682007
1	0xbfc8cfc600000000	-0.19384074211120605
2	0x3fe49ebede9a5537	0.6443781230652011
3	0x3fc7175af0ff469f	0.18040024535598762
4	0x3fe2b7cf8b965f8f	0.5849378324810334
5	0x3fcc7e3cf8774f64	0.22260248310214614
6	0xbfc1f80c47d64d16	-0.14038232333823747
7	0x3fe076c2ba1e9da3	0.5144971499584482
8	0x3fd7cbcb1e79c4cb	0.3718135640729769
9	0xbfd4a13b40000000	-0.32234078645706177
10	0x3fd3919edbe7af4c	0.3057629725942561
11	0x3fe2e3fe825ff640	0.5903313204177678
12	0xbfe4cad07f0ca165	-0.6497576219017388
13	0x3fd145a0db5dace4	0.26987477705433904
14	0xbfdf2bbc00000000	-0.4870443344116211
15	0x3fd795887b441977	0.3685017780084289
16	0xbfbd8ad50bad8f5b	-0.11539966139895112
17	0xbfd73032cadfc336	-0.36231679737015854
18	0x3fccd6700c55c634	0.22529411890313755
19	0x3fdb32aec208f497	0.4249684233544228
20	0xbfe4c3de20000000	-0.6489096283912659
21	0x3fdd69757c6e4a49	0.45956170226523746
22	0x3fbe99ee4c2c3983	0.11953629836737005
23	0xbfe2186ae0000000	-0.565480649471283
24	0x3f5040b751a7b036	0.0009919920181529324
25	0xbfd7092e4d93d1c5	-0.3599353559104908
26	0xbfb49059d0a2bcc0	-0.0803276190151676
27	0xbfc5c8babf439be3	-0.17018827761714225
28	0x3fe45c55a42911ce	0.636271305681072
29	0xbfde8db9a0000000	-0.4774002134799957
30	0x3fdbac35bdc85ae6	0.4323858598085465
31	0x3fd6eb2daa5d8c0c	0.35810414921996947
32	0x3fdf7f0ba85e5a34	0.4921292442535645
33	0x3fe22d858877703c	0.5680568375933102
34	0x3f50d44b4413bd69	0.001027177335625707
35	0xbfde97c32570101d	-0.4780128350832927
36	0xbfe524efe0000000	-0.660758912563324
37	0x3fdfbf9ba89fa53c	0.49606982676649003
38	0x3fdc917bbc7dc98e	0.44637959868773514
39	0x3fe13fef8f6ed567	0.5390546609329875
40	0xbfe6979a80000000	-0.7060062885284424
41	0xbfe65cb8a02fbf1f	-0.6988185051577352
42	0x3fd45810ec7734e0	0.3178751286730641
43	0x3fc0f2aca5a7192f	0.1324058350421153
44	0xbfde7b6380000000	-0.4762810468673706
45	0x3fe0c9fe238c9091	0.5246573156660067
46	0x3fc3cbbac5869e8c	0.15465483326737617
47	0x3fe2abdaf95cc711	0.5834784384116763
48	0x3fe3aed14d067d46	0.6150900368119572
49	0x3fd39e6871c169c4	0.3065434561628104
50	0xbfe5bd16c0000000	-0.6793321371078491
51	0xbf64c4293cd832d8	-0.002534943144161122
52	0xbfc69679c072015f	-0.17646715065712734
53	0x3fcf75a170b7dac9	0.24577730182473648
54	0x3fe239cb49d2c95b	0.5695549432623851
55	0xbfdfb26d00000000	-0.49526524543762207
56	0xbfe66b680d0938ea	-0.7006111387834413
57	0x3fe5a109cee14cd2	0.6759079971910984
58	0x3fd95bbeb0113580	0.39622466272415835
59	0x3fd4058098c95456	0.31283583565283857
60	0xbfb20fff00000000	-0.07055658102035522
61	0x3fcafc5d730dd7e5	0.21082656972765715
62	0x3fdcf6cbc7cc426b	0.4525632334853415
63	0xbfd43cdba0000000	-0.3162144720554352

stacks.0.blocks.0.layers.3.weight f8 [64, 64]
0	0x3fa8c9d480000000	0.048414841294288635
1	0xbf8748c800000000	-0.011369287967681885
2	0xbfb32b873780a12c	-0.0748829374794055
3	0x3fb5ef6ab767e621	0.08568446138078702
4	0xbfb363db568210ee	-0.07574244367612312
5	0x3fae5a495dfea621	0.05928258201977266
6	0xbfa6856b0a5a3d5e	-0.04398664952634122
7	0xbfacb5500d50d5ae	-0.05607080614610581
8	0xbfb28d17119d62b9	-0.07246536426590468
9	0xbf95295800000000	-0.020665526390075684
10	0xbfbcf83440000000	-0.11316229403018951
11	0xbfae99a0134743b9	-0.05976581797916176
12	0xbf960f110f2e5e3d	-0.021541849662382474
13	0x3fb7fbafc0000000	0.09368418157100677
14	0xbfa5016c80000000	-0.041026487946510315
15	0x3f93a96a00000000	0.019200950860977173
16	0x3fb45198605785c0	0.07937004425141136
17	0x3f7293bb3c272bfa	0.004535418879139103
18	0xbfb5d058c0000000	-0.08521036803722382
19	0x3f64c82b988d2b53	0.0025368548853398703
20	0x3fbd4ba2c0000000	0.1144353598356247
21	0xbfa674ba80000000	-0.043859317898750305
22	0xbfba5a3cc0000000	-0.1029394119977951
23	0xbfa3534580000000	-0.037744686007499695
24	0xbfb5b681814648a1	-0.08481606870762672
25	0xbfbb7e3657b3aa76	-0.10739459649236402
26	0xbfb35acbfe535a62	-0.07560419997330706
27	0xbfba9e5b755d2a5d	-0.10397884002046838
28	0xbfadedc8d97d0b45	-0.05845477728737206
29	0x3fbe144440000000	0.11749674379825592
30	0xbfa5a3a0a23acb62	-0.042264003566194544
31	0xbfc11b2d69ad8c1e	-0.1336418882375207
32	0x3faa3cee9f6cf31a	0.05124612518418399
33	0xbfa3d24c30c8309f	-0.03871381850703525
34	0x3fab042237c4cdec	0.052765912349425154
35	0x3f89204537c45e6f	0.01226858211934642
36	0x3fa8df0f80000000	0.04857681691646576
37	0xbf8c0567b8d7a5a4	-0.013682184532586579
38	0x3f7e2c442513fd3a	0.007366434279219286
39	0xbfbd62d3f08be4a0	-0.11478924391475909
40	0x3fb2e817c0000000	0.07385395467281342
41	0xbf9f9ab706f67c30	-0.030863628196694914
42	0xbfaf207de8c4c180	-0.06079476801312733
43	0xbfb1960a9389e8ad	-0.06869569875735478
44	0x3fb1da6640000000	0.06973876059055328
45	0xbfae070f780e1ead	-0.05864761677281414
46	0xbfb0518bc0000000	-0.06374429166316986
47	0x3f9fcea782c5d816	0.031061761242618578
48	0x3fb4df04581bff0d	0.08152796889407572
49	0xbf98ae43704f905a	-0.02410226223936749
50	0x3fbe5d8680000000	0.11861458420753479
51	0xbfc0a57137e28e06	-0.13004889706381578
52	0x3fb2e036ada31b0a	0.07373372782886292
53	0xbfa7c8d600000000	-0.04645413160324097
54	0xbf9381315cba28bd	-0.019047519001596614
55	0x3fb148ec00000000	0.06751894950866699
56	0x3fb99ceb80000000	0.1000506579875946
57	0xbfc1daec87944aad	-0.1394935285575988
58	0xbfc0e7efeacd20a1	-0.13207816090494354
59	0x3fa6eb65a3978aaa	0.04476468679401553
60	0xbfa9d38200000000	-0.05044180154800415
61	0xbfafe39f80000000	-0.06228350102901459
62	0x3fbae924037aae4d	0.10511994442884394
63	0xbfad611280000000	-0.05738122761249542
64	0x3fb342b700000000	0.0752367377281189
65	0xbfb4edc600000000	-0.08175313472747803
66	0xbfbad2712f5ed8d6	-0.10477359205728773
67	0x3fad3bb6d9a3a1b8	0.057096208636554235
68	0xbfafb3fd9c40e570	-0.061920094798959435
69	0xbfbf79b964419729	-0.1229511136785645
70	0x3f8980be8b5e498a	0.01245259154146507
71	0xbfbc2c69abc276b9	-0.11005268519735524
72	0xbfb35fd4bb6de5bd	-0.07568101478491136
73	0x3fa27cf000000000	0.03610944747924805
74	0x3f61f60162325610	0.0021924998305376045
75	0xbf95e44464df3691	-0.021378582627042567
76	0x3faee3c67b08ff37	0.06033153774160243
77	0xbfa3f92acd998b5e	-0.03901036987078642
78	0x3fb01d9180000000	0.06295117735862732
79	0xbf9491576308be97	-0.020085683269086187
80	0xbfaf9e4be9a03fd0	-0.06175458170775949
81	0xbfb5e76672c8e083	-0.08556213667259453
82	0xbfbee6e445547cd1	-0.1207106274855392
83	0xbfc06c11158434f6	-0.1282979350147923
84	0x3fbbcf1540000000	0.10862858593463898
85	0xbfb27780ac08e2b3	-0.07213596534792081
86	0xbfc76bbc37233c20	-0.1829753178812732
87	0x3fb1bf43c0000000	0.06932471692562103
88	0xbfbe97b392f51d8f	-0.11950228059605748
89	0xbfb3e6d066906123	-0.07774069313052627
90	0xbfb4a0e216eec754	-0.0805798822391613
91	0x3fa6aa7d78eb51a8	0.04426948643746026
92	0x3fa82c752a443a99	0.04721418515156479
93	0x3fb1d7bbc0000000	0.06969808042049408
94	0xbf9ca35c6e079786	-0.027966922965695605
95	0x3fb2e569d3e84f1d	0.07381307052156356
96	0x3fadbcc6c5ebe559	0.058080875072799194
97	0x3f9f1aa433628f30	0.030375066410342544
98	0xbfaef8276942ea6c	-0.060487014388361654
99	0xbfa39522cbfc86e1	-0.03824719181126369
100	0xbf9561c500000000	-0.020880773663520813
101	0x3fa3d848c22895c0	0.03875949258899025
102	0xbf950acd9e791d5a	-0.020549023435049697
103	0x3fa7b1dcde1c9b91	0.046278860200167256
104	0x3fb086e940000000	0.06455858051776886
105	0xbfbeda36a9b77abe	-0.12051717418169525
106	0x3fb625e4df21d78a	0.0865157170063339
107	0x3f9ca16cf603cdb2	0.02795953990512396
108	0xbf853b5200000000	-0.010367050766944885
109	0xbfb03ab319ce78a9	-0.06339568500559047
110	0xbfb5ca5bf770225e	-0.08511900702445405
111	0xbfaffde3fcdf8746	-0.06248390638189831
112	0xbfba5884227d98e9	-0.10291314928108232
113	0x3fb3803e2a3f26d5	0.07617558032429923
114	0xbfb1769ec0000000	-0.0682162493467331
115	0xbfb99c9cb9e56a7f	-0.10004596270065667
116	0x3fbf83701e1df379	0.12309933409956199
117	0x3f90618ca5fc59ed	0.01599712145897485
118	0x3f7851edbff3e2d5	0.005937508306708768
119	0x3fb5e1c3c0000000	0.08547614514827728
120	0x3fa0cf771ecfc33b	0.03283283473127204
121	0xbfb1159f02d058b8	-0.06673616236398316
122	0xbfbd75c0ef2c89dc	-0.11507802809914075
123	0x3faa6a798d8b2f46	0.051593588379175645
124	0x3fbff0ab00000000	0.12476605176925659
125	0x3f58c22ea67a9b7f	0.0015111404008309735
126	0xbfab1c540085945b	-0.052950501502700496
127	0xbf669d6000000000	-0.002760589122772217
128	0xbfa5dafa80000000	-0.04268629848957062
129	0xbfb94169c0000000	-0.0986543744802475
130	0xbfbcbeab00000000	-0.11228436231613159
131	0xbfb0fc68bd4e274e	-0.06635145780287852
132	0xbfa1b5b60593535b	-0.03458947008190335
133	0x3fa59785fe4eba73	0.04217165688838955
134	0x3fb09c2a054492e9	0.06488287571535135
135	0xbf923e4100000000	-0.01781560480594635
136	0x3fa4d13274e28a9a	0.040658547180347074
137	0xbfa2132a00000000	-0.03530246019363403
138	0xbfbae5d280000000	-0.10506930947303772
139	0xbfb94a1d9aadbef8	-0.09878716493926365
140	0x3f8da8150b3e6f89	0.014480747609745286
141	0x3fb05c43c0000000	0.06390784680843353
142	0x3fb57c2800000000	0.08392572402954102
143	0xbfa7ed9a00000000	-0.046734631061553955
144	0x3fad04d404dec1c0	0.05667746123743056
145	0x3fa7d4bbf940865f	0.046544908691669155
146	0x3f5feeb000000000	0.0019489973783493042
147	0xbfa254da99ceb967	-0.03580363395245705
148	0x3fb7a81fc0000000	0.09240911900997162
149	0xbfab280680000000	-0.05303974449634552
150	0xbfb26f3a650a50a6	-0.07200970618061095
151	0x3fa99d7400000000	0.05002939701080322
152	0x3f94d68d00000000	0.020349696278572083
153	0xbfb25c67d4165d62	-0.07172249725259897
154	0x3fac213706d6d9d4	0.05494090994345738
155	0x3f5bab0686370f1c	0.0016887248719834108
156	0xbfb0fa466dd020e2	-0.06631889515859116
157	0xbfb89a3600000000	-0.09610307216644287
158	0xbfa71f50701e5e6f	-0.04516078346858598
159	0xbfbb9a75e6916a94	-0.10782563094236713
160	0xbfb0e6ffb8d1a977	-0.06602476370031761
161	0x3fa2196423e06853	0.03534996927210501
162	0xbfbff3d0686fdc0f	-0.12481405782442344
163	0xbfc160c39f251dbc	-0.13576550741912097
164	0xbfb310f140000000	-0.07447727024555206
165	0xbfbcda9f6ed78de9	-0.11271091896156062
166	0x3f9297f400000000	0.018157780170440674
167	0xbfc092f5d7b4476c	-0.1294848731272923
168	0x3f92842300000000	0.018082186579704285
169	0x3fb65e0f23564b2c	0.08737272846910277
170	0xbfae41012ddebad6	-0.05908969578682892
171	0xbfb4017c40000000	-0.07814766466617584
172	0xbfac2c3c80000000	-0.055024996399879456
173	0x3fb9adeb0ca30a8e	0.10031003054158757
174	0x3fb4795380000000	0.07997629046440125
175	0xbfa98b71c0cdb7a8	-0.049892000947564796
176	0xbfbf44f740000000	-0.12214608490467072
177	0x3fb18aa26eddc913	0.0685216446561621
178	0xbf8cd27e00000000	-0.014073356986045837
179	0x3f773d69aa7a8578	0.005673802144572242
180	0x3fb390a6f4e2bb4d	0.076425967012921
181	0x3f76e54c00000000	0.005589768290519714
182	0x3fa311634395dc0f	0.03724203300492245
183	0x3fb9b76880000000	0.10045483708381653
184	0xbf94025800000000	-0.01954019069671631
185	0x3fbb2cb9c0000000	0.10615120828151703
186	0xbfa8b3df2582221c	-0.04824731190553086
187	0xbfc08702b359f1a5	-0.12912019498243157
188	0x3f831e4200000000	0.009335055947303772
189	0x3fbda61880000000	0.115815669298172
190	0x3f734e5a64b64cc4	0.0047133952133606195
191	0xbfade06680000000	-0.05835266411304474
192	0x3faded1780000000	0.05844949185848236
193	0x3fb298a440000000	0.07264162600040436
194	0x3fa413e481461df8	0.03921426847506021
195	0x3fa48530095bb131	0.04007864107356552
196	0xbf9dfdd46c414a19	-0.0292885962556487
197	0xbfc3514dfef57aa2	-0.15091872166791115
198	0xbfb38ff0064c3848	-0.076415063416989
199	0xbfb7d86ba6fcc1f5	-0.09314606501425955
200	0x3f9aefd82baf9122	0.026305558840150962
201	0xbf987c4800000000	-0.023911595344543457
202	0x3f758848b6127235	0.005256923702429851
203	0x3fa222643909bd8b	0.035418636286404036
204	0x3fb76e20ac9c1182	0.0915241643343219
205	0x3f9bfaeabec8b71c	0.027324359793218553
206	0x3fa9cafa80000000	0.05037672817707062
207	0xbfbca631aea545d9	-0.11191092027481576
208	0xbf9ee777d5b19fa9	-0.030179855745160165
209	0x3fa91faca3fab693	0.049069781319628046
210	0xbfc40541744ccb4e	-0.1564103906508429
211	0x3fb507f772a39bd3	0.08215281056219163
212	0xbfa34b5d80000000	-0.037684366106987
213	0xbfb8a2e5a6ac1803	-0.0962356120981838
214	0x3fad98290bab5620	0.05780151622245122
215	0x3fa77c6500000000	0.04587092995643616
216	0xbfd1d45c19847dd3	-0.278586411399343
217	0xbfc1b38ed3ea6568	-0.1382921728843869
218	0x3fa7f390782cadaf	0.046780123395673605
219	0xbfbd018c918a14a6	-0.11330488732535801
220	0xbfbcf00b39aa198d	-0.11303777845214409
221	0x3fa74b4780000000	0.04549621045589447
222	0x3f8bd67269e5ac01	0.013592618805622793
223	0xbfc1ee687b0e3b01	-0.14008813866208672
224	0xbf96ecf44305737b	-0.022388283339171516
225	0xbfb3bf496acb47b2	-0.07713755471493647
226	0xbfd1e433706a3a91	-0.27955327966712057
227	0xbfb6e6245524e1bb	-0.08944918707573539
228	0xbfb3894d00000000	-0.0763137936592102
229	0xbfb007b331135668	-0.06261749218114121
230	0x3fa1b9b5fd53b8ea	0.03461998669978235
231	0xbfa0070099fcb4a0	-0.031303423688180176
232	0x3fbae2d500000000	0.10502368211746216
233	0xbf9144813d9060c7	-0.016862887747351587
234	0x3fb29c0cad1384c8	0.07269362664694079
235	0x3f8c2f3c29cbd468	0.013761968637007807
236	0xbfb34dd5c0000000	-0.07540641725063324
237	0x3fb2a76def15d3b6	0.07286727034609339
238	0xbfc04bb372c29948	-0.12731021026156442
239	0x3fa6b1e981afcdc5	0.044326111870670405
240	0xbf4e4d1f5daef5ba	-0.0009247210649544959
241	0xbfba810ff8211273	-0.10353183563081263
242	0xbfa3798780000000	-0.03803656995296478
243	0xbfadb3b43c7fd489	-0.0580116580821733
244	0xbfc8909ad753d626	-0.19191298975026533
245	0xbfbdb06c88a58c4a	-0.11597326599216831
246	0xbfa3be9ca210ec02	-0.03856362799020731
247	0xbfbf9126c0000000	-0.12330858409404755
248	0xbfa11ac4fa766798	-0.03340735967067515
249	0xbfa5c1a23456a125	-0.042492932213749314
250	0x3fa2aa95ad94369c	0.036457707823598556
251	0xbfc0ce27bc7894db	-0.1312913580197009
252	0x3fba537f40000000	0.10283656418323517
253	0x3fbd0c22e8cf31d3	0.1134664362318241
254	0x3fb0a6744134803b	0.06503988830491007
255	0xbfa66f3c00000000	-0.04381740093231201

stacks.0.blocks.0.layers.3.bias f8 [64]
0	0xbfc226187667d01e	-0.1417875841285658
1	0x3fb9bb79c4e91706	0.10051690156350554
2	0xbfba2056dd9fbafe	-0.10205595885029692
3	0x3fb2d16c7cc00357	0.0735080532613329
4	0x3faec5e58c45120a	0.0601035817840377
5	0x3fa409c38f9e1f95	0.039136992722944054
6	0x3fc0d90d109d8ec5	0.13162387191106553
7	0x3f8e4b09a2621771	0.014791560428658564
8	0x3fb61a16ba701ff1	0.08633558322628666
9	0x3fa59527357682c6	0.042153573299633915
10	0x3fa28a5e87830d64	0.03621192363928108
11	0xbf86df870f4899c2	-0.011168532518308964
12	0x3f9083c14ce7b218	0.016127605742371015
13	0x3fa46a8269e214c0	0.03987510244864145
14	0x3fa851faa03f07c4	0.047500450192742544
15	0xbfa458078446ee7c	-0.03973411073408514
16	0x3f95d49c752a2804	0.021318859721340302
17	0xbfbb50b73d3d88a1	-0.10670037503362774
18	0x3fab094c51e002dd	0.052805314058792276
19	0xbfa19aae8103c935	-0.03438325238120613
20	0x3fc1893b7b60b185	0.13700049900343117
21	0xbfa50a3ae902cec4	-0.041093674606057756
22	0xbfb21f3388a929ec	-0.07078859411664212
23	0xbfb36eb15c4c9f22	-0.07590778830910641
24	0x3faee8a4cad81846	0.06036868072628514
25	0x3fc16439c68ab7dc	0.13587114519526622
26	0xbfc1310ce60c6841	-0.13430939896426433
27	0x3fa56f32416555cf	0.04186398552216596
28	0x3f99689c1722bf3d	0.024813116943448
29	0x3fb78d1c241a998c	0.09199691659396175
30	0xbfb8b81e0ef8a526	-0.09655940881261368
31	0x3fb8046cc2908725	0.09381751775847798
32	0x3fc441563153993f	0.15824391754649444
33	0xbfc0009860eabbac	-0.1250181649424723
34	0x3fb47ca9e7160fd6	0.08002721683266087
35	0x3fc25f790e8ae163	0.14353860101779067
36	0x3fb2c2b5ac24fb4f	0.07328353359933469
37	0xbfc15d322a8379e1	-0.13565661502703022
38	0xbfb4b5117deea874	-0.08088788342016234
39	0x3fc6de5cf001dee1	0.17866098136050027
40	0x3fba1edf7d02b862	0.10203358461396442
41	0xbfb4dc1f7e30f8e7	-0.08148381071893916
42	0xbfab964946bff444	-0.05388096798558498
43	0xbf9531a083fc13bb	-0.02069712453432591
44	0xbfbd86cf6e447a57	-0.11533829156949459
45	0x3fa60b7f1b1cba90	0.043056461391065004
46	0xbfb78e277e49a5ad	-0.09201285203166405
47	0xbfba005d4a815b6e	-0.10156806057908138
48	0xbfa5cf7ca5e86385	-0.04259862447015109
49	0xbfc0d964a1b8b136	-0.13163431068950054
50	0x3f7d290d9598ab00	0.007119229377660075
51	0x3fb508f2f27106bc	0.08216780108434824
52	0x3fb6c048df190df9	0.08887153097844437
53	0x3fb36128d1eb36cb	0.07570128560038396
54	0xbfb37b5fe5179b1c	-0.076101296835628
55	0xbfc0e6c8c4b95526	-0.13204297643339052
56	0x3f75c9263550f0ac	0.005318783999481418
57	0xbfbf79372a11c029	-0.12294335152705628
58	0x3fa6cab5aba41c63	0.044515301897313696
59	0xbfb293d635adf248	-0.07256830988439689
60	0xbfb5f2e53b305dd6	-0.08573754019777566
61	0x3fc1728432295189	0.13630726289069298
62	0x3f870e7fc4f24c35	0.011258123586492011
63	0xbf80fbb87d7c788e	-0.008292619065795283

stacks.0.blocks.0.backcast_linear_layer.weight f8 [10, 64]
0	0xbfba4bf7962729c0	-0.10272166648716219
1	0xbfa27799e8ba8009	-0.036068734797709175
2	0xbf9aeb10ebba017a	-0.026287330997094106
3	0xbf84daa71d4da5ed	-0.010182672101751467
4	0x3fc1215f7e48cfec	0.13383096376639914
5	0x3fbe1f3e43c394f6	0.11766423372644738
6	0x3fa27191fc2cb354	0.036022722275766
7	0x3faf94f3be872439	0.061683289535331594
8	0x3fc521e4bab92370	0.16509684674590686
9	0x3fa84cc38a11df68	0.04746066151068257
10	0x3fb5e13c54e01e2e	0.08546807357935712
11	0x3fb685bed434a7a3	0.08797829323580557
12	0xbf8fd2d99bbc91c5	-0.015538883271411738
13	0xbfc141795f70d7db	-0.1348106113452435
14	0xbfb8837a70451318	-0.09575619927370516
15	0xbf940f3e603acb86	-0.01958939993228228
16	0xbf9c628b04796d60	-0.027719661853877198
17	0xbfa2010d5c894ed0	-0.035164277597372284
18	0x3faccd70b13435f5	0.056254884368268344
19	0xbfa57fa65509a5e3	-0.04198951519067486
20	0x3fa7d33c0dcc3aaa	0.04653346699170886
21	0xbfa371633136b535	-0.03797445274117665
22	0xbfb264c631bd0f1d	-0.07185019220656526
23	0x3fdb324c77940abb	0.42494498899047145
24	0xbfa6236919d30b54	-0.04323891105879932
25	0x3fb6520605ccbb76	0.08718907968134978
26	0x3fa99e9de60bd78a	0.050038275081461484
27	0xbfa064443c74d7e4	-0.032014973049100864
28	0x3f44a1adc4d0a997	0.0006296251755249391
29	0xbf9bb743da9e32d7	-0.027066288202649638
30	0x3fa7e841b92403c7	0.04669385323541735
31	0x3faf8f31831452a1	0.06163935399141463
32	0xbf667aacafb83869	-0.0027440426617948888
33	0xbfae75b6ec2ea021	-0.059491840678049586
34	0x3fc5281c7c8c453c	0.1652865989822575
35	0x3fbfa76d34038af4	0.12364847679013363
36	0x3fb3d8961fb9ca58	0.07752359652094165
37	0x3fba4c05e20c8a5d	0.10272251862310484
38	0xbfba4c1b868e8c53	-0.10272380862311196
39	0x3fc651c8cb9ee98f	0.17437086050433634
40	0x3facdf537e28d518	0.056391343260125903
41	0x3fb14ce685a2d1b5	0.06757965815160712
42	0x3fb84abfc00eccf5	0.09489057959472176
43	0xbf95fedbf3406d99	-0.021480023118881062
44	0xbfb41d1806fbad90	-0.07856893702017076
45	0x3faac0c0de246254	0.052251841656645454
46	0xbfb9686227f8471c	-0.09924901462389041
47	0x3f9d0464a4ac6d68	0.02833707099044372
48	0x3f976264a61cc843	0.022836277617166677
49	0x3fa26238912eff77	0.03590561649571005
50	0xbfc1ce5f5896218d	-0.1391104872275374
51	0xbfb5f29314567bb1	-0.08573264357117584
52	0x3fac12762dfad8ee	0.05482835112836591
53	0xbf4961caaf7e8427	-0.0007745971370135594
54	0x3fb481cfedbdab3f	0.08010577730389644
55	0x3fa117d3431ee800	0.03338489717812365
56	0x3f9d0a6233411242	0.02835992276983946
57	0xbf7cea7575649d59	-0.007059534857297344
58	0xbfa9a45866203518	-0.05008198019650417
59	0x3f9ae9e1991d736c	0.026282811136627712
60	0xbfb362b311bb13c8	-0.07572478468780652
61	0x3faadc2dd6e439fb	0.05246108291804671
62	0xbf8cf1b9a677bc6c	-0.014132929222766509
63	0xbfa782255160f21a	-0.04591480844871772
64	0x3fb7257bee9661b2	0.09041571211708435
65	0x3fb208338d562eb5	0.07043764305688678
66	0x3fba5d4208b85d97	0.10298550331969235
67	0x3f68b8a2daaddcb4	0.003017728876723769
68	0x3fa0cc99dcb329b0	0.03281098193254495
69	0x3fc1978c5caa5551	0.13743738674808495
70	0x3fb4339c82cb8579	0.07891252701985775
71	0x3fc454c63e6f2848	0.1588371090750249
72	0x3fc15b14a81b5521	0.13559206207597987
73	0xbf704ac25e80eab0	-0.003977545980940064
74	0x3fbe5e551e053a2d	0.11862689955635437
75	0xbfb415251ebc7c2a	-0.07844764709851462
76	0xbfa998c7dbdd1c9f	-0.04999374922641064
77	0xbfb087bc7a112d9e	-0.06457117061761727
78	0x3f75791d731057b0	0.005242457425103028
79	0x3fc2a4287bf8555a	0.1456347089121362
80	0x3fae9a1068af5121	0.05976916578188907
81	0x3fbd8217b570f0f2	0.11526630573002075
82	0xbf8351031e5d9c62	-0.00943186222475684
83	0xbfa2b0352bd14088	-0.03650060806160221
84	0x3fc6ce8c4865a3dd	0.17817834410678204
85	0x3fb17c782fed5cbc	0.068305503560043
86	0x3fbf7deffdb9ccd5	0.12301540321805089
87	0x3fb97075a85431ff	0.09937224731056203
88	0x3fb849a5b5719522	0.09487376861359967
89	0x3fbbc9b3ece23972	0.10854649098675909
90	0x3fb379720a74dce6	0.0760718608406595
91	0xbfb41f962e785f82	-0.07860697397734209
92	0x3f83b3625982a393	0.009619491917264777
93	0x3fb17b1a8895427b	0.0682846625761701
94	0x3fbbf454ca8b83ea	0.10919694848008957
95	0xbf7b7c8b585485e8	-0.006710571590958982
96	0xbfa0432fdb6905a2	-0.03176259568545993
97	0xbfb13ce457ba344c	-0.0673353876283766
98	0x3fc83b69b3b66b42	0.18931313776996644
99	0x3fb19a0318f5c762	0.06875628814102933
100	0x3fb8728682e07a1d	0.09549751944766922
101	0x3fa48e5bed30f46d	0.040148613647468114
102	0x3fb89ef85aa7833f	0.09617569173088912
103	0x3fc1a40414c31b53	0.13781786931778103
104	0x3fa63c784a8a7423	0.04343009862825677
105	0x3fc62aa4d6f31db9	0.17317638869847743
106	0x3fcc99d9f2a78b8b	0.2234451708637518
107	0x3fc0096ba38b25fb	0.12528748975300616
108	0x3fc0843acbdedcd5	0.12903532938592002
109	0x3fc21ec293bc3ffb	0.1415637227405567
110	0x3fbd3802638329e6	0.11413588456631593
111	0x3f70d704eeb0d41d	0.004111308352595902
112	0x3fbe6b1e4dc43d15	0.11882199667546829
113	0x3fa6f962ca91b9f7	0.04487141344803896
114	0x3faca2d2ef17bd59	0.05592974823582137
115	0x3fcecf07b535d279	0.2406930575194968
116	0x3fb941eb20c851f2	0.09866208601335538
117	0x3fbbf8256df496cb	0.10925516066034928
118	0xbfa607120f120a19	-0.043022693957954945
119	0xbfaa7fa764becac6	-0.05175517182160187
120	0xbfae02e2f0dc1ce0	-0.05861577215369507
121	0x3fb72c9c3fa99505	0.09052444986589954
122	0x3fa4420177abec71	0.039566083772989986
123	0x3fba46de6c7a667e	0.10264387272254713
124	0xbf824c7a6a468167	-0.008934933059948148
125	0x3fc137c7a910d71b	0.1345147681728854
126	0x3fbe8c463f85824c	0.11932791758364053
127	0xbf7f97b50f52817e	-0.007713038697290007
128	0x3f745788b0734a06	0.0049662913726984444
129	0xbfbb1972a8eb6dd5	-0.10585705398573649
130	0xbfc233428dfd5d1a	-0.1421893304165927
131	0x3fb436d178b0364f	0.0789614600800743
132	0xbfad5021fe8ce4d3	-0.05725198967270164
133	0xbfa220e0907f93db	-0.035407083167036744
134	0x3fb192dc694380b6	0.06864717073358659
135	0x3fba9e7e3798eeaf	0.10398091180189327
136	0x3fb639b3dc0098cd	0.08681797143126176
137	0x3fbd71915618df52	0.11501415588361155
138	0x3fbb1f043e331605	0.10594202536147897
139	0xbfb12eb1a4bc5b41	-0.067118742674535
140	0xbfb9e06333d785f8	-0.1010801316802129
141	0xbfd1135604b28783	-0.266805176341329
142	0xbfb6d79d8a0ab680	-0.08922752971803938
143	0xbf90e07847dbba18	-0.016481284509547306
144	0x3fb1d41d738aebed	0.06964286871782095
145	0xbf98fb411c6d173c	-0.024395959243768348
146	0x3fa02238e268ea7c	0.031511094701689196
147	0x3fb2286145c97c9f	0.0709286494616088
148	0x3fa8fb54d6247772	0.04879250635188627
149	0xbfaf8f13958944a2	-0.06163846207039937
150	0x3faf484b576b3aa6	0.06109843675732422
151	0x3fd77ef19612f269	0.36712302833237814
152	0xbf7573f6b7884401	-0.005237544763546432
153	0x3fabedf4267360a3	0.054549817746818684
154	0xbfa34c99cbb32fbe	-0.03769379245349523
155	0xbf7ab72abb63cb04	-0.006522337838975604
156	0x3fb6e4fb550d47bc	0.08943148447477162
157	0x3fa44c3ffe6363b9	0.0396442411453743
158	0xbfb8ebbbc08dccad	-0.09734700633070999
159	0x3fc7102b754701a8	0.18018096186098131
160	0xbf37ff6e74183344	-0.0003661770498133885
161	0x3fc02e6af423be36	0.12641655846481265
162	0x3fa7c34d3b99b812	0.04641190865082491
163	0xbfa7051e84fb2ca1	-0.044960931523371224
164	0x3fb881eb41da3048	0.09573240621301793
165	0xbfbd0877728d266d	-0.11341043993629692
166	0x3fb59a84b277fca6	0.08438901288171738
167	0x3fb753fdab996c96	0.0911253494208942
168	0x3fb553f38b86989b	0.08331224590674184
169	0xbfa6c6a1c548722e	-0.04448419125785495
170	0x3fc57481c9138045	0.167618010694243
171	0x3fb1ad44348f6593	0.0690500858612693
172	0x3f8d6beb16690345	0.014365994092374055
173	0x3fb811b71b791e0a	0.09402031346063935
174	0xbf96f51ada637847	-0.022419375972156066
175	0x3fa40c66326dbecd	0.03915709844193103
176	0x3f9631dc05e57222	0.021674573764686518
177	0xbfabc272fefc2f76	-0.05421790468798708
178	0xbfc3b1fc423a66fc	-0.1538691829089699
179	0x3fb662d361ad0b3c	0.08744546065012754
180	0x3fb80fc2019b18f2	0.09399044551091487
181	0x3fabaa9d552e247d	0.05403606095121292
182	0x3fb1aa73b295f745	0.06900714025502193
183	0x3fa765bfba348bbd	0.04569815776837725
184	0xbfa7cfe3abc6db8e	-0.04650794479260077
185	0x3fb0840f2c9ee122	0.06451506461496995
186	0x3fb8b3e1bac607dd	0.09649477777386957
187	0xbfa86ae8c7b38c31	-0.047690653207404295
188	0x3f9648f1672d4a4e	0.021762630388659603
189	0x3fa00c22b8647536	0.03134258747943834
190	0x3faa8f8c340aa158	0.05187643180153384
191	0x3fb8984e3e130c41	0.09607399955261632
192	0x3fb10f6dc7362d0b	0.06664167512478884
193	0xbfb239978314bf30	-0.07119128179760703
194	0x3f87d00551502172	0.011627236885048051
195	0x3fb40b3ae5295f9c	0.07829635710493082
196	0x3f9e4283fd100a09	0.029550611801832747
197	0xbfbfce82098222bb	-0.12424481136452929
198	0x3fa556705908840f	0.041675101154631126
199	0xbfaa7ae7ad178841	-0.05171894061983596
200	0xbfa5ad1f07ac4990	-0.04233643501915474
201	0x3fb22db293426382	0.07100978942106731
202	0x3fbad636652a6e03	0.1048311230646775
203	0x3fb701a3209e3cda	0.08986873194065784
204	0x3fb9f10727f6adec	0.10133404470132462
205	0xbfcb1aa0b552da26	-0.2117501149529783
206	0xbfbcceca6587af55	-0.11253037432441933
207	0xbfaf319a151701c2	-0.060925307344863025
208	0x3fb85777fe336b99	0.09508466678691575
209	0xbf86d96fa20c4783	-0.011156913883983105
210	0x3fada0920dfb10ab	0.05786568089163898
211	0xbfab862809349ee9	-0.05375790703175005
212	0x3f854f73632eb44c	0.010405446495349711
213	0x3f800522be3c639b	0.007822295599497589
214	0xbf9cc6cafcdf4ac5	-0.028102084812256196
215	0x3fc24655e483de65	0.14277146966900314
216	0xbfb0197b95d312ec	-0.06288883598160638
217	0x3f8fa7555432b5ef	0.015455881721517321
218	0xbfb86febe8319f78	-0.09545778673930083
219	0x3fb5cf0fee0b3381	0.08519076882948974
220	0x3f9f416b7bf4b1a4	0.030522994461692612
221	0xbf8d304f25ab831e	-0.01425229867658256
222	0xbfa60d5919139e32	-0.04307058745490301
223	0x3fc01e9595e330f8	0.1259333593246834
224	0xbfa6e794b4d1e030	-0.04473557193063049
225	0x3fc03ec91bcd1267	0.12691606385682805
226	0x3f9ba025e113224a	0.026978103506538433
227	0xbfa8003cc502ad4d	-0.046876811074379
228	0x3fb211c20ae74c7d	0.07058346525382038
229	0xbfc2a7152bec37e8	-0.14572395939506966
230	0xbfa8e787ebbf773b	-0.04864144089491026
231	0x3fc4905b66709009	0.16065542699755067
232	0x3faa45f6c750c7f4	0.05131503279734764
233	0x3fb1b78bf803d9fe	0.06920695118956385
234	0x3fa0bd260c52e614	0.03269308948933883
235	0x3f8ba69a86b7c7e6	0.013501364933265547
236	0x3fad1b7c94e425b1	0.056850331473536804
237	0x3faa533a68eaa191	0.051416230494683586
238	0xbfb6bee332aa6534	-0.08885021197274484
239	0xbf869ac88dad14dc	-0.01103741342888969
240	0xbfa40a5d83db3357	-0.03914158091138258
241	0x3fb2845bad729228	0.07233212456282756
242	0xbfa657930f86bb70	-0.04363689007310867
243	0xbf9de20169030acf	-0.02918245509568856
244	0x3fc2d903a5b05a44	0.14724774923588957
245	0x3fb41bcfefee3168	0.0785493813293151
246	0xbfb9c9674e07ed9b	-0.10072942404797518
247	0xbfaceff032fd32b2	-0.05651808378624902
248	0xbfb437b0f90e0b96	-0.07897478180352233
249	0x3fb3046e4dbb7fe0	0.07428635976566467
250	0x3fbe49946894b045	0.11831023743860765
251	0x3f9ca447ab0bba6c	0.027970428290183966
252	0x3fbc0b4c37dc4fd7	0.10954738963874831
253	0x3fbf3f2e9c518cc1	0.12205783192034671
254	0x3fbbbdbd97384ef5	0.10836396161931446
255	0x3f854241c60ff62a	0.010380281311877477

stacks.0.blocks.0.backcast_linear_layer.bias f8 [10]
0	0x3fa34f333ff3911c	0.03771362453133717
1	0x3faf0bdc93bee7e2	0.060637372050635255
2	0x3fb18ada4995282a	0.06852497383548042
3	0x3f9512862e7d6607	0.020578476512445956
4	0x3fc57632040129fb	0.16766953654798997
5	0xbfb74c9796ce3f65	-0.09101245338228876
6	0xbfbb2b1f4bdb9ee5	-0.10612674333571766
7	0x3fbc92f64852d2aa	0.11161746278487308
8	0x3fbdee8607414f26	0.11692083050848776
9	0xbfba013fb1ea62c3	-0.10158155530587991

stacks.0.blocks.0.forecast_linear_layer.weight f8 [2, 64]
0	0xbf9c327f42122571	-0.02753638115658447
1	0xbfadbac06c1b42f4	-0.058065427013962806
2	0xbf98ca97c69bb776	-0.024210330483519248
3	0x3f94932ecec45395	0.020092707986879416
4	0xbfa3864edc304f77	-0.03813406408167357
5	0x3fa6d877dd9ea85b	0.0446202714950494
6	0x3fb5f11046ccc328	0.08570958832275422
7	0xbfb215dec3b53867	-0.07064621236824707
8	0x3fa50b15e9f848d4	0.04110020142629059
9	0x3fbb2382afc172fc	0.10601059714231192
10	0x3fad9d46f3bd4050	0.057840554478958084
11	0xbfad3d908ecfac09	-0.057110326226244075
12	0xbf91cfbbb219bcee	-0.017394001717943412
13	0xbfb80e58c2944d15	-0.09396891355963917
14	0x3fb771a2314c1dab	0.09157766059444465
15	0xbf91f3642bbaf8f1	-0.017530026597108287
16	0xbf7c7472d5df42c4	-0.006946991516046001
17	0xbfb21eca62c01459	-0.07078232680221798
18	0x3fb91eb78b242fd7	0.09812495371824013
19	0x3fb11526d4c6562e	0.06672899908729654
20	0x3fb131d038a792be	0.06716634162109877
21	0xbfae91d0a6b7e34b	-0.05970623049865383
22	0xbfadd236f59fc631	-0.05824443577138217
23	0xbfb36426a8d6698c	-0.07574693319330644
24	0x3fb56a053bf14809	0.083648993620301
25	0x3fa39ae3ffe8b15a	0.038291096676718
26	0x3fa47ae6ff1b8960	0.04000017036539094
27	0x3f999c43d5108f96	0.02501016605323477
28	0xbfa72ab9b6b1662a	-0.04524784426821456
29	0x3fa7ce6b486e7f34	0.04649672755408432
30	0x3fb7e91bd24bc308	0.0934007061403116
31	0x3fb0e4b7649c2f7d	0.06598993498135815
32	0x3fb96b96a55684e0	0.09929791962214862
33	0xbfb2bdd30926004e	-0.07320898984289778
34	0x3faaccd70f8c2c40	0.052344055793661415
35	0x3fa872db382ab982	0.047751284223852344
36	0x3faff90499d0bbdd	0.0624467313540362
37	0x3f92939f32288227	0.018141257702270288
38	0xbfa6348b21c33525	-0.04336962496891265
39	0x3fb3131630344fe8	0.07450998951782106
40	0x3fba735b52506cb8	0.10332270393012066
41	0xbfa47710f28cbf09	-0.03997090302288881
42	0xbfa8963520ff42c4	-0.04802099254414352
43	0x3fc08fd39b6d3034	0.1293892392080821
44	0xbfaa69997d80904a	-0.051586910791485766
45	0xbf8fbe8f076becf2	-0.015500180639256265
46	0xbfb13cd19d5f237e	-0.0673342713554472
47	0xbfa828e95abc53dc	-0.047187130285386764
48	0xbfb3c80a9bfd84ca	-0.07727114017827144
49	0xbfb63edd82915617	-0.08689674794853662
50	0x3fa6efeec236d674	0.04479929085520676
51	0xbf380d985bbf5fd1	-0.00036702127158383136
52	0x3fbaa3fa4761bcde	0.10406460039824902
53	0xbf971aa45dd933d7	-0.022562568882040637
54	0x3fb3129e8a017ec4	0.07450285786898819
55	0x3f50e8cc1df5797a	0.0010320657091465722
56	0x3fa2ea3e600d526f	0.03694338724622958
57	0xbfa560f3125441c2	-0.04175529097313159
58	0x3fb2cdd248e6b370	0.07345308570684295
59	0x3fa1283f06b36845	0.03351017910763735
60	0x3fb7b5c5c27c994d	0.0926173782178001
61	0x3fa5385cc04db433	0.0414456352944871
62	0x3fb9eb9fb7ce1e10	0.10125158536367729
63	0x3fb7a3ef7f9ebb31	0.09234520784114576
64	0x3f8abeba42841096	0.013059096484092241
65	0x3fc004f882cee93d	0.12515169512864502
66	0xbfaad2492beb546b	-0.052385603533971224
67	0xbfb018193f0a660b	-0.06286771573140741
68	0xbfa40babf5399bf5	-0.03915154808492353
69	0xbfb78da951305996	-0.0920053313460357
70	0x3fb58e906ab2d418	0.08420660595841445
71	0x3fa0801c8b32bafa	0.032227413169826094
72	0x3fa5ba2a4c5014c9	0.04243595296433395
73	0x3fbad5a0a6ad0f19	0.10482219762075963
74	0x3fad336d980e6f90	0.057032990275927564
75	0xbf969e94969f7d29	-0.022089311307238155
76	0xbfb0e3df5d5ce4aa	-0.06597705869070816
77	0xbfb6404cf1124da9	-0.08691864858183486
78	0xbfbb18a779d8c3a2	-0.10584494328283126
79	0x3fbc5263a9bc86ba	0.11063216108280019
80	0xbf88125cf63b248e	-0.011753774895071591
81	0xbfa5a145c8f84063	-0.04224603727573208
82	0x3fb8c1b6edbcaf70	0.09670584968688245
83	0x3fb108f18bd8fbdb	0.06654271759269596
84	0x3fb10242037afc0f	0.06644070229502595
85	0xbfb383d219f24edb	-0.07623017438373429
86	0x3f9948dbcd728715	0.024691996016037516
87	0xbfb3b64188905558	-0.07699975570752338
88	0x3fb59aee2b55a163	0.08439529951067963
89	0x3fa390bfb7e88524	0.038213721465817835
90	0xbf98b2b2aba7fb02	-0.024119178511678115
91	0xbfb8b6e58ad5b708	-0.09654078139803002
92	0x3f7bc7868ebdbdae	0.006782079330022324
93	0xbfb0a8133f2f31c9	-0.0650646237620044
94	0x3fb776adec713225	0.0916546537639041
95	0x3fb0c96e39adf0a6	0.06557358654203202
96	0x3fb8e3c428d71d0c	0.09722543713643378
97	0x3fbcdf0a2acd1fe2	0.11277831597283197
98	0x3fac4d0582d19a95	0.055275127619826815
99	0x3fa839f4b73040f3	0.04731716858089099
100	0x3fb023bb7ebc4076	0.06304523319363561
101	0xbfaa46005579b35a	-0.05131531756783288
102	0xbfb5563bb9a95b5d	-0.08334706576111502
103	0x3fb376167eae7a30	0.07602062790690733
104	0x3fba666a667dd81a	0.10312523843990143
105	0x3fbc6317176014d4	0.11088699646650763
106	0xbfa8fc25fed5ba61	-0.04879873977448735
107	0x3fc08e410856e700	0.12934124858093554
108	0xbfa703e39dfc112a	-0.044951546702608106
109	0xbf8fbc19f067258e	-0.015495493554129405
110	0xbfa612a238b9b6d5	-0.043110913681500364
111	0x3f651781c9430ad2	0.002574685562735859
112	0xbfb40f0fe56dfbdb	-0.07835482932385622
113	0xbf8520c66e557cf6	-0.010316419832348416
114	0x3fa5f9eeb048b7da	0.04292245771317456
115	0x3f77864557421691	0.005743285048202333
116	0x3fbacc882558635a	0.10468340789556177
117	0xbf96d3e8d2c9641d	-0.022292745461843667
118	0xbf9a0332a6e9abb9	-0.025402823865458866
119	0x3f892f1be12c5986	0.012296884354822134
120	0xbfa8ab8f71f62bf9	-0.048183901463822516
121	0xbfc118ceda01a562	-0.1335695805058022
122	0x3fb2b9ff5b6e1fda	0.07315059644872637
123	0x3fa21286cb1e2d10	0.03529759625879525
124	0x3fb761254f1864d9	0.0913260763267262
125	0x3fa734b70ef4d252	0.04532405908176841
126	0x3fb9e762b4539dab	0.10118691351418956
127	0x3fb6ff97fb4f4261	0.08983755002487605

stacks.0.blocks.0.forecast_linear_layer.bias f8 [2]
0	0x3fa01df9f14ddabf	0.031478701311177464
1	0xbfa87f5e5e05ff63	-0.04784674546954084

stacks.1.blocks.0.layers.0.weight f8 [64, 30]
0	0x3fa9658608a84b9f	0.04960268836671066
1	0xbfbc03a3aa613e17	-0.10943053159393688
2	0xbf83acaea94b0f87	-0.00960670904294837
3	0x3f61b7d40070c73f	0.002162851396428161
4	0x3fa0711288d64856	0.032112673953762425
5	0xbf7643b43aa83bae	-0.005435661335026971
6	0xbf7842c0de622683	-0.005923035996724504
7	0xbfa0e9f84805430e	-0.03303504828602942
8	0x3fa7cbdac39be48e	0.04647716176800386
9	0x3f77e429b3bedd27	0.005832827471685043
10	0xbfb07e78d723dc7b	-0.06442981007045205
11	0x3faebbaf387b091a	0.06002566875896971
12	0x3fb0fb5f818f9f51	0.06633564866171794
13	0xbfb872e6601fc420	-0.09550323340205624
14	0xbfb2d019a12667a0	-0.07348785576178196
15	0x3f7bd7aad6a7bd31	0.006797473276022801
16	0xbfa481e5cfd9069e	-0.04005354082302158
17	0x3fc52a6bb886b0ea	0.16535707960191043
18	0x3f9513b857c0b015	0.02058303866958518
19	0xbfb555668fbb280d	-0.08333436020907943
20	0x3f95c0d7ef761623	0.02124345206313739
21	0xbf9fb1b73c19abd4	-0.03095136932681071
22	0xbf90cbf84676dbfb	-0.01640308313445969
23	0xbfaac85384b6f6a6	-0.05230961794903281
24	0xbfc097386020bd93	-0.1296148747801281
25	0xbfba60de568c2004	-0.10304059613201849
26	0x3fb61b18a679e698	0.08635095657691705
27	0xbfb4b9485a0dde75	-0.08095218847835801
28	0xbfcc08e91573421d	-0.2190219263780059
29	0xbfd0241271ac24e7	-0.25220166302513153
30	0xbfc163eccab8544a	-0.13586196802558198
31	0x3f5cc960fb47351c	0.0017569968305111766
32	0xbfa43370b7202bb3	-0.03945495829983461
33	0xbf9c528eed5440de	-0.027658684955043415
34	0x3fbe7d467d61b547	0.11909905015064225
35	0x3f9de1da95b33687	0.029181876551595678
36	0xbf87c5a3fea00ee3	-0.011607438285870802
37	0xbf83856656a45830	-0.009531783598998173
38	0xbfa80ddc199e01d0	-0.04698074162206789
39	0x3fb4789ffe82e289	0.0799655910840419
40	0x3fa595e2d1d8b264	0.042159164539360444
41	0x3fbec90cb30f04e5	0.12025527354764483
42	0x3fbda951bb3944c4	0.11586485691920517
43	0x3fb7ba97b8f6005f	0.09269092813156153
44	0x3f907d52ff43e0fc	0.016103073911808416
45	0x3fa19bd41035375e	0.03439200113153505
46	0xbfb2a39ab5b3ff79	-0.07280890403853658
47	0xbfb0f4acf801e7ff	-0.0662334542738847
48	0x3fbc63150e973c17	0.11088687521190398
49	0x3fa59005243a5dac	0.042114411041605265
50	0xbf835ca228ad1bff	-0.009454028002108926
51	0x3fbffa278a045110	0.12491080398132604
52	0xbfb50bb3146fed36	-0.08220977066951182
53	0x3faa873ba7ea32a1	0.051812996146599184
54	0xbfb2c20e674d0eeb	-0.07327356359479224
55	0x3fa9ea9c28eb6a16	0.05061805724627193
56	0xbf9c344c770e87a9	-0.027543253676078603
57	0xbf732b931eccba96	-0.004680227936474287
58	0x3fc7d180e33d3ba0	0.18608103843368173
59	0x3fb5c9ca2badfc5e	0.08511031690976398
60	0x3fae6500c715c101	0.05936434202419783
61	0xbfa1d372c1058075	-0.03481634718150498
62	0xbfa1f318cb598513	-0.03505780679985029
63	0x3fa967e8239c1e33	0.04962087092104319
64	0xbf923e8f34abb269	-0.017816770162357196
65	0xbf77e424dafd9d46	-0.005832809416325196
66	0xbf8b838f656bb84f	-0.013434524805657015
67	0xbf87b862a489e6cd	-0.011582155844041786
68	0x3faa64b53fd85004	0.05154959110601001
69	0xbfa0fe23a49f1d07	-0.03318892845669024
70	0xbf917784cbd06a02	-0.017057490291430007
71	0xbf6145653498cf25	-0.0021082855862689814
72	0x3fb65d72596fcf5c	0.08736338313593478
73	0xbfbe805546f59d64	-0.11914570791633633
74	0x3f7131df033a0877	0.004197951453195007
75	0x3fa7a4fcbbc0878e	0.046180627745584166
76	0xbfb0ac2cca941a75	-0.06512718148960935
77	0x3fb3f1f43bfb3e7e	0.07791067566290086
78	0xbf94bced4f06f22d	-0.02025194926112499
79	0x3f76f8a6dece9edd	0.005608226620928494
80	0xbfa10d1aecbb8de7	-0.033303109548594105
81	0xbf754e84d0fb89f2	-0.00520183450109578
82	0xbf9755a4413e2646	-0.022787634355643037
83	0xbfa9ef71a1cd72a0	-0.050654936791692196
84	0xbfb52e8e00f75bc1	-0.08274161838140427
85	0x3fa13bfbad3225fb	0.03366075982291857
86	0xbfbc4ae16c8238bd	-0.11051758669984486
87	0xbf80dc2488e0a700	-0.008232388903781196
88	0x3fc2c0db0fe007e5	0.14651048922684065
89	0x3fe05d027eda7372	0.5113537290195451
90	0xbf9c4452426b0f90	-0.02760437517532882
91	0x3fb1c9d0ad0fb0b8	0.06948570466164739
92	0xbfb62651a50b37bf	-0.0865222003878605
93	0x3fb8296721d03957	0.09438175750276422
94	0xbfb95db3f01d1cd5	-0.09908604252005955
95	0x3f913849991401dc	0.016816282241963396
96	0xbf95a2fed24f4cd7	-0.021129590593614047
97	0x3fba520f7dcedb45	0.102814644064762
98	0xbf8f56622873c97e	-0.015301482066637059
99	0xbfaaa453b2e3cea2	-0.052034965121405166
100	0xbf96fe6fa3e1adb1	-0.022454971673523342
101	0x3fa6ae1cb2f179ce	0.04429711994520212
102	0x3f6e79830c7dd779	0.0037200507685452547
103	0x3fa250d3ba91af35	0.03577291157202326
104	0xbfc0de682c26e7a2	-0.13178732066972737
105	0x3f95e802a71f5b51	0.02139286179575645
106	0x3fbc3dc7bd4c64c8	0.1103176915315941
107	0xbfc2b307f6b547ba	-0.14608859583182526
108	0x3fbb42b64a419983	0.10648669541260429
109	0xbf9b95fd3183ff0b	-0.02693935026854803
110	0x3fb564d534486a7c	0.08356983686864256
111	0xbfb5dd78149a31e6	-0.08541059973703788
112	0x3fc0f664416ec7c6	0.13251927561719706
113	0xbfbcb9333034ed21	-0.11220092703745312
114	0x3fc1e420c1a29730	0.1397744126781446
115	0xbf7b18f86673af4e	-0.0066156104214590405
116	0xbfa14d42a200bfff	-0.03379257419180703
117	0x3fc5eec6aba855bd	0.1713493669673606
118	0x3fa7ccc21274d241	0.046484055283518184
119	0x3fcbf5d5a3d7e2d6	0.21843977451478364
120	0x3fba02e53be7ac8e	0.10160668098949285
121	0xbf95a89d1242688b	-0.021151022185769846
122	0x3fafda0518fa3f69	0.06221023492719164
123	0xbfb79869954316f2	-0.09216937917798498
124	0x3fa3f6f956821e98	0.038993636903851214
125	0x3fb2c461b0aabeaf	0.07330904544027804
126	0xbfb730580a14601e	-0.09058141943057804
127	0xbfb2985b3e4265e4	-0.0726372744560631
128	0x3fb2b23ee354a133	0.07303231287062743
129	0x3f8f1df3e62c6743	0.015193849050365698
130	0xbf9fe7b8ac6e0cf8	-0.031157384418759343
131	0xbfb5298b54a462a3	-0.0826651651044679
132	0x3f8b7126d30dacdc	0.013399413410033416
133	0x3fbd2476e6112084	0.11383765332095847
134	0x3fbc29405429c968	0.11000444464460701
135	0x3f9f96a41adb0795	0.030848087443480294
136	0xbf97e36785c6f657	-0.023328416385757524
137	0xbfb468fa15c8c519	-0.07972682029573654
138	0x3fb62a77868b9e6b	0.0865854934196421
139	0xbfc2877f52453e45	-0.14476005093682623
140	0x3fc4e96886a8418a	0.16337305617390668
141	0x3fb037c50ff65e1b	0.06335097922998793
142	0x3fb684247f7e46c1	0.08795383560780136
143	0xbfae6f125197cc51	-0.059441158733442585
144	0xbf8200f6a7f2534a	-0.008790900230715732
145	0x3fc58de1834dc6b5	0.16839236174887665
146	0xbfb2769fd7e10a98	-0.07212256451115662
147	0x3fce7e3a465fb38d	0.23822716175291384
148	0xbfaf0d6be1b55199	-0.06064927225330336
149	0x3fcf021b142d46fd	0.24225176320265254
150	0x3f67d185edd27117	0.00290752561575237
151	0xbfb04c6a9ec7a8a6	-0.0636660230299265
152	0x3f82c336d5969ff9	0.009161404030990626
153	0xbfbf247712b1d8ab	-0.12165016371168018
154	0x3fa2d7fe4967a7b1	0.036804148159560575
155	0xbf95a51c13b625bf	-0.021137655928702644
156	0x3fba36ecacb576f6	0.10240058151745388
157	0x3fb624a999a77e30	0.08649692536663944
158	0xbf9611d6c6056235	-0.021552425228352063
159	0x3f9d740cbae4a3c3	0.028763007075358404
160	0x3f9af7058f5a19e0	0.026332938074597467
161	0xbfb9f663ba071260	-0.10141585628213923
162	0x3fb46f0ff016b545	0.07981967555561649
163	0xbf97587ff703b272	-0.022798537684979477
164	0xbfb52cfa290b15e4	-0.08271754743608245
165	0xbfc73e3b743dace8	-0.18158667732072975
166	0x3fbd08e9e3bf77d5	0.11341726122142799
167	0x3fbd2f759fe7e99c	0.11400542406037179
168	0x3f6061957c1f9f4b	0.0019996566415904408
169	0x3f72d152a2c4c93b	0.004594157024529639
170	0x3f985b9d046d8786	0.023786977191214052
171	0xbfa279d363b36f58	-0.03608570663501948
172	0xbfb0c04dacf52a28	-0.06543431732749438
173	0xbfb953baf460745a	-0.09893387285451763
174	0xbfcd4ae827275407	-0.22884847556875362
175	0xbfc01d2c5504bb50	-0.12589029456418155
176	0x3fbded5053bf85c0	0.11690237087852662
177	0xbfb8adca51d32fa0	-0.09640182969741184
178	0xbfca23e32d98ead7	-0.20422019697601598
179	0xbfa056d8da987cfe	-0.03191259067920703
180	0x3faf093713777d12	0.06061718094474079
181	0xbf68f2a2e5c3360e	-0.00304538551254186
182	0xbfc149296c2302a7	-0.1350452211390991
183	0x3fc2407183243dc9	0.1425916567172705
184	0x3f5d09f8258b2a15	0.0017723964030432794
185	0xbfc2a920e0a9270e	-0.1457863900162057
186	0xbf915c4b2548617c	-0.01695363440566798
187	0x3fbdce59be1d1393	0.11642990962452719
188	0x3fa94db195e9e145	0.049420880842208116
189	0xbf90eedffbc74b8b	-0.016536235563602324
190	0x3fc062226ab72356	0.12799482546531732
191	0x3f9ff0aa1a4347d8	0.031191499569849984
192	0xbfc531e7d8160e24	-0.16558549929696753
193	0x3fc23d765069eea2	0.14250067640738445
194	0xbfb963b9a308fe23	-0.0991779349360447
195	0xbf91cc8657f13803	-0.01738176261670078
196	0xbfb1e2d4c3ce149d	-0.06986741810222204
197	0xbfc228978126773d	-0.14186376386799707
198	0x3f9772ff4e195a9f	0.022899617330348062
199	0xbfb147e1de9d4226	-0.06750308689994053
200	0x3fbd62b3f4ebd12e	0.11478733758469126
201	0x3f9fcc96d37a691e	0.03105388322601598
202	0x3fa3ceb130dbcd28	0.03868631097238967
203	0x3fb1333637985140	0.06718767983722262
204	0x3fb1fbe3352e639a	0.07024974869126624
205	0xbfba15833731c72a	-0.10189075562973629
206	0xbfc4cc4196a8d3be	-0.16248340469760864
207	0xbfc7341283e593fd	-0.18127662124894064
208	0xbfb30b04947eb506	-0.07438686967244132
209	0xbfc1444b8e4e0927	-0.1348967022750653
210	0x3fc0fc81fd6f8270	0.13270592570099238
211	0xbfc48ca83c3f3068	-0.16054251615276205
212	0x3fb8fb2ecb2836a4	0.09758274516954174
213	0x3fbc6e8f019f2e56	0.1110619906386828
214	0xbfb9f80e5e3e8b0b	-0.10144128609549001
215	0xbfaf99333be5dc86	-0.06171569925475588
216	0x3fb246feabc120aa	0.07139579480383654
217	0x3fb701933d1f59db	0.08986778490302731
218	0x3f81838cd9e8e09b	0.008551693344188307
219	0xbfba407fd93e159f	-0.10254668287060163
220	0xbfb5e3aefe99f31a	-0.08550542560437827
221	0x3fa10eb39ac14b56	0.03331528915500452
222	0xbf80c63d03d8b5f5	-0.00819060962666194
223	0x3fc448a60eb3e4d7	0.15846706121354856
224	0x3faaaff6a3c38de4	0.05212374447890136
225	0xbf7f634209d6ed93	-0.007663019144668398
226	0x3fbcc205abdfa168	0.11233554311877969
227	0x3fb285261618a5d2	0.07234418906650511
228	0xbfb9a9f37cca23af	-0.10024949833508744
229	0xbfbca61e1cad26a4	-0.11190975380045615
230	0xbf80fa9c079cbc44	-0.008290499670321812
231	0xbf94b947a6669eb4	-0.02023803666239017
232	0x3facddc51e276ce1	0.056379470759304835
233	0x3fc7eec689a9496b	0.1869743511366083
234	0xbfc060f70b3e4f01	-0.1279591374301319
235	0x3f75a9b1324e91a4	0.005288784192917371
236	0x3fbce2891cf769ca	0.11283165890873828
237	0x3fca2e0cca511b22	0.20453033331633558
238	0x3fa29006869374df	0.036255077293142916
239	0x3fd35fc7859a2117	0.3027209095676126
240	0xbf7b1f4cd2c2d2a7	-0.006621646967847872
241	0x3fa41b66419c0048	0.0392715411271643
242	0xbfb38c43f4e3f615	-0.07635903099795656
243	0x3f8da110a6543424	0.014467363429981069
244	0x3fb47d90b2bca9f2	0.0800409733171035
245	0xbfb22f04950bbe8e	-0.07102993620696393
246	0xbfaff34e3bd3a1d5	-0.06240314941698314
247	0x3fa77ff7904b1296	0.04589818607704392
248	0x3f98747a06ca4300	0.023881823219713105
249	0xbfa0750ebbea9b21	-0.032143078269021304
250	0xbf9d9a10b4b7334e	-0.028908024816519266
251	0xbfae23fb75b200ef	-0.0588682728930524
252	0xbf8e6999e3b69d53	-0.014849855672607026
253	0x3fa69fc7ac297a59	0.04418777443492123
254	0x3f8265610ab03fef	0.008982427729307544
255	0xbf81a4178581ced8	-0.00861376167470189
