darts_logs/2022-11-19_13.01.17.739549_torch_model_run_5752/checkpoints/last-epoch=0.ckpt (torch, 318132 bytes, 44 tensors)

stacks.0.blocks.0.layers.0.weight f8 [64, 2]
00000000: 99d1 ab30 a935 ddbf 689e 49e7 02bc d93f
00000010: 0000 0060 7f60 e0bf 0000 0000 9103 e4bf
00000020: df42 eca1 d891 e23f 85d0 cbe0 9136 d13f
00000030: 0000 0000 9c34 b4bf 0000 0000 00dc 9ebf
00000040: 0000 0080 ec2c e6bf 0000 0000 1021 7f3f
00000050: e895 ec3d 9358 e03f 006d b98b 92af b2bf
00000060: f3c8 108e 1540 ae3f 2fed 48e6 81c0 db3f
00000070: 0000 0000 2488 b5bf 0000 0040 4753 e2bf
00000080: 5622 32d2 cbfc b43f d9cd fc23 b9f8 e43f
00000090: 4df3 a1cf 285a d73f 8558 5f13 bdf1 e3bf
000000a0: 32ec 5422 dd6f afbf a296 51e0 9984 d73f
000000b0: f356 1cc2 c2c9 afbf 2b05 9e18 6cc7 ca3f
000000c0: 856b 90ba 0b43 d5bf 52c2 f16f af9b d53f
000000d0: b368 a607 6536 debf 0969 a402 f953 b53f
000000e0: e506 d004 d94d e1bf 6149 79d0 6412 cdbf
000000f0: 74d6 4d94 511b d13f 04d4 9f92 d9f4 df3f
00000100: 5126 22b3 b711 e1bf 7cab c441 41a2 e4bf
00000110: 561e 4406 1335 c43f 0000 0020 e480 dabf
00000120: 639c 1320 a094 c0bf e896 0780 8845 cc3f
00000130: 030d 022b c7e7 ddbf b4d5 72c3 8e11 e43f
00000140: 73b6 e3ef aa65 dabf 5611 cfa8 49b0 e63f
00000150: 70f4 5aa5 c62c e13f d8b9 bdb7 b897 ce3f
00000160: 8414 7440 22e5 d33f b14d 0823 f59e e3bf
00000170: e717 bdb8 d673 e2bf 8674 f123 8516 e53f
00000180: 9bea 7e9e 39ab df3f a200 7a67 912a e13f
00000190: 0000 0080 16d8 c8bf 0000 0020 6527 dabf
000001a0: 7f2b d889 79c3 723f 4d33 7d82 af9d de3f
000001b0: c1dd 2f1d d447 e5bf 5217 1a53 e696 df3f
000001c0: 535c c043 0f0e e1bf 0b63 560d bd9c e23f
000001d0: 33a0 bb69 8bbe cfbf ce5b f7ac c929 d63f
000001e0: b03f e114 801c e3bf 52fd 4569 2533 db3f
000001f0: 0f57 3385 3fef 87bf 7d36 7d74 59b4 e53f
00000200: 56c8 65cf 5d61 dfbf 5900 21d9 c853 dbbf
00000210: 637e ec24 f8fd d13f 981b d341 f99f e7bf
00000220: 0000 00c0 0680 e6bf 0000 0060 534d e6bf
00000230: d41b b67d 5770 e3bf 7373 3681 2ca9 c43f
00000240: 0000 0060 97b8 dcbf 0000 0080 d548 cbbf
00000250: 0000 0080 98a3 c6bf 0000 0000 b94e bc3f
00000260: 6a12 7d07 cdce cdbf 4ea2 ce12 9741 c1bf
00000270: e0dd 2ba1 74b3 ddbf 7634 a7cf 172d dbbf
00000280: 70c7 5944 e59e e6bf 309d 6f03 1af0 a23f
00000290: caf1 1c01 decb b3bf 77f5 41f4 65e5 e43f
000002a0: 231d 0cef ce21 c5bf c95d d2e2 0255 dc3f
000002b0: 3816 0d86 6cc8 e4bf daf5 9746 b7df d23f
000002c0: 142b 263e b2c5 e3bf 1f1a a9a8 7335 d4bf
000002d0: 795e 50dd 1e0d c23f ee13 fb08 300c db3f
000002e0: 1001 2a10 be7e d13f c089 b911 ffc9 e03f
000002f0: db9b f9c7 3205 e63f 90af f5f5 7b9c e4bf
00000300: 1751 56b2 6694 d23f 8df7 f066 cc39 d7bf
00000310: 0000 0000 603d 9fbf 0000 0000 0408 d4bf
00000320: 9ea3 5a8d 86cb e7bf 0dee 08a4 acea e4bf
00000330: a7c0 b2a4 16fa e0bf 1696 0196 7b8d c83f
00000340: f779 a9c1 4ec9 e03f 6cfd c7fc 80bd e4bf
00000350: 0000 0000 cf18 c8bf 0000 0040 f0f4 e1bf
00000360: 57d7 6d58 e1a9 d43f 7252 af66 6e5a d73f
00000370: 3491 6b07 cc8b 4b3f b51d 31fa efdd c1bf
00000380: c4ef 24c0 e5d4 d53f 0c7a 6567 6b44 adbf
00000390: 6300 1ad9 75f2 d3bf 145e aeee c605 debf
000003a0: 279c 2179 f1d5 d33f f1fd 8b91 72d6 d3bf
000003b0: 912d 163a 54ee e2bf 0133 35b8 7ec0 c93f
000003c0: e82e eee2 d8a7 de3f 0962 c982 1532 d93f
000003d0: fc5f a2ac cba8 e13f 65ae 3c16 b288 b1bf
000003e0: 0000 0040 caf4 d9bf 0000 0000 0667 a23f
000003f0: d09d 9163 9abd cbbf 1217 9c73 30c5 e23f
-0.4564002013496747 0.4021003016154965 -0.5117794871330261 -0.6254353523254395 0.5803034937435675 0.2689556784891994 -0.07892775535583496 -0.0301361083984375
-0.692983865737915 0.007599890232086182 0.5108123979049966 -0.07299152289617794 0.059082673637378756 0.4336247204662013 -0.08410859107971191 -0.572665810585022
0.08198236352667129 0.6553617194062397 0.3648778941786091 -0.6232591036193901 -0.06140032810295572 0.36746832758067616 -0.062086187548784276 0.20921088411345443
-0.3322171518245159 0.3376272767264129 -0.4720699858386396 0.08331257166392815 -0.5407528966900058 -0.22712383441337194 0.2672923992425702 0.4993194515112125
-0.5334127901744045 -0.6448065075431795 0.15786969953500102 -0.41411688923835754 -0.1295356899856613 0.22087198497245386 -0.4672716064453228 0.6271432702403019
-0.41245530535420655 0.7090194985435498 0.5367158155055574 0.23900517436727742 0.3108602170398813 -0.6131539997317558 -0.5766404731918983 0.6589990331664388
0.49482574918844485 0.5364462872530746 -0.1940944790840149 -0.40865448117256165 0.0045809505077255555 0.47837436431000385 -0.665018136030021 0.4935851871053859
-0.5329662631292059 0.5816331158158347 -0.24800245917072203 0.34630052462801764 -0.5972290427980536 0.42499671249966753 -0.011686798336465935 0.6782653117349607
-0.4903177762381622 -0.42698880390162725 0.28112605672683894 -0.7382780347478386 -0.7031282186508179 -0.6969391703605652 -0.6074635939884225 0.16141277608121704
-0.4487665593624115 -0.2131602168083191 -0.1768675446510315 0.11057621240615845 -0.23287356248524144 -0.1348141519386154 -0.4640780996264464 -0.42462725905063026
-0.7068964323973272 0.03698807994788422 -0.07732951666998314 0.6530027170808087 -0.16509424850685503 0.4426886763626184 -0.6494658106027549 0.29490453618913437
-0.6178828443383702 -0.31576243849522884 0.14102540785164644 0.42261887433079337 0.2733607442715007 0.5246577593027766 0.688134565902938 -0.64410207785612
0.2903076879095052 -0.36290273716792215 -0.030507564544677734 -0.3129892349243164 -0.7435944329091517 -0.6536467746549889 -0.5305283753168809 0.19181771111031826
0.5245736868344569 -0.6481327950604459 -0.188257098197937 -0.5611497163772583 0.32286866794253427 0.3648944857389217 0.0008406397090224061 -0.13958549229049103
0.3411192299279231 -0.05716262471354491 -0.3116736049778465 -0.4691026049490301 0.30993305997111736 -0.3099638387065787 -0.5915928968910739 0.2011869811489291
0.47899458085224333 0.39368188640722274 0.5518549319995141 -0.06849206011673344 -0.4055657982826233 0.035942256450653076 -0.21672372686155805 0.586570955085991

stacks.0.blocks.0.layers.0.bias f8 [64]
00000000: 2239 fee0 c18e ca3f 0000 0040 1900 e3bf
00000010: edac 20f9 ec24 ccbf 0000 0000 3bde d9bf
00000020: 0000 0000 81eb e5bf 0c9b 465c 6b2e dabf
00000030: 96f1 0320 ac2a e53f 0000 0000 a0fd b7bf
00000040: 4690 85d5 064a d63f 7b6f 8620 7acb cf3f
00000050: c7c9 a230 9828 db3f 4033 2d90 3fd4 e43f
00000060: 1660 2a43 ce67 db3f f51c 08b1 031f bc3f
00000070: 6b2c 8dcf 6e73 dc3f c38f 3f38 08d4 aabf
00000080: 8f80 2892 fb4f e43f 30c5 08e0 60a6 d5bf
00000090: 2e23 eee3 b72e a13f 022f 7743 17b1 e0bf
000000a0: e89c 55d6 0484 dabf 205f 192a 8079 c33f
000000b0: 6fc7 60ae 8b3c d23f f70a 179b b259 e4bf
000000c0: acda b5e2 2a35 c5bf 0000 0000 5a8b b6bf
000000d0: 0db7 fdc8 b33e e33f 179e ef74 f54e dfbf
000000e0: 361b be5a 85f6 ce3f b33d 29de 7f83 d63f
000000f0: 696c dcf0 d4c0 d5bf 2400 b535 d063 e5bf
00000100: adfd cf35 35ed da3f 77ec d539 86d5 d4bf
00000110: 0000 0000 202f c7bf 5671 6631 b51e d7bf
00000120: 0000 0080 3a9c ddbf 0000 0080 ddf4 e3bf
00000130: a3b9 a307 faa0 cc3f 05ff ae28 32f0 da3f
00000140: 0080 617b f4ce d93f 91f5 9a8e 09de d23f
00000150: b872 49a0 f9fc cfbf 2414 2ced 9e7c 933f
00000160: 338d 59c7 8096 b03f f032 b2c4 c2de 98bf
00000170: e6fe a9fa a4b3 de3f 4a34 60b2 fda4 df3f
00000180: 399b 7e17 f7da d03f 0000 0080 6040 c4bf
00000190: d74f 7de6 5cde cd3f d013 f724 b655 c33f
000001a0: ae6b 976b ef45 ccbf 0000 00c0 861d cbbf
000001b0: 5db4 6a57 7dff b5bf a469 cc26 2f67 da3f
000001c0: 6400 0118 26e1 d33f 2399 4d95 a9b1 d53f
000001d0: 7b3d 6ccc 9cdc d4bf 7d07 56ae 4215 c73f
000001e0: 7c38 cbe7 8ec7 d83f 8455 6014 a2a5 b5bf
000001f0: 0000 0080 9bff d8bf 1f09 5791 9bfe c73f
0.20748160825719092 -0.5937620401382446 -0.2198768822139309 -0.404188871383667 -0.6849980354309082 -0.4090832139140026 0.6614590287495499 -0.09371376037597656
0.34826823093158443 0.24839712703839809 0.424352691169727 0.650909215540743 0.428210797873818 0.10984824249327459 0.44454546230981035 -0.05239892660736658
0.6347635130550929 -0.3382799327692565 0.033559557508004864 -0.5216175382315387 -0.41430779391380534 0.1521454053461122 0.2849454119597032 -0.635949423704317
-0.1656850440010279 -0.08806383609771729 0.6014040876013681 -0.48919426364452206 0.24189822130957744 0.3517760915319414 -0.3398945190580834 -0.6684342431035515
0.4207280183327054 -0.3255324902344862 -0.18112564086914062 -0.361249254457808 -0.46266043186187744 -0.623640775680542 0.223662618379831 0.4209103963184904
0.4032565312281804 0.29480208326625595 -0.24990768744000547 0.019030078149644095 0.064796494168651 -0.02428726506745965 0.47971462706480705 0.49444525165092
0.2633645753325485 -0.15821462869644165 0.23334847692842572 0.15105320744456074 -0.2208842540120179 -0.21183857321739197 -0.08592971214484764 0.41254786290087453
0.3106169924176412 0.33896865444548235 -0.32596511805692047 0.18033631813528564 0.38718006740680955 -0.08455861089199429 -0.3906010389328003 0.18745750996283392

stacks.0.blocks.0.layers.3.weight f8 [64, 64]
00000000: 0000 0080 9cce a33f 0000 00c0 9a80 b0bf
00000010: ff1b 7fa4 c0f1 90bf 0000 0000 ec91 b6bf
00000020: 0000 0000 3328 b03f 139f 3d35 3d89 a4bf
00000030: 6897 ab5b 1bab b3bf 0000 0000 a804 6bbf
00000040: 9684 e416 5d98 b03f 3c04 cac4 a464 78bf
00000050: ff58 0442 8427 8c3f c25b bbf9 2330 a8bf
00000060: d9e6 6063 fb90 acbf 0000 00c0 e6e4 b6bf
00000070: 0000 00c0 f658 b3bf dcb0 d97f 37ba 9fbf
00000080: 2f9c 8d1e 48eb 87bf e04b 4514 8083 bebf
00000090: 0000 0080 f1e9 a33f 0000 0080 43d2 a83f
000000a0: 0000 0080 a5b2 a9bf 8f63 c719 8576 b4bf
000000b0: ea4c 2f90 b2a5 b23f 0000 0000 cba9 a8bf
000000c0: 4faf 71f4 f467 c0bf 0000 0000 c46a 9d3f
000000d0: 93e9 ee90 9538 76bf 0000 0040 74c1 bcbf
000000e0: 0000 0000 f3d4 b4bf c14e 5c8c a770 b83f
000000f0: 0000 0000 d010 52bf 0000 0040 1ae3 b73f
00000100: 9b03 766b 528f bbbf 0000 0080 eb36 bfbf
00000110: 0000 0040 fad0 b63f 0000 0080 24c4 b33f
00000120: 0000 00c0 a5ef b3bf 0000 0080 cd84 a93f
00000130: 0000 0080 c45e a9bf 0000 0000 0b5d 9ebf
00000140: 0000 0000 d495 84bf 26a8 726e 1ae5 a3bf
00000150: 0000 0000 5448 afbf 0000 0000 80e0 5b3f
00000160: 0000 0000 8c09 823f 0d4a 8831 0423 c2bf
00000170: a42e 30b7 cac6 bfbf 27fe dfd7 9f4a 9a3f
00000180: f230 3b8d 4d66 983f 0000 0040 76af bd3f
00000190: 0000 0080 942a a5bf 0000 00c0 4af5 b6bf
000001a0: de1a 408f a91c bbbf 0000 0000 a4a4 b63f
000001b0: 5c8f a947 d73e b5bf fca2 ab1e fdc8 90bf
000001c0: be23 ed54 6a4f 9c3f b420 3ec7 c61a 973f
000001d0: 547e ccb9 c850 9bbf 0000 0000 b4ea bdbf
000001e0: 1282 5e25 a52e aabf 081a 90dc 3fd8 773f
000001f0: 0000 0080 e6fc b3bf 5ffe 0e8f a782 9a3f
00000200: 14b3 78d8 f34b a7bf 0000 0000 1841 6ebf
00000210: 038b 60d2 ee7f 673f 0000 0000 b74a 953f
00000220: 0000 0000 fc92 9c3f a1a6 afb3 4575 b2bf
00000230: e692 c715 0a0a aabf 0000 0080 504f a6bf
00000240: 7195 be37 7d13 bfbf 8a66 f793 a3ff b8bf
00000250: 9c2f 2566 7325 c1bf e754 dbd4 7404 bdbf
00000260: 6be7 3241 4a13 733f b8ab 8bf6 47f7 9e3f
00000270: fbb5 40da 6962 85bf 96f8 bd1d fe27 b5bf
00000280: a0fe 014a 731e 68bf 7c06 3c35 325a a7bf
00000290: 41e2 a916 ddc3 b6bf 3800 1170 1efb 6b3f
000002a0: 114e b5a4 2aff b4bf abae 2b3c ac68 b43f
000002b0: edd1 ebea 02b1 bebf 8f25 33ca a564 bc3f
000002c0: 115c 35d3 25e8 b8bf 0000 0080 c583 a43f
000002d0: 51c2 d894 6811 c2bf d3aa 4ae1 95da b13f
000002e0: 3cae c10b 74c8 b33f f649 ee13 6234 b23f
000002f0: 8f7b 18f6 4879 b73f acbf db1a 6c4a a8bf
00000300: e3c7 6d6e feb8 a73f 8a91 a6a1 572b 83bf
00000310: 0000 0080 5139 b0bf e7f5 62b9 4e7d b1bf
00000320: 0000 0000 a2d6 993f 0000 0000 44f5 983f
00000330: 6926 1951 5c16 b9bf 9dc1 818f 0be4 ad3f
00000340: 1d29 bc15 ffda bbbf 04db 8cdb a62d b1bf
00000350: 6eec 648c 37ab ab3f 6643 7c5c ab5b bc3f
00000360: 6a0d cd49 24b6 bbbf b1c4 74e0 819e bcbf
00000370: 81ab 3ef9 6a96 843f e599 d619 bc12 b23f
00000380: e4d0 f4f8 33b2 8f3f 0000 0040 0701 b43f
00000390: 4636 d9bd 67b6 c4bf c02d 944f c4ea c3bf
000003a0: 4e74 1cdd 963b babf 0000 0000 9071 893f
000003b0: 9ea5 161b 81be 903f 81ad e6eb 13ef b03f
000003c0: 3fdd 560e 8cfc b23f be5a 104b 359d af3f
000003d0: dd60 da64 ea8d 51bf 2423 668f 8725 c1bf
000003e0: c2db 3982 6314 60bf 7a44 2d19 cf28 b0bf
000003f0: 0000 00c0 86cb b0bf 09f4 cf8f b3ef a13f
00000400: 1381 21d2 ce75 b83f 0000 0000 01d8 9c3f
00000410: 19f6 ebf9 b092 adbf 0000 0040 f4eb b7bf
00000420: 0000 0080 ac27 ad3f bb12 0ae2 454e b83f
00000430: cd59 6e46 44bd 553f 0000 0040 cd2d bdbf
00000440: 8d0a 6075 a647 b23f 5a99 7c72 2a90 923f
00000450: c744 1aea 0a42 b73f 85df 7b7d e605 c0bf
00000460: 17b6 35bf f79e a9bf 1695 65fc a156 a43f
00000470: e7b3 0149 a66f a7bf a639 97ea 5d4e a9bf
00000480: 82ee 9da8 e577 c3bf 3af0 2501 e22c bc3f
00000490: f161 ade7 3f9e b03f 6f1f 6d7f 4413 bdbf
000004a0: 8919 0fce 7201 a2bf 9b58 bdad b620 7ebf
000004b0: d7f4 0b3a 850c 79bf d11f 7d08 5598 b53f
000004c0: eea8 fd51 acd1 bcbf 0000 0040 7c5d bfbf
000004d0: 27fd 562a 4b95 9ebf 7c7e 7513 5466 873f
000004e0: aa21 9630 622b b9bf ffb2 a8d5 a010 babf
000004f0: 1e68 fe8f fe10 b73f a68a 8724 fa82 a2bf
00000500: bef0 e7cf ad78 c2bf 0397 6664 8160 623f
00000510: 0000 0000 0e0e a6bf 54f6 d5d2 6b90 a5bf
00000520: 0000 0000 e8ae 9a3f 0000 0080 d323 b3bf
00000530: 48e4 e5a3 205f b03f bea2 c628 98a9 c1bf
00000540: dacc 00a6 a46a b6bf 9aeb 576f dab5 bfbf
00000550: 1926 2ca5 6d57 bd3f 2c28 c6aa ac77 9bbf
00000560: 0000 0000 18b7 bb3f 17a1 6596 61f8 babf
00000570: 6c13 ac6b 8db5 ab3f 24eb 8fa3 bf30 a3bf
00000580: ef27 4796 112e 8dbf 0000 0080 0b16 acbf
00000590: 0000 0000 6c3e 883f eb7d 831d 9f4c 9b3f
000005a0: d9c9 067d 03a7 b83f 0000 0000 1aa1 b5bf
000005b0: 5ded c3e1 a8e8 b13f 591f ff55 7ae7 c2bf
000005c0: 13bc b3b5 dc2c b7bf 3095 afb3 efff bbbf
000005d0: 259b 7610 6d21 aabf 2763 df3d e162 5e3f
000005e0: a0a6 d86b 76ed 8d3f f2a8 c84c f0ca a6bf
000005f0: 0000 0000 f437 87bf 598a b155 1069 b33f
00000600: 5eee a319 9084 c2bf 0000 0080 d310 a23f
00000610: 435a feb7 a2d3 b7bf 0000 0000 72a7 b03f
00000620: 0000 0040 b916 b4bf dfe9 f4fc b7da b33f
00000630: 233c 0197 2f3d 89bf 0000 0040 726c b7bf
00000640: c6a6 5e0a ebdf 9e3f 27d8 71c8 731a 9bbf
00000650: 118a c865 a2d9 95bf 54b2 822b c9b8 aebf
00000660: a520 fb05 c063 9dbf 6dc3 f993 402c 99bf
00000670: 4e9d 659e 391e b5bf bb3a a1af 02de 973f
00000680: 961b 6f77 5e8e b53f 19cc d158 9c84 853f
00000690: 5644 4454 cc9c bb3f d933 4ea5 f0d8 babf
000006a0: 1f79 b160 c245 b43f bead 6952 ea94 b6bf
000006b0: 83ed 1fe5 1bb1 a23f 1a45 59b5 a02c b1bf
000006c0: e26e 0e08 ddea a53f 0000 0080 9ad6 ba3f
000006d0: 6ef2 49c0 1302 943f 939b 58e3 401b b13f
000006e0: 4d78 414e 205f 85bf 3f3b 97a7 e23a 91bf
000006f0: 0359 7801 cdfd 7abf 719b d8fc 2a39 c0bf
00000700: c18f 5444 9623 bebf b522 48da 26bc b3bf
00000710: 0000 0080 27c1 aabf e890 5147 3975 a83f
00000720: 0000 0080 a5b7 a83f 0000 0000 e2ce 973f
00000730: 6576 f495 014a a5bf c621 734f 353f b83f
00000740: cb92 b7c7 7332 b23f 2b88 144b 2974 863f
00000750: cac7 11cf 27b4 c0bf ca8c 3a75 ca21 993f
00000760: fc30 a273 f91c c2bf b380 6241 d15f bebf
00000770: ac8d 1131 7e13 87bf c8b9 6d29 bd2d b8bf
00000780: c911 681f cfc4 88bf 0000 0000 9001 5b3f
00000790: 4078 6cfd accd a03f 380f 6a1a d7d3 b3bf
000007a0: 457d 4a15 8755 b7bf 0000 0080 8639 b43f
000007b0: 4c34 5262 581e a0bf 0204 3f4c 38f0 b13f
000007c0: 1d67 648a 9b8b a7bf 772a cf35 74c4 a63f
000007d0: 8716 ded1 8f50 a2bf 3286 e20f 5ed0 bdbf
000007e0: 6f1b ad0d 3255 a63f 4c82 1955 a7b6 b9bf
000007f0: 0000 0080 c645 bcbf 8564 048c 41bf bb3f
0.038685694336891174 -0.06446234881877899 -0.016547212638922556 -0.08816409111022949 0.06311339139938354 -0.04010955119048112 -0.0768296335987465 -0.0032981187105178833
0.0648248844995741 -0.005955356242908268 0.013747246994665561 -0.047242283091399453 -0.055793624764601986 -0.08943025767803192 -0.07557623088359833 -0.030983798197142018
-0.011679233009728033 -0.11919403548135632 0.03889422118663788 0.04847918450832367 -0.050191089510917664 -0.07993347052923937 0.07284084339271471 -0.04817041754722595
-0.12817251144167094 0.028727591037750244 -0.005425056689029611 -0.11232687532901764 -0.08137434720993042 0.0954689710309209 -0.001102641224861145 0.09330905973911285
-0.10765566943702114 -0.1219317615032196 0.08912624418735504 0.0772116482257843 -0.07787548005580902 0.04984132945537567 -0.04955114424228668 -0.029651805758476257
-0.01005139946937561 -0.03885729406586362 -0.061098694801330566 0.0017014741897583008 0.008807271718978882 -0.141693615136845 -0.12412707302444886 0.02567529444786323
0.023827754731244384 0.11595858633518219 -0.04134048521518707 -0.08968035876750946 -0.1059061026318022 0.08844971656799316 -0.08299012660569133 -0.01639171123216253
0.027646695550433746 0.022563081656273368 -0.02667535432840247 -0.11686253547668457 -0.05113712388197568 0.005821465930245136 -0.07807770371437073 0.02588903246555529
-0.04550134675478126 -0.0036931484937667847 0.0028686203468323303 0.020792827010154724 0.0279044508934021 -0.07210193287724077 -0.0508578445040138 -0.04357387125492096
-0.12139113055180474 -0.09765074121914999 -0.13395540702401554 -0.11334924885462137 0.004657068307261851 0.03024017755789618 -0.010441615078970115 -0.08264148927807677
-0.0029442073574158095 -0.0456100168212403 -0.08892614177046544 0.0034156412589539074 -0.08201853295513951 0.0797221800709688 -0.11988847957019973 0.11091076075094562
-0.0972922936101528 0.04006783664226532 -0.14115626590639122 0.06974159956250085 0.07727742468858251 0.07111180292694272 0.09169441230959151 -0.047442796972858886
0.04633326623924441 -0.00936001264637622 -0.0633746087551117 -0.06831829095877816 0.025232821702957153 0.024373114109039307 -0.0979974458688503 0.05838047148506862
-0.10881037026061731 -0.06710284099686353 0.05404065693661485 0.1107737637323801 -0.10824801255971797 -0.11179362993131538 0.01005252431044368 0.07059836989228747
0.015476614031833376 0.07814069092273712 -0.16181656618066337 -0.15560201535877916 -0.1024717607328551 0.01242363452911377 0.01635171630701892 0.06614803799918968
0.07416606283265013 0.06174627820307908 -0.0010714329722870044 -0.13395781042006505 -0.0019628470925527617 -0.06312269558590514 -0.06560556590557098 0.035031901650633364
0.09554760580204329 0.028167739510536194 -0.057759790905020654 -0.09344412386417389 0.05694331228733063 0.09494435089625146 0.0013268629788619646 -0.11398012936115265
0.0714057957230045 0.018128073919024025 0.09085148063083458 -0.1251800644602065 -0.050040952769318796 0.03972345548644733 -0.04577369347757792 -0.04942601669937412
-0.15209646924255443 0.11005985763580464 0.06491469770606507 -0.11357524977677057 -0.03516730084770631 -0.007355416859203735 -0.006115456025097297 0.08435565430875093
-0.11257435800294832 -0.12252022325992584 -0.029866384944168402 0.011425644725647326 -0.09831823049729019 -0.10181622711452219 0.09010306373093654 -0.03615552612224819
-0.1443078293958759 0.0022432830039232922 -0.04307597875595093 -0.04211747120551182 0.026057839393615723 -0.0747654139995575 0.06395153047005053 -0.13798810950290447
-0.08756474545298279 -0.12386861055703804 0.11461530001192734 -0.02682370941469274 0.10826253890991211 -0.10535249635507103 0.054119510072303395 -0.03748129722222007
-0.01424802532064359 -0.05485568940639496 0.011837810277938843 0.026659475494737277 0.09629842569737636 -0.08448946475982666 0.06995635520791184 -0.14768914412547465
-0.09052829204641481 -0.10937402855741563 -0.05103627038925244 0.0018546294809224735 0.014613080183227212 -0.04451704919149958 -0.011337190866470337 0.07582189647795569
-0.14467049838991647 0.035284623503685 -0.09307305328398123 0.0650550127029419 -0.07847173511981964 0.07755613256168868 -0.01232373408870841 -0.09149850904941559
0.03015105486671279 -0.026468094929860932 -0.021338021719325143 -0.060003553925842695 -0.028700828900384185 -0.02458287146731968 -0.08249244801628672 0.023307840318291122
0.0842036286913824 0.010506841145092637 0.10786130006114666 -0.10487274204042708 0.07918944225955159 -0.08820976745635442 0.03650748416836349 -0.06708721568545109
0.042807490571446186 0.1048370897769928 0.019539173709278428 0.06682210493509748 -0.010435345066238133 -0.016826192358901478 -0.006589699557954856 -0.12674462648393672
-0.11773051422329585 -0.0770897181429387 -0.052254900336265564 0.04776934619511214 0.048276111483573914 0.02325013279914856 -0.041580247454686504 0.09471448125544332
0.0710823404875313 0.010963747600332216 -0.13049790964902136 0.024542964367935828 -0.14150922914667052 -0.1186495575552751 -0.011267648575261933 -0.09444792043152639
-0.012094133516264887 0.0016483217477798462 0.03281918138075968 -0.07745117564087145 -0.09114879865454835 0.07900276780128479 -0.03148151588639134 0.07007171498754874
-0.045986996310786156 0.044467574661742164 -0.03577088772639763 -0.1164606846600911 0.04361874024339484 -0.10044332339885748 -0.11043968796730042 0.10838708561313311

stacks.0.blocks.0.layers.3.bias f8 [64]
00000000: 02fe eef1 e234 c0bf 59ee 84e1 8e4f 963f
00000010: db75 8377 b695 c2bf 7270 c524 4205 943f
00000020: 7427 fe29 4eb7 a33f f656 c3eb e0c2 913f
00000030: cd10 e309 7c7c c0bf 1b3e 70a4 7d14 8e3f
00000040: f845 5863 566a 97bf be67 d3d8 16b5 b0bf
00000050: 0bc2 dbc8 cdfc b33f 73e3 89e1 eadb b43f
00000060: c728 05c2 f954 9bbf 0b84 a650 1cc2 aabf
00000070: 4532 c3f4 4020 b53f 3de3 9b89 3343 b7bf
00000080: a446 3eb9 c0f5 c9bf 7fce bf4d f67e a9bf
00000090: 0000 0080 f98d a8bf 7ce5 92e6 43fe acbf
000000a0: c3f2 3581 1d6d a1bf 94f9 a994 dae9 adbf
000000b0: 7437 6239 8026 b7bf d291 f1db fd03 943f
000000c0: 45bd d01d fddd a43f 9f92 1933 a0f7 b73f
000000d0: bffc eaf6 f54d 87bf 2a57 5608 0aac 9f3f
000000e0: cea1 f2f9 e8d1 aabf 3691 1e85 438e 9a3f
000000f0: c5e3 50f3 f40b b9bf 62ac 098e d0dc a13f
00000100: 7d92 f37e 63a8 943f 7b6a f5e7 ff8f b03f
00000110: 8c7d b798 06af a23f c2f3 f94b 52d3 97bf
00000120: c2b3 af11 9529 b23f 0ae4 8972 0e78 b7bf
00000130: 4bfb d1ba 231f aabf 7298 94aa 9e69 b53f
00000140: 5705 44e9 4d12 a0bf b3c8 c2c4 bd1b 9d3f
00000150: c70e 3dd1 de4f 7fbf 2fe0 27e0 96a7 a53f
00000160: 5ead 7969 bd60 61bf 13a8 545e 52e3 c2bf
00000170: efce d11a f362 613f 2ace 9713 64e1 a53f
00000180: bffe 1d2e 57f2 8fbf 4301 8544 90c6 af3f
00000190: 4828 b41f 7ca7 bcbf 6fb7 8bec 3acb aabf
000001a0: eb8a 4f53 1466 adbf 2579 69b8 3667 b33f
000001b0: e138 0231 1e19 b8bf 68a9 9e6f d9fd babf
000001c0: 4bc7 ca4b a5c6 9dbf ba8b 2c95 2f30 b83f
000001d0: 5f85 9827 4167 95bf eee4 4a03 dd92 b1bf
000001e0: 2f50 58ca bcd0 c0bf 9121 a1e9 0ea0 a2bf
000001f0: 7844 1673 4176 acbf f3b3 9cc6 c0b7 a33f
-0.12661396802103303 0.021787865175822627 -0.14519387088414146 0.019551309103335197 0.038507883668969095 0.01734496535285409 -0.12879896624338585 0.014687520581019567
-0.02286658269264838 -0.06526320260618854 0.0780762305619264 0.0814806748038686 -0.02669134375290907 -0.05226219639303772 0.08252340293547274 -0.09086916074364822
-0.20281228108483618 -0.04979676913344821 -0.04795818030834198 -0.056627389808862255 -0.03403560831336485 -0.05842478813882504 -0.09043122673958043 0.01954647688798323
0.04075613964993833 0.09362221953922266 -0.011379167173230063 0.03092971492659228 -0.05238273669357661 0.025933318138087823 -0.09783869686442788 0.03488780721530628
0.020173601745130377 0.0646972600274384 0.036491590635473775 -0.023267064940671885 0.07094699556155518 -0.09167566582063116 -0.05101882606049076 0.08364288010179324
-0.031389651036088644 0.0284261370986278 -0.007644529705263365 0.04229423033024237 -0.0021213244870545286 -0.14756230932226852 0.002122378171913179 0.042735221282694205
-0.015598946661838807 0.06206179462833685 -0.11193061613099176 -0.05233177316209391 -0.057419428987278774 0.07579366686102114 -0.09413326927662836 -0.10543593382923222
-0.029078085661871794 0.09448525802558452 -0.020901697198615007 -0.06864720659622822 -0.1313701618206564 -0.03637739755555736 -0.05558971910353078 0.03851129936661115

stacks.0.blocks.0.backcast_linear_layer.weight f8 [10, 64]
00000000: b1f0 818d 31b5 be3f 5333 1196 ba1b adbf
00000010: 0b78 7347 4e60 b7bf 8e98 980d 2abf a8bf
00000020: 3739 8ea6 be63 bbbf 7dd5 0531 98c1 b63f
00000030: 055a 3e5d 3501 b43f 0798 5a90 9172 c9bf
00000040: c5b0 b9f0 8d6a bfbf aad7 2816 2e1b b2bf
00000050: 4d3d 720e 4a21 c73f 2a00 7ae9 9cf0 a7bf
00000060: 0f42 1de0 70ce a03f 3689 8eea be20 c03f
00000070: 87c8 bd8e 9d2f 8abf 0510 2fff 8d70 91bf
00000080: 0293 addf 6896 ca3f 2dfa 4135 ff20 b43f
00000090: 0000 0000 5028 bebf 5758 d3de cc5f bebf
000000a0: 3bf0 323a bbff b13f 014a cce8 77d9 a6bf
000000b0: f111 0ba4 9b11 babf c437 1a3d 5ff4 b4bf
000000c0: 9299 6e72 6ea4 c43f b821 0d1c a439 c2bf
000000d0: 1b86 85ca ea4d bbbf 6b8f 5fad 047f b83f
000000e0: 1dbb 3518 b589 983f 74d7 45a5 87f5 66bf
000000f0: 2ec9 1ec3 c5ea 73bf d37e 6350 ad4a 72bf
00000100: 5822 fbaf 39d0 bd3f 6a68 6daa 8348 96bf
00000110: 34de 9b23 8726 bbbf fa98 fdb5 49a7 a03f
00000120: bf34 3054 aa56 b0bf b45e 11fb 1476 b93f
00000130: 6a59 ba99 648e b9bf f957 de2f 6bc0 a8bf
00000140: deba e3ab 586b 91bf 5f64 9290 94a1 adbf
00000150: 6af4 42a9 c9ce ad3f 6acf 5136 5252 c23f
00000160: d4d5 c2d0 62ad 983f cdb4 69c7 f94c b7bf
00000170: 0516 55a2 f524 963f b882 f87c 5c45 bb3f
00000180: ce95 72f0 4567 bbbf ff42 ba15 6783 bfbf
00000190: d503 dfae 4124 adbf a4c3 f7b8 cffd b7bf
000001a0: 89d2 f139 24b8 a2bf 810b 0c8b 371e b0bf
000001b0: 702a cf8c 45e6 acbf 9560 a623 caf7 95bf
000001c0: a5ee e5d9 097c bdbf bbc9 fb5f e645 93bf
000001d0: f06f 83b1 4fe0 903f eead ac9a 66b5 a7bf
000001e0: 0699 3c6c b7ec c43f 8153 7798 e570 b2bf
000001f0: c1bd 543a 2830 ad3f f10e 3a23 140a d0bf
00000200: 3613 930a 26c5 a83f a70a e2b0 a3d0 c13f
00000210: caf3 6eb1 43d8 b2bf 6e57 2b82 1882 b2bf
00000220: 7043 7949 829a bc3f df18 233d 2a43 8dbf
00000230: 1eec 8b86 b8bc 7a3f c4b3 aff1 c1f0 acbf
00000240: 9a22 06ea 2858 6fbf 9ea0 e6eb 064a 9dbf
00000250: 612d 6c52 2367 983f a31f c1ed d3d0 a2bf
00000260: d136 0342 e08a ba3f fe6f dacf c7e3 c03f
00000270: e7b4 6c62 e009 73bf b9df 15d0 8c4e ae3f
00000280: 9a93 0492 62f0 c13f 66f6 6f20 01c7 b63f
00000290: 0000 0000 44cc 8d3f aed3 c6b6 2ccd b13f
000002a0: 57fc 47e2 8044 b43f 1257 2371 ebdf aebf
000002b0: 206d 74b1 e62c ba3f 4c83 190a b8b0 bf3f
000002c0: 033d 4108 56d3 9b3f 8322 0917 d72b babf
000002d0: 36b9 b274 d0b9 babf 0017 adf0 fa80 af3f
000002e0: 200c caa6 f9d5 9cbf 0ef3 7e79 f62f a6bf
000002f0: d325 8169 92f0 a63f 8b4b 051e 4796 b43f
00000300: 18ab 3d0e e296 b13f a9d2 40a8 0f0c b83f
00000310: c1f1 b538 a9cf b2bf 0816 cca1 6da7 b2bf
00000320: bbf2 21a2 1661 98bf ef4c 934d dd5b a3bf
00000330: f6cc a659 0213 a2bf 8894 a0f4 c50d 86bf
00000340: 6bb9 5211 2fc5 be3f 0b28 33f4 d4f9 96bf
00000350: 7768 0c0b b91b bbbf 4c1a ff2f d4df b93f
00000360: 4c89 03a5 709e 493f ff0a 3c75 6947 bb3f
00000370: 9fd6 2da9 bd72 b7bf d964 4ca5 78d9 633f
00000380: 345f f198 48f2 8abf f1db cb46 753c afbf
00000390: d813 fef5 aa9a a63f fdbc 506b 527c 473f
000003a0: abc3 4e64 fd87 93bf 034c e229 9980 c33f
000003b0: b33c 1215 79f1 b03f c1b8 8a23 ba73 bbbf
000003c0: 9319 a49a 0750 bb3f 12ba 7976 5216 90bf
000003d0: 17ce 80a2 8185 c23f a292 82bc 411b abbf
000003e0: bd6f c4dd 60b9 bd3f fbf6 1919 592a a93f
000003f0: ab13 2f18 e76b 783f 0e3e c42a afc4 ccbf
00000400: dba3 6626 8ee0 a3bf 2fe6 68f6 58db bfbf
00000410: 8ae2 e396 14db b5bf 87e3 add0 af81 ad3f
00000420: a3ac 39cf d407 aa3f bf90 9cd5 3886 b5bf
00000430: 39df b6cf 5f57 a03f d2d0 c77e 26f7 923f
00000440: 0e2e 771a 9f08 bfbf 2450 bf3a 8bba b8bf
00000450: ef80 3d60 750c bf3f 3262 ba5c f311 c23f
00000460: b7fd e557 cac6 b93f 6dcb 9492 39b8 a43f
00000470: ec7c 39b8 8686 c03f 5a60 93ea f748 af3f
00000480: 0a8c c028 164a cd3f 3fdf a19d 0a7f b43f
00000490: 0000 0000 aaa8 9c3f 4204 b645 ac43 963f
000004a0: f151 9a04 0f49 c43f fab6 ed2c fa30 babf
000004b0: 7a10 1563 9ff6 c13f 954d dab2 915a aabf
000004c0: d5e2 7316 4fd6 ad3f 6265 1884 a1a7 c03f
000004d0: a2e0 6cc2 796c b73f 6bc9 c922 e9f6 b53f
000004e0: 2bdc f6bc e93b c13f 193a d9d7 62d4 b73f
000004f0: 8bf2 b795 0957 c0bf d6bf 7cea 31b5 b53f
00000500: 07eb 75d0 1223 a9bf 4217 a03a 414a a53f
00000510: 2db5 8758 7915 c43f 48ac 2a73 ff85 b93f
00000520: d0cb b973 3782 b3bf 1534 d5d8 0ec2 bf3f
00000530: be5d 04bf c90b 88bf f138 38b3 42e8 b0bf
00000540: a65c 6a84 68c8 aabf 7a22 6127 5b48 a43f
00000550: 587e f7b7 ed58 c23f 9103 82fc 514f b0bf
00000560: 02ae 7052 69cf b2bf 90fb a9e1 e832 973f
00000570: f064 de24 c46b b6bf 933c b33c a67d 83bf
00000580: 2624 f1c4 cc88 b03f 10a2 ae30 3a19 b53f
00000590: 47b4 8f73 15fe 333f feaf da6a 8e91 b33f
000005a0: c2e0 5d4f 9559 b33f 2b35 32da 1bf9 92bf
000005b0: 91fb 58bd bdf0 a03f e84e 8205 3073 963f
000005c0: 660e f98f a2f8 b03f 27f1 429b a909 a7bf
000005d0: ebe2 4c4b f999 c13f 0979 6e1a 88a4 b53f
000005e0: d018 ee14 8fc9 c13f f89c f4ec 9776 a8bf
000005f0: 2783 8d47 28a8 b53f 0cee c133 3374 413f
00000600: 6c6a 3de5 8907 89bf bcc4 05ad e10c 903f
00000610: 5a3f fba7 3a40 993f 394d c828 d0a0 c3bf
00000620: d7eb ccdf 10a7 b43f d609 77e0 2e7d ba3f
00000630: f250 ac65 b84b b33f 5df0 fa7f f9f0 d43f
00000640: 1df2 a09f 3b8f a0bf 916d 7747 d010 ba3f
00000650: 881f 7bc0 7c0a b9bf 6e18 cccf 404d b03f
00000660: 56f5 062a 64f0 99bf 4630 a6e1 542f 9a3f
00000670: b8f3 8716 4715 a33f e0c7 ebed 4fd2 973f
00000680: 99d6 57e6 1d2e d0bf cdcf bf33 3186 bfbf
00000690: 0000 0000 d3bb ad3f 107b 4ed3 2a31 bc3f
000006a0: 5600 8a5b b017 a53f d1bc 3493 a1c7 be3f
000006b0: 9101 26dd 5e0e ba3f 946e 0461 9e3b 71bf
000006c0: 2d1c ecc4 3cbe b03f d4b3 6167 b46c c1bf
000006d0: 3720 fe92 11e6 b93f fb63 b285 c21b bbbf
000006e0: 2015 90fe a26d c63f c43b cb2e 3890 acbf
000006f0: 51e8 b3a5 55a8 1fbf eb96 7f76 c339 a2bf
00000700: 109e ff80 4d17 6dbf 3fe3 0cd4 2feb bc3f
00000710: ca79 d75c e6b2 bc3f a9d6 7152 c820 bfbf
00000720: 0382 6eb7 770c a2bf 0764 2c6a f926 b0bf
00000730: d693 c19f 015b 82bf 0a91 26e8 a03c b83f
00000740: 761f 45b4 ca9c b63f 3b20 6ada 968d 89bf
00000750: a37f c6d4 3d3d b3bf e258 9f35 6aea 7bbf
00000760: ef1d 1df4 d30d b8bf 159f 2ab9 ed8e a8bf
00000770: 2503 fbbe 9379 9c3f 1da9 73ad e112 503f
00000780: fc4b 6e3f f341 93bf e914 9c15 efca 6cbf
00000790: 38f3 928a 3233 9d3f b5ad fbd6 5edb 983f
000007a0: a6dd 88b7 d6a4 a23f f14b 9cdd 6d75 bc3f
000007b0: 5cd8 d7af 308c c03f 5cbd e73c 6b37 b0bf
000007c0: 59ea ec9e 145e a4bf 2f97 3a9a 46e7 bf3f
000007d0: 4105 d69d 418a 78bf 41f2 4529 591c b33f
000007e0: 5717 601c 3fe2 bdbf 0a55 eb85 f052 7fbf
000007f0: e665 e86a e178 af3f 819b 9215 854f da3f
0.11995229439520717 -0.05685217935442801 -0.09131325954828655 -0.048333467635800806 -0.10699073377893319 0.08889151760907583 0.07814343954519394 -0.1988088564732495
-0.12271964194377734 -0.07072723427776731 0.18070340829261014 -0.046757606030041934 0.03282501922388203 0.12599932148902732 -0.012786131781215694 -0.017030924511132656
0.20771513864306007 0.0786284928344478 -0.11780261993408203 -0.1186492961890918 0.07030840083001604 -0.044627902190899967 -0.10183117632829643 -0.0818538211990179
0.16126804912091736 -0.14238406533901382 -0.1066576713979192 0.09568814499612947 0.023962812044767568 -0.002802624638372936 -0.0048625683866013025 -0.004465748794444574
0.11645851656352002 -0.02176099517542022 -0.10605663890225331 0.03252630564274912 -0.06382240825060402 0.09945803765855993 -0.0998289943039247 -0.04834303817112579
-0.017011056414896746 -0.05787338509362238 0.05821829024487431 0.14313724186251459 0.024098915092244003 -0.09101830595473644 0.02162536433504238 0.10652711916965074
-0.10704457397749609 -0.12309879570444691 -0.056917240711761664 -0.09371660486045968 -0.0365611382229974 -0.06296107430175192 -0.05644433349478539 -0.021453054834268476
-0.11517392701892477 -0.018821334465380462 0.016480679711875668 -0.04630585325352486 0.16347401413913348 -0.07203516933743793 0.05700803482102002 -0.25061515274158724
0.04837912444194219 0.13917966973175064 -0.07361243326063441 -0.07229760339700217 0.11173261922637123 -0.01428826331210725 0.006527634432809596 -0.0565243346717135
-0.0038262175659762978 -0.02860270323586233 0.023830940156626016 -0.036749480030777514 0.1036815797008004 0.13195130967221752 -0.004648090841141462 0.05919303932290582
0.14014846925524865 0.08897406618049217 0.01454976201057434 0.06953696691819175 0.07917027973597733 -0.06030212169723205 0.10224763710396134 0.12379026648114894
0.02717337060340431 -0.10223144829172708 -0.1043978009135785 0.06153091609898631 -0.028160000615127356 -0.04333467705825998 0.04480416810890699 0.08041805727888922
0.06870854232481027 0.09393403871292584 -0.07348115572489801 -0.07286725235106684 -0.023807862897671877 -0.03781024524655573 -0.03530127853755431 -0.010768457916194643
0.12019628689697519 -0.022437407879614606 -0.1058917667363931 0.10107160732068471 0.0007818269750965805 0.10655840980693297 -0.09159455662105608 0.0024230343209522384
-0.01315743176216664 -0.061008133785371295 0.04414877178991333 0.000716724628210402 -0.019073447463316445 0.15236200852504575 0.06618458523211039 -0.1072346054813549
0.10668990636268054 -0.01571015213124311 0.1446992915604006 -0.05294232774875708 0.11610989965669112 0.04915121489919546 0.005962279045836387 -0.2247523268529083
-0.03882259577523658 -0.1244407273851713 -0.08537415202943968 0.0576300565944115 0.05084099797826382 -0.08407931532980494 0.03191661272597774 0.018520928848332847
-0.12122530361300951 -0.09659643348942432 0.12128385161986775 0.14117280986535402 0.10068955083806129 0.04046802439042705 0.1291054152997967 0.061103579888084084
0.2288234423623126 0.08006349895901808 0.027987152338027954 0.02174252677423661 0.15847957348582 -0.10230983349694248 0.14033882463457187 -0.05147223766575874
0.05827567242699209 0.13011568975415871 0.09149895664893617 0.08579880809137357 0.13464090086719813 0.09308450479259313 -0.1276561718986112 0.08479606604373599
-0.0490957145184066 0.041582144171157256 0.15690533468970483 0.09970089494406509 -0.07620569777809227 0.12405484002847829 -0.011741233960988914 -0.06604401469687439
-0.0523102437629686 0.03961453300195657 0.14333888514282722 -0.06371033110373349 -0.0734773470182333 0.02265514256805151 -0.08758188152423307 -0.009517000892087324
0.06458740051415698 0.08241618813065821 0.00030506156650639656 0.07643976315256393 0.07558568179763639 -0.018528399651178844 0.03308670936939174 0.021923780761951145
0.06629386916125099 -0.04499559421808135 0.13751140763067524 0.08454180379201061 0.1389635898778523 -0.04777979629062118 0.08459712740797141 0.0005326509485849575
-0.012221410091730799 0.015674139199693057 0.024659077170155676 -0.15334512702302464 0.08067422355536223 0.10347264270880116 0.07537415010694185 0.32720792291707373
-0.03234278033821545 0.10181905503070811 -0.0978162736820406 0.06367878983664507 -0.025331082406173287 0.02557118060353527 0.03727171087300668 0.02326321496634154
-0.2528147458500399 -0.12314136041078357 0.058073610067367554 0.11012523325778667 0.041196356939509 0.12023362964531549 0.1017817773736225 -0.00420724741732283
0.06540279205010853 -0.13612990425045146 0.10116681898773626 -0.10589233173449479 0.17522084646058378 -0.05578780719007839 -0.00012076399564256545 -0.035596950736175824
-0.0035511506794028216 0.11296366621980967 0.1121047951378166 -0.12159397137460339 -0.035251370564996186 -0.06309470026134543 -0.008962643325682789 0.09467511813869947
0.08832995320437739 -0.012477091351016259 -0.07515322155677366 -0.006815352326120046 -0.09396099767501885 -0.0479654587300599 0.02780752995636528 0.0009810642130170862
-0.01880626749659696 -0.0035147351853789155 0.02851561518467635 0.024274331923988608 0.03641386976635923 0.11116682682431624 0.12927826486674376 -0.0633456252760331
-0.03978027763374276 0.1246227385077787 -0.005991226496349812 0.07465131051680719 -0.11673349802739828 -0.007647456687398755 0.06146912031199374 0.4111035071058993

stacks.0.blocks.0.backcast_linear_layer.bias f8 [10]
00000000: 175a cf03 faca 9ebf 069c c286 5665 babf
00000010: 04da 4570 74c4 22bf bae2 dbe2 0228 c53f
00000020: 13d9 36f2 ce88 ac3f 0af4 5b68 6ed8 663f
00000030: a132 562d 9394 c93f 8ebd d078 2676 c2bf
00000040: cb2f 6b87 2602 a23f 6b22 51e1 539e b93f
-0.03007116935972406 -0.10310879507106571 -0.00014318391198360491 0.1652835471829997 0.055731265132111706 0.0027887493514513516 0.19984664643961472 -0.14423066043080407
0.03517265704212454 0.10007213831807753

stacks.0.blocks.0.forecast_linear_layer.weight f8 [2, 64]
00000000: ada2 27ee 97cc 743f 7720 8937 350a afbf
00000010: f4f4 46f6 7c85 b83f 95d5 e453 d891 2ebf
00000020: e942 3a32 9a56 abbf a406 48f8 76eb b0bf
00000030: 11e3 37f3 50aa 58bf 6477 df55 0b80 173f
00000040: a45d f039 d409 a73f 61c0 f86f ac54 723f
00000050: aea0 63e0 17f6 223f 30a4 76f0 07ad 033f
00000060: b760 341e 69c0 a8bf 211c 2273 6150 b0bf
00000070: 4d0b 54d2 1a81 b83f c8bb 5671 f7ef b6bf
00000080: 0e4f 87e2 a8f9 2dbf 16c3 9eda 5350 b23f
00000090: 0000 0000 e4fe b23f 3348 2de3 5811 6a3f
000000a0: 1126 ae71 d207 323f 2741 e213 c64d a8bf
000000b0: 8667 85aa 60cf afbf ab26 43d6 0c80 92bf
000000c0: c4aa 4cc6 d64d a23f f881 7a69 ef0b b43f
000000d0: 916c 3710 f672 aabf 1f0a 4b08 5385 7fbf
000000e0: d205 bb57 8784 413f 699a c615 53a2 95bf
000000f0: 6314 b8b9 ff01 a2bf aab2 6e18 df43 aebf
00000100: be32 0c2f ac65 b0bf 2877 7096 49b0 ac3f
00000110: 1eaa 5960 e29d 00bf 39c7 58bd 513b a9bf
00000120: 0693 3267 31b2 73bf 90da 1bd6 302d b83f
00000130: fcc3 5e0e 6d74 b13f 8451 018c 2b86 b0bf
00000140: 6b2b 89d1 a81e 963f 5046 7a29 dad9 e43e
00000150: f216 c2cb 8dbf 453f 58f0 a0a5 4947 b9bf
00000160: 069f 3cc6 547a 803f af0d bdb1 9041 a33f
00000170: 6d60 aa7e e82d b5bf 94c8 1a46 07ca a63f
00000180: c495 b654 5033 8fbf a507 ca6d 13a9 9dbf
00000190: 006e 060c 2cfd b53f dd66 1418 5e01 8d3f
000001a0: fd81 4f8c e478 7ebf caf6 9be6 bb99 b53f
000001b0: 5cc2 f295 dce3 b23f 6254 544b d6e4 823f
000001c0: e78b 11a8 725d a93f a801 6965 96c5 9b3f
000001d0: 7bb9 f7c3 8351 93bf 829f 73fd 69bd 98bf
000001e0: 588d 2528 c9be 36bf 1227 7824 c98c a1bf
000001f0: b22b 1ca8 1977 b63f 9b75 dbfc 26f0 26bf
00000200: f0b7 5152 2137 b63f 83a5 2857 72f2 b6bf
00000210: f56b 74a5 be5a 913f 1c4c 84fa b551 fbbe
00000220: b540 fcee 3ef2 b4bf 69b3 8c1c 1fe6 b3bf
00000230: eafc 3bf8 4997 1b3f f026 c896 1de5 0bbf
00000240: 6786 6bed ebb6 b03f d97d 372b 99c8 76bf
00000250: 56cd a5c3 f4a4 173f 9f63 0100 de28 313f
00000260: b6fc 85f8 802a 8fbf 8583 70b5 9257 a13f
00000270: a672 a055 f536 b1bf 765e f69d a298 92bf
00000280: d844 e3f4 fa53 03bf 8116 454a 1427 ad3f
00000290: 0000 0000 20a2 b73f 3f1e 10c0 7b2d a63f
000002a0: 52fe 9af5 3b39 03bf 5286 8908 353f abbf
000002b0: bd43 f05a 9d42 b43f 954b 159f 3705 8cbf
000002c0: e767 3295 6b10 743f 06aa 3663 9b2b a83f
000002d0: f0dc e02f f8dd b33f 97a8 22f4 e60e b3bf
000002e0: b085 2cc8 8b1c 38bf 8e63 42c8 cd89 7a3f
000002f0: ca8b 637e c6a8 9a3f fa0d 956f 2bff b13f
00000300: 238a 9f45 bff2 7bbf 6fc7 1f90 0d85 a9bf
00000310: 661c dd8f a331 1dbf 1c73 2c2e b3e3 653f
00000320: c14e f7fd 9605 a23f e262 4bef 77c9 bbbf
00000330: 3443 8ab7 3c12 aabf 1b42 7b2e f9a2 63bf
00000340: e7f0 8696 868d aabf 5f53 b760 afa5 4f3f
00000350: c2e3 048a a2d8 503f e7f6 d328 dfba b43f
00000360: 0f84 c80b 6b4e b33f c4de a61d 438b b83f
00000370: e318 d5b4 9a55 a83f 8987 9fbc 9c2d b0bf
00000380: 37b0 daf4 48f9 91bf c73a 72a0 aa2c b03f
00000390: bf10 65fc d5bb 933f 34bc f364 ec7b 643f
000003a0: e532 0ceb 0b6d 93bf a198 2258 4572 a83f
000003b0: 2321 d511 c0b9 9c3f 48f4 e791 3036 a4bf
000003c0: 4b9e 4759 3fe2 91bf 482d e0ce 8247 693f
000003d0: 932a 33cf 74c1 8abf 6317 343a 3023 52bf
000003e0: 1cbd 185d 58b1 3fbf 504d d5aa be68 aa3f
000003f0: 0c63 ed7e 7145 a43f d282 fdc3 fc36 203f
0.005077928044990782 -0.060624754933599805 0.09578686726213786 -0.00023322835654375194 -0.0533950983345955 -0.06609290658527783 -0.0015054502990762867 8.964604555169797e-05
0.04499686438810649 0.004475282271911935 0.00014466325246265593 3.752880553104692e-05 -0.048342976510129025 -0.06372651158208999 0.09571998248069953 -0.08959909932194343
-0.00022869288046811108 0.07153820121198992 0.07420182228088379 0.0031820999223919565 0.0002751244334651968 -0.047468366553518763 -0.06212904054218797 -0.018066597535642142
0.03575011416099508 0.0783071167484265 -0.05165833423571898 -0.007695507378857629 0.0005345974782004442 -0.02112703152092835 -0.03517150060728438 -0.05911156819579351
-0.06405140064834833 0.05603246652047594 -3.169390769815573e-05 -0.049280695308324636 -0.004808609944267022 0.09443955638185231 0.06818276978334831 -0.06454727333158955
0.021601331509639204 9.94252449907081e-06 0.0006637041438046483 -0.09874401372593533 0.008045828151423528 0.0376095978704386 -0.08273175327701816 0.04451010447282147
-0.015234592042200464 -0.02896528585052462 0.08589434903699811 0.014162764654020272 -0.007439511075944425 0.08437704448803199 0.07378939305159221 0.009225534604903444
0.049541075721911736 0.02712092393835666 -0.018865641437451935 -0.024160057157956334 -0.00034706507735489866 -0.0342772347467656 0.08775482515572611 -0.00017500377582894692
0.08677871951815042 -0.0896369421758632 0.016947726105268363 -2.6053603194031117e-05 -0.08182137808421681 -0.07773012587558771 0.00010525120711334419 -5.320545719562735e-05
0.06529116197955319 -0.005562399211583601 9.019607469955745e-05 0.000261835288261342 -0.01521778829987706 0.03387125458562593 -0.06724484768387615 -0.01816038216710899
-3.686532601111244e-05 0.05693877607931786 0.09231758117675781 0.04331576079863141 -3.666605216556526e-05 -0.05321660737241686 0.07914145918063205 -0.013681826155026925
0.004898472066225046 0.04720769487478908 0.07760573548226879 -0.07444613895737216 -0.00036791241307029387 0.006479076230015658 0.02603445192734081 0.07029983019042865
-0.006823298603168246 -0.049843238681105066 -0.00011136589816117398 0.002672052346851207 0.03519889688655332 -0.10854291526937801 -0.05092038860778417 -0.0023970476939683245
-0.05186100566376855 0.0009657961213017477 0.001028212289453587 0.08097643610741621 0.07541531598737115 0.09587497209474366 0.04752810914446728 -0.06319598774964964
-0.017552509255139816 0.06318155686515602 0.01927122452731633 0.0025004975392373344 -0.01897066709630026 0.047746817597088105 0.028052331055080103 -0.03947593480186434
-0.017464628051952407 0.0030858568998205806 -0.013064301083791896 -0.0011070223779951697 -0.0004835930568302825 0.05158038936010689 0.039592310661367675 0.00012370906369609539

stacks.0.blocks.0.forecast_linear_layer.bias f8 [2]
00000000: 447a 7172 71c5 aebf b914 1756 3991 833f
-0.060100121708036386 0.009554336490405256
