darts_logs/2022-11-19_13.01.17.739549_torch_model_run_5752/_model.pth.tar (torch, 74610 bytes, 16 tensors)

weight f4 [64, 2]
0	0xbef11212	-0.470841
1	0x3ed4513a	0.4146822
2	0xbf0303fb	-0.5117795
3	0xbf201c88	-0.62543535
4	0x3f21f6eb	0.6326739
5	0x3ea72b5e	0.32650274
6	0xbda1a4e0	-0.078927755
7	0xbcf6e000	-0.030136108
8	0xbf316764	-0.69298387
9	0x3bf90880	0.00759989
10	0x3efa8ad2	0.48934036
11	0xbe1a7fcc	-0.15087813
12	0x3c9d9b00	0.019238949
13	0x3ef12046	0.47094935
14	0xbdac4120	-0.08410859
15	0xbf129a3a	-0.5726658
16	0x3dfef4b0	0.12449014
17	0x3f2f989d	0.68592244
18	0x3ed8bb4e	0.42330402
19	0xbf172482	-0.5904008
20	0xbdd319c0	-0.10307646
21	0x3eb3227a	0.3498724
22	0xbd26a210	-0.0406819
23	0x3e8080b4	0.25098193
24	0xbeab83f9	-0.33499125
25	0x3ea5c5d6	0.323775
26	0xbf124766	-0.57140195
27	0x3dbf6660	0.09345698
28	0xbf29a4a6	-0.6626686
29	0xbeaebd88	-0.34128976
30	0x3e9df0c2	0.30847746
31	0x3f02e32b	0.5112788
32	0xbf22d43d	-0.636051
33	0xbf2bdda8	-0.67135096
34	0x3e2cee80	0.16887856
35	0xbed40721	-0.4141169
36	0xbe3074f8	-0.1723212
37	0x3e5860d4	0.21130687
38	0xbf0dd180	-0.55397797
39	0x3f17a7db	0.592405
40	0xbeebe19e	-0.4607057
41	0x3f34cb29	0.706225
42	0x3f24e6e5	0.6441482
43	0x3e9242ba	0.28566533
44	0x3e6a4668	0.2287842
45	0xbf2b6eef	-0.66966146
46	0xbf1f74d8	-0.62287664
47	0x3f122ea1	0.571024
48	0x3f05cf3d	0.52269346
49	0x3f0dfc93	0.5546352
50	0xbe46c0b4	-0.19409448
51	0xbed13b29	-0.40865448
52	0xbbc79780	-0.0060910583
53	0x3ef204be	0.47269243
54	0xbf2ec003	-0.68261737
55	0x3ef71a2a	0.4826215
56	0xbf020174	-0.5078347
57	0x3f220189	0.6328359
58	0xbe77a112	-0.24182537
59	0x3eb48d52	0.3526407
60	0xbf1cda91	-0.61271006
61	0x3ed56b42	0.41683394
62	0xbda63720	-0.08115983
63	0x3f280203	0.6562807
64	0xbefe1d7e	-0.49631876
65	0xbe9fdd35	-0.31223455
66	0x3e483538	0.19551551
67	0xbf03269b	-0.5123078
68	0xbf340036	-0.7031282
69	0xbf326a9b	-0.6969392
70	0xbf1c27aa	-0.6099802
71	0x3e308b70	0.17240691
72	0xbee5c4bb	-0.44876656
73	0xbe5a46ac	-0.21316022
74	0xbe351cc4	-0.17686754
75	0x3de275c8	0.11057621
76	0xbe8fc548	-0.280802
77	0xbe997362	-0.29970843
78	0xbf100ea8	-0.56272364
79	0xbed7348e	-0.42032284
80	0xbf305207	-0.68875164
81	0xbd0169d0	-0.03159505
82	0xbdd9ecc8	-0.106408656
83	0x3f32671b	0.69688576
84	0xbe2b7d10	-0.16746926
85	0x3ef2d5ba	0.47428685
86	0xbf19f612	-0.601411
87	0x3e3a540c	0.18196124
88	0xbf1caf25	-0.6120475
89	0xbe8b97f9	-0.27264383
90	0x3df99e50	0.12188399
91	0x3ed9f702	0.42571265
92	0x3e49cf78	0.1970805
93	0x3f0b26f7	0.5435633
94	0x3f343e6b	0.7040774
95	0xbf25a3b8	-0.6470294
96	0x3ea4936a	0.32143718
97	0xbedac804	-0.42730725
98	0xbcf9eb00	-0.030507565
99	0xbea04020	-0.31298923
100	0xbf162d5b	-0.58662957
101	0xbed322e6	-0.41237563
102	0xbf0cadd4	-0.5495274
103	0x3d930a10	0.07179654
104	0x3ef8deae	0.4860739
105	0xbf1c208e	-0.60987175
106	0xbe40c678	-0.1882571
107	0xbf0fa782	-0.5611497
108	0x3ec77692	0.3895765
109	0x3ece9362	0.4034682
110	0x3d0e8920	0.03479874
111	0xbe0b4224	-0.1359945
112	0x3ee01ae2	0.4377051
113	0xbdb430b0	-0.08798349
114	0xbea90ea8	-0.33018994
115	0xbee5cf62	-0.44884783
116	0x3eb1941a	0.34683305
117	0xbe7f43ac	-0.24928159
118	0xbf191d75	-0.5981057
119	0x3e4c6730	0.19961238
120	0x3f1741a3	0.5908453
121	0x3ee9f1ee	0.4569239
122	0x3f1a6e27	0.6032433
123	0xbdbb7fb0	-0.09155214
124	0xbecfa652	-0.4055658
125	0x3d133830	0.035942256
126	0xbe67cf84	-0.22637755
127	0x3f1af373	0.60527724

bias f4 [64]
0	0x3e57c0e8	0.21069682
1	0xbf1800ca	-0.59376204
2	0xbe2365ec	-0.15956849
3	0xbecef1d8	-0.40418887
4	0xbf2f5c08	-0.68499804
5	0xbed6782b	-0.41888556
6	0x3f25a723	0.64708155
7	0xbdbfed00	-0.09371376
8	0x3eb90b8a	0.36141616
9	0x3e822676	0.25419968
10	0x3ec25eae	0.3796286
11	0x3f2ce45b	0.6753594
12	0x3eeee3ce	0.46658176
13	0x3de36938	0.11104053
14	0x3f0b8ed9	0.54514843
15	0xbb40f600	-0.0029443502
16	0x3f2a63e9	0.665587
17	0xbea79bd3	-0.32736072
18	0x3d4fe370	0.05075401
19	0xbef895b8	-0.48551726
20	0xbecdf7ae	-0.40228027
21	0x3e57c214	0.21070129
22	0x3e3bc2a4	0.18335968
23	0xbf32dcfa	-0.69868433
24	0xbe1d4b2c	-0.15360707
25	0xbdb45ad0	-0.088063836
26	0x3f26f9f9	0.6522518
27	0xbeea7cbc	-0.4579829
28	0x3ea667fa	0.32501203
29	0x3ebfb6e2	0.37444216
30	0xbeb20639	-0.34770373
31	0xbf25825a	-0.64652026
32	0x3f0448e9	0.5167375
33	0xbed33d81	-0.4125786
34	0xbe397900	-0.18112564
35	0xbeb354c9	-0.35025623
36	0xbeece1d4	-0.46266043
37	0xbf1fa6ec	-0.6236408
38	0x3e88a38e	0.26687282
39	0x3f037065	0.51343375
40	0x3ec721a6	0.3889286
41	0x3e81f3a4	0.25381196
42	0xbe3f0870	-0.18655562
43	0xbdb46220	-0.08807778
44	0x3d8246a8	0.06361133
45	0xbce46c00	-0.02788353
46	0x3ef7996e	0.48359245
47	0x3f05e485	0.5230182
48	0x3e5542ec	0.2082631
49	0xbe220304	-0.15821463
50	0x3e6fbde4	0.23412281
51	0x3dc2b118	0.09506434
52	0xbe9dbf41	-0.30809978
53	0xbe58ec36	-0.21183857
54	0xbc045bc0	-0.0080785155
55	0x3ee97e8a	0.45604354
56	0x3ed5bee6	0.41747206
57	0x3ecc4cfe	0.3990249
58	0xbea36bc0	-0.31918144
59	0x3e42fdd8	0.19042146
60	0x3ee46aca	0.44612724
61	0xbccce140	-0.025009751
62	0xbec7fcdc	-0.39060104
63	0x3dfc7ec0	0.12328863

weight f4 [64, 64]
0	0x3d1e74e4	0.038685694
1	0xbd8404d6	-0.06446235
2	0x3c997e68	0.018737033
3	0xbdb48f60	-0.08816409
4	0x3d814198	0.06311339
5	0xbcba74f0	-0.022760838
6	0xbd53e96c	-0.05173628
7	0xbb582540	-0.0032981187
8	0x3dc36378	0.095404565
9	0x3c74a2c0	0.014931381
10	0x3d435658	0.047689766
11	0xbb7e95c0	-0.0038846582
12	0xbcdd1020	-0.026985228
13	0xbdb72736	-0.08943026
14	0xbd9ac7b6	-0.07557623
15	0xbb83dd80	-0.0040242076
16	0x3ca36440	0.019945264
17	0xbdec156e	-0.11527525
18	0x3d1f4f8c	0.03889422
19	0x3d46921c	0.048479185
20	0xbd4d952c	-0.05019109
21	0xbd89295e	-0.06697343
22	0x3dd926e4	0.10603121
23	0xbd454e58	-0.048170418
24	0xbdfd6fe4	-0.12374857
25	0x3ceb5620	0.028727591
26	0x3cd37230	0.025811285
27	0xbde60ba2	-0.112326875
28	0xbda6a798	-0.08137435
29	0x3dea5848	0.114426196
30	0xba908680	-0.0011026412
31	0x3dbf18d2	0.09330906
32	0xbdc0ca50	-0.09413588
33	0xbdf9b75c	-0.12193176
34	0x3db687d2	0.089126244
35	0x3d9e2124	0.07721165
36	0xbd9f7d2e	-0.07787548
37	0x3d4c266c	0.04984133
38	0xbd4af624	-0.049551144
39	0xbcf2e858	-0.029651806
40	0xbc24aea0	-0.0100513995
41	0xbc8a56c8	-0.016887084
42	0xbd7a42a0	-0.061098695
43	0x3adf0400	0.0017014742
44	0x3c104c60	0.008807272
45	0xbdffa686	-0.12482934
46	0xbdef1814	-0.116745144
47	0x3d63e784	0.055640712
48	0x3d61a5d8	0.0550898
49	0x3ded7bb2	0.11595859
50	0xbd2954a4	-0.041340485
51	0xbdb7aa56	-0.08968036
52	0xbdb39908	-0.08769423
53	0x3db52520	0.08844972
54	0xbd4a6df0	-0.04942125
55	0x3a3b3900	0.00071419775
56	0x3d48309c	0.048874483
57	0x3d251240	0.040300608
58	0xbc2b8a90	-0.010470048
59	0xbdef55a0	-0.116862535
60	0xbd302e90	-0.043013155
61	0x3d09b410	0.033618987
62	0xbd9fe734	-0.0780777
63	0x3cf95f10	0.030440837
64	0x3ba28e20	0.0049607903
65	0xbb7208c0	-0.0036931485
66	0x3c02f890	0.007993832
67	0x3caa55b8	0.020792827
68	0x3ce497e0	0.02790445
69	0xbd9bef3a	-0.07613988
70	0xbbb054c0	-0.0053811967
71	0xbd327a84	-0.04357387
72	0xbdbf38bc	-0.09336993
73	0xbd651440	-0.055927515
74	0xbdc2241e	-0.09479545
75	0xbda15a96	-0.07878606
76	0x3d6366f0	0.05551809
77	0x3daeac5c	0.08528969
78	0x3d3639a4	0.044488564
79	0xbdada1a0	-0.08478093
80	0x3d758060	0.05993688
81	0xbd6378f4	-0.05553527
82	0xbd71be54	-0.0590194
83	0x3be800c0	0.0070801675
84	0xbda34916	-0.079729244
85	0x3dd9cfc4	0.10635331
86	0xbd8e0fea	-0.06936629
87	0x3dfe2ab4	0.12410489
88	0xbdc73784	-0.09727386
89	0x3d241e2c	0.040067837
90	0xbdef2722	-0.11677386
91	0x3da32c2c	0.079674095
92	0x3df3cc52	0.119042054
93	0x3df6e8fc	0.12056157
94	0x3dbff140	0.09372187
95	0xbd08c8a4	-0.03339447
96	0x3dd1b942	0.10240413
97	0x3ce24df8	0.027625069
98	0xbd81ca8c	-0.06337461
99	0xbd907374	-0.07053271
100	0x3cceb510	0.025232822
101	0x3cc7aa20	0.024373114
102	0xbd3fd74c	-0.046836182
103	0x3de52d0e	0.11190234
104	0xbd6fcfec	-0.0585479
105	0xbd081b74	-0.033229306
106	0x3d5c4744	0.0537789
107	0x3ded643a	0.11591382
108	0xbd55621c	-0.052095518
109	0xbde9ccd4	-0.11416021
110	0x3d589c98	0.052883714
111	0x3dfcafa8	0.12338191
112	0x3d8c576c	0.06852612
113	0x3da0083a	0.07814069
114	0xbde9248e	-0.113839254
115	0xbdbcc29e	-0.09216808
116	0xbdc2e310	-0.09515965
117	0x3c4b8c80	0.0124236345
118	0x3c8e9e68	0.017409518
119	0x3dfaafb6	0.122405455
120	0x3df636e4	0.12022188
121	0x3dfd4600	0.12366867
122	0xbc359e60	-0.011085123
123	0xbdad015a	-0.084475234
124	0x3d148e14	0.03626831
125	0xbd6a22c0	-0.057162046
126	0xbd865c36	-0.065605566
127	0x3d8a0ff4	0.06741324
128	0x3deb7b9a	0.114981845
129	0x3ce6c008	0.02816774
130	0xbd2c3440	-0.042042017
131	0xbdbf5fa2	-0.093444124
132	0x3d693d64	0.056943312
133	0x3dddc928	0.10829383
134	0x3cbcf580	0.023066282
135	0xbde96e6a	-0.11398013
136	0x3db270a8	0.08712894
137	0x3d39ef04	0.04539396
138	0x3ddf87ea	0.109145954
139	0xbdf82c26	-0.12117796
140	0xbcf049f8	-0.029332146
141	0x3d92dcd6	0.07171027
142	0xbc02e890	-0.0079900175
143	0xbd1f3e7c	-0.03887795
144	0xbdd94de6	-0.10610561
145	0x3dfe62cc	0.12421188
146	0x3da48cb0	0.080346465
147	0xbdfaa378	-0.122382104
148	0xbcf77b88	-0.030210271
149	0x3b869860	0.00410752
150	0x3cafa120	0.021439135
151	0x3d9ac980	0.07557964
152	0xbde47b8c	-0.11156377
153	0xbdfaebe2	-0.12252022
154	0xbcb616d0	-0.022227675
155	0xbb28f440	-0.002578035
156	0xbda545a6	-0.08069925
157	0xbdb5b944	-0.08873227
158	0x3dab0fa8	0.083525956
159	0xbd2ebd40	-0.04266095
160	0xbde2d484	-0.110756904
161	0x3cacd168	0.021095946
162	0xbd307070	-0.04307598
163	0xbda74cc0	-0.08168936
164	0x3cd57740	0.02605784
165	0xbd991e9c	-0.074765414
166	0x3dff22cc	0.12457809
167	0xbdd5f5b6	-0.10447256
168	0xbd36758c	-0.044545695
169	0xbdf2f276	-0.11862652
170	0x3df4a6a6	0.11945848
171	0x3b12d040	0.0022401959
172	0x3dddb8c0	0.10826254
173	0xbdba98ee	-0.091112
174	0x3d937f6a	0.07202037
175	0xbc81c7d0	-0.015842348
176	0x3c82f170	0.015984267
177	0xbd60b05c	-0.05485569
178	0x3c41f360	0.01183781
179	0x3d91a38e	0.07111274
180	0x3dfb3d34	0.12267533
181	0xbdad08d0	-0.084489465
182	0x3da8d8ea	0.08244498
183	0xbdf41982	-0.11918928
184	0xbd8e0812	-0.06935133
185	0xbdb812a4	-0.089879304
186	0xbcdf8fc0	-0.027290225
187	0x3cf200d0	0.029541403
188	0x3cf3fb20	0.029782832
189	0xbd02d7cc	-0.03194408
190	0xbc39bfa0	-0.011337191
191	0x3dbf6fdc	0.09347507
192	0xbdd3514c	-0.103182405
193	0x3d10869c	0.035284624
194	0xbda58178	-0.08081335
195	0x3d853b90	0.06505501
196	0xbda0b5ca	-0.078471735
197	0x3d401c24	0.046901837
198	0xbc7d55d0	-0.015462354
199	0xbdbb6392	-0.09149851
200	0x3d59d0d0	0.053177655
201	0xbcbfd9f8	-0.023419365
202	0xbcf4f998	-0.029904172
203	0xbd520818	-0.05127725
204	0xbcbc7f30	-0.023009866
205	0xbc7fd7f0	-0.015615448
206	0xbdb20574	-0.08692446
207	0x3ccca718	0.02498202
208	0x3dba642e	0.09101139
209	0x3b9d0be0	0.0047926754
210	0x3df5b8c8	0.11998135
211	0xbdafac5a	-0.08577795
212	0x3dc7be14	0.097530514
213	0xbd9a901c	-0.07547018
214	0x3d2f2538	0.042760104
215	0xbd6c5c18	-0.057705015
216	0x3d30e4bc	0.043186888
217	0x3dd6b4d4	0.10483709
218	0x3b108f00	0.002205789
219	0x3d91211e	0.07086395
220	0x3b6f8800	0.0036549568
221	0xbcbc8fe8	-0.023017839
222	0x3c84f640	0.016230702
223	0xbdf943d2	-0.12171139
224	0xbdf2ceb4	-0.11855832
225	0xbd88a5ac	-0.066722244
226	0xbd56093c	-0.0522549
227	0x3d01874c	0.03162317
228	0x3d45bd2c	0.04827611
229	0x3cbe7710	0.023250133
230	0xbd1a42a0	-0.037661195
231	0x3de16d2a	0.110071495
232	0x3d976fc8	0.073943675
233	0x3ce1bbb8	0.027555332
234	0xbdf58046	-0.11987357
235	0x3ccab118	0.024742648
236	0xbdea4532	-0.11438979
237	0xbdc777ec	-0.0973967
238	0xbb96c440	-0.0046010315
239	0xbdf010c6	-0.11721949
240	0xbb9702e0	-0.004608497
241	0x3ad80c80	0.0016483217
242	0x3d693e6c	0.056944296
243	0xbdab8e0a	-0.08376701
244	0xbd94ef62	-0.07272221
245	0x3da1cc34	0.07900277
246	0xbcc78668	-0.024356082
247	0x3da48982	0.0803404
248	0xbcf631d0	-0.03005305
249	0x3d553430	0.052051723
250	0xbd8793a2	-0.066199556
251	0xbdcdaa56	-0.100422546
252	0x3d465500	0.048420906
253	0xbde6fca0	-0.11278653
254	0xbde22e34	-0.11043969
255	0x3df7b20e	0.12094508

bias f4 [64]
0	0xbdc1c074	-0.09460536
1	0x3d9b55ae	0.075847015
2	0xbded3e64	-0.11584166
3	0x3ccd2208	0.025040641
4	0x3d845824	0.06462124
5	0x3d2b913c	0.041886553
6	0xbde1bf5c	-0.11022827
7	0x3b4943c0	0.0030710548
8	0x3bfd3140	0.0077268183
9	0xbd4b0f30	-0.04957503
10	0x3d994af4	0.07484999
11	0x3dce40a6	0.100709245
12	0x3c1a5440	0.009419501
13	0xbce66600	-0.02812481
14	0x3df3b5bc	0.118998975
15	0xbd83bcf6	-0.06432526
16	0xbdedb472	-0.11606683
17	0xbcd12fe8	-0.025535539
18	0xbd446fcc	-0.04795818
19	0xbc17cb50	-0.009264782
20	0xbcd4dc08	-0.025983825
21	0xbd0e7670	-0.03478092
22	0xbd80f7a2	-0.06297232
23	0x3c95ecf0	0.018301457
24	0x3d9e1b86	0.077200934
25	0x3de7fee6	0.11327915
26	0x3d108a38	0.035288066
27	0x3d946dee	0.0724753
28	0xbc4e0ad0	-0.01257582
29	0x3d85f748	0.06541306
30	0xbd8407a8	-0.06446773
31	0x3d9ecdb6	0.0775408
32	0x3d4b9124	0.049698964
33	0x3dad7e16	0.084713146
34	0x3d3486b4	0.044073775
35	0x3c827218	0.015923545
36	0x3df72270	0.12067115
37	0xbd76a71c	-0.06021796
38	0xbcc7f8f0	-0.024410695
39	0x3dfd66f8	0.12373155
40	0x3b2e7f80	0.002662629
41	0x3d14d538	0.036336154
42	0x3c0c3bc0	0.008559167
43	0x3db6291a	0.08894558
44	0x3bff1380	0.007784307
45	0xbde9b4d0	-0.1141144
46	0x3d192fc4	0.03739907
47	0x3da5ae56	0.080898926
48	0x3c355990	0.011068717
49	0x3dcd6da6	0.100306794
50	0xbdbab50c	-0.09116563
51	0xbd06f0b8	-0.03294441
52	0xbc894008	-0.016754165
53	0x3defdbfc	0.117118806
54	0xbd8d4924	-0.06898716
55	0xbda7d39e	-0.0819466
56	0x3c5036d0	0.012708381
57	0x3df68a2e	0.120380744
58	0x3cca3888	0.02468516
59	0xbd623980	-0.055230618
60	0xbd63d1ac	-0.05561988
61	0x37e06000	2.6747584e-05
62	0xbceb74d0	-0.028742224
63	0x3ca46e70	0.020072192

weight f4 [10, 64]
0	0x3ded7760	0.115950346
1	0xbd8bba70	-0.068226695
2	0xbd68c2f8	-0.05682656
3	0x3c012280	0.007881761
4	0xbdb90b76	-0.09035389
5	0x3db1bdcc	0.08678779
6	0x3c7ece60	0.015552133
7	0xbdb257c4	-0.08708146
8	0xbddc9d86	-0.10772233
9	0xbd8b0f24	-0.06789997
10	0x3dfd8204	0.12378314
11	0xbd2d9138	-0.04237482
12	0x3c9db290	0.019250184
13	0x3dac201a	0.084045604
14	0xbc957aa0	-0.018246949
15	0xbc1e2330	-0.009651944
16	0xbd9257a4	-0.071456224
17	0x3dc7492e	0.09730755
18	0xbdf14280	-0.11780262
19	0xbdedd13e	-0.116121754
20	0x3ddb95a6	0.107219025
21	0xbc9efe88	-0.01940848
22	0xbdfccd74	-0.123438746
23	0xbdb14570	-0.08655822
24	0x3dfba592	0.122874394
25	0xbdf75c2c	-0.12078127
26	0xbddc8cdc	-0.10769054
27	0x3dc3bf48	0.095579684
28	0xbd3c96e0	-0.046042323
29	0xb98c5a00	-0.00026769936
30	0xbc827888	-0.015926614
31	0xbd171a8c	-0.03689055
32	0x3dbbe954	0.09175363
33	0x3b572cc0	0.003283307
34	0xbde422e4	-0.11139467
35	0x3d000ec4	0.03126408
36	0xbd3b2c98	-0.045696825
37	0x3d8d450c	0.06897935
38	0xbddd6e08	-0.108120024
39	0xbdb9cc0c	-0.09072122
40	0xbcaf0f60	-0.021369636
41	0xbd841fbc	-0.06451365
42	0x3d3c98ac	0.046044037
43	0x3def903c	0.116974324
44	0x3d131fb8	0.03591892
45	0xbd94de56	-0.0726897
46	0x3b38bf40	0.0028190166
47	0x3dc86690	0.09785187
48	0xbdc60f40	-0.096708775
49	0xbdee3520	-0.116312265
50	0xbd94caea	-0.07265265
51	0xbd952014	-0.07281509
52	0xbd8f86fc	-0.07008168
53	0xbdfe6dca	-0.12423284
54	0xbcf89a30	-0.03034696
55	0xbcdcb858	-0.02694337
56	0xbde5ed7c	-0.11226937
57	0xbd58cf34	-0.05293198
58	0xbd81534a	-0.06314714
59	0xbdb9fa28	-0.09080917
60	0xbd430994	-0.047616556
61	0xbdbc5f32	-0.091978446
62	0x3d6e0cd4	0.058117703
63	0x3db53736	0.08848421
64	0x3d677590	0.0565086
65	0x3dfb57d6	0.12272613
66	0xbda2c1ce	-0.079471216
67	0xbcd668c8	-0.02617301
68	0x3dd4c308	0.10388762
69	0xbce98358	-0.028505012
70	0xbcaed658	-0.021342441
71	0x3bae6da0	0.005323127
72	0xbca74ba8	-0.020421818
73	0xbceebcb0	-0.029142708
74	0x3b0b6a40	0.0021273047
75	0xbd2b3008	-0.041793853
76	0x3da98d48	0.082789004
77	0x3de20ece	0.1103798
78	0xbc0365b0	-0.00801985
79	0x3d50f360	0.05101335
80	0x3d5a8120	0.0533458
81	0x3da32334	0.07965699
82	0x3c6e6220	0.014549762
83	0x3d6fda94	0.05855806
84	0x3da819dc	0.08208057
85	0xbd898f5a	-0.06716795
86	0x3daec66c	0.0853394
87	0x3db7bfe6	0.089721486
88	0xbc4a8460	-0.012360662
89	0xbdcbf824	-0.099594384
90	0xbdf8a35e	-0.12140535
91	0x3d69dbe0	0.057094455
92	0xbdb90efc	-0.09036061
93	0xbd6a013c	-0.057130083
94	0x3cf335b0	0.029688686
95	0x3d699900	0.057030678
96	0x3cdfe3a0	0.02733022
97	0x3dc9e7d6	0.09858672
98	0xbd9d5fdc	-0.07684299
99	0xbdb47da8	-0.088130295
100	0xbceb57a8	-0.028728321
101	0xbd2bf4b4	-0.041981414
102	0xbd3e5040	-0.04646325
103	0xbd33d484	-0.043903843
104	0x3df3a06c	0.118958324
105	0xbd2ce520	-0.042210698
106	0xbde04fd6	-0.109527275
107	0x3d83421e	0.06409095
108	0x3c24d770	0.01006113
109	0x3de72c78	0.112877786
110	0xbdfd069c	-0.12354776
111	0xbc304ba0	-0.010760218
112	0xbc8e10b0	-0.017341942
113	0xbd8c4e1c	-0.06850836
114	0x3d05e264	0.032686606
115	0xbc3afe80	-0.011413217
116	0xbd2d29d8	-0.042276233
117	0x3de3193c	0.110887975
118	0x3d8d1daa	0.068904236
119	0xbde723a4	-0.11286095
120	0x3db1b02a	0.08676179
121	0xbd335fe0	-0.043792605
122	0x3dbccbac	0.09218535
123	0xbdae274e	-0.085035905
124	0xbcd92690	-0.026507646
125	0x3cb0a068	0.021560863
126	0xbb3d95c0	-0.002892837
127	0xbdd050d6	-0.10171668
128	0xbd240594	-0.040044382
129	0xbdaf688e	-0.08564864
130	0xbdacf8dc	-0.08445904
131	0x3c890740	0.01672709
132	0x3d92530c	0.07144746
133	0xbd72f290	-0.059313357
134	0x3c2df7b0	0.010618135
135	0xbd1fa2e0	-0.03897369
136	0xbdfacb0e	-0.12245761
137	0xbdef54e4	-0.116861135
138	0x3d70fcc4	0.058834806
139	0x3db8e58a	0.09028156
140	0x3daa6b38	0.083212316
141	0x3d678abc	0.05652879
142	0x3dc27e96	0.094968006
143	0x3db7c5e0	0.089732885
144	0x3d04c1d0	0.032411397
145	0x3cc7da48	0.024396077
146	0x3ce54550	0.027987152
147	0xbc6bcb50	-0.014391735
148	0x3df4d408	0.11954504
149	0xbdc3b19e	-0.09555362
150	0x3dfc6f90	0.12325966
151	0xbd60deec	-0.054900095
152	0x3cb11580	0.021616697
153	0x3d9e5910	0.07731831
154	0x3d936e6a	0.07198794
155	0x3dd28c38	0.10280651
156	0x3db48386	0.088141486
157	0x3dcd2f58	0.10018796
158	0xbde95f1a	-0.11395092
159	0x3d5887d8	0.052863926
160	0xbda5bb8a	-0.08092411
161	0x3d0f8a34	0.03504391
162	0x3dfd63e0	0.12372565
163	0x3dd18422	0.102302805
164	0xbde81aba	-0.11333223
165	0x3de7e970	0.113238215
166	0xbd3c5908	-0.045983344
167	0xbdcab96c	-0.09898648
168	0xbda59568	-0.080851376
169	0x3c8e3738	0.017360315
170	0x3dc47548	0.09592682
171	0xbda6aa1e	-0.08137916
172	0xbdcd830a	-0.10034759
173	0x3d1fa2c4	0.038973585
174	0xbdb61898	-0.0889141
175	0xbd0ff6f4	-0.035147622
176	0x3d8dab22	0.069174066
177	0x3d5a04e0	0.053227305
178	0xbb236e80	-0.002493769
179	0x3d8d7d86	0.06908707
180	0x3d5318b8	0.051537246
181	0xbd8ffa6c	-0.07030186
182	0x3c023270	0.007946596
183	0x3cf2cad0	0.029637724
184	0x3d81c1f2	0.0633582
185	0xbd61e8fc	-0.05515383
186	0x3d9931d8	0.0748021
187	0x3d86e7aa	0.06587155
188	0x3d048d48	0.0323613
189	0xbd762e18	-0.060102552
190	0x3d7f7198	0.06236419
191	0xbd87e36a	-0.06635173
192	0xbcf5f7b8	-0.030025348
193	0x3d5a65d0	0.053319752
194	0x3c7016e0	0.014653891
195	0xbdb39818	-0.08769244
196	0x3dc53434	0.096290976
197	0x3df873b4	0.121314436
198	0x3d14ffd4	0.03637679
199	0x3de12ca4	0.10994843
200	0xbd1a7824	-0.03771223
201	0x3de746fa	0.112928346
202	0xbde08730	-0.10963285
203	0x3ca317b0	0.019908756
204	0xbd0ff338	-0.03514406
205	0xbb6cddc0	-0.0036142915
206	0x3c955c08	0.01823236
207	0x3d22b080	0.039719105
208	0x3d8be186	0.068301246
209	0xbde6898c	-0.11256704
210	0x3d6dde98	0.05807361
211	0x3dc6875e	0.09693788
212	0x3d27d4dc	0.040974483
213	0x3de7377a	0.11289878
214	0x3dbe04e8	0.092782795
215	0x3c14c9a0	0.009081274
216	0x3c8d1d10	0.017225772
217	0xbde962ba	-0.11395784
218	0x3df38d2e	0.11892162
219	0xbdab7f62	-0.08373906
220	0x3df4e4ce	0.119577035
221	0xbcaaf890	-0.020870477
222	0xbcde3b18	-0.027127787
223	0xbd86face	-0.06590806
224	0xbd489988	-0.048974544
225	0x3da10afc	0.07863423
226	0x3df62a30	0.120197654
227	0xbdac04bc	-0.083993405
228	0xbd426d4c	-0.047467515
229	0xbd8dcffc	-0.069244355
230	0xbd208f94	-0.039199427
231	0x3d8ef7e4	0.06980875
232	0x3d909930	0.07060468
233	0x3d1b8128	0.03796497
234	0xbd9b8d90	-0.0759536
235	0xbd2bb8ec	-0.041924402
236	0xbd639ca0	-0.05556929
237	0xbd1f1a44	-0.03884341
238	0x3c915de0	0.017744958
239	0xbc52ebc0	-0.01287359
240	0xbc474e40	-0.012164652
241	0x3c9a0930	0.018803209
242	0x3c61d1d0	0.013782933
243	0x3d1a3c80	0.037655354
244	0x3ca29868	0.019848064
245	0x3d7ae154	0.061250046
246	0x3df2da52	0.118580475
247	0xbd58b628	-0.052908093
248	0xbd8cb830	-0.068710685
249	0x3dc4fc5e	0.09618448
250	0xbd493830	-0.04912585
251	0x3d91d394	0.071204334
252	0x3dc8a382	0.09796812
253	0xb9ac7400	-0.00032892823
254	0x3cf1dc30	0.029523939
255	0x3ddaf99e	0.10692142

bias f4 [10]
0	0xbb997bc0	-0.0046839416
1	0xbde38036	-0.11108439
2	0xbdea1104	-0.11429027
3	0x3d2f8e90	0.042860568
4	0xbc89e6b8	-0.016833648
5	0xbd6cb2d4	-0.05778773
6	0x3dfd89ec	0.12379822
7	0xbdc9372e	-0.09824978
8	0x3dbbdf94	0.091735035
9	0x3c8fe9a8	0.01756747

weight f4 [2, 64]
0	0x3bf46280	0.007458031
1	0xbdb8daf0	-0.09026134
2	0x3dd31e5a	0.103085235
3	0x3c534140	0.012893975
4	0xbdb65638	-0.08903164
5	0xbda5bf82	-0.08093168
6	0xbda3aeaa	-0.07992299
7	0x3d26f9e0	0.040765643
8	0x3d42748c	0.04747443
9	0x3c3aafb0	0.011394426
10	0x3cf256f8	0.029582486
11	0x3d64e5c0	0.05588317
12	0xbdca6462	-0.09882428
13	0xbdc8c52c	-0.098032326
14	0x3de84aea	0.11342414
15	0xbde7224c	-0.112858385
16	0x3c002ad0	0.007822707
17	0x3db4319e	0.08798526
18	0x3d97f720	0.07420182
19	0x3c1e8b40	0.0096767545
20	0x3d25ceb0	0.040480316
21	0xbd7d4080	-0.06182909
22	0xbd8fade0	-0.07015586
23	0xbdd42f6c	-0.103606075
24	0x3db159c4	0.086596996
25	0x3db62480	0.088936806
26	0xbd92e050	-0.071716905
27	0xbc7dc0a0	-0.01548782
28	0x3cff5910	0.031170398
29	0xbd5af288	-0.053453952
30	0xbd713ad0	-0.05889398
31	0xbda2b10c	-0.07943925
32	0xbdec2b10	-0.11531651
33	0x3dc1032e	0.094244346
34	0x3d650ba0	0.05591929
35	0xbd9da1f0	-0.07696903
36	0x3bf31040	0.0074177086
37	0x3df64354	0.120245606
38	0x3db7bb1e	0.08971237
39	0xbdcf19ec	-0.10112366
40	0x3d087960	0.033318877
41	0x3bd1a040	0.006397277
42	0x3db05d60	0.0861156
43	0xbde9fce8	-0.11425191
44	0x3b7c0800	0.0038456917
45	0x3cd4f488	0.025995508
46	0xbde34a44	-0.110981494
47	0x3d4c04a8	0.049809128
48	0xbd184344	-0.037173524
49	0xbd191cc8	-0.037380964
50	0x3dbfc4ce	0.093637094
51	0x3d121b70	0.035670698
52	0xbc8916f0	-0.01673457
53	0x3dfe6d24	0.12423161
54	0x3dd588d8	0.104264915
55	0x388f6800	6.838143e-05
56	0x3d78f584	0.060781017
57	0x3d86a9d8	0.06575364
58	0xbda25c42	-0.07927753
59	0xbcc2faa0	-0.023801148
60	0xbd0ded18	-0.03464994
61	0xbd7bc5d4	-0.06146796
62	0x3dfbc91e	0.122942194
63	0x3d74a998	0.05973205
64	0x3ddcd9f8	0.10783762
65	0xbdf22af4	-0.11824599
66	0x3c97e920	0.01854378
67	0x3bd217a0	0.0064115077
68	0xbddb4cc4	-0.10708001
69	0xbdcc7dfa	-0.099849656
70	0x3d8839b6	0.066516325
71	0x3b56cd80	0.0032776296
72	0x3dc90dba	0.09817071
73	0xbcee3c20	-0.029081404
74	0xbdaa88a2	-0.08326842
75	0xbd49f0f4	-0.049302056
76	0xbd7f7d4c	-0.06237535
77	0x3ccb7aa0	0.024838746
78	0xbddfd442	-0.10929157
79	0xbdb3701e	-0.08761619
80	0xbd1ea918	-0.03873548
81	0x3dcbc9ec	0.09950623
82	0x3dbd1100	0.09231758
83	0x3dbcf880	0.09227085
84	0xbd9a6f5e	-0.07540773
85	0xbd9758f2	-0.07390012
86	0x3dbda678	0.09260267
87	0xbdfac494	-0.122445256
88	0x3d4b56b0	0.04964322
89	0x3dd4fba2	0.10399558
90	0x3de2eacc	0.1107994
91	0xbdd7219e	-0.10504459
92	0x3d2b35f0	0.041799486
93	0xbbe1b3e0	-0.006887898
94	0x3c9b5330	0.018960565
95	0x3df180e2	0.117921606
96	0xbd1b86f4	-0.0379705
97	0xbd6ece64	-0.0583023
98	0xbd871b0a	-0.06596954
99	0x3b3a68c0	0.0028443784
100	0x3d96c7bc	0.07362315
101	0xbdef2672	-0.11677255
102	0xbdb75f16	-0.08953683
103	0xbcfd4258	-0.030915424
104	0xbdc376f4	-0.09544173
105	0xbc12cd70	-0.008960113
106	0x3d7f5a40	0.06234193
107	0x3da8742c	0.08225283
108	0x3de19552	0.11014809
109	0x3dbaf78e	0.091292486
110	0x3d7fb784	0.062430874
111	0xbdf38308	-0.118902266
112	0xbd185f84	-0.037200466
113	0x3dd8729e	0.105687365
114	0x3c4197b0	0.01181595
115	0x3cb9a6d0	0.02266255
116	0xbd8f7922	-0.07005526
117	0x3dcf191a	0.101122096
118	0x3cf59ba8	0.02998145
119	0xbd54d5f4	-0.051961854
120	0xbcb66c28	-0.02226837
121	0xbb400240	-0.0029298216
122	0xbd9e10dc	-0.077180594
123	0xbcc334b8	-0.02382885
124	0x3d9981b0	0.07495439
125	0x3d8cee80	0.06881428
126	0x3d6b9eac	0.05752437
127	0xbdbc87ec	-0.092056125

bias f4 [2]
0	0xbdb4d628	-0.088299096
1	0x3d5f7288	0.054552585

weight f4 [64, 30]
0	0x3db911e4	0.090366155
1	0x3e1a6efa	0.15081397
2	0x3ce1d420	0.02756697
3	0xbbc4cb00	-0.006005645
4	0x3d503e28	0.050840527
5	0x3dc97db8	0.09838432
6	0xbc8e4ee8	-0.01737161
7	0xbdc7b412	-0.097511426
8	0xbd55bd88	-0.052182704
9	0xbd616688	-0.055029422
10	0x3dd605dc	0.10450336
11	0x3c907158	0.017632172
12	0xbde26225	-0.11053876
13	0xbdddbd97	-0.10827177
14	0x3df550e8	0.11978322
15	0x3d33bf68	0.04388371
16	0xbc5f4ce0	-0.013629168
17	0xbe2807d6	-0.16409239
18	0xbdf8ef56	-0.12155025
19	0xbdd48285	-0.10376457
20	0xbdb4aa98	-0.08821601
21	0x3dd02aa4	0.10164383
22	0xbc8c2f80	-0.017112494
23	0xbe352de3	-0.17693286
24	0x3d90fc4c	0.07079372
25	0x3e086d00	0.1332283
26	0x3da02c74	0.07820979
27	0x3d92f3b4	0.07175389
28	0xbdb7d7f9	-0.089767404
29	0xbe185d52	-0.14879349
30	0x3e34c154	0.17651874
31	0x3d12e6b4	0.035864547
32	0xbde253b0	-0.110511184
33	0x3d847806	0.06468205
34	0x3e0b75f8	0.1361922
35	0x3c1479b0	0.009062216
36	0xbd53e528	-0.051732212
37	0x3ca970f8	0.02068375
38	0x3bb511a0	0.0055257827
39	0xbda1f2c9	-0.07907636
40	0xbe2ddcea	-0.16978803
41	0x3d0b149c	0.0339552
42	0xbe37eae6	-0.179607
43	0xbd8f36ea	-0.06992896
44	0xbd6a1d88	-0.05715707
45	0xbb986b60	-0.004651472
46	0xbc512540	-0.012765229
47	0x3d86d588	0.065836966
48	0xbcd695c0	-0.026194453
49	0xbd88d804	-0.06681827
50	0x3d974600	0.07386398
51	0x3e254eb6	0.16143307
52	0x3e0f6256	0.14002356
53	0xbe27f9d8	-0.16403902
54	0xbe273a1a	-0.16330758
55	0xbd36e12c	-0.044648334
56	0x3ca7f2a0	0.020501435
57	0x3d9c2264	0.07623747
58	0xbccd2c68	-0.025045589
59	0x3dcff7f0	0.10154712
60	0xbda07b1b	-0.078359805
61	0xbd0aab38	-0.033854693
62	0xbe35287a	-0.17691222
63	0x3dbb6a4c	0.09151134
64	0x3ded83c4	0.11597398
65	0xbdddaaf4	-0.10823622
66	0x3e35f514	0.17769271
67	0xbdb0f7e4	-0.086410314
68	0x3db504b4	0.08838788
69	0x3e375c32	0.17906263
70	0xbdedbfb5	-0.11608831
71	0x3e048dd2	0.12944725
72	0x3cf768e8	0.03020139
73	0x3dc57ee8	0.09643346
74	0xbe1569fe	-0.14591214
75	0xbd68b92c	-0.05681722
76	0x3e1946e0	0.14968443
77	0xbdd77a04	-0.105213195
78	0x3e0e58d4	0.13901073
79	0x3d2dc0e8	0.042420298
80	0xbdc6145c	-0.09671852
81	0x3dbb4eb0	0.09145868
82	0xbd96adb7	-0.07357352
83	0xbcc18c40	-0.023626447
84	0xbd5a07f8	-0.053230256
85	0xbe292ec1	-0.16521741
86	0x3da9ddb4	0.0829424
87	0x3caf3cc0	0.021391273
88	0x3c251150	0.010074928
89	0xbe1c89c9	-0.15286936
90	0x3ce76be8	0.028249696
91	0x3d4380e8	0.047730356
92	0x3dc25660	0.09489131
93	0x3ce2fab0	0.027707428
94	0x3dd5680c	0.10420236
95	0x3bba85e0	0.0056922287
96	0xbe0b8b42	-0.13627341
97	0x3e2afb86	0.16697511
98	0xbdb414f6	-0.087930605
99	0xbe2e0848	-0.16995347
100	0xbd497f80	-0.04919386
101	0x3e1aafa4	0.15106064
102	0x3d69c2c0	0.057070494
103	0x3dd3a8bc	0.10334918
104	0xbd48838c	-0.048953578
105	0x3e1c3f6c	0.15258569
106	0xbe28a159	-0.16467799
107	0xbe170f10	-0.1475184
108	0x3d1596cc	0.036520764
109	0x3e0cfb96	0.13767847
110	0x3dc82a7c	0.09773728
111	0xbd29ef68	-0.04148808
112	0xbd92cedc	-0.071683615
113	0xbdeaa14f	-0.114565484
114	0x3e187644	0.14888865
115	0x3b25a6c0	0.0025276393
116	0x3e21fdce	0.15819475
117	0x3e0774e0	0.13228178
118	0x3d5dd040	0.05415368
119	0xbd782a68	-0.060587317
120	0xbd33ca4c	-0.043894097
121	0xbe1d985c	-0.15390152
122	0x3e2eff52	0.17089584
123	0x3e2960c0	0.16540813
124	0xbcb47640	-0.022029042
125	0xbde78da9	-0.113063164
126	0x3e0536ac	0.13009137
127	0x3d89c634	0.06727257
128	0x3e2e60c4	0.170291
129	0xbd9eeb96	-0.07759778
130	0x3da76e64	0.08175352
131	0xbdd9d29e	-0.10635875
132	0x3c1ebf90	0.009689227
133	0xbdb7f342	-0.089819446
134	0xbde11a12	-0.10991301
135	0x3c9b4aa0	0.018956482
136	0x3d6067e0	0.054786563
137	0x3d7a4acc	0.061106488
138	0x3d17acec	0.037030146
139	0xbd8a7138	-0.06759876
140	0xbe1e113f	-0.15436266
141	0x3e2d17f6	0.16903672
142	0xbdc914f9	-0.09818453
143	0x3c836d80	0.016043425
144	0x3ddb790c	0.10716447
145	0x3dea76ec	0.11448464
146	0x3dbdb2f0	0.09262645
147	0x3e01583a	0.12631312
148	0x3e05592a	0.13022295
149	0x3e12b4d6	0.14326796
150	0xbe1d2def	-0.15349554
151	0x3d8852aa	0.06656392
152	0xbb8c9c00	-0.0042910576
153	0xbe1434fa	-0.14473334
154	0x3cadcbb8	0.021215305
155	0xbbe53aa0	-0.006995514
156	0xbdab323f	-0.08359193
157	0xbd27711c	-0.040879354
158	0x3c6eb910	0.0145704895
159	0x3d49b098	0.04924068
160	0x3ddaed60	0.10689807
161	0xbd4cc9f8	-0.0499973
162	0x3d17b6bc	0.037039503
163	0xbd9cd289	-0.07657344
164	0x3dc26044	0.094910175
165	0xbd8dda53	-0.06926408
166	0xbd3daff8	-0.046310395
167	0x3da1fcf8	0.07909578
168	0xbdd0b852	-0.10191406
169	0xbdc6366c	-0.09678349
170	0xbdf284d2	-0.1184174
171	0x3dcb1410	0.09915936
172	0x3d2a3034	0.041549876
173	0xbd382f48	-0.044966966
174	0xbdc9406d	-0.09826741
175	0x3e302e3a	0.17205134
176	0x3c7875c0	0.015164793
177	0x3db78b4c	0.08962116
178	0xbda14c3e	-0.0787587
179	0xbd35e7ac	-0.044410393
180	0xbd58dbb8	-0.052943915
181	0x3d93c488	0.0721522
182	0xbda091ad	-0.078402855
183	0xbe15b25e	-0.14618823
184	0x3e10dfda	0.14147893
185	0x3d61e7a8	0.055152565
186	0xbdbccf51	-0.0921923
187	0xbc720ae0	-0.014773101
188	0x3d1da0dc	0.038483486
189	0x3e0ebb90	0.13938737
190	0x3e1d1e8a	0.15343681
191	0x3d94ad9c	0.07259676
192	0x3cc84230	0.024445623
193	0x3e02f664	0.12789303
194	0xbdfbbcc8	-0.122918665
195	0xbc937368	-0.017999366
196	0x3c336660	0.010949701
197	0x3d325bf4	0.043544725
198	0xbd74980e	-0.059715323
199	0x3cf23c68	0.02956982
200	0xbd658fe0	-0.056045413
201	0x3dc17fe0	0.09448218
202	0xbe0f5ab8	-0.1399945
203	0x3dce61b0	0.10077226
204	0x3c464330	0.01210098
205	0xbb94bb20	-0.0045389086
206	0x3e2cefb2	0.16888312
207	0xbb8a0b40	-0.004212767
208	0xbdaafdcb	-0.083491884
209	0x3dcb5454	0.09928194
210	0x3ddca210	0.107730985
211	0xbe261053	-0.16217165
212	0x3e03cd84	0.12871367
213	0xbe1558cf	-0.14584659
214	0xbe31f0cd	-0.17377014
215	0xbdbbf65a	-0.09177847
216	0xbdd913ce	-0.105994806
217	0xbb04a1c0	-0.0020238012
218	0xbe35ba08	-0.17746747
219	0x3e13f1e0	0.14447737
220	0xbcea85a8	-0.028628185
221	0xbe358791	-0.17727496
222	0xbd8930f1	-0.06698788
223	0xbb810ec0	-0.003938526
224	0x3da18f58	0.07888669
225	0xbd71dbc4	-0.059047475
226	0x3e34418e	0.17603132
227	0xbd2ae74c	-0.04172449
228	0xbd9ace3a	-0.07558866
229	0xbdfcc527	-0.12342291
230	0x3d30b050	0.043136895
231	0x3dda9dbc	0.10674617
232	0x3da40f30	0.08010709
233	0x3b9d9280	0.004808724
234	0xbd9f6ca2	-0.07784392
235	0x3e1cc9ba	0.15311328
236	0xbe395c13	-0.1810153
237	0x3e12e75a	0.14346066
238	0x3dc6ebf0	0.0971297
239	0xbd3f2fbc	-0.046676382
240	0x3ddb3be8	0.107047856
241	0x3e2ba11e	0.1676068
242	0xbd156528	-0.036473423
243	0x3d16bcf4	0.036801293
244	0xbe2d772f	-0.16939996
245	0xbdbcfe5d	-0.092282034
246	0xbbfd3e20	-0.007728353
247	0x3e1868ea	0.14883772
248	0xbe327b6e	-0.17429897
249	0x3e3104a8	0.17286932
250	0xbc4a5bc0	-0.0123509765
251	0x3daad914	0.083421856
252	0x3d13bf34	0.036071017
253	0xbe008e3f	-0.12554263
254	0xbbd25560	-0.006418869
255	0x3dc98e04	0.098415405

bias f4 [64]
0	0xbc55c510	-0.013047472
1	0x3d349aa8	0.044092804
2	0xbcb18060	-0.02166766
3	0xbc7715f0	-0.015080914
4	0xbd5076e4	-0.050894633
5	0xbd14e96c	-0.03635542
6	0x3d133550	0.035939515
7	0xbd987a53	-0.074452065
8	0xbd81d64b	-0.06339701
9	0x3b37c440	0.0028040558
10	0xbd26d8e8	-0.0407342
11	0x3cadaaa0	0.021199524
12	0xbe01c6e8	-0.12673533
13	0x3d6b4ad0	0.057444394
14	0xbe168210	-0.14698052
15	0x3df240f4	0.11828795
16	0xbdce09cf	-0.100604646
17	0x3dc16318	0.09442729
18	0xbda1cc35	-0.079002775
19	0xbd35a138	-0.044343203
20	0xbd7c4a88	-0.061594516
21	0xbc72fa60	-0.014830202
22	0xbe10c6ec	-0.14138383
23	0xbe071767	-0.13192521
24	0xbe010098	-0.12597883
25	0xbc9bcbc8	-0.019018069
26	0x3de7397c	0.11290261
27	0x3e37a54e	0.17934152
28	0x3e1a50ee	0.15069935
29	0x3dc41ed0	0.095761895
30	0xbd15187c	-0.036400303
31	0xbd002c30	-0.03129214
32	0xbe38a489	-0.18031515
33	0xbdd2bbc3	-0.10289719
34	0x3cf510c8	0.029915228
35	0xbda55b8c	-0.08074102
36	0xbdaffb58	-0.08592862
37	0xbdb8f06b	-0.09030231
38	0xbd81606b	-0.063172184
39	0xbe097c28	-0.13426268
40	0x3d12c820	0.035835385
41	0xbe0a63dd	-0.13514657
42	0xbd438cb4	-0.047741607
43	0xbd1c60a0	-0.038178086
44	0x3e247934	0.1606186
45	0x3d0d1db4	0.034452155
46	0x3d5933dc	0.053027973
47	0x3b6e65c0	0.0036376566
48	0xbd8c6e14	-0.06856933
49	0x3c9843a0	0.018586934
50	0x3d12b318	0.03581533
51	0x3d98d728	0.07462913
52	0x3dc506c8	0.09620434
53	0x3d257154	0.04039128
54	0xbc47f1f0	-0.0122036785
55	0x3d8347a4	0.06410149
56	0xbd78aba6	-0.06071057
57	0xbe36e086	-0.17859086
58	0x3e2e79aa	0.17038599
59	0xbe1c24be	-0.15248391
60	0xbdb43579	-0.087992616
61	0x3e34aa44	0.17643076
62	0x3e325932	0.17416838
63	0xbc929710	-0.017894298

weight f4 [64, 64]
0	0xbc59e840	-0.013300002
1	0x3dd063d8	0.10175294
2	0x3d198498	0.037479967
3	0xbd31c9c4	-0.04340531
4	0xbcc0ba50	-0.02352634
5	0x3de58266	0.11206512
6	0xbda5f1ee	-0.08102785
7	0xbd4ca970	-0.049966276
8	0x3d45d40c	0.048297927
9	0x3ded44f0	0.115854144
10	0xbca4d500	-0.020121098
11	0x3dd2a33a	0.10285039
12	0x3d944a22	0.07240702
13	0xbbe012e0	-0.0068381876
14	0xbc72d2a0	-0.014820725
15	0x3da95740	0.08268595
16	0xbd5d16e8	-0.053976923
17	0x3dfc40f4	0.12317076
18	0xbd61a8e4	-0.055092707
19	0x3d9507c2	0.0727687
20	0xbd44c128	-0.04803577
21	0x3dc928ce	0.09822236
22	0xbdbd37bc	-0.09239146
23	0xbcf3f178	-0.029778227
24	0xbd20de5c	-0.03927456
25	0xbcafc480	-0.021456003
26	0xbdaa594a	-0.08317812
27	0xbdd46e1e	-0.10372566
28	0x3de003b4	0.10938206
29	0x3d873a40	0.06602907
30	0x3da08dd4	0.078395516
31	0xbdbc0a4e	-0.09181653
32	0x3de9ff18	0.114256084
33	0xbdb93498	-0.090432346
34	0x3c5db210	0.013531223
35	0xbd00e638	-0.031469554
36	0x3df80e32	0.121120825
37	0xbde2c260	-0.1107223
38	0x3d523c58	0.05132708
39	0x3ddffb9a	0.10936661
40	0xbd4cf134	-0.050034717
41	0xbdd68a9e	-0.10475658
42	0x3abd3a80	0.001443699
43	0xbda5b396	-0.08090894
44	0x3c7b3d30	0.015334412
45	0xbdb85e98	-0.09002417
46	0x3d329f00	0.043608665
47	0xbdfc7fbe	-0.123290524
48	0x3d934812	0.07191481
49	0xbc5c6d90	-0.013453856
50	0x3d5e38a8	0.05425325
51	0xbd907158	-0.070528686
52	0xbc2ab5f0	-0.010419354
53	0xbd9073ba	-0.07053323
54	0x3c7bbf40	0.015365422
55	0x3db93abe	0.09044407
56	0x3dbcfb86	0.09227662
57	0x3b75a440	0.0037481934
58	0x3deebcd8	0.11657113
59	0xbceefbd0	-0.029172808
60	0x3dd7f472	0.10544671
61	0x3bceebc0	0.0063147247
62	0x3de31eca	0.11089857
63	0xbbe8b5e0	-0.0071017593
64	0xbce28e18	-0.027655646
65	0xbcbbbcb0	-0.022917122
66	0xbdc14db4	-0.09438649
67	0x3d97c662	0.074108854
68	0xbc9be790	-0.019031316
69	0x3de5b050	0.112152696
70	0x3db98794	0.090590626
71	0x3da40622	0.08008982
72	0x3d2a91f4	0.041643098
73	0xbd1545e8	-0.03644362
74	0x3d965af0	0.07341564
75	0xbdf43cfa	-0.11925693
76	0xbb6ecdc0	-0.0036438555
77	0xbd4d6aa4	-0.05015053
78	0xbd9ee3c2	-0.07758285
79	0xbdb08f30	-0.08621061
80	0x3ddeb8a6	0.10875063
81	0x3da0fb0c	0.078603834
82	0xbdcb86ca	-0.09937818
83	0x3de5bf5c	0.112181395
84	0xbd406228	-0.04696861
85	0x3d47fdd4	0.048826054
86	0x3dc301dc	0.09521839
87	0x3c1b6370	0.009484157
88	0xbdec43a8	-0.11536342
89	0x3dce9afa	0.10088153
90	0xbdb47d92	-0.08813013
91	0x3d41d1fc	0.047319397
92	0xbd6672e4	-0.056261912
93	0xbdce54d0	-0.100747705
94	0xbcf93ad0	-0.030423552
95	0xbd28c234	-0.04120083
96	0x3dd7680a	0.10517891
97	0x3c3483b0	0.011017725
98	0x3db514f0	0.08841884
99	0xbdf437ee	-0.1192473
100	0x3d8e8b1e	0.06960128
101	0x3cb6d900	0.02232027
102	0x3dbb9290	0.09158814
103	0x3da83fb6	0.08215277
104	0x3c842be8	0.016134217
105	0x3c196020	0.009361297
106	0x3b92a180	0.0044748187
107	0xba6f6c00	-0.000913322
108	0x3db505ee	0.088390216
109	0x3d96a0f8	0.07354921
110	0xbd80c4b6	-0.0628752
111	0xbd0495f4	-0.03236957
112	0x3d9f9886	0.077927634
113	0x3dc69d02	0.096979156
114	0xba9eef00	-0.0012125671
115	0x3cc38c58	0.023870632
116	0x3d748ccc	0.059704587
117	0xbdf77510	-0.12082875
118	0xbcc144b0	-0.023592323
119	0x3cffe4c8	0.031237021
120	0x3da13e56	0.07873218
121	0x3d451834	0.048118785
122	0x3de81dde	0.11333822
123	0xbda15ca4	-0.07878998
124	0x3dca8586	0.09888749
125	0x3db73680	0.08945942
126	0x3dd5e33c	0.10443732
127	0x3de269f2	0.11055364
128	0x3d5853a0	0.052814126
129	0xbca7f5d8	-0.02050297
130	0x39886000	0.00026011467
131	0x3c3d32f0	0.011547789
132	0xbd484010	-0.04888922
133	0xbd88e986	-0.06685166
134	0x3d479da8	0.048734337
135	0x3d751028	0.05982986
136	0x3cb9be50	0.022673756
137	0x3b22ecc0	0.0024860352
138	0xbddcb47e	-0.10776614
139	0x3c7b3580	0.01533258
140	0xbd6db068	-0.058029562
141	0xbdc20c92	-0.09475054
142	0xbde1b08e	-0.11020003
143	0x3d0c6ad4	0.034281567
144	0xbde92da6	-0.1138566
145	0x3dd232e0	0.1026361
146	0xbdf4e104	-0.11956981
147	0xbd8113f4	-0.06302634
148	0xbd5bd280	-0.053667545
149	0xbc800ad0	-0.015630156
150	0xbcd00088	-0.025390878
151	0xbce39278	-0.027779803
152	0xbd050184	-0.03247215
153	0xbdfcd098	-0.123444736
154	0xbd83a60a	-0.06428154
155	0x3d8bcc96	0.06826131
156	0xbd894194	-0.06701961
157	0xbdc4f844	-0.096176654
158	0x3d5453b0	0.051837623
159	0xbd7ad9b0	-0.06124276
160	0x3d147d84	0.036252514
161	0x3ce554d8	0.027994558
162	0x3b81bf40	0.0039595664
163	0x3d4eb3f8	0.0504646
164	0x3d56ef50	0.05247432
165	0xbcb7ba28	-0.022427633
166	0x3bf9f880	0.0076285005
167	0x3cb1c418	0.02169995
168	0x3da4bc8a	0.080437735
169	0x3dc881a6	0.097903535
170	0x3cc59740	0.024119973
171	0x3d1d8e5c	0.038465843
172	0xbbd54740	-0.006508738
173	0x3c91df30	0.01780662
174	0xbde55eea	-0.11199744
175	0x3d461fe0	0.048370242
176	0x3b3afd40	0.0028532296
177	0xbd83bc2a	-0.06432374
178	0x3d8113f8	0.06302637
179	0x3da5c3f4	0.08094016
180	0x3d93ea9a	0.07222481
181	0xbca3b3d0	-0.019983202
182	0x3cd88bc0	0.026433825
183	0xbd5a18cc	-0.053246304
184	0x3d134594	0.035955027
185	0x3df6a938	0.12043995
186	0x3d98e264	0.074650556
187	0x3df9f796	0.122054264
188	0x3c8841d8	0.01663296
189	0xbdd5f89c	-0.10447809
190	0x3c4e4830	0.012590453
191	0x3da13b8c	0.07872686
192	0xbd6e02a4	-0.058107987
193	0xbcf59080	-0.02997613
194	0xbd7bc8fc	-0.06147097
195	0x3dfc3e06	0.123165175
196	0xbd7784cc	-0.06042938
197	0x3d660bd0	0.05616361
198	0xbd8ddbe6	-0.06926708
199	0x3d9b9236	0.07596247
200	0x3d2c6d94	0.04209669
201	0x3db1d512	0.08683218
202	0xbd90e2b2	-0.07074489
203	0xbd5dc3f4	-0.054141954
204	0xbdbf3bca	-0.09337576
205	0xbd81170a	-0.063032225
206	0xbd171150	-0.036881745
207	0x3dd150ae	0.102204666
208	0x3d819d62	0.063288465
209	0x3deef6ae	0.11668144
210	0x3c3299f0	0.010900959
211	0xbdd10038	-0.1020512
212	0x3df3d232	0.11905326
213	0xbddd1b3e	-0.10796212
214	0xbd10667c	-0.035253987
215	0x3d367c98	0.044552416
216	0xbdff3ac8	-0.124623835
217	0x3cfff4a8	0.03124459
218	0x3d841e68	0.06451112
219	0x3d7edb94	0.062221125
220	0xbd1f3a88	-0.03887418
221	0xbd905d9a	-0.07049103
222	0xbd9b66fa	-0.075880006
223	0xbd04dadc	-0.032435283
224	0xbd820d0a	-0.06350143
225	0xbd05c778	-0.03266093
226	0x3df610e6	0.12014942
227	0xbdf4d4cc	-0.1195465
228	0xbde12954	-0.10994211
229	0xbccccfd0	-0.025001436
230	0x3d1ae32c	0.037814304
231	0xbdd9b628	-0.10630447
232	0xbb72b900	-0.0037036538
233	0x3cb19ad8	0.02168028
234	0xbd019a0c	-0.03164105
235	0x3db68966	0.089129254
236	0x3ddb5d6c	0.10711178
237	0x3d912ed0	0.07089007
238	0x3c4e1a70	0.012579545
239	0x3a2fad00	0.0006701499
240	0x3d38509c	0.04499875
241	0x3da46632	0.08027305
242	0x3d9e6d86	0.07735734
243	0xbdf4a2c0	-0.119451046
244	0xbd7a9b1c	-0.06118308
245	0x3d6c1f50	0.05764705
246	0xbdbd9322	-0.09256579
247	0xbc4acc80	-0.012377858
248	0x3b521c80	0.0032060444
249	0xbd12db6c	-0.03585379
250	0xbd83c5d4	-0.06434217
251	0xbdc85332	-0.09781493
252	0xbcafa300	-0.02144003
253	0x3dc78a54	0.09743181
254	0x3dad8daa	0.08474286
255	0xbd9288e4	-0.07155016

bias f4 [64]
0	0xbdd19fba	-0.102355435
1	0x3c18ef70	0.00933443
2	0xbdbb8e3e	-0.0915799
3	0x3da080d6	0.078370735
4	0x3c9fab98	0.019491002
5	0x3d33205c	0.043732032
6	0xbcf08080	-0.029358149
7	0x3cb009f8	0.021489128
8	0xbd3a2828	-0.045448452
9	0xbdc96424	-0.098335534
10	0xbc7efeb0	-0.015563652
11	0x3dc149a2	0.094378725
12	0xbdb4f78a	-0.08836277
13	0xbde97bf8	-0.11400598
14	0xbd955cec	-0.07293114
15	0x3dba71ce	0.09103738
16	0x3dd91420	0.10599542
17	0x3d2987c0	0.041389227
18	0xbd96acde	-0.073571905
19	0xbdc1b116	-0.094576046
20	0x3d858fa6	0.065215394
21	0x3d28757c	0.041127667
22	0xbdd24ca0	-0.10268521
23	0x3d8b752c	0.06809458
24	0xbd981326	-0.07425527
25	0xbda28916	-0.07936303
26	0xbbc876e0	-0.0061176866
27	0x3b020c40	0.0019843727
28	0xbcaaa970	-0.020832747
29	0xbd27a858	-0.04093203
30	0x3dfb01ee	0.122562274
31	0xbdea7420	-0.1144793
32	0xbdaca63e	-0.08430146
33	0x3d1dc960	0.038522124
34	0xbd9b083c	-0.0756993
35	0x3de49e6e	0.111630306
36	0xbdb80090	-0.08984482
37	0x3d255320	0.040362477
38	0x3af86700	0.0018951595
39	0x3da41f22	0.080137506
40	0xbd94e56a	-0.0727032
41	0xbb5cb8c0	-0.0033679456
42	0x3d27dc24	0.040981427
43	0xb9f09200	-0.00045885146
44	0x3d794d34	0.060864642
45	0x3dca42f4	0.098760515
46	0x3d36d07c	0.04463242
47	0x3cbb2500	0.022844791
48	0x3ddb7414	0.107154995
49	0xbc0d53d0	-0.0086259395
50	0x3dbaa268	0.09113008
51	0x3cea1178	0.028572783
52	0xbdec4b76	-0.115378305
53	0xbd97ebfe	-0.07418059
54	0x3b1c8f00	0.0023888946
55	0x3c3fedb0	0.011714384
56	0x3d9f3d60	0.07775378
57	0xbdf79142	-0.120882526
58	0xbcc5ee08	-0.024161354
59	0x3db6a746	0.089186236
60	0xbd0849d4	-0.033273533
61	0xbda59360	-0.0808475
62	0xbdce311a	-0.10067959
63	0x3d61f14c	0.05516176

weight f4 [30, 64]
0	0x3d9b7474	0.07590571
1	0xbd88a78a	-0.066725805
2	0x3df6aaaa	0.1204427
3	0x3b279780	0.0025572479
4	0xbca34330	-0.019929498
5	0xb9266000	-0.00015866756
6	0xbd9c1c9c	-0.07622644
7	0x3c8a2f58	0.016868278
8	0x3db48f18	0.088163555
9	0xbde02eee	-0.10946451
10	0x3d7aef80	0.06126356
11	0x3da01860	0.07817149
12	0x3dc20af6	0.09474747
13	0xbd85e91e	-0.06538604
14	0x3df8c786	0.12147431
15	0xbd803022	-0.062591806
16	0xbd0e2494	-0.034702852
17	0x3d33490c	0.043770835
18	0xbc854000	-0.01626587
19	0xbd2488a0	-0.04016936
20	0xbcefaa68	-0.02925606
21	0xbd890bac	-0.06691679
22	0xbd68b830	-0.05681628
23	0x3da23344	0.079199344
24	0xbd69d9c8	-0.057092458
25	0xbcd73028	-0.02626808
26	0xbdd28e38	-0.10281032
27	0x3db1feaa	0.086911514
28	0x3d0e1f34	0.034697726
29	0xbd039574	-0.03212495
30	0x3dfca4aa	0.12336095
31	0x3aa37180	0.0012469739
32	0x3d8a1138	0.067415655
33	0xbdc55316	-0.09634988
34	0xbdd3cf0c	-0.103422254
35	0x3d686bf8	0.056743592
36	0xbde06e44	-0.109585315
37	0x3bf08940	0.00734058
38	0xbdd6929a	-0.10477181
39	0x3d9ee592	0.07758631
40	0x3d5d9838	0.054100245
41	0xbd2dabe4	-0.042400256
42	0xbda8c0cc	-0.08239898
43	0x3dd792a0	0.105260134
44	0xbc336d20	-0.01095131
45	0x3b938520	0.0045019537
46	0x3d88c532	0.06678237
47	0x3cc79e40	0.024367452
48	0x3cc78c60	0.024358928
49	0xbdda4b1a	-0.10658856
50	0x3d56fac8	0.052485257
51	0xbb9cbec0	-0.0047834814
52	0x3d526d70	0.0513739
53	0x3dcff176	0.10153477
54	0x3b150ec0	0.0022744387
55	0xbd26f9fc	-0.040765747
56	0x3d9661fc	0.07342908
57	0xbdf6bb1a	-0.120474055
58	0x3d8321dc	0.064029425
59	0x3d5d1a34	0.053980067
60	0x3d73ed70	0.05955261
61	0x3d36d088	0.044632465
62	0x3d337a4c	0.043817803
63	0xbda192dc	-0.07889339
64	0x3d17ff6c	0.037108824
65	0x3dc17b2e	0.09447323
66	0xbd6ba8b8	-0.05753395
67	0x3d6852bc	0.056719527
68	0x3d7c83cc	0.06164913
69	0xbcd64d90	-0.026160032
70	0xbd494970	-0.0491423
71	0x3da160b4	0.07879773
72	0xbdab7bf6	-0.08373253
73	0xbd3e11e8	-0.046403795
74	0x3dc04b52	0.09389366
75	0xbdc35892	-0.09538378
76	0xbcbc3ab8	-0.022977218
77	0x3df1aede	0.118009314
78	0x3cc86818	0.024463698
79	0xbdc69d54	-0.09697977
80	0xbde79fac	-0.11309752
81	0xbda94508	-0.0826512
82	0x3d8ef604	0.069805175
83	0xbdc7c15e	-0.09753679
84	0x3d287c84	0.041134372
85	0xbbff1b60	-0.007785246
86	0x3da46a16	0.08028047
87	0x3dfb0a9e	0.122578844
88	0xbccc64c0	-0.024950385
89	0x3dfd2a6a	0.123616055
90	0x3c03f270	0.008053407
91	0xbd97e39e	-0.074164614
92	0x3df78e52	0.12087692
93	0x3d9df292	0.07712282
94	0xbd6a0ffc	-0.05714415
95	0xbdf5287c	-0.119706124
96	0x3d9149d8	0.07094163
97	0x3dd4eaa6	0.10396318
98	0x3cacd178	0.021095976
99	0x3dafdd5e	0.08587144
100	0xbdc879a0	-0.09788823
101	0xbded85fc	-0.11597821
102	0xbd54d588	-0.05196145
103	0x3dafe13a	0.085878804
104	0xbd733418	-0.059375852
105	0x3c3e8240	0.011627734
106	0xbda86510	-0.08222401
107	0xbcd19238	-0.025582418
108	0xbc871f20	-0.016494334
109	0xbd89c738	-0.06727451
110	0x3dc67db8	0.09691948
111	0x3df0ad98	0.117518604
112	0x3dc37696	0.09544103
113	0x3ba93e60	0.0051649064
114	0xbd01a9f0	-0.031656206
115	0x3db50fd6	0.08840911
116	0xbd097310	-0.033556998
117	0xbd27aabc	-0.04093431
118	0x3da94bc0	0.08266401
119	0x3dcb5220	0.099277735
120	0xbdbc400a	-0.09191902
121	0xbd0388a0	-0.032112718
122	0x3ca38c08	0.019964233
123	0x3d8eae4c	0.06966838
124	0x3db5d1a0	0.088778734
125	0xbdd14cea	-0.10219748
126	0xbc312ee0	-0.0108143985
127	0xbce507f8	-0.027957901
128	0x3dc93c54	0.0982596
129	0xbd9f0150	-0.07763922
130	0x3d8bc6d0	0.0682503
131	0xbbf50580	-0.0074774623
132	0xbbb12d00	-0.0054069757
133	0xbd66238c	-0.056186244
134	0xbda62196	-0.08111875
135	0x3c6c6050	0.01442726
136	0xbd29d8f4	-0.04146667
137	0x3df9a734	0.121900946
138	0xbcae0fc8	-0.02124776
139	0xbca143d8	-0.01968567
140	0xbdb092a4	-0.086217195
141	0xbd28df9c	-0.041228876
142	0xbdb31912	-0.08745016
143	0x3d2982fc	0.041384682
144	0xbb7b9080	-0.003838569
145	0xbd867ee4	-0.06567171
146	0xbded0008	-0.115722716
147	0x3decf590	0.11570275
148	0x3d3d102c	0.046158
149	0xbd64205c	-0.055694923
150	0x3db452ba	0.08804841
151	0xbded99c4	-0.11601594
152	0xbd21a6a8	-0.039465576
153	0x3dc5a382	0.09650327
154	0x3d26c4d4	0.040715054
155	0x3dfdcd9a	0.12392731
156	0xbd9210e4	-0.07132128
157	0x3c7f2d30	0.015574738
158	0x3caedd58	0.02134578
159	0x3d11fad0	0.035639584
160	0x3beb0b40	0.007172972
161	0x3be02ea0	0.0068414956
162	0xbd0dd2e4	-0.03462495
163	0x3c9854f8	0.018595204
164	0x3d6a0d90	0.05714184
165	0x3d172a6c	0.03690569
166	0xbdb5b718	-0.08872813
167	0xbd869188	-0.06570727
168	0x3c1a2bc0	0.009409845
169	0x3dbb74fa	0.09153171
170	0xbd3f35c8	-0.04668215
171	0x3c82d4e8	0.015970662
172	0x3df0a33e	0.11749886
173	0x3d0821cc	0.033235356
174	0x3d4ff3d8	0.050769657
175	0x3bbcd620	0.0057628304
176	0xbdb9c51a	-0.09070797
177	0xbddc137c	-0.10745904
178	0x3d8e52f0	0.06949413
179	0x3d576880	0.052589893
180	0x3d3d0b00	0.04615307
181	0xbdd1082c	-0.10206637
182	0xbd657da0	-0.05602801
183	0x3dd970b2	0.10617198
184	0xbd2a4b48	-0.0415757
185	0xbdfa9f54	-0.12237421
186	0x3dc33448	0.09531456
187	0x3daf107c	0.08548066
188	0xbd8f854c	-0.07007846
189	0x3da38a02	0.07985307
190	0xbd6205c8	-0.055181295
191	0xbda05aa4	-0.07829788
192	0x3deca338	0.11554569
193	0xbda26778	-0.07929891
194	0xbd7071a0	-0.05870211
195	0xbdb43bb4	-0.0880045
196	0x3d0453d4	0.032306507
197	0x3c24f650	0.010068491
198	0x3c853d28	0.016264513
199	0x3d960062	0.07324292
200	0x3decf30a	0.115697935
201	0xbc437370	-0.011929378
202	0xbcecc340	-0.028901696
203	0x3d84c84e	0.064835176
204	0xbcdf2640	-0.027239919
205	0xbb179900	-0.0023131967
206	0xbc800350	-0.01562658
207	0x3d60d3bc	0.054889426
208	0x3df9a4d4	0.121896416
209	0xbc9f1cd0	-0.019422919
210	0xbd86f462	-0.06589581
211	0xbdb3a5a4	-0.08771828
212	0xbc8a15f8	-0.016856179
213	0xbd246954	-0.04013951
214	0xbd22b410	-0.039722502
215	0x3db517aa	0.08842404
216	0x3d1b5e24	0.037931576
217	0xbc08a430	-0.008339927
218	0x3dd887a0	0.105727434
219	0xbdb10d42	-0.08645107
220	0xbc990468	-0.018678859
221	0xbb332a00	-0.0027338266
222	0x3de173a4	0.11008385
223	0x3cd1f3b8	0.02562891
224	0xbdc6599a	-0.09685059
225	0xbd187c70	-0.037228048
226	0xbde64946	-0.112444445
227	0xbcde0500	-0.027101994
228	0x3d096500	0.033543587
229	0x3dba7244	0.09103826
230	0x3df39524	0.11893681
231	0xbc73ced0	-0.014880851
232	0x3d2ae548	0.041722566
233	0x3d34cf28	0.044142872
234	0x3d512f8c	0.051070735
235	0xbdcb6cc8	-0.09932858
236	0x3dc19b8a	0.09453495
237	0xbc232e00	-0.009959698
238	0xbddb5d6a	-0.10711177
239	0x3dd6b08a	0.10482891
240	0x3d1d5854	0.038414314
241	0xbc8d5210	-0.017251045
242	0xbd902cf2	-0.07039823
243	0xbd8b946a	-0.06815417
244	0xbc958270	-0.018250674
245	0xbdd49c34	-0.10381356
246	0xb9eb9a00	-0.00044937432
247	0x3d0d0d40	0.034436464
248	0xbd77be70	-0.06048435
249	0x3ddaf35a	0.10690947
250	0x3da26fca	0.07931478
251	0x3dbc8054	0.09204164
252	0x3cec5fe8	0.028854325
253	0x3c47fff0	0.012207016
254	0x3dce44e8	0.100717366
255	0x3dbc0b6a	0.091818646

bias f4 [30]
0	0x3d42039c	0.047366723
1	0xbdd91e64	-0.106015
2	0x3db4edaa	0.08834393
3	0xbd91b826	-0.07115202
4	0x3db9048c	0.090340704
5	0x3ddb7c70	0.10717094
6	0xbd8b0e84	-0.06789878
7	0xbdd798a8	-0.10527164
8	0xbd1de158	-0.038544983
9	0xbde2adf8	-0.11068338
10	0xbd9a806c	-0.07544026
11	0xbcb5f6f8	-0.02221249
12	0x3c9ddbf0	0.019269913
13	0x3cb5a338	0.022172555
14	0x3d2d0514	0.04224117
15	0xbce73050	-0.02822128
16	0x3cd58d48	0.026068345
17	0xbc1f5fe0	-0.009727448
18	0x3c60f220	0.013729602
19	0x3c71b030	0.014751479
20	0x3c8a14c8	0.016855612
21	0xbd58eae4	-0.052958384
22	0xbdf82932	-0.121172324
23	0x3c94d978	0.018170103
24	0xbdf2b834	-0.1185154
25	0x3c4eea00	0.012629032
26	0xbcade978	-0.02122949
27	0xbc9256b0	-0.017863601
28	0x3dd18604	0.102306396
29	0x3cb10b48	0.021611825
