darts_logs/2022-11-19_15.43.55.669151_torch_model_run_2324/checkpoints/last-epoch=0.ckpt (torch, 318132 bytes, 44 tensors)

stacks.0.blocks.0.layers.0.weight f8 [64, 2]
000000 00 00 00 e0 3e 26 e0 bf 00 00 00 c0 f9 99 e2 bf
       -0.504668653011322 -0.5812958478927612
000010 40 dd 18 2c 38 27 dc 3f 6d 84 42 b2 ae 3d f9 bf
       0.4398937636028286 -1.5775591815256818
000020 0e 6e 38 c6 82 e5 c1 bf d9 8a e4 90 ed 75 c7 3f
       -0.13981661490184688 0.18328637671319006
000030 c2 70 94 6a 3f 46 d1 bf 37 9c 72 c6 07 b0 da 3f
       -0.26991258056819956 0.416994041248873
000040 5b 71 4e 1a 77 f3 d9 bf c2 3b e3 95 6e be d6 3f
       -0.40548493927942325 0.3553730453249352
000050 34 60 45 60 a5 aa cd 3f 2e f4 86 32 e0 71 c3 bf
       0.2317702026437033 -0.15191271273752832
000060 ca 57 5c db 45 92 d5 3f 96 7f 92 b8 3d 66 bc bf
       0.33705278799004346 -0.11093507534178423
000070 23 42 c0 5b 8a bf e0 bf 35 c7 61 3d bc ec c2 bf
       -0.5233814041149042 -0.1478495883671315
000080 c0 8d 74 d2 76 97 db bf e0 9f 5f 9f 84 bf d0 3f
       -0.4311196379878446 0.2616893345243607
000090 00 00 00 40 14 61 d8 bf 00 00 00 e0 48 be e4 bf
       -0.3809252381324768 -0.648228108882904
0000a0 43 a9 5a 01 31 58 df 3f 28 91 a4 b4 b0 d1 ff bf
       0.489757777521522 -1.9886939102517065
0000b0 36 9f 1e f0 8d c9 c0 3f e9 69 ea 2f 38 a2 f5 bf
       0.13115095352736156 -1.3521043655115312
0000c0 1e f6 e2 b3 5f 79 d6 3f 10 99 89 58 85 68 bb 3f
       0.35115807120368625 0.10706361209449633
0000d0 5b 26 47 2a 32 f3 e7 bf e2 d7 58 dc ac 60 e9 bf
       -0.7484370065441895 -0.7930511764195638
0000e0 00 00 00 00 2a fc d0 bf 00 00 00 00 35 e5 b3 3f
       -0.26539087295532227 0.0777161717414856
0000f0 71 11 71 bb 2a 00 d6 3f 8a 2e c3 3d 7f 23 fd bf
       0.3437601881489832 -1.8211662685961607
000100 6e 56 fd 75 31 d2 d7 bf 48 06 4a 5a 6b 67 e2 3f
       -0.3722041752092541 0.5751244319400906
000110 7a 8b d6 37 c8 b7 d8 3f 8b 62 82 91 39 80 a3 bf
       0.38621716931282146 -0.03808765317188997
000120 d8 cd d0 3c 75 90 db 3f 43 51 93 2b c2 81 f9 bf
       0.43069201411273417 -1.5941793157736164
000130 e2 b6 62 bf b3 d6 b6 3f 1b 8e 39 f6 14 32 bb bf
       0.08921359465122294 -0.1062329388747049
000140 00 00 00 40 07 aa d3 bf 00 00 00 00 ea 2f ae bf
       -0.3072527050971985 -0.05895930528640747
000150 25 9e 2c 59 83 7d cf bf ac 14 4c 59 d5 70 f2 bf
       -0.24601785520756994 -1.1525472152873517
000160 a5 30 4e 4e 24 cd dd 3f c3 02 10 ea 08 44 e3 bf
       0.4656458630277121 -0.6020550319227244
000170 00 00 00 00 29 f1 be bf 00 00 00 c0 9b 70 e1 bf
       -0.12086731195449829 -0.5449961423873901
000180 0d 04 69 03 8a f5 d7 bf 05 90 23 8e 2a b6 e0 3f
       -0.3743615182211791 0.5222370887900075
000190 46 4a 49 c3 e2 ce cb bf 42 92 64 8f 81 97 e0 3f
       -0.21725115333045347 0.5184943962709172
0001a0 c1 e3 12 30 69 b5 d4 3f eb cb 2d 38 39 7b b9 bf
       0.32357244200425944 -0.09953649159960747
0001b0 29 1d a5 a8 a9 e4 b2 3f 91 48 f7 75 5d ed c6 3f
       0.0738016163569354 0.17911880741172984
0001c0 cf cd cd f9 36 f6 b6 bf 81 4c 77 61 3e 0f bc 3f
       -0.08969443892220073 0.10960760001698767
0001d0 00 00 00 c0 b8 79 e3 bf 00 00 00 c0 f3 df de bf
       -0.608608603477478 -0.482418954372406
0001e0 21 74 71 f4 08 4f 8e 3f 3c 16 8a a3 e6 d5 e2 3f
       0.014799184760869779 0.5886109537247601
0001f0 95 2b ce 54 82 df 9b 3f e6 d7 cc 20 1b 69 db bf
       0.027219807077510778 -0.4282901592554239
000200 00 a0 6b 02 01 11 d2 3f 70 1c 3c 28 88 a2 d9 bf
       0.2822878383290117 -0.40054515771084365
000210 89 1b 6e 93 d2 5f d4 3f ba b9 77 b3 6d 4d d1 3f
       0.31834854505034876 0.27035086179867174
000220 2b 00 c0 cd 21 27 da bf b6 d2 bc e5 ba ce e0 3f
       -0.40863843052648247 0.5252356040060338
000230 05 3e 35 a1 bc f4 94 3f 2f be 68 6a 54 e6 d8 3f
       0.02046484693465624 0.3890582121993899
000240 00 00 00 20 b8 af d6 bf 00 00 00 00 f0 5c 92 bf
       -0.3544750511646271 -0.017932653427124023
000250 67 f6 40 ba 12 55 dd bf 38 e4 77 5b 8a 51 de 3f
       -0.45831745327800494 0.47372683460668297
000260 7c e7 4e b7 c9 d9 eb bf 27 44 a7 08 1d 4a d1 3f
       -0.870335443519465 0.2701485237603855
000270 00 f9 f9 0d 02 18 ca 3f 2e e1 e0 5c b8 2a f6 bf
       0.20385766680187345 -1.3854297283233552
000280 b3 35 00 72 20 fb c0 bf 26 e6 7c 2f b0 60 da 3f
       -0.13266377989240893 0.41215138089646286
000290 a1 68 e5 27 39 d2 e6 3f 62 66 9f 04 c4 84 e4 3f
       0.7131620196553464 0.6412067499433756
0002a0 8e 17 a4 15 f8 99 dc bf 6a 48 db 7a 50 7b df 3f
       -0.4468975268686045 0.49190151212417865
0002b0 6c 1c 6b 9d 93 55 e4 bf 01 d4 18 c0 2c 0d df 3f
       -0.6354463648393796 0.48517912635298904
0002c0 5c c7 ca 06 96 c9 bd bf 59 72 bd a4 ac 95 d8 3f
       -0.11635720887968887 0.3841353997029607
0002d0 fd ef ba 70 8c 72 dc 3f 44 25 20 46 3e b7 eb bf
       0.4444914914017771 -0.8661185617103588
0002e0 fb 4f ca 8b ee 65 ce bf f9 9f 52 a5 71 ec d6 bf
       -0.23748571229646118 -0.3581813921432509
0002f0 57 1e 8c b6 2b 0c c1 bf 8d 03 a7 5a 5f db 9b bf
       -0.13318392194217907 -0.02720402708814933
000300 5c 23 34 07 7b 90 ba bf 7c d3 9a 7d 0f 66 a1 3f
       -0.10376709867354122 0.03398178489934531
000310 04 a2 3e 2a 4d f7 c1 3f 4e f1 0a a4 5b 05 ce bf
       0.140359540583873 -0.2345385123243297
000320 00 00 00 80 62 e1 da bf 00 00 00 a0 5e 03 d4 bf
       -0.4200063943862915 -0.3127056658267975
000330 09 4e 31 3e 21 c6 d9 3f 1a fc b0 d6 44 15 c0 bf
       0.4027178866719799 -0.12564907534576336
000340 c7 d2 62 53 ba ec e1 bf 75 7e 3b f1 77 0a e9 3f
       -0.5601474407800077 0.7825278960771828
000350 67 96 28 9f 73 1f e5 bf 03 f6 28 7a 68 fc f1 bf
       -0.6600893124165851 -1.1241230747103834
000360 e9 3f fd 74 04 24 d9 3f 51 4c 7a b0 fc b1 e0 bf
       0.3928233282540519 -0.5217269369917493
000370 c6 50 2a e4 2d 0f a0 bf 6c 57 23 0a 0e 95 c5 3f
       -0.031365808584412444 0.16861129279157738
000380 9c f3 91 92 9f a1 e7 3f d6 1b 86 86 8b 9c d8 bf
       0.7384794104287837 -0.38455474984260485
000390 3a 83 d6 f2 3b f0 d4 bf df e7 c4 cb 54 f9 ec bf
       -0.32716273035662236 -0.9054359416834322
0003a0 33 ac f0 d7 f9 39 e5 bf f0 c7 42 05 d5 50 e5 3f
       -0.6633271424847237 0.6661172011138188
0003b0 c1 ea 9a 6a 0c fa c7 bf f1 39 4a 40 ad 45 cc 3f
       -0.18731837468461346 0.2208763660350566
0003c0 00 00 00 00 c0 7e 92 bf 00 00 00 40 16 63 e0 bf
       -0.01806163787841797 -0.51209557056427
0003d0 a6 56 fb 3e 83 90 ec bf 24 fc 03 7d c0 a1 e2 bf
       -0.8926407079804519 -0.5822451059065128
0003e0 8d c7 43 3b b1 3f d0 3f 15 3e 67 a5 82 d9 d0 bf
       0.25388747012686325 -0.26327577736535207
0003f0 00 00 00 00 90 62 bd bf 00 00 00 e0 45 c0 d2 bf
       -0.11478519439697266 -0.2929854094982147

stacks.0.blocks.0.layers.0.bias f8 [64]
000000 00 00 00 00 6f 94 bc bf bf 1c e9 57 d2 02 d3 3f
       -0.11163991689682007 0.2970472200872329
000010 72 ee 95 61 3d 16 c8 3f 7a f4 f5 0c c1 33 bd bf
       0.18817870392728114 -0.11407095495629163
000020 01 fa ca 60 d0 ab dc 3f e4 c1 74 86 d7 a9 90 3f
       0.4479866929285948 0.01627289541392142
000030 a5 6f 42 02 7b e2 d9 bf b6 77 e3 82 dc 5f f2 3f
       -0.4044482729020678 1.1484036553224377
000040 fc 3c f7 f8 f8 be dd 3f 00 00 00 40 3b a1 d4 bf
       0.4647810393625631 -0.32234078645706177
000050 25 da 2c 8b 94 13 e0 3f 26 79 64 8e 33 93 ee 3f
       0.502390167070932 0.9554689198592186
000060 a4 fd e3 5c ba 1a f1 bf fb c6 94 d9 79 94 e0 3f
       -1.0690253857172616 0.518124508822637
000070 00 00 00 00 bc 2b df bf 00 b9 03 24 83 88 e8 3f
       -0.4870443344116211 0.7666640952500359
000080 73 05 56 fd 35 41 d9 bf f5 00 55 75 1b ca e7 bf
       -0.3946051572784974 -0.7434212962762375
000090 cc 99 79 6f c7 9c d4 3f 0d 86 eb cd 87 82 ba 3f
       0.322069033491428 0.10355423714965913
0000a0 00 00 00 20 de c3 e4 bf 5e 2f 26 64 e6 f3 e2 3f
       -0.6489096283912659 0.5922729450262343
0000b0 5a a8 6b a3 6e 42 d5 3f 00 00 00 e0 6a 18 e2 bf
       0.332179698553437 -0.565480649471283
0000c0 62 8b 43 74 fb 0e c6 bf d0 4b 39 6c aa ea e6 bf
       -0.17233222176499924 -0.716145717024455
0000d0 d8 e8 e1 96 51 48 d7 bf 7c 7b df 07 9d 49 dc bf
       -0.36378898367514756 -0.44199300545545106
0000e0 21 81 9d 16 5d 0b b5 3f 00 00 00 a0 b9 8d de bf
       0.0822046451771752 -0.4774002134799957
0000f0 76 aa 4b 00 81 41 c9 3f a2 f8 d9 e8 09 84 eb 3f
       0.19731152071411245 0.8598680065040478
000100 2d dd 65 19 c2 2b d5 3f 59 d5 32 d4 2a 7a d3 3f
       0.330795788576739 0.3043315002681389
000110 7d 83 49 4c ee 01 c1 bf 70 eb 3d e2 e7 26 e9 bf
       -0.13287142491301643 -0.7859992426668736
000120 00 00 00 e0 ef 24 e5 bf 2b 9b 55 7b 93 97 be 3f
       -0.660758912563324 0.11950036774724697
000130 f2 30 47 00 50 ee ef 3f 32 c4 99 69 ae 04 ea 3f
       0.9978408818656404 0.8130714476120657
000140 ce e5 3b b0 2b 02 e6 bf f0 76 cb 73 39 e6 e9 bf
       -0.6877649728841619 -0.8093535672776095
000150 f4 25 ce f7 c3 f9 ba 3f a4 8b b0 d2 85 9a d1 3f
       0.10537361907895343 0.27505631995352986
000160 02 4f 88 5c c6 a5 e2 bf ac 63 93 cd 34 7a c7 3f
       -0.5827361876749537 0.1834169391429702
000170 75 71 82 cf 34 4b d9 3f 42 39 48 d7 e5 4a dd 3f
       0.3952152277431858 0.45769639991421596
000180 45 70 57 75 5c a7 c8 3f 7b 7c 49 36 cc ee d3 3f
       0.1926074574429341 0.3114500551363972
000190 00 00 00 c0 16 bd e5 bf 90 02 29 26 a0 19 c6 bf
       -0.6793321371078491 -0.17265703070917882
0001a0 fe 8a 20 4d b8 7e dc bf 4b 6c b7 d1 3c 83 e2 3f
       -0.44523437053628345 0.5785202117944065
0001b0 1e 29 54 f4 9b 41 d8 3f a5 c7 2f ec 44 89 e0 bf
       0.3790044675848935 -0.5167564976711573
0001c0 03 9f 9e cc 3a f9 e7 bf 8d cf ed cd ce 35 e4 3f
       -0.7491735455014069 0.6315683385896463
0001d0 07 d5 a0 5d 77 1c d3 3f 4f 8f 51 73 61 f9 bd 3f
       0.29861244338401643 0.11708649697680794
0001e0 00 00 00 00 ff 0f b2 bf d9 70 16 16 bf d7 e1 3f
       -0.07055658102035522 0.5575862342261885
0001f0 cb c8 af de ae 05 62 3f 00 00 00 a0 db 3c d4 bf
       0.002199975531305664 -0.3162144720554352

stacks.0.blocks.0.layers.3.weight f8 [64, 64]
000000 00 00 00 80 d4 c9 a8 3f bd a6 d7 55 78 af 79 bf
       0.048414841294288635 -0.006270856914378062
000010 91 b1 3e 98 5a b1 b5 bf 3c b6 f8 bd 1c 10 b4 3f
       -0.08473745552936963 0.07837085378624747
000020 a6 76 a0 c1 b4 7e b4 bf a9 e0 25 8a 83 29 a8 3f
       -0.08005838134018947 0.04719172536255318
000030 03 e6 a5 1f 2a ba ab bf 4b 76 d3 c0 62 3a 5f 3f
       -0.054154697764669656 0.0019060100924471908
000040 37 7f ba 09 8a 2a b1 bf 00 00 00 00 58 29 95 bf
       -0.06705534684669777 -0.020665526390075684
000050 00 00 00 40 34 f8 bc bf e5 af 64 84 11 05 a2 bf
       -0.11316229403018951 -0.03519491902474651
000060 7b 65 ad 4c 3a cb a1 bf 00 00 00 c0 af fb b7 3f
       -0.03475362955095825 0.09368418157100677
000070 00 00 00 80 6c 01 a5 bf 00 00 00 00 6a a9 93 3f
       -0.041026487946510315 0.019200950860977173
000080 cd 9e 59 d4 4f 69 b3 3f ef ee 39 27 f5 11 5e 3f
       0.07582568106010541 0.001835336120079963
000090 b7 93 59 b9 64 81 b4 bf 83 56 b8 2f ce 8a 7a 3f
       -0.08009938740867893 0.00648003140988396
0000a0 00 00 00 c0 a2 4b bd 3f 00 00 00 80 ba 74 a6 bf
       0.1144353598356247 -0.043859317898750305
0000b0 2f c8 5e d7 ae b2 bf bf 00 00 00 80 45 53 a3 bf
       -0.123820235806108 -0.037744686007499695
0000c0 d1 96 28 6b 0a 93 b7 bf cd 63 c2 c1 b7 d6 be bf
       -0.09208741298842972 -0.12046383362247966
0000d0 94 37 10 5a bd ab b5 bf 79 2b a5 35 b1 ca ba bf
       -0.08465178917705735 -0.10465533790299543
0000e0 39 d8 cc 7e 40 bd b2 bf 00 00 00 40 44 14 be 3f
       -0.07320025535304432 0.11749674379825592
0000f0 6f 5b b8 0e ec a7 a0 bf 39 78 1c ad b4 90 c1 bf
       -0.03253114394845268 -0.13722856953330778
000100 3a a8 66 b3 dd 8c a7 3f 1d bc 7d d4 66 5b ac bf
       0.04599659743264835 -0.0553848394764531
000110 c9 87 ab 87 d5 9a 8a bf b1 86 b3 5a 01 e9 8f bf
       -0.012990635111638131 -0.01558114107178041
000120 00 00 00 80 0f df a8 3f 7d 4b 9d d3 14 29 9a bf
       0.04857681691646576 -0.02554733792869567
000130 02 f8 ed 76 fe d9 8b 3f 40 b6 04 62 70 36 bb bf
       0.013599384312097843 -0.10629942315127838
000140 a1 78 2c 2c 0f 2b a8 3f 0f 9e 35 16 af 97 a2 bf
       0.04720351614217689 -0.036313506566156055
000150 6a 42 71 13 00 a5 ae bf b5 08 45 83 10 be a9 bf
       -0.05985260236105179 -0.050278202079895896
000160 1a ad 27 a6 13 84 a6 3f 6d 29 7e f5 45 03 b1 bf
       0.043976415665236426 -0.0664561962459282
000170 00 00 00 c0 8b 51 b0 bf cc 9c 3e 9c bc 32 96 3f
       -0.06374429166316986 0.021677920376217227
000180 f1 f0 c8 a5 9c 6f b2 3f e0 87 69 fb cb 9b a2 bf
       0.0720155625103336 -0.036344885292024065
000190 00 00 00 80 86 5d be 3f 8d 41 39 0a 1c 79 c1 bf
       0.11861458420753479 -0.13650846957399346
0001a0 65 85 42 cf a4 a9 ae 3f 00 00 00 00 d6 c8 a7 bf
       0.05988802938487473 -0.04645413160324097
0001b0 60 35 10 b1 ed 0e a4 bf 4f 66 27 b4 ee 02 b0 3f
       -0.03917639528672612 0.06254474542893117
0001c0 97 71 49 b6 0d e8 b6 3f 00 00 00 80 6f b1 bd bf
       0.08947835636485589 -0.11598870158195496
0001d0 0f 15 da 88 c9 1c c0 bf 49 f9 80 1c f6 e9 a2 3f
       -0.1258785169813241 0.036941233615368115
0001e0 00 00 00 00 82 d3 a9 bf 00 00 00 80 9f e3 af bf
       -0.05044180154800415 -0.06228350102901459
0001f0 05 7f 09 75 56 d0 b8 3f 00 00 00 80 12 61 ad bf
       0.09692898137427271 -0.05738122761249542
000200 00 00 00 00 b7 42 b3 3f 8d 74 26 b6 02 6a b8 bf
       0.0752367377281189 -0.09536759326006657
000210 cb ab 8a 16 69 b5 bd bf 7f 91 45 c6 ec 81 a1 3f
       -0.11604935455640868 0.03419437332448449
000220 9c 37 7e 8c a6 74 b9 bf d9 d7 5d f6 be 42 c1 bf
       -0.09943619661336672 -0.13484942464464103
000230 1c 51 db 9d 3d 4f 76 bf e0 d3 9f 36 7f f1 c0 bf
       -0.005446663560821709 -0.13236990134433224
000240 d0 bb 54 95 3c 84 b8 bf 00 00 00 00 f0 7c a2 3f
       -0.09576777120376723 0.03610944747924805
000250 98 e4 cb cd 4a 05 86 3f 9a 81 10 0e 6a cb 93 bf
       0.010752281575593423 -0.019330651386668764
000260 59 55 db 1d f2 cc b0 3f 71 09 24 02 c9 cd 9d bf
       0.06562722424435687 -0.029105320697462248
000270 00 00 00 80 91 1d b0 3f e2 52 f7 d7 c9 65 90 bf
       0.06295117735862732 -0.016013292128110097
000280 a2 79 b0 28 39 6e b3 bf f8 a5 83 95 ea f9 b7 bf
       -0.07590062373535614 -0.09365717077493929
000290 f1 d3 78 bc 04 d2 bc bf a9 dc 8c 54 a3 3d bf bf
       -0.11257962800375744 -0.12203427137579816
0002a0 00 00 00 40 15 cf bb 3f 2c 8a 11 05 f5 2b b2 bf
       0.10862858593463898 -0.07098323224776298
0002b0 1f 49 86 51 32 84 c4 bf 00 00 00 c0 43 bf b1 3f
       -0.16028431873980595 0.06932471692562103
0002c0 55 b5 1a 90 46 9f c8 bf 8b 7f 79 d7 fc be ac bf
       -0.1923607066759511 -0.05614462023072438
0002d0 dd 2d bc fb f6 34 b9 bf 80 dd 7f c2 24 0b a8 3f
       -0.09846442838550425 0.04696001886616852
0002e0 1f 4b c1 27 bb 68 93 3f 00 00 00 c0 bb d7 b1 3f
       0.018954204846816865 0.06969808042049408
0002f0 1b 3e a1 56 86 ba a2 bf 41 cd ea 91 ec 44 b0 3f
       -0.03657932097905477 0.06355169832641129
000300 8e 27 49 1d 9b 31 a3 3f 7c 21 8f b8 ff d3 83 3f
       0.037487838101312496 0.009681699580952545
000310 37 f8 c9 ad 98 59 c6 bf 8b 4a 59 92 a2 25 aa bf
       -0.17460926519191997 -0.05106838261112497
000320 00 00 00 00 c5 61 95 bf 50 1d a3 41 e0 19 93 3f
       -0.020880773663520813 0.01865339661233395
000330 fe 32 ab e1 af e1 a3 bf ec 77 dd d7 21 39 a7 3f
       -0.038831230447248885 0.045357759094926425
000340 ff 87 e7 2b ce ec a7 bf 37 d0 3c 74 3f e1 bc bf
       -0.04672855649893392 -0.11281200969534742
000350 6f 0b eb da ca d1 b2 3f 5b 8e 17 cd 17 89 8a 3f
       0.07351367802315932 0.012956796595012301
000360 a2 35 20 b2 94 8e a3 bf 54 a1 c7 a2 c7 32 b1 bf
       -0.03819718050372535 -0.06718108867756217
000370 49 aa a5 83 44 ed b3 bf 51 20 b7 c7 ba dc b6 bf
       -0.07783916677514315 -0.08930556655752865
000380 14 cf af d0 3e 0f bd bf f0 40 2a 17 ad 98 a8 3f
       -0.11351387591258472 0.048039826467290214
000390 00 00 00 c0 9e 76 b1 bf 0e 27 3c b3 63 90 be bf
       -0.0682162493467331 -0.11939070821622641
0003a0 46 b4 8d 40 b7 7b 94 3f 8a ef 18 b2 25 47 a1 3f
       0.02000318843368045 0.03374593543091382
0003b0 49 ce d9 2f e5 f4 63 3f 20 bb 00 22 65 72 b6 3f
       0.0024361110980011575 0.087683029939154
0003c0 78 33 d6 79 fb 4b 84 bf 03 9f e5 7b b9 5f b4 bf
       -0.00991054978910609 -0.07958564066722933
0003d0 b3 fd 94 95 fd d2 c2 bf 76 4b 6c 44 6d db 9a 3f
       -0.14706392101105123 0.026227671910486326
0003e0 00 00 00 00 ab f0 bf 3f 61 b1 56 9d 1a 5a 86 3f
       0.12476605176925659 0.010914047171205867
0003f0 55 f9 cf 25 a9 58 b3 bf 00 00 00 00 60 9d 66 bf
       -0.07557160542635206 -0.002760589122772217
000400 00 00 00 80 fa da a5 bf 8b 0a 51 a5 ec 2a e5 bf
       -0.04268629848957062 -0.6614897946204378
000410 72 87 10 5a 32 58 91 bf b6 e8 3e 8b ac 93 e5 bf
       -0.016938006159882453 -0.6742766112941101
000420 63 ac b2 c0 b7 05 e6 bf fe 65 e8 71 d1 90 54 3f
       -0.6881979716903398 0.0012552304612029048
000430 4f 24 47 d3 97 45 b8 3f 22 0f 3d fa 08 d5 c6 bf
       0.09481190593864251 -0.1783763143413291
000440 3b ce be c4 80 1c de bf 00 00 00 00 2a 13 a2 bf
       -0.4704896851864963 -0.03530246019363403
000450 62 90 8c 74 fb a8 de bf 0b 5f 7a ef 49 5a e1 bf
       -0.479063857858142 -0.5422715833001076
000460 f2 65 8b 87 9b 1e bf 3f 82 85 fd c3 ce 30 a4 bf
       0.12156078395073402 -0.03943487303218786
000470 00 00 00 00 28 7c b5 3f e4 bb 8c eb 53 ca e1 bf
       0.08392572402954102 -0.5559482193547152
000480 19 57 d8 6a 98 07 cc bf 49 a4 0a f9 63 7c b7 3f
       -0.21898179261250375 0.09174179868809164
000490 93 52 3a 4c c2 d5 e1 bf 03 53 29 79 c6 a9 77 bf
       -0.5573436249565752 -0.005777144705082507
0004a0 00 00 00 c0 1f a8 b7 3f 81 ad 69 82 e2 bf b5 bf
       0.09240911900997162 -0.08495917972475377
0004b0 dd 1f 48 85 4d 15 c5 3f 00 00 00 00 74 9d a9 3f
       0.16471261032006526 0.05002939701080322
0004c0 7c d1 a3 17 76 e3 e0 bf b4 2a ab 60 33 fd d8 bf
       -0.5277662717549414 -0.39045414390845257
0004d0 36 ed 67 f5 f2 ac a8 3f 9f fd b7 b3 32 50 c3 3f
       0.04819449659040702 0.15088495040252511
0004e0 21 88 42 f6 4f aa ba bf 00 00 00 00 36 9a b8 bf
       -0.10416126024441087 -0.09610307216644287
0004f0 b1 23 75 d7 cc 35 91 3f 33 2e b4 05 cd fd d9 bf
       0.016806793833243187 -0.4061157756520714
000500 8f 29 15 94 88 43 9d bf 50 ed 70 67 0a fc 8b 3f
       -0.028577932394264812 0.01366432312180757
000510 48 b9 10 33 22 0e e0 bf 93 b8 54 15 6e ce b6 3f
       -0.5017252919549628 0.0890873720242971
000520 00 00 00 40 f1 10 b3 bf 47 0b ad e7 91 b8 ec bf
       -0.07447727024555206 -0.8975305104180301
000530 2e 64 a7 3c 6c 3b c7 bf 76 93 f6 0c 4b a7 e1 bf
       -0.18150093995680677 -0.5516715291201837
000540 fd 06 c4 6d 62 1f d7 bf dd 70 c5 97 31 c9 9c 3f
       -0.36129055709180574 0.028111243141538778
000550 78 90 12 11 77 4b ec bf 5d 67 38 e4 b6 29 d1 bf
       -0.884212048859367 -0.2681710461343892
000560 29 a8 99 f3 0f 36 e5 bf 49 7e de 63 f6 bb d0 3f
       -0.6628494031731452 0.2614723181995698
000570 5c 11 d5 d3 1e 27 9b bf 60 ae 7f 17 7e d6 e4 bf
       -0.026516420058457654 -0.6511831721267747
000580 f9 7f d7 e1 5a 54 d6 bf d6 63 47 6f 2b d4 a3 3f
       -0.3488986211286825 0.0387281010950528
000590 00 00 00 00 7e d2 8c bf 7f e9 c0 0e 5d 95 ad 3f
       -0.014073356986045837 0.057780178118679075
0005a0 c6 e7 4c f1 3b ef 67 3f 66 cc 2a 5b 9e 8e b8 bf
       0.0029216929200659185 -0.09592618680726303
0005b0 54 35 94 7b 30 e9 c0 3f 84 c6 8c 39 ce 2e b6 3f
       0.13211637529495113 0.08665169625307995
0005c0 c0 13 24 fa 3c 28 a8 3f 2f 57 bb 3d 28 3a a4 3f
       0.047181993040829706 0.03950620416223526
0005d0 59 9c ec c5 a8 20 e9 bf 14 b2 1a 9c 08 68 d5 bf
       -0.7852367273052422 -0.33447470898207254
0005e0 00 00 00 00 42 1e 83 3f ce 07 33 b0 dd e2 8e bf
       0.009335055947303772 -0.0150811499974032
0005f0 18 a7 13 eb 7b dc 7a bf 00 00 00 80 66 e0 ad bf
       -0.006557926231133292 -0.05835266411304474
000600 00 00 00 80 17 ed ad 3f ce cc e6 59 dc 6a de bf
       0.05844949185848236 -0.47527226237725706
000610 db b4 da 5b ec 4a ad 3f 19 3c 5b 53 e1 bb c7 bf
       0.05721224423664647 -0.18542114801536583
000620 54 1b 9b 1c f0 4b 96 3f d7 33 ae 1c 64 ac af bf
       0.021774055238690096 -0.061862114430460906
000630 ee f7 d8 54 45 02 c3 bf c1 dd de e7 c6 38 b6 3f
       -0.1485068001074405 0.08680384789373986
000640 eb 3f 0d 70 6c f5 b4 3f 00 00 00 00 48 7c 98 bf
       0.08186986671103084 -0.023911595344543457
000650 8b 4d f2 8e 89 2f c5 bf 26 e3 2b 04 52 9e 78 3f
       -0.16551322440919267 0.006010361076499026
000660 ad 41 23 3c c4 35 d0 bf 62 9b 97 15 0d af aa 3f
       -0.25328164933037095 0.052116783986824414
000670 00 00 00 80 fa ca a9 3f 48 ff 92 8c 67 3e b1 bf
       0.05037672817707062 -0.06735846693027014
000680 e6 ba 1f 00 97 a7 c7 bf 67 a1 8d 4b 68 cf ca bf
       -0.18480193620731383 -0.20945457162020917
000690 1e 25 a7 f9 a9 88 e8 bf 76 49 62 6a 06 22 ba 3f
       -0.7666826129945183 0.10208168122543335
0006a0 00 00 00 80 5d 4b a3 bf 2b e4 3f 7d aa 35 e3 bf
       -0.037684366106987 -0.6003010221749084
0006b0 ce e3 12 4b 77 b7 c0 3f 00 00 00 00 65 7c a7 3f
       0.13059893766128855 0.04587092995643616
0006c0 74 d4 04 8f 13 c7 dc bf e9 cb c8 21 03 71 c1 bf
       -0.44965065924345216 -0.13626135968806288
0006d0 a0 fe a9 68 7b 98 be bf 1f b4 0a f5 08 37 d5 bf
       -0.11951419167780353 -0.33148406915535306
0006e0 f4 ae b6 72 6a 69 a1 bf 00 00 00 80 47 4b a7 3f
       -0.03400738382637583 0.04549621045589447
0006f0 ba 7a e9 be 2c 17 51 bf f8 fd 8b c1 89 f0 96 3f
       -0.0010431229562965342 0.022401955068742624
000700 7f 0c 3b a5 b4 0a b3 3f 8a 88 14 bd 7a 0b 88 bf
       0.07438210519744536 -0.01174064530875209
000710 ee 7d 10 48 47 98 e4 bf 3a eb 4d a3 50 e6 d6 bf
       -0.6435886771686776 -0.3578073115128749
000720 00 00 00 00 4d 89 b3 bf 32 c6 58 55 fe 32 c7 bf
       -0.0763137936592102 -0.18124369780848465
000730 80 92 81 72 49 fb b8 3f f3 60 20 f6 a6 8e 89 bf
       0.09758433385429477 -0.01247911871546179
000740 50 e9 fe de b6 e0 a8 3f 68 e9 15 9c 32 b9 81 bf
       0.04858943435779628 -0.008654017818788787
000750 0b 99 bf b2 48 c7 96 bf bb f9 03 cb 56 e3 9d bf
       -0.022244583043993276 -0.029187542096218638
000760 02 6c 44 86 14 0e bc bf a4 23 b4 42 72 5d 86 3f
       -0.10958984640130612 0.01092042223037188
000770 32 33 c8 d2 fc 4b d9 bf 7a 4a 76 2c e0 38 c0 3f
       -0.39526291450674755 0.12673570796012595
000780 57 4b 22 09 c2 e5 b5 3f 86 da e6 99 0d 15 9b 3f
       0.0855370781230652 0.026447498815935798
000790 00 00 00 80 87 79 a3 bf 62 7f 23 05 b7 95 9c bf
       -0.03803656995296478 -0.02791486710418612
0007a0 98 57 af 8a cc a3 c5 bf 3f 9c 6b 6e 6d 09 b8 bf
       -0.16906124850964654 -0.09389385171708485
0007b0 2b 2c a0 07 6a 62 ac 3f 0a 20 b4 21 a4 86 c1 bf
       0.05543834059798088 -0.13692142148670455
0007c0 9b 9f 85 e1 5c 90 a8 bf 82 ed d6 68 93 28 de bf
       -0.04797640088037199 -0.47122655142057834
0007d0 7c 93 09 64 8c f4 80 bf a2 9a 77 bf d8 91 b4 bf
       -0.008278939059161543 -0.08035044359676616
0007e0 00 00 00 40 7f 53 ba 3f 35 23 93 43 47 a5 c3 3f
       0.10283656418323517 0.15348139571713096
0007f0 e1 a1 d9 b5 8a 47 b1 3f 00 00 00 00 3c 6f a6 bf
       0.06749789180469846 -0.04381740093231201

stacks.0.blocks.0.layers.3.bias f8 [64]
000000 f5 b6 1d e8 87 0f c3 bf 37 52 ae 39 b1 8a b2 3f
       -0.1489114650134337 0.0724287763426411
000010 14 3a 1d ec 61 91 b1 3f 30 62 36 37 c8 b9 c1 3f
       0.0686246110392193 0.13848211952132905
000020 c8 d0 57 4e f9 47 c3 3f d9 28 3b 1d 80 c2 c3 3f
       0.1506339676412891 0.15437318255710045
000030 69 2c 10 0d ca d3 de 3f 19 59 e6 8c 30 61 9a bf
       0.48167659068776075 -0.025761374091950538
000040 78 b1 80 cf 8e 49 dd 3f e5 5d ea a8 28 84 d7 3f
       0.45761461509643864 0.36744133468297796
000050 92 3b e4 37 ca c8 d5 3f 2f 5a 1c 99 84 12 9c bf
       0.34038024385602583 -0.02741439041627752
000060 86 0f 4f 4e 0c e6 a2 bf 5f 50 bd f3 a5 be a7 bf
       -0.03691137748640387 -0.04637640571914469
000070 00 f5 67 c0 ab e7 97 3f 1b 93 00 dd 00 3b 95 bf
       0.02334469186643151 -0.020732892502695593
000080 ff 5d 7e 5d 2c 49 a3 bf ba 05 d0 9f 7f 32 c4 bf
       -0.037667642987056375 -0.15779109290455812
000090 6a 58 69 92 23 6f d9 3f b7 c9 29 23 14 e5 d1 3f
       0.39740838335035866 0.2796068519011458
0000a0 21 bc a8 ad 0a e9 d4 3f 30 5e b1 a3 c1 97 b1 bf
       0.32672373732470034 -0.06872186895758925
0000b0 e7 30 26 ca 7b bc b2 bf d9 23 a8 3c 73 1b bd bf
       -0.07318853078158193 -0.11370010596159776
0000c0 97 a3 61 7b 37 0f d8 3f f5 31 17 db 0a eb e1 3f
       0.37592875527348596 0.5599416998971366
0000d0 47 40 cd 73 d2 ff e3 3f bc f0 ac 70 a9 51 8a 3f
       0.624978281188313 0.012851070166668747
0000e0 28 a3 91 9c d7 a4 2b 3f 23 bc 4e d5 12 43 aa 3f
       0.00021090633370881543 0.05129298070766477
0000f0 c5 85 63 05 f9 48 d3 3f b8 4b eb 7f 9b 3a d4 3f
       0.30132890249487004 0.31607711307622877
000100 27 63 c9 3f 5f 26 de 3f 93 d2 8c 18 d6 c2 c2 bf
       0.47109204510847963 -0.1465709323762395
000110 f7 f3 31 52 e3 00 eb 3f 1d 0f e0 16 37 d9 de 3f
       0.8438583951352702 0.48200776323231925
000120 9e 91 ae af e9 a1 d7 3f 3b e5 2d a2 d2 f9 c3 bf
       0.3692573753017089 -0.1560614864245425
000130 f6 b2 0e d5 b0 51 c1 bf e4 99 a7 95 ea 85 d5 3f
       -0.13530550387567758 0.33629860510555276
000140 f7 3f 43 2e ec 04 dc 3f 15 23 80 1c 17 d4 b7 bf
       0.43780045049516 -0.09307999082387781
000150 c3 96 bb fb 64 f0 91 3f a3 2c 42 a5 70 52 d5 3f
       0.017518594612645055 0.3331567396023251
000160 30 e7 35 48 23 1a c2 bf 6c a5 3f 67 02 7a bb bf
       -0.1414226629820461 -0.10733046551435671
000170 0b 1c da 5c 62 22 d2 bf 4d 32 b1 76 22 80 b2 3f
       -0.2833486468084067 0.07226767919309758
000180 35 b7 dd 78 82 aa a3 bf a0 c0 35 e3 04 ca c2 bf
       -0.038410260442886125 -0.14679013342129554
000190 33 b9 c5 b2 8a 62 3f 3f be 97 3e 43 d6 6b d1 3f
       0.0004788960093468242 0.2722068459210013
0001a0 f1 30 3c 6b 83 28 d9 3f 08 f9 ab 72 40 97 af 3f
       0.393097738954352 0.061700834272402416
0001b0 ce bd 45 9d 1f f8 b8 bf 83 7c 86 c1 2f d8 d1 3f
       -0.09753606404932855 0.27881997965773325
0001c0 4d 47 65 3f cd 78 9e bf 90 50 f3 4c 71 a5 c2 bf
       -0.029757697100030445 -0.14567390687318893
0001d0 94 f1 3d 22 3f 16 d5 3f e8 63 24 b8 a8 49 b5 3f
       0.3294828256983007 0.08315519805581995
0001e0 30 88 e7 1b 02 e4 cb 3f c6 07 61 f7 32 26 e2 3f
       0.21789575922508808 0.5671629745122508
0001f0 61 77 67 62 da 37 d6 3f 02 3b 93 38 f5 00 ce 3f
       0.34715900049001475 0.23440423262078275

stacks.0.blocks.0.backcast_linear_layer.weight f8 [10, 64]
000000 11 b2 6d 10 60 c8 b2 bf 7b 56 2f 6e bb 15 9e bf
       -0.07336998368345628 -0.029379776573327448
000010 7c eb a3 8f 71 53 c2 3f 0a 69 92 c9 57 62 bd bf
       0.1431714965218268 -0.11478184386433923
000020 bb 60 a9 23 97 2f fa 3f 2f 1f 4f da c8 32 d1 3f
       1.63661874704671 0.26872464484448505
000030 fb 9f e9 b5 72 9b c1 3f aa 0c 39 4f 2c 6b 87 bf
       0.13755639917803805 -0.011434885184945582
000040 7e 39 b0 05 c7 0a bc 3f 68 36 e5 0e 4b ce c2 3f
       0.10953945053936384 0.14692056872665948
000050 fb 96 22 95 c2 01 be 3f 16 50 d3 19 ea 4d b4 3f
       0.11721435681337404 0.07931388025764394
000060 39 de 2e 62 0b b4 ad 3f 74 81 cd 0a d7 a5 dd bf
       0.05801425527118593 -0.4632470708366079
000070 f9 6d 77 f8 bb 28 b8 bf f2 ac 3d 7c 95 89 b4 bf
       -0.0943715554816932 -0.08022436412072745
000080 3d 6a 15 d3 f2 77 a0 bf b3 18 c4 48 4a 1f b4 bf
       -0.03216513468460789 -0.07860245014680593
000090 f9 27 45 3c e0 e1 c2 3f 68 db 97 d0 10 77 bf 3f
       0.1475181860244559 0.12291054813964097
0000a0 88 8e 1d f8 4f 67 bc 3f e3 bc 7f b6 8e 66 a2 bf
       0.1109514218092561 -0.03593870141764357
0000b0 13 10 7e 5a d3 0b 6e 3f 4c b5 10 c8 2d af f7 3f
       0.0036677482602858274 1.4802682700204342
0000c0 1a f7 6f f9 6b 81 bb 3f 5d fb 58 89 c7 31 c0 3f
       0.10744356956271553 0.12651914793419908
0000d0 14 50 cc b7 92 ea c2 3f 83 06 eb 9b f0 5c a1 bf
       0.14778360342518282 -0.033912200005500125
0000e0 d2 c6 f1 2c 1f 7e b0 3f ed 35 61 9e d0 fa 96 bf
       0.06442446563030593 -0.022441157976848137
0000f0 66 16 a7 21 8d 8e c2 3f f6 45 ce 91 7f e4 b7 3f
       0.14497532027432952 0.09333035764418426
000100 8f aa b9 36 1b 11 c2 3f 1d 62 9c d2 51 7b b4 bf
       0.14114704296237732 -0.08000670806757922
000110 3a b6 1d 18 41 3a c1 3f 3a ad 01 3a cb 79 bc 3f
       0.1345902793649872 0.11123342672515416
000120 f3 fe 6d a6 a6 71 bb 3f 1c 08 34 bf 74 85 be 3f
       0.10720292628502275 0.11922387760208192
000130 36 f6 f8 3e 8f a5 b6 bf 2d e0 cc 60 c4 d3 c1 3f
       -0.08846373832144469 0.13927511908127724
000140 94 6e a2 73 88 ab c7 3f 53 fd b3 e9 5a 6a c1 3f
       0.18492227216926393 0.1360582009437886
000150 b1 12 e4 48 8c 05 f1 3f 03 18 3b 7e 73 44 c3 3f
       1.0638544890690975 0.15052646316161153
000160 fc ae 36 ae 5d 2b a2 bf 41 f5 20 e8 9e 69 7a bf
       -0.035487105861958995 -0.006448384027007593
000170 64 b6 9e 32 91 59 c9 bf f9 f9 86 33 c6 93 f4 3f
       -0.19804587337187052 1.2860776913436196
000180 d8 42 6a 79 2e f7 e4 3f 33 e3 a9 ff 7f 84 ac 3f
       0.6551735278499917 0.05569839473623119
000190 ba bb 1b 58 8f bd ce bf 0c 83 5a 2a 61 b4 b9 3f
       -0.24015991022267064 0.10040862354300034
0001a0 26 5d 69 89 c3 ea bf 3f aa 73 08 90 44 be dd bf
       0.12467596153998226 -0.46473802629207717
0001b0 ff 6e a5 83 a0 48 b9 3f 95 28 79 ed 3a 2f c0 3f
       0.09876445020693934 0.1264413508927801
0001c0 fa 5a df f6 aa 5c 92 3f 5f fd 09 71 1d 28 5a bf
       0.017931624715710172 -0.0015964782252522942
0001d0 8b 9b db fb f7 e2 c0 3f ce 3e 35 a4 b0 65 b4 3f
       0.13192653463121604 0.07967666634544487
0001e0 99 6c 25 57 e9 4e c2 3f 53 c5 b1 b7 95 3c bb 3f
       0.14303318743882157 0.10639320120551092
0001f0 6c d7 10 67 fa 94 c2 3f 8f 6c 3b be 7a ad c2 3f
       0.14517145187863478 0.1459191731326865
000200 5b 12 33 cb 52 98 ba 3f ef bb 67 29 92 b6 a5 3f
       0.10388677082944169 0.04240853076395711
000210 d6 28 e1 93 c8 97 d3 bf d1 1f 10 c4 4a c7 8e 3f
       -0.3061391300331143 0.015028556927077748
000220 aa d1 28 81 bf 7f f2 3f 71 e0 67 1c 9d 46 84 bf
       1.1561884923258767 -0.009900309972167261
000230 f1 4d 19 f1 c2 4b bf 3f 66 8b fd 9e 90 c1 bc 3f
       0.12224977861597332 0.11232856637574926
000240 a1 16 16 c9 01 4a bd 3f 72 fa 2a d2 8d d3 c0 3f
       0.11441050681431843 0.13145611536124907
000250 f7 5e bc be be 42 c2 3f dc d1 bc 82 76 e5 b1 bf
       0.142661898739554 -0.06990757648311025
000260 ce 0e 29 41 77 98 a1 3f f2 6d be 42 06 23 b7 bf
       0.034366347030780994 -0.09037818078507323
000270 03 79 13 7b e5 aa 96 3f 83 f1 4a 93 b0 70 a8 3f
       0.022136293065039513 0.04773475454337286
000280 fe 79 a2 54 d2 32 af 3f c7 7b 42 21 6b 36 c0 3f
       0.06093461306703672 0.1266607201004872
000290 21 51 77 af 76 76 c0 3f 3b 2e 63 bd f1 9f bb 3f
       0.12861522262267847 0.10790930627552424
0002a0 58 93 f4 26 59 a0 bf 3f d3 ef 90 9d 52 41 b3 3f
       0.12354047013338965 0.0752154955561644
0002b0 c2 48 81 ac 3f 14 c5 3f 6f 24 81 b6 6b 54 f1 3f
       0.16468044207664972 1.0831105355339579
0002c0 5d b2 20 64 a1 e7 be 3f 72 b8 e5 83 58 29 bb 3f
       0.12072189993404821 0.10609963627004662
0002d0 f8 1f 5f 74 93 87 c4 3f f1 72 08 18 cf a5 be bf
       0.16038745100217944 -0.11971754395240077
0002e0 46 2c 73 79 20 8d a7 bf 6c e4 1b 37 46 5a ad 3f
       -0.04599858744185119 0.057329363085906276
0002f0 69 2e f2 c5 fc 21 c2 3f 32 41 b4 e7 2d 59 c3 3f
       0.1416622129948906 0.1511590367667935
000300 f3 72 ff 77 27 91 c0 3f e0 19 19 59 5a 11 b1 bf
       0.12942975386876973 -0.06667103457684886
000310 d1 1b 51 e0 ad db c0 3f 89 e0 c4 5d 3c 68 be 3f
       0.13170407727213143 0.11877801217349505
000320 30 7e b1 c0 96 c0 c2 3f 9b db 22 32 f9 28 aa 3f
       0.14650234612325752 0.051093852396142135
000330 28 d8 e6 37 26 6b b8 3f da c2 06 f2 38 85 c3 3f
       0.09538496842182609 0.1525031263131698
000340 32 22 ab 1c 90 54 c5 3f 03 9b a4 94 a2 2e c7 3f
       0.16664315605000152 0.18111068971594343
000350 09 66 21 76 50 43 f2 3f 09 15 52 75 de 85 c0 3f
       1.141434155890581 0.12908535698458248
000360 bd e1 70 b2 e5 94 bf 3f 88 17 33 5c b4 e9 86 3f
       0.12336574179142352 0.01118794351931364
000370 9c ab 9f 5a 7c 15 c8 bf d1 c3 6a 6f 6e d7 f0 3f
       -0.18815569329248383 1.0525955536106617
000380 99 d3 e4 a2 08 fd d9 3f ba 51 6e 39 f8 00 a5 3f
       0.40606895358660605 0.04102302266179288
000390 fd 5a 3f 21 94 ff df bf f1 05 b1 b4 53 4a c6 3f
       -0.4999742817575877 0.17414327929331777
0003a0 77 0a 3c b0 0f 56 be 3f 3d 3c e0 51 6b 07 dd bf
       0.11850069096184677 -0.4535778331346057
0003b0 8b 1a 6f 27 64 c0 a0 bf a6 72 a8 e3 c5 02 bc 3f
       -0.032717828572960427 0.10941731269890428
0003c0 b4 3a b3 90 eb af ae bf 08 42 58 b9 da f3 b6 3f
       -0.059935914434040255 0.08965842270868774
0003d0 f9 99 7b c0 49 89 c1 3f 09 59 5f c9 7b d7 c4 3f
       0.1370022001130591 0.16282603581084512
0003e0 33 23 92 44 75 ac c2 3f 12 1e 26 93 48 54 c2 3f
       0.14588800285516754 0.14319712815289215
0003f0 3f ad 35 34 7a 0a c1 3f 76 ec bb 7a f7 78 bc 3f
       0.13313224362659956 0.11122080561101363
000400 9a ab 63 a5 3a 7e 9b 3f f1 2a 9f aa ca 2d b5 bf
       0.02684871324974445 -0.08272997537202877
000410 34 17 b9 24 a0 d6 e4 3f eb dc 44 05 08 f3 cd bf
       0.6511994092222495 -0.23397922761225884
000420 0b 9a 70 aa bb ba e3 3f 53 2f c8 93 7a 96 c0 bf
       0.6165445641425448 -0.12959224906841857
000430 10 d2 02 6f 91 07 bb 3f e0 b6 a4 71 7d 16 bd 3f
       0.10558423004369666 0.11362442039964149
000440 c9 eb c8 47 89 a0 c2 3f d4 98 5a f5 2e 0f b8 3f
       0.1455241776000931 0.09398168077550234
000450 c3 a6 8e 39 98 4f c0 3f 18 5b e1 27 7f 01 bf bf
       0.1274290352860615 -0.12111658786430402
000460 7d 47 28 54 ab a4 ad bf 79 49 7b 25 a3 89 d5 bf
       -0.05789695169745721 -0.3365257135420943
000470 e5 e6 40 3a 31 81 b5 bf f6 42 be 99 8f d4 97 bf
       -0.08400256797986179 -0.02327179313539581
000480 70 0d c8 8c 85 27 a4 3f 2c 2b e5 77 1f 0f 91 3f
       0.03936402648471471 0.01665925187379995
000490 14 e7 3b 09 82 3a bc 3f 35 ef 51 07 08 a1 b9 3f
       0.11026776051940274 0.10011339358055411
0004a0 d3 41 5e 5a fa 6e bd 3f 97 61 6f 10 1a 60 9b bf
       0.11497463899855313 -0.02673378682433877
0004b0 96 22 67 f3 c5 a1 ba 3f 7c 4d bc 92 fe d9 e4 3f
       0.10403096382573049 0.6516106477669577
0004c0 35 f5 3c aa 53 2e ba 3f 0d a3 7b ce 0f 2b bc 3f
       0.10226939111904161 0.11003207007491884
0004d0 53 b5 61 97 a1 31 c2 3f ec c0 fa d9 1b 1c 8a 3f
       0.14213962451632742 0.01274892577143346
0004e0 81 8a ba e1 ca 65 cf 3f 69 21 4a 1d 80 29 b3 3f
       0.24529396078022006 0.07485199656560372
0004f0 b9 be 20 49 e8 94 b5 3f 38 ec a1 82 3d 92 c2 3f
       0.08430339608525629 0.14508789900341568
000500 df db 17 d2 4e dc b8 3f d3 8a d5 06 14 6d bc 3f
       0.09711163167217716 0.11103940169190744
000510 d0 4e dd 48 66 00 c2 3f 55 e6 d4 b2 dc b4 be 3f
       0.14063719327770352 0.11994723669058634
000520 09 c8 01 12 7e 69 be 3f 53 5a 5b 90 31 84 b5 bf
       0.11879718722937595 -0.0840483643945416
000530 74 80 06 fd da ef ba 3f ce d1 db ba b8 10 c2 3f
       0.1052224033105647 0.14113530277212621
000540 54 20 29 c4 0e 1f c0 3f 72 2c c2 45 87 26 88 3f
       0.1259478051963493 0.011792237106666745
000550 62 8c a2 e9 3d 7a e6 3f 16 fb e8 d6 e2 35 bc 3f
       0.7024221003706652 0.11019723650768429
000560 f0 9d 26 a9 30 c8 a6 3f 9e 6e a4 65 a3 29 d4 3f
       0.04449607910947495 0.3150413982964241
000570 fe c2 d1 b3 1d f6 c2 3f c4 56 76 af a6 8d de 3f
       0.1481358650230717 0.47739569792734593
000580 dc 3b 90 da 2d 36 e7 3f f3 63 d1 ce 9b c7 ac bf
       0.7253636616532009 -0.05621039294846488
000590 fa 68 e9 a0 46 83 e0 bf 21 f0 db 5a 23 20 c2 3f
       -0.5160248892600798 0.14160577713471503
0005a0 1c 11 ff fe d4 70 b9 3f 8e 78 39 e9 22 90 d0 3f
       0.0993779299306578 0.2587973859389273
0005b0 49 8f 01 42 66 a2 be 3f f6 8b 9c f8 11 06 ba 3f
       0.11966551887013312 0.10165512389771422
0005c0 8c e5 c9 f0 a0 e5 a6 bf ab d8 aa f0 9a fc 91 3f
       -0.044720677750727494 0.017565174998445936
0005d0 72 22 cd 0d ca e9 bb 3f ad 57 eb 75 ae 94 c1 3f
       0.10903609120317428 0.13734989888933793
0005e0 28 97 67 e6 96 6e bb 3f 86 e0 a2 82 1d 83 c5 3f
       0.10715621113885432 0.16806382063601094
0005f0 eb 69 57 53 61 6a bd 3f 0c fa 4c 96 60 0b b5 3f
       0.11490448269561397 0.08220485372019243
000600 d2 e5 82 d0 8c 5f ad 3f a6 a7 8a d6 bb bd a7 bf
       0.057369614079515366 -0.04636942857662456
000610 a4 29 79 cb 15 3f e0 3f c6 59 ed 05 d2 f1 ce 3f
       0.5077008222663619 0.24175477303897547
000620 c7 5e 60 14 ed 8a d8 3f 46 9a 87 29 83 5a 9d 3f
       0.3834793757427914 0.02866558972336921
000630 17 2a 7f a9 37 71 c0 3f 36 18 77 6c 6c c4 9c bf
       0.12845512176711857 -0.028093046302977785
000640 ef 5c 61 68 78 56 bd 3f 93 67 85 c0 31 90 be 3f
       0.11460068271968614 0.11938773107740834
000650 b9 cf 64 95 c6 94 c0 3f bd 88 04 0d 9c 51 b6 3f
       0.12954027456873776 0.0871827632695696
000660 da a3 d4 81 19 dd bd 3f d6 c6 b5 c2 5d 38 d7 bf
       0.11665496272747991 -0.3628153230157357
000670 d2 8e 04 3a a3 a6 bb bf 36 2e 3b f7 58 23 a1 bf
       -0.1080114380497961 -0.03347280519446054
000680 bd 4f b3 eb 64 a9 bc 3f 3c c8 56 e0 50 88 a0 bf
       0.11195975069432414 -0.032290007958537065
000690 88 aa f1 0c cb b3 b9 3f e5 27 4d 5c 8f cf b7 3f
       0.1003996759988387 0.09301086429073242
0006a0 db 16 de db 7f 69 c0 3f 0e bf 4d fa 80 99 ac 3f
       0.12821958766669792 0.05585864119973226
0006b0 00 19 3a 51 da 89 a1 bf c1 c9 6a 62 8e 89 db 3f
       -0.03425485841312259 0.4302707635025876
0006c0 a1 6c a4 06 7e 5d b6 3f 01 83 19 3f a9 b6 bd 3f
       0.08736407911458112 0.11606843748587538
0006d0 8e 65 21 bf 39 a0 c5 3f 6f 2e 1c c8 50 d6 c1 3f
       0.1689521964315585 0.13935289164543316
0006e0 92 1f a7 e9 d3 ac c1 3f 0e 35 1e 56 c2 23 73 3f
       0.1380867854006707 0.004672774435573913
0006f0 ae b2 d8 6c db 78 b8 3f 36 cc 09 a3 ba db c2 3f
       0.09559413344750098 0.1473305984578432
000700 ec fc aa 4b 19 af b9 3f 81 18 f8 b7 63 73 bd 3f
       0.10032804581986782 0.1150419544356698
000710 87 6b f0 ff dc 55 c3 3f 9b 86 72 5f 23 b4 ba 3f
       0.15105783936527592 0.1043111904168889
000720 29 d7 4c d2 bb 78 c0 3f 41 92 3e 87 68 7d c1 bf
       0.12868449944078833 -0.1366396580098286
000730 27 dc 8b fb 65 f4 a1 bf 67 a2 f0 6e 62 9c c1 3f
       -0.03506773658403289 0.13758497635832898
000740 00 d1 7a d6 1f df c2 3f 16 a0 5b f7 36 e5 b5 3f
       0.1474342152847683 0.08552878893863211
000750 c4 8f b9 99 65 b4 dc 3f 86 55 2c 90 d6 7c c0 3f
       0.4485105515689123 0.12880975761133245
000760 c2 67 73 f2 b5 9d b1 3f c0 8e 53 ba 64 61 d8 bf
       0.06881272477349312 -0.3809444255441399
000770 1b 87 18 76 7b b3 e3 bf d9 2c 63 ee d4 f4 d0 3f
       -0.6156594568785495 0.2649433448793395
000780 83 d2 1b 2d 22 f1 e0 bf f3 3e 06 19 4f 28 b2 3f
       -0.5294352417973446 0.07092756615588396
000790 e4 93 f3 91 b5 bd e0 bf 85 bc f5 52 19 0a c5 3f
       -0.5231578684439424 0.16437069464470624
0007a0 c2 25 2d fc da 69 b5 3f a1 f9 06 a0 d8 f7 f0 3f
       0.08364647537850714 1.0605093241752928
0007b0 ff af 8c 13 99 c5 aa bf e4 30 cd 25 d8 26 bc 3f
       -0.05228880275384994 0.10996771738900041
0007c0 c5 89 eb 86 19 8e ac bf 91 3b a8 38 61 50 b0 3f
       -0.05577163478826067 0.06372649796706599
0007d0 18 11 5f 18 49 c5 be 3f ee bf b6 25 91 35 c5 3f
       0.12019783825877928 0.1656972345494973
0007e0 49 5f 3e d4 75 08 bc 3f b8 f5 41 a2 b9 dc c3 3f
       0.10950409347276237 0.1551734964631757
0007f0 3a ec ae 70 41 68 bd 3f f5 d7 84 63 e3 8d b3 3f
       0.11487206460053381 0.07638379268323077

stacks.0.blocks.0.backcast_linear_layer.bias f8 [10]
000000 e9 60 39 18 bb 69 cf 3f df e9 7f 35 b6 b3 c4 3f
       0.24541414912051288 0.16173436748779488
000010 a0 c6 cb 69 05 6d e0 3f 7f 32 59 0b 54 2f d6 3f
       0.5133082453086963 0.34663869007344056
000020 f5 e9 06 d8 b3 4a b9 3f 6a 91 33 22 f0 70 c0 3f
       0.09879611991974697 0.12844659490577764
000030 3b 67 1b 0b d2 c4 71 bf b8 1d 41 f1 46 19 ca 3f
       -0.004338093263607064 0.20389639644620927
000040 3b 19 4a 5c 52 5d c2 3f 6e ae 46 9e b8 ff 98 bf
       0.14347295290299109 -0.02441299882927555

stacks.0.blocks.0.forecast_linear_layer.weight f8 [2, 64]
000000 26 8e b0 0c 5c 43 a0 bf 6e 4c ca 70 d5 8c ab bf
       -0.03176391272452532 -0.053808851259554355
000010 ab fc 0f 1d fa 0f a7 3f 48 40 7e 36 b0 84 9e bf
       0.045043769881880046 -0.029803040815352483
000020 a4 0b 5f 6c d5 2d cb bf 27 c3 d3 cf b7 c5 88 bf
       -0.21233623305860505 -0.012095867185480792
000030 90 a3 72 ee 4f 5f c1 3f eb 63 e5 11 6a 24 a1 bf
       0.13572119849166286 -0.0334809443326732
000040 f8 b0 55 c8 e6 18 bf 3f d6 39 c7 5d 18 10 c2 3f
       0.12147371664986284 0.14111618594183878
000050 f8 4c 77 10 eb 58 c0 3f 39 29 f9 2e 77 33 a7 bf
       0.12771356872563167 -0.045314526065868006
000060 b1 cd 99 03 6c ab af bf c7 4a e3 0e 6b 9e bf bf
       -0.06185472053484931 -0.12351101983521594
000070 5b 93 07 62 b7 39 b4 3f a5 d3 dd 78 3c 8d a2 3f
       0.07900568145084945 0.03623379683896325
000080 31 a8 bd e0 cc 24 b2 bf 1c e0 3c b1 34 d6 b0 bf
       -0.07087402808034039 -0.06576852156729313
000090 7a 7b e4 e1 55 54 c2 3f 0b 73 f7 70 78 9a bf 3f
       0.1431987145415084 0.12345078237508404
0000a0 52 9e d9 be 21 99 bf 3f 27 b8 7d 80 90 63 a5 bf
       0.1234303561155852 -0.04177524155134931
0000b0 2d cf 80 a2 6d 4a a6 bf f2 25 45 06 64 e8 c5 bf
       -0.043536592566310574 -0.1711545019737027
0000c0 d4 f0 b2 a7 ad 61 c0 3f a9 39 bf 52 c4 29 c0 3f
       0.12798090637614357 0.1262746242559392
0000d0 d3 b4 10 c1 dd ba c6 3f f5 00 01 f7 83 6b 82 3f
       0.17757770468725784 0.00899413201852937
0000e0 ad bd e4 99 2b ae a8 bf 2f 79 fa b2 9a 3a 91 3f
       -0.04820381406386374 0.016825120138144797
0000f0 b6 af 07 5c b2 68 c0 3f 92 1c 89 84 eb c5 be 3f
       0.1281950902333599 0.12020751939518196
000100 40 20 33 c1 e7 f5 c1 3f ad 1b b2 66 b2 b8 b5 bf
       0.1403169339521373 -0.08484950072498405
000110 ef 66 7f cd 6f 66 c5 3f d4 bf 5f dc 7a 6d be 3f
       0.16718862089219708 0.11885803108430021
000120 4c c3 cb 4e a6 1b bf 3f 75 5c aa 39 0e bf 8f 3f
       0.12151565002183168 0.015501128325281702
000130 db 6f 07 ed ab 6f a5 bf 20 68 38 cc 13 60 c2 3f
       -0.041867611583910246 0.14355704757400733
000140 82 54 2d 71 c2 46 c8 3f 63 97 d7 3d 9c 92 88 3f
       0.1896594097731033 0.011998386990807302
000150 cd f9 11 f2 6a 71 c5 bf e9 fd cf 1e 5d 74 c3 3f
       -0.16752373523554667 0.1519886398746018
000160 1a b9 a6 37 14 40 a4 bf 49 f1 a9 58 d8 3e df 3f
       -0.03955138377510732 0.4882107606752198
000170 f8 f9 6a a0 f1 fa c3 3f a1 23 70 93 dc ac cb bf
       0.15609569867042672 -0.21621281813739038
000180 d2 a4 ca 47 da 97 d7 bf b4 f3 5f db 12 f3 b2 bf
       -0.3686433507051109 -0.07402150970297222
000190 ff 93 e8 06 db b0 b7 3f 21 80 dd ef 14 bb c1 3f
       0.09254235190071823 0.13852178299112075
0001a0 fe 7c 73 97 ba 82 c1 3f 58 00 10 8e d1 81 ad bf
       0.13680202860903273 -0.057631062118162546
0001b0 59 26 98 26 de b3 b4 3f cf c0 10 99 5a 0a c1 3f
       0.08086956445927153 0.13312847589396035
0001c0 1d 2a 97 d9 ab 3b 75 3f fd f7 e9 17 37 c9 99 bf
       0.005183860100667318 -0.025181637606230812
0001d0 43 31 19 29 cf 62 c0 3f e5 e4 95 b2 72 48 bf 3f
       0.12801541811712455 0.12219921932218687
0001e0 69 ba 06 fd 06 65 c1 3f 32 2b c4 7a bf e0 bf 3f
       0.13589560847090645 0.12452313182090505
0001f0 d6 af 1c 4c 54 5f c2 3f bb 4f db 1d ea f7 bf 3f
       0.1435342189446362 0.1248766253368662
000200 8a 92 86 9d 6e a4 9a 3f 8e ca 1c 33 2a 74 b9 3f
       0.026017883648494812 0.09942878482687886
000210 fd e0 5e e3 ea 16 a6 3f 0e b9 ef 30 af 1d c2 bf
       0.043143596892550186 -0.14153089417909154
000220 e2 d2 e0 27 3b 25 ca bf b0 63 da 95 4d a9 99 bf
       -0.20426120230845074 -0.02505990244990003
000230 37 e5 28 ea ce 31 c1 3f c7 f2 6c b7 a3 91 a9 3f
       0.13433252748090194 0.04993926633912831
000240 9b c1 9b 20 7f c1 be 3f 59 04 9f ad 04 e0 c1 3f
       0.12014002367118908 0.13964899518581111
000250 9e 4d cb 7e 83 33 c0 3f a8 51 4b b3 3d 10 b3 bf
       0.1265720719444347 -0.07446656825351872
000260 ed 5e 05 ea a7 85 ab bf c0 3f da 55 c5 06 b0 bf
       -0.05375408870412266 -0.06260331483849679
000270 87 24 95 6c e3 ef b8 bf 1c f4 d6 28 9d 7a a2 3f
       -0.09741040612165551 0.0360917198517898
000280 42 a6 a7 21 4c 85 99 bf 5e 3c 30 91 ac b7 98 bf
       -0.024922551683550738 -0.024138161050413103
000290 f9 f4 0c 8a 25 1f c2 3f d4 07 8f c6 1c 6c bf 3f
       0.14157551995041454 0.12274341437935671
0002a0 e8 ae ad b1 7a 46 bf 3f dd 60 f8 2c ca 3f b9 bf
       0.1221691783700255 -0.09862960431962926
0002b0 3b b2 eb 0d 8f e4 9c bf fd e9 49 49 5e 16 c9 bf
       -0.028215632652903926 -0.19599512651969056
0002c0 62 ff 8d 32 8f 39 c0 3f 34 4d 11 5e 9d 24 c0 3f
       0.12675657242288724 0.12611739247459186
0002d0 b5 66 47 e7 30 7a c6 3f c5 38 f1 ff 23 b6 b5 bf
       0.17560397427478383 -0.08481049536314618
0002e0 0b 62 9c b8 d9 d8 85 3f 4e d2 be b5 28 8f b8 bf
       0.010667515703560523 -0.09593443333762616
0002f0 b7 dc 28 45 94 5d c0 3f c2 19 48 be 4d 77 be 3f
       0.1278558099454352 0.11900792975948263
000300 7a c0 9c a6 19 c9 c1 3f 9c 5a 41 a4 9d a7 b6 3f
       0.13894959102026744 0.08849511394633186
000310 3b 3d ce df cb 27 c5 3f 03 97 5e 7b 75 11 be 3f
       0.16527698925026776 0.1174539018816994
000320 29 a0 64 d1 e2 d7 be 3f 4e e3 80 72 73 47 ad bf
       0.12048165905127974 -0.05718575260875146
000330 9c db 9b d2 b9 29 b5 bf c3 25 6d 2a 67 34 c2 3f
       -0.082667936247033 0.14222421237563596
000340 14 1f 15 0c d8 0f c8 3f 91 7c dd 5f e2 ac ae 3f
       0.18798351850477302 0.05991275234441063
000350 ed 58 d1 eb f9 1d c6 bf d3 9b 09 b7 46 44 c3 3f
       -0.1727898026899263 0.15052112519626223
000360 14 dc e6 2c d8 4f 98 bf 17 47 f5 71 87 34 d2 3f
       -0.02374208234843074 0.2844561207649447
000370 92 c4 f4 e3 06 97 d0 bf d1 5e fa 50 46 b7 ce bf
       -0.2592179514059093 -0.2399680991554676
000380 1c de 74 23 28 68 e5 3f fa c6 0b ab d9 61 98 bf
       0.6689644520292322 -0.023810769142932543
000390 65 64 da 35 e5 6f b7 3f 0c 7e 6a fe 40 90 c1 3f
       0.0915511375882417 0.13721477911620672
0003a0 68 d5 1c 08 6f 4b c1 3f 83 75 30 16 52 b4 e4 3f
       0.13511455436825348 0.6470117982277518
0003b0 d5 b1 7b 25 69 15 b1 bf 08 f9 d8 93 e4 e4 c0 3f
       -0.06673295178524737 0.131985256377398
0003c0 a1 77 22 a7 85 34 b0 bf 00 dd 9a 1d ac b9 b0 bf
       -0.06330142336307044 -0.06533313486839987
0003d0 a2 f0 0f 50 e2 4d c0 3f 81 d8 5c af fa 00 bf 3f
       0.1273768320969611 0.12110869199099918
0003e0 00 67 8a eb fc 4a c1 3f f9 e0 a6 d6 22 b2 bf 3f
       0.1351009512043717 0.12381189098858049
0003f0 56 66 19 e2 78 32 c2 3f 2b 98 55 e9 67 a4 bf 3f
       0.1421652893066489 0.1236023850120495

stacks.0.blocks.0.forecast_linear_layer.bias f8 [2]
000000 42 fd cc 0d 60 33 bf 3f 78 42 51 3e 1f 9f ac 3f
       0.12187767350132098 0.05590150485716533
