darts_logs/2022-11-19_12.46.46.869095_torch_model_run_13992/_model.pth.tar (torch, 74610 bytes, 16 tensors)

weight f4 [64, 2]
0	0xbee3859c	-0.44437873
1	0x3f205ba3	0.62639827
2	0x3e9966f2	0.29961354
3	0xbf1546b8	-0.58311033
4	0x3f1ed2e1	0.62040526
5	0xbf247fbe	-0.6425742
6	0xbe7648a0	-0.24051142
7	0xbdba3cb0	-0.090936065
8	0xbf2a8f43	-0.6662485
9	0xbf221f8c	-0.63329387
10	0x3ecfe93e	0.40607637
11	0xbe807fb3	-0.25097427
12	0x3d885208	0.06656271
13	0xbe3a83e4	-0.18214375
14	0xbee8cb0c	-0.45467412
15	0x3e975f6e	0.29564995
16	0x3eec881a	0.46197587
17	0xbeabd25f	-0.33558938
18	0xbed5156c	-0.41617906
19	0x3f02fc41	0.5116616
20	0xbf23367f	-0.6375503
21	0xbbb82580	-0.0056197047
22	0x3e7fe9f8	0.24991596
23	0x3ee1fb62	0.44137102
24	0x3f035877	0.5130686
25	0xbeb795f1	-0.35856584
26	0x3eb5035a	0.3535412
27	0xbe2b4094	-0.16723853
28	0xbdb65350	-0.08902609
29	0x3f154fcd	0.5832489
30	0xbd9d6f60	-0.07687259
31	0x3f0d7395	0.5525449
32	0x3e5f25b8	0.21791732
33	0xbf0039a2	-0.5008794
34	0xbf27e1bf	-0.65578836
35	0x3e23e774	0.16006261
36	0x3ed17c2a	0.40915042
37	0xbec3a39c	-0.38210762
38	0xbdb79f90	-0.08965981
39	0xbd8d5968	-0.069018185
40	0x3f0592b5	0.5217698
41	0x3cd87720	0.02642399
42	0xbf19281f	-0.59826845
43	0xbeda5774	-0.42644846
44	0x3d9a51c0	0.07535124
45	0x3f269aff	0.65080255
46	0x3f22edb7	0.63643974
47	0xbe8d2c4b	-0.27572855
48	0x3eec6f62	0.46178728
49	0x3ec3543e	0.3815021
50	0xbeb35f45	-0.35033622
51	0xbcf01c80	-0.029310465
52	0xbeefd0fa	-0.46839124
53	0xbea0af0b	-0.31383547
54	0xbf1b99d4	-0.607816
55	0x3f14440b	0.57916325
56	0x3e1a02f8	0.15040195
57	0x3ef04872	0.4693027
58	0x3e1388cc	0.14407653
59	0xbe96b778	-0.2943685
60	0xbf0e433e	-0.55571353
61	0xbe1956d0	-0.14974523
62	0xbee64731	-0.4497619
63	0x3ee2a14a	0.4426368
64	0x3e2529ac	0.16129178
65	0xbd0ac1f0	-0.03387636
66	0xbee6accc	-0.4505371
67	0xbe8c9bb1	-0.27462533
68	0x3ddf4520	0.109018564
69	0x3f24b8eb	0.6434466
70	0xbef6b5d6	-0.48185605
71	0xbebba70b	-0.3665088
72	0x3f1d8de3	0.61544627
73	0xbe76a4ba	-0.24086276
74	0xbe044428	-0.12916625
75	0xbf12338f	-0.5710992
76	0x3f247d69	0.6425386
77	0x3cf54120	0.02993828
78	0x3ef1e18a	0.47242385
79	0x3e22ee48	0.1591121
80	0x3e6ea580	0.2330532
81	0xbe7081d8	-0.23487031
82	0xbe556914	-0.20840865
83	0xbf344d33	-0.70430297
84	0x3f186e8b	0.59543675
85	0x3ef8578e	0.485043
86	0x3f15e1a3	0.5854742
87	0xbec80816	-0.3906867
88	0x3e1a4744	0.15066248
89	0x3f1d3963	0.6141569
90	0x3f12d7d3	0.5736057
91	0xbe41bf5c	-0.18920654
92	0xbf21d219	-0.6321121
93	0xbe630b0c	-0.22172183
94	0x3f009671	0.50229555
95	0x3db0ea48	0.086384356
96	0x3ee0623e	0.43824953
97	0x3ec6dc66	0.38840026
98	0xbd9716e8	-0.07377416
99	0xbc685f80	-0.014182925
100	0xbdaeb960	-0.08531451
101	0x3e84ce6a	0.2593873
102	0xbf1f4b7c	-0.62224555
103	0x3f304013	0.6884777
104	0xbf20092d	-0.62514
105	0xbeede3a0	-0.46462727
106	0x3f092cbf	0.535839
107	0x3e16075c	0.14651245
108	0x3e86b9d6	0.26313657
109	0xbe19b930	-0.1501205
110	0xbe884ac2	-0.26619536
111	0xbeeb0480	-0.4590187
112	0x3ea39c56	0.31955212
113	0xbf0006e1	-0.50010496
114	0xbedb138e	-0.42788357
115	0x3f07c89f	0.530405
116	0xbe59f0f0	-0.21283317
117	0x3e931388	0.2872584
118	0xbeb9107f	-0.36145398
119	0x3cc1cba0	0.023656666
120	0x3f1b9b8f	0.6078424
121	0x3d4a9050	0.049454033
122	0xbe9aa121	-0.30201057
123	0xbef7d8f4	-0.4840771
124	0x3e5f6ff8	0.21820056
125	0xbf00c965	-0.50307304
126	0xbb924b00	-0.004464507
127	0xbf095741	-0.53648764

bias f4 [64]
0	0x3e33aa4c	0.17545432
1	0x3f1636bf	0.58677286
2	0xbf0e41cb	-0.5556914
3	0xbf2633ef	-0.64922994
4	0x3edc8d6a	0.4307664
5	0xbe8d6dc7	-0.27622816
6	0xbe708d3e	-0.2349138
7	0x3d73abc0	0.059489965
8	0xbe48b4fc	-0.1960029
9	0x3e76e278	0.24109828
10	0x3ece5656	0.40300244
11	0xbe0b02e4	-0.13575321
12	0xbe9368b3	-0.28790817
13	0xbf13b5d0	-0.576993
14	0xbea7c8f5	-0.32770506
15	0xbf2c5533	-0.67317504
16	0x3c3cbd40	0.01151973
17	0xbee3b349	-0.4447272
18	0xbe3497b4	-0.17635995
19	0x3e12d12c	0.14337605
20	0xbe26e698	-0.16298902
21	0xbefc89e0	-0.4932394
22	0xbf2b67d5	-0.6695531
23	0xbe6b2d0a	-0.229664
24	0x3dfd3f30	0.12365568
25	0xbf25ee28	-0.6481652
26	0x3f0fd9cf	0.56191725
27	0xbef0a535	-0.47001043
28	0xbf274162	-0.6533414
29	0xbf085a85	-0.5326312
30	0xbed04c34	-0.40683138
31	0xbe8b43ce	-0.27200168
32	0x3d1ad880	0.037804127
33	0xbe8a9c87	-0.27072546
34	0x3eeb1006	0.45910662
35	0xbf3135ec	-0.69222903
36	0xbf24f9e3	-0.64443797
37	0x3f0990ad	0.5373638
38	0x3f304487	0.68854564
39	0xbec30171	-0.38087037
40	0x3c9ae740	0.018909097
41	0xbe5fd098	-0.21856916
42	0xbefd645a	-0.49490625
43	0xbf0144c4	-0.50495553
44	0x3ee0df76	0.43920487
45	0x3f243cbd	0.6415518
46	0xbf0c1eba	-0.54734385
47	0x3ed56ae2	0.41683108
48	0xbe8c41f4	-0.27394068
49	0x3dfc5550	0.123209596
50	0x3eda46c2	0.4263211
51	0x3eb73dfa	0.35789472
52	0x3f1fe4f5	0.62458736
53	0xbf29b9e0	-0.6629925
54	0xbe92cdc1	-0.28672603
55	0x3f0f1859	0.55896527
56	0x3f130a3d	0.574375
57	0xbe360550	-0.17775464
58	0xbcf6d920	-0.03013283
59	0x3e3c9590	0.18416429
60	0xbed7ba5a	-0.42134362
61	0xbbdf2b80	-0.0068106055
62	0xbcb57880	-0.022152185
63	0xbedc2b42	-0.43001753

weight f4 [64, 64]
0	0x3dbb0c18	0.09133166
1	0x3d99108e	0.07473861
2	0xbde095ec	-0.10966095
3	0xbdaedd86	-0.08538346
4	0xbd2c0910	-0.04200083
5	0x3da2f4fc	0.07956883
6	0xbdf65f5e	-0.120299086
7	0xbdc3d688	-0.09562403
8	0xbc20fb20	-0.009825498
9	0xbcc7a0e8	-0.024368718
10	0x3dc45b12	0.09587683
11	0xbd97fbb4	-0.074210554
12	0x3d5ea480	0.0543561
13	0xbd0fda70	-0.035120428
14	0xbcf38178	-0.029724821
15	0x3dc2a05a	0.09503241
16	0xbd62fdb8	-0.055417746
17	0xbd374170	-0.04474014
18	0xbd29eab0	-0.04148358
19	0x3d9cd258	0.076573074
20	0xbce19660	-0.027537525
21	0x3dc1f1c2	0.0946994
22	0xbc9f86b8	-0.019473419
23	0x3c21d490	0.009877339
24	0x3df9721e	0.12179969
25	0x3be16340	0.0068782866
26	0x3da85188	0.08218676
27	0xbd82e7e4	-0.06391886
28	0x3d5f3c90	0.054501116
29	0x3c2bd700	0.010488272
30	0x3d50aa8c	0.050943896
31	0xbdf6c842	-0.12049915
32	0xbdb433b4	-0.08798924
33	0xbdc6bc58	-0.097038925
34	0xbde1da98	-0.110280216
35	0xbdf96ed4	-0.12179342
36	0xbd83f510	-0.06443226
37	0x3cba25c0	0.022723079
38	0x3db53842	0.08848621
39	0xbd3ddc30	-0.046352565
40	0x3ddd7754	0.10813776
41	0xbdcce528	-0.100046456
42	0xbdf7df38	-0.121031225
43	0xbd3c5f80	-0.045989513
44	0xbd83019e	-0.06396793
45	0x3d740394	0.059573725
46	0x3b114680	0.0022167265
47	0x3d88d4c2	0.06681205
48	0x3df5dd70	0.120051265
49	0x3d3671f8	0.044542283
50	0xbddf5180	-0.10904217
51	0x3df06d42	0.11739589
52	0xbd930a8e	-0.071797475
53	0xbc859ed0	-0.01631108
54	0x3c8af028	0.016960219
55	0x3db64a68	0.089009106
56	0xbd0578c0	-0.03258586
57	0x3dba25e2	0.09089257
58	0xbdb47be8	-0.08812696
59	0xbdf69946	-0.12040953
60	0x3d87d44e	0.06632291
61	0x3dda175c	0.10648987
62	0x3d272e44	0.040815607
63	0xbc2ed650	-0.010671213
64	0xbd893298	-0.06699103
65	0x3ceda278	0.029008135
66	0xbd36f6d4	-0.044668987
67	0x3c5007a0	0.01269713
68	0x3d5ea5a0	0.05435717
69	0xbd990e1e	-0.07473396
70	0xbc6adb30	-0.014334485
71	0x3d8ca5f0	0.068675876
72	0x3d9725b0	0.07380235
73	0xbb4d7900	-0.003135264
74	0xbd019ccc	-0.031643674
75	0x3c9d4bc8	0.019201174
76	0xbdbe7226	-0.09299116
77	0xbc7d84c0	-0.015473545
78	0xbdddafe0	-0.10824561
79	0xbc994fb0	-0.018714756
80	0xbda4453c	-0.08021018
81	0xbc9fd560	-0.019510925
82	0x3d071358	0.032977432
83	0xba33dc00	-0.00068610907
84	0xbc966988	-0.018360868
85	0xbd3a214c	-0.04544191
86	0xbde0004a	-0.10937555
87	0x3d1b872c	0.037970707
88	0x3dc84000	0.09777832
89	0xbdb427b8	-0.08796638
90	0x3d8302f0	0.06397045
91	0xbdf3ecfa	-0.11910434
92	0x3db5dc4a	0.088799074
93	0x3da6edb4	0.08150807
94	0xbd0a57c8	-0.03377512
95	0x3d575f70	0.05258125
96	0xbdafdf14	-0.08587471
97	0x3dc9c98e	0.09852897
98	0xbd9660c6	-0.07342677
99	0xbcbd0368	-0.023072913
100	0xbbff2a40	-0.007787019
101	0x3d44d0ec	0.048050806
102	0x3c73a440	0.014870703
103	0xbde0c088	-0.109742224
104	0xbd900a5c	-0.07033226
105	0x3d934f56	0.071928665
106	0x3da9ab66	0.08284645
107	0xbd5dce60	-0.054151893
108	0x3dc867d4	0.09785429
109	0x3c432500	0.011910677
110	0xbdc84f78	-0.097807825
111	0xbb843b60	-0.0040353984
112	0x3d7f92ac	0.062395737
113	0xbddd05f8	-0.10792154
114	0x3a048100	0.0005054623
115	0xbd94ceca	-0.072660044
116	0x3db4b622	0.088238016
117	0xbdf21d26	-0.11821966
118	0xbc7e4840	-0.015520155
119	0xbdcc409c	-0.09973261
120	0xbd18249c	-0.03714429
121	0x3de6f0b6	0.11276381
122	0x3d0a6e90	0.033796847
123	0x3d854b7e	0.065085396
124	0xbd4b7c6c	-0.049679205
125	0x3dc11ac8	0.09428936
126	0xbdcfcb8c	-0.10146245
127	0x3ddcbc70	0.10778129
128	0xbd987446	-0.074440524
129	0xbdf700b8	-0.12060684
130	0xbdcc0de8	-0.0996359
131	0x3c87db60	0.016584098
132	0xbd893c72	-0.06700982
133	0xbca4f050	-0.020134121
134	0xbd6da8a0	-0.05802214
135	0xbbccc8c0	-0.006249517
136	0x3dc2bb8a	0.095084265
137	0x3d3cbbc8	0.04607752
138	0x3dfb1f34	0.12261811
139	0x3d52a07c	0.05142258
140	0x3d025f1c	0.031828985
141	0xbcda3600	-0.026637077
142	0xbc3231e0	-0.010876149
143	0xbcf59ac0	-0.029981017
144	0xbd23ca9c	-0.039988145
145	0x3d8ea28c	0.06964597
146	0x3ddc792e	0.10765301
147	0x3d92ac08	0.071617186
148	0x3d83c3c6	0.06433825
149	0xbdf2997c	-0.11845681
150	0xbd13e278	-0.03610465
151	0x3deb63d4	0.1149365
152	0xbda1d24c	-0.07901439
153	0xbd5cf6ac	-0.053946182
154	0xbd901fa6	-0.070372865
155	0xbd4e976c	-0.050437376
156	0xbdb7d352	-0.08975853
157	0x3d8e8fca	0.06961019
158	0xbdea9ee2	-0.11456086
159	0xbda3512e	-0.07974468
160	0xbdfd6706	-0.12373166
161	0x3dd0ab34	0.101889044
162	0x3d37cf78	0.044875592
163	0x3d531474	0.051533177
164	0xbd3f8e18	-0.04676637
165	0xbd98485a	-0.07435675
166	0x3dfffe82	0.124997154
167	0xbd81f874	-0.06346217
168	0xbc4bdbe0	-0.012442559
169	0xbc812730	-0.015765756
170	0x3df1090a	0.11769302
171	0x3ddf5158	0.10904187
172	0x3d2ec610	0.042669356
173	0x3c046f00	0.008083105
174	0x3ddd8b3c	0.108175725
175	0xbd8b41c8	-0.06799656
176	0x3d9db8e6	0.07701282
177	0x3cd9bf38	0.026580438
178	0x3c944ea8	0.018103912
179	0x3d8527a0	0.065016985
180	0x3dc32ca0	0.09529996
181	0xbd320a2c	-0.043466732
182	0x3d928b82	0.07155515
183	0x3de5cc4e	0.11220609
184	0xbda3f1d0	-0.080051064
185	0xbdbd93f2	-0.09256734
186	0x3c33aab0	0.010965988
187	0xbcef5750	-0.029216439
188	0xbd38b738	-0.045096606
189	0x3cce2fb0	0.025169224
190	0x3d1376dc	0.036002025
191	0xbd7b7688	-0.061392337
192	0x3db62970	0.08894622
193	0xbd9cf124	-0.076631814
194	0xbdd24478	-0.10266966
195	0x3d5dfc70	0.05419582
196	0xbcceb698	-0.025233552
197	0x3c7b6370	0.015343532
198	0x3db75c32	0.08953132
199	0xbd4ae8a8	-0.049538285
200	0xbd8269d0	-0.063678384
201	0x3dbd67de	0.09248327
202	0xbdeedc16	-0.11663072
203	0x3df02e78	0.11727613
204	0xbb7b3d00	-0.003833592
205	0x3ccd0090	0.025024682
206	0xbc410220	-0.011780292
207	0xbbc74e80	-0.006082356
208	0x3b0cab00	0.0021464229
209	0xbc3b27e0	-0.011423081
210	0xbcb7d470	-0.022440165
211	0xbd747464	-0.05968131
212	0x3d5931bc	0.053025946
213	0xbd971702	-0.07377435
214	0xbcb24140	-0.02175963
215	0x3d328f0c	0.04359345
216	0xbd73a050	-0.059479058
217	0x3d778058	0.060425133
218	0xbda051a8	-0.07828075
219	0x3dbdc6ea	0.092664555
220	0x3d15f378	0.036609143
221	0x3dc2a5bc	0.095042676
222	0x3d7f8fe8	0.0623931
223	0xbd9d3d4a	-0.076777056
224	0xbcd7de48	-0.02635111
225	0xbdbbdc32	-0.09172858
226	0x3db6c402	0.08924104
227	0xba81aa80	-0.0009892732
228	0xbc4543c0	-0.012040079
229	0x3c9403c0	0.018068194
230	0x3d412b58	0.047160476
231	0x3b2c6840	0.0026307255
232	0x3de9a8d6	0.11409156
233	0xbd7b7d3c	-0.06139873
234	0xbc897ff8	-0.016784653
235	0xbdc06d7e	-0.09395884
236	0x3df7291a	0.120683864
237	0x3d441364	0.047870055
238	0x3db4c11a	0.08825894
239	0xbdeedc92	-0.11663164
240	0xbc033810	-0.008008972
241	0x3db73912	0.08946432
242	0xbd752af4	-0.059855416
243	0xbdd35600	-0.103191376
244	0x3dd5bb32	0.10436095
245	0x3c253f60	0.010085911
246	0x3c9eb988	0.019375578
247	0xbdcfc990	-0.10145867
248	0x3de9be7c	0.11413285
249	0xbde4b75e	-0.11167787
250	0x3cc1bd70	0.023649901
251	0x3d981f26	0.07427816
252	0x3d29f46c	0.041492864
253	0x3ca39580	0.019968748
254	0xbd882d14	-0.06649223
255	0x3dea5cda	0.11443491

bias f4 [64]
0	0x3d0d8ba4	0.034557
1	0x3cddcf78	0.027076468
2	0x3d898fc8	0.06716877
3	0x3d649014	0.055801466
4	0x3d9d1578	0.076701105
5	0xbd7df84c	-0.062004372
6	0x3b83a620	0.0040176064
7	0xbdd8e29e	-0.10590099
8	0x3d8186bc	0.06324527
9	0xbd5f8334	-0.054568484
10	0x3cc7eb30	0.024404138
11	0xbc45ed90	-0.012080565
12	0x3dc83ce8	0.09777242
13	0x3dfab96a	0.12242396
14	0xbd77236c	-0.060336515
15	0x3c5ed530	0.013600633
16	0x3d0f5d50	0.0350011
17	0xbc3e0980	-0.011598945
18	0x3cf1e320	0.029527247
19	0x3de6b9e4	0.112659246
20	0x3dfbff8c	0.12304601
21	0xbd9f8f8a	-0.0779105
22	0xbc87adf8	-0.016562447
23	0xbd9af330	-0.075659156
24	0xbcfbca88	-0.030736223
25	0xbde08732	-0.109632865
26	0xbd7b1ccc	-0.06130676
27	0x3c9cb390	0.01912859
28	0x3d7a8c7c	0.061169133
29	0xbd2ecf58	-0.042678207
30	0xbddd0032	-0.10791053
31	0xbd512040	-0.051056147
32	0x3da49012	0.08035292
33	0xbda851a8	-0.082187
34	0x3afe0780	0.0019380897
35	0xbc82a918	-0.01594977
36	0x3dc80138	0.097658575
37	0x3c4ea2c0	0.012612045
38	0x3d99d956	0.07512157
39	0xbdd3e880	-0.1034708
40	0xbd9e6cdc	-0.07735607
41	0xbd0e9390	-0.034808695
42	0x3daf4710	0.08558476
43	0x3d621610	0.05519682
44	0xbc614b50	-0.013750866
45	0xbcbbbdb8	-0.022917613
46	0x3dac9aa4	0.08427933
47	0xbc820168	-0.015869811
48	0xbdc7921e	-0.097446665
49	0x3ce23398	0.027612492
50	0x3c240500	0.010010958
51	0xbdcc7bc8	-0.09984547
52	0x3c560970	0.0130637735
53	0x3df7d1ec	0.12100586
54	0xbd4533b8	-0.048145026
55	0xbdcc60b6	-0.09979384
56	0xbdd9f024	-0.10641506
57	0x3c5b3800	0.013380051
58	0x3d33dddc	0.043912753
59	0x3c06e1c0	0.008232534
60	0xbd2ddfb0	-0.042449653
61	0xbdef04ca	-0.11670835
62	0xbdaeefbe	-0.08541821
63	0x3d2a50b0	0.041580856

weight f4 [10, 64]
0	0x3dfb648e	0.12275039
1	0xbd9c7d72	-0.07641114
2	0x3c2fcdd0	0.010730222
3	0x3b2c7540	0.0026315004
4	0xbd24a3b0	-0.040195167
5	0x3dfd5f2e	0.1237167
6	0x399e5a00	0.00030203164
7	0x3cbac9e8	0.022801355
8	0x3d9af76e	0.07566725
9	0xbd5b975c	-0.053611144
10	0xbbcbde40	-0.0062215626
11	0x3b79a7c0	0.0038094372
12	0xbd452ab4	-0.048136428
13	0x3dbd1262	0.09232022
14	0x3d80903e	0.06277512
15	0x3d926634	0.071484
16	0x3d082890	0.03324181
17	0x3c257f70	0.010101184
18	0xbdc89372	-0.09793748
19	0xbd3b6c5c	-0.045757636
20	0x3deb4d72	0.11489381
21	0xbdf7bce8	-0.12096578
22	0x3bc07520	0.0058733374
23	0xbdcde9c6	-0.10054354
24	0x3de6aaa6	0.11263017
25	0xbc2be4a0	-0.01049152
26	0x3dd42ac0	0.103597164
27	0x3cdb8a20	0.026799262
28	0xbd837638	-0.06419033
29	0xbd4e4c1c	-0.050365552
30	0xbb849fe0	-0.004047379
31	0x3d64c518	0.055852026
32	0xbd95e662	-0.07319333
33	0x3ced91b8	0.029000148
34	0xbd52e738	-0.05149004
35	0xbdcba44c	-0.099434465
36	0x3d9d51e6	0.076816365
37	0xbd66b1fc	-0.056322083
38	0xbd3f69f0	-0.04673189
39	0xbba45ec0	-0.005016178
40	0xbda9c7de	-0.08290075
41	0x3dee11d2	0.11624493
42	0x3cfd89e0	0.030949533
43	0xbdeca63a	-0.11555143
44	0x3dc6f95c	0.0971553
45	0x3d14591c	0.036217794
46	0xbdc6af9c	-0.097014636
47	0xbced8a28	-0.028996542
48	0x3c878418	0.01654248
49	0xbdac9f52	-0.084288254
50	0xbdd035ba	-0.101664975
51	0x3d34b114	0.044114187
52	0xbd4f8dc0	-0.050672293
53	0x3de1ef00	0.11031914
54	0xbbd3f060	-0.006467864
55	0xba7a2500	-0.00095422566
56	0x3d173cf4	0.036923364
57	0xbdc6be3a	-0.097042516
58	0xbcc40cf0	-0.02393195
59	0x3dc77bb0	0.097403884
60	0x3cf068e0	0.029346883
61	0x3df5593e	0.11979912
62	0xbd0af850	-0.033928216
63	0x3db44826	0.08802824
64	0xbdc24780	-0.09486294
65	0xbde611c6	-0.11233859
66	0x3d7d5bd4	0.061855152
67	0xbdbf1278	-0.093296945
68	0xbdd1c6e4	-0.102430135
69	0xbca41480	-0.020029306
70	0xbdbab85e	-0.091171965
71	0xbdaf8b50	-0.085714936
72	0x3d6ecf68	0.058303267
73	0x3dcb5fea	0.099304035
74	0x3d5c66ec	0.05380909
75	0x3d9c5ba0	0.076346636
76	0xbda467fe	-0.080276474
77	0xbdc99b0a	-0.098440245
78	0xbb4e38c0	-0.003146693
79	0xbdc93b4c	-0.09825763
80	0xbd648f08	-0.055800468
81	0xbcae02e8	-0.02124162
82	0x3cc603c8	0.024171725
83	0x3d260c48	0.040539056
84	0x3cad30c8	0.021141425
85	0x3c86e570	0.016466826
86	0x3d32dda0	0.04366839
87	0x3dc4c23c	0.0960736
88	0x3dddb664	0.10825804
89	0x3d5dfcb0	0.05419606
90	0xbae68800	-0.0017588139
91	0x3dd7ce1a	0.10537358
92	0xbddf3268	-0.10898286
93	0x3cb87488	0.022516504
94	0xbcca87f0	-0.024723023
95	0xbb58d840	-0.003308788
96	0x3ddaa8e0	0.106767416
97	0xbb3e9540	-0.002908066
98	0x3db2f952	0.0873896
99	0x3dd5c0b8	0.10437149
100	0x3a237900	0.0006235987
101	0x3df7cdd6	0.12099807
102	0xbc31c2a0	-0.010849625
103	0xbdc3e25a	-0.095646575
104	0xbda30020	-0.07959008
105	0x3d20fb30	0.03930205
106	0xbd9cb752	-0.07652153
107	0x3d80e84a	0.062943056
108	0xbde50b92	-0.111838475
109	0xbdbae8e6	-0.09126453
110	0x3a598200	0.00082972646
111	0xbdbeec00	-0.09322357
112	0xbd8215de	-0.06351827
113	0x3d2d5d98	0.042325586
114	0x3df13a52	0.11778702
115	0x3b9a6300	0.0047115088
116	0xbdf78e46	-0.120876834
117	0x3abb4080	0.001428619
118	0xbdebba38	-0.11510128
119	0x3de450b6	0.11148207
120	0x3dad7c64	0.08470991
121	0x3d5530d4	0.05204852
122	0x3db5f828	0.08885223
123	0xbdcec82e	-0.10096775
124	0xbd0f12a8	-0.0349299
125	0x3cec9588	0.028879896
126	0xbd6fa7b8	-0.05850956
127	0x3d06dfbc	0.032928213
128	0xbd5c46d4	-0.053778484
129	0xbdb477c8	-0.08811909
130	0xbdfad646	-0.12247901
131	0xbda4311a	-0.08017178
132	0xbb117f00	-0.0022200942
133	0x3d554b80	0.052073956
134	0x3d4b162c	0.04958169
135	0x3dc211dc	0.09476063
136	0x3da120a0	0.07867551
137	0xbdf955fc	-0.12174603
138	0x3da09b9e	0.078421816
139	0xbdf93d4a	-0.12169893
140	0x3dce68a8	0.10078555
141	0xbc2f3030	-0.010692641
142	0xbd81f870	-0.06346214
143	0xbd43d088	-0.047806293
144	0x3de00924	0.109392434
145	0xbdf77bc8	-0.12084156
146	0x3caa6368	0.020799354
147	0x3dceda8c	0.10100278
148	0x3d8c38ac	0.06846747
149	0xbbd3cf00	-0.0064638853
150	0x3d8d814e	0.069094285
151	0xbc67cce0	-0.014147967
152	0xbde02682	-0.10944845
153	0x3dab8da0	0.08376622
154	0x3b6f5b40	0.0036522895
155	0x3df31b4e	0.11870442
156	0x3dda13b2	0.10648288
157	0xbd345a70	-0.04403156
158	0x3d3d767c	0.046255574
159	0x3d3f689c	0.046730623
160	0xbd5d2228	-0.053987652
161	0x3c182750	0.009286717
162	0xbc5108c0	-0.012758434
163	0xbd8a2a2c	-0.06746325
164	0x3c0b9eb0	0.008521721
165	0xbcc3e4e0	-0.023912847
166	0x3d738ef4	0.059462503
167	0xbd9d52f6	-0.07681839
168	0xbdca8288	-0.09888178
169	0xbc25c570	-0.010117874
170	0x3d00b6c0	0.031424284
171	0x3dfa27fa	0.12214656
172	0xbca19c48	-0.019727841
173	0x3c659570	0.014012679
174	0x3d985e78	0.074398935
175	0x3de246d6	0.11048667
176	0xbd8eb37a	-0.06967826
177	0xbd86c19a	-0.06579895
178	0x3d3eba74	0.046564534
179	0xbd96e846	-0.073685214
180	0x3db16fb8	0.08663887
181	0x3b6705c0	0.003525123
182	0x3dded8ac	0.10881171
183	0xbdc814e0	-0.097696066
184	0x3d053de4	0.032529727
185	0x3d6bc2a8	0.057558686
186	0x3b6cefc0	0.0036153644
187	0x3cee4460	0.029085338
188	0xbd847ba0	-0.06468892
189	0x3aa39300	0.0012479722
190	0x3dc42b7c	0.095786065
191	0x3d21a2dc	0.039461955
192	0xbd0ca060	-0.034332633
193	0x3d3e4a2c	0.046457455
194	0x3df926c0	0.12165594
195	0xbdeb4342	-0.11487438
196	0x3d253ac0	0.04033923
197	0x3dac546e	0.08414541
198	0x3d3d9838	0.046287745
199	0x3dc81b74	0.09770861
200	0x3da7a0c2	0.08184959
201	0xbce07fd0	-0.027404696
202	0x3cbe36d0	0.023219496
203	0xbc6d3900	-0.014478922
204	0x3de55de2	0.11199547
205	0xbd8be538	-0.068308294
206	0xbdb583ae	-0.088630065
207	0x3cf229d8	0.029560968
208	0xbce55f90	-0.02799967
209	0x3db28b98	0.08718032
210	0xbda9fa2a	-0.08299668
211	0x3dabc072	0.083863154
212	0x3cdac0f0	0.026703328
213	0xbdca293c	-0.09871146
214	0x3dec0b8e	0.115256414
215	0xbdedff76	-0.11620991
216	0xbd8952fe	-0.06705283
217	0xbdb02e46	-0.08602576
218	0xbd80e770	-0.06294143
219	0x3d7ff5ac	0.06249015
220	0xbd901388	-0.07034975
221	0xbbb83d00	-0.005622506
222	0x3cd3c120	0.025848925
223	0x3d96db98	0.07366103
224	0xbd203174	-0.039109662
225	0xbc2607d0	-0.010133699
226	0xbaf33e00	-0.0018557906
227	0xba579b00	-0.0008224696
228	0x3df59384	0.11991027
229	0x3d8396a8	0.0642522
230	0x3daaf556	0.08347575
231	0xbb9d08a0	-0.004792288
232	0x3d872aec	0.065999836
233	0xbc90e800	-0.017688751
234	0x3d282810	0.04105383
235	0x3de95244	0.11392644
236	0x3ded0656	0.11573474
237	0x3da12156	0.078676865
238	0xbd930468	-0.07178575
239	0xbd9b34dc	-0.075784415
240	0x3da9c2c0	0.08289099
241	0xbda5aa66	-0.080891415
242	0xbc8a4ab8	-0.016881332
243	0xbd921b1a	-0.071340755
244	0xbd9dbdd0	-0.077022195
245	0x3dfc5b5e	0.123221144
246	0xbd981aa2	-0.07426955
247	0x3b138080	0.0022507012
248	0xbc96b810	-0.018398315
249	0xbdd55460	-0.10416484
250	0x3d267784	0.040641323
251	0x3d975d40	0.07390833
252	0xbd9e61e4	-0.07733515
253	0x3d8b82a0	0.06812024
254	0xbdc2718e	-0.09494315
255	0x3cd18c10	0.025579482

bias f4 [10]
0	0x3d7a9628	0.061178356
1	0x3df938f0	0.12169063
2	0x3d1cae8c	0.0382524
3	0x3dea3f0c	0.114378065
4	0xbd0f0fac	-0.034927055
5	0x3df2dbd0	0.11858332
6	0x3d62bdb0	0.05535668
7	0x3dd95490	0.10611832
8	0xbd9ad1fe	-0.07559584
9	0xbdda7a50	-0.106678605

weight f4 [2, 64]
0	0xbc438f40	-0.011936009
1	0xbdf0e7fa	-0.11762996
2	0xbcd8a318	-0.026444957
3	0xbdbcef30	-0.09225309
4	0xb8eab000	-0.00011190772
5	0x3d68c27c	0.0568261
6	0xbc2e4740	-0.0106371045
7	0x3db0ca7c	0.08632371
8	0x3c7cbc60	0.0154257715
9	0xbc4190e0	-0.011814326
10	0xbdd5a632	-0.1043209
11	0x3ddf6fd4	0.109100014
12	0xbd02fbe8	-0.031978518
13	0x3dfdc3a0	0.12390828
14	0xbcee6420	-0.029100478
15	0xbd79a45c	-0.06094776
16	0xbdb292ca	-0.08719404
17	0x3d4f0ca4	0.050549164
18	0xbd62bbe8	-0.055354983
19	0x3b6762c0	0.0035306662
20	0x3de95cc0	0.11394644
21	0x3d8083be	0.06275128
22	0xbd692914	-0.05692394
23	0x3ddc3bda	0.10753603
24	0x3ce52a90	0.027974397
25	0xbd53bcf8	-0.051693887
26	0x3dd32c88	0.10311228
27	0xbde3634e	-0.11102925
28	0xbd6e6b98	-0.05820808
29	0x3d994ec8	0.074857295
30	0x3da21284	0.07913688
31	0xbc8e8e50	-0.017401844
32	0xbd82b030	-0.06381261
33	0x3d92fe38	0.07177395
34	0xbdea4660	-0.11439204
35	0x3d38e908	0.04514411
36	0xbd27b100	-0.040940285
37	0xbdb2f88e	-0.08738814
38	0xbde0d910	-0.109789014
39	0x3c942470	0.018083781
40	0xbdd59ba4	-0.10430077
41	0xbdf27b60	-0.11839938
42	0xbb4280c0	-0.0029678792
43	0x3d1227f0	0.03568262
44	0xbce981e8	-0.028504327
45	0xbda5b6e4	-0.08091524
46	0x3d521624	0.051290646
47	0xbd664e4c	-0.056227013
48	0xbda596ee	-0.08085428
49	0x3daf8e1e	0.085720286
50	0xbb929de0	-0.0044743866
51	0x3dd025a4	0.101634294
52	0x3bb21dc0	0.0054356754
53	0x3bb60f00	0.0055559874
54	0xbd81adde	-0.06331991
55	0xbd9cf0b2	-0.076630965
56	0x3d4489c8	0.04798296
57	0x3da1d74a	0.07902391
58	0x3d1ed608	0.038778335
59	0x3da6b270	0.08139503
60	0xbdda62c8	-0.10663372
61	0xbd866154	-0.065615326
62	0xbd885844	-0.0665746
63	0xbdc6f5ba	-0.09714837
64	0xbdd832d0	-0.10556567
65	0x3dd82368	0.10553628
66	0x3d221824	0.039573804
67	0x3d8ce7ba	0.06880136
68	0x3dbc9380	0.09207821
69	0x3d8e9e1e	0.06963752
70	0xbd59ed60	-0.053204894
71	0xbd1d6180	-0.03842306
72	0xbc431510	-0.011906877
73	0xbd534920	-0.05158341
74	0xbdd79dba	-0.10528131
75	0x3c193690	0.009351388
76	0xbd7cc9a0	-0.061715722
77	0xbd37e9a0	-0.044900537
78	0x3db94f70	0.090483546
79	0xbd1644b0	-0.0366866
80	0xbdbb07c2	-0.09132339
81	0x3df90ef0	0.12161052
82	0xbd40d93c	-0.04708217
83	0x3dac3fa0	0.08410573
84	0xbdf086ac	-0.117444366
85	0xbddf0c7c	-0.10891053
86	0xbdd81e62	-0.1055267
87	0x3d3f8920	0.046761632
88	0x3dd680da	0.10473795
89	0xbdb0f9c2	-0.086413875
90	0x3d670f98	0.056411356
91	0x3dc6bc96	0.09703939
92	0xbc4c5c30	-0.012473151
93	0xbdc63b46	-0.09679274
94	0x3d8de680	0.0692873
95	0xbb0d0040	-0.0021515042
96	0x3c9c65a0	0.019091427
97	0xbde07cd4	-0.10961309
98	0x3c0dc700	0.008653402
99	0x3de25b1c	0.11052534
100	0x3de97b64	0.11400488
101	0x3d964dfc	0.07339093
102	0xbdba83f8	-0.09107202
103	0x3df745aa	0.12073834
104	0x3d381b3c	0.044947848
105	0xbd81eed0	-0.06344378
106	0xbdb7c87e	-0.08973788
107	0xbde6b72e	-0.112654075
108	0xbde62242	-0.11237003
109	0x3bfd7a60	0.0077355355
110	0x3d0eb680	0.034842014
111	0x3d9a97f0	0.07548511
112	0xbc962ef8	-0.018332943
113	0x3bde29c0	0.0067798793
114	0x3deb057c	0.114756554
115	0xbd4152ec	-0.04719822
116	0xbd4ed3d8	-0.050495
117	0xbb962e60	-0.004583165
118	0xbddbb1b4	-0.107272536
119	0xbde330a4	-0.11093262
120	0x3d13eee8	0.03611651
121	0x3d66a788	0.056312114
122	0xbd791fe8	-0.060821444
123	0xbd4542bc	-0.048159346
124	0xbd52aad8	-0.05143246
125	0x3df84632	0.12122764
126	0xbcb50138	-0.022095308
127	0xbddb81f0	-0.10718143

bias f4 [2]
0	0xbdf37d54	-0.11889139
1	0x3b370c40	0.0027930886

weight f4 [64, 30]
0	0xbe0f8272	-0.14014605
1	0xbe30646a	-0.17225805
2	0xbdc699c6	-0.09697299
3	0xbd8f385a	-0.0699317
4	0xbe1c1f7c	-0.15246385
5	0x3c9bb1e0	0.019005716
6	0x3daca5b8	0.08430046
7	0x3d932e4c	0.07186565
8	0x3d6dcba0	0.05805552
9	0x3de4fe4c	0.11181316
10	0x3e079212	0.13239315
11	0xbda0c66b	-0.07850345
12	0x3d51f9f8	0.05126378
13	0x3e1d280a	0.15347305
14	0x3e36d68c	0.1785528
15	0x3c719820	0.014745742
16	0x3e19eb22	0.15031102
17	0x3c93f1f8	0.018059716
18	0xbc0156a0	-0.007894188
19	0xbd40c1c8	-0.047059804
20	0xbdf45e50	-0.11932051
21	0x3db8c0ec	0.09021172
22	0xbdb247f1	-0.08705128
23	0xbdcc7c9e	-0.09984706
24	0x3e12242e	0.14271614
25	0x3df858bc	0.121263
26	0x3dae55dc	0.0851247
27	0x3d8fcbbc	0.07021281
28	0xbccfd3b8	-0.02536951
29	0xbe2e5592	-0.1702483
30	0x3e297b16	0.1655086
31	0x3de8976c	0.113570064
32	0xbdfc59d8	-0.12321824
33	0xbd00649c	-0.03134595
34	0xbda59555	-0.080851234
35	0x3c91db38	0.017804727
36	0xbdc8799a	-0.09788819
37	0xbdfa8f84	-0.12234405
38	0xbd822f06	-0.06356625
39	0xbc9ba170	-0.018997878
40	0xbdb69a8e	-0.08916198
41	0xbda0d145	-0.07852415
42	0xbd2e74b8	-0.04259178
43	0xbdf08744	-0.1174455
44	0x3e02b4f8	0.12764347
45	0xbdee0cc0	-0.116235256
46	0xbd4b95c8	-0.04970339
47	0xbe356036	-0.17712483
48	0x3e36df4a	0.17858616
49	0x3c55ca70	0.013048753
50	0xbdaf59a7	-0.08562022
51	0xbdc05547	-0.09391265
52	0xbd5eb1d0	-0.054368794
53	0xbd4f136c	-0.05055563
54	0xbe2816a4	-0.16414887
55	0x3d454600	0.04816246
56	0xbd46b3f4	-0.04851146
57	0x3d09f514	0.03368099
58	0x3e03c47c	0.12867922
59	0x3d2f6b5c	0.042826995
60	0xbd6c30c2	-0.057663687
61	0xbd9de156	-0.07708995
62	0x3df4284c	0.119217485
63	0xbccb7f18	-0.024840876
64	0x3cd24700	0.025668621
65	0x3da41dd4	0.08013502
66	0x3c076d50	0.008265808
67	0x3e109614	0.1411975
68	0xbd8c1709	-0.06840331
69	0xbda34bfd	-0.07973478
70	0xbca08c98	-0.01959829
71	0x3e3505f2	0.17678049
72	0x3d1d0944	0.038338915
73	0xbe2db5f4	-0.16963941
74	0xbd3ff6bc	-0.046866164
75	0x3e398a72	0.18119219
76	0xbe1d29c8	-0.1534797
77	0xbd840024	-0.06445339
78	0x3e000082	0.12500194
79	0x3d91e6f0	0.07124126
80	0x3e14ed9a	0.14543763
81	0x3d17b96c	0.037042066
82	0x3db42950	0.08796942
83	0x3c854090	0.016266137
84	0x3e2de6f6	0.16982636
85	0x3df5e490	0.120064855
86	0xbe287d72	-0.16454104
87	0x3da09da8	0.078425705
88	0xbe324716	-0.1740993
89	0x3dbdf61c	0.09275457
90	0xbd4588bc	-0.048226103
91	0xbbd126c0	-0.006382793
92	0x3e2a6dc2	0.16643432
93	0xbde4964a	-0.11161478
94	0x3df854dc	0.12125561
95	0xbda62ca7	-0.081139855
96	0xbd677b54	-0.0565141
97	0x3d23dc44	0.040004984
98	0x3ddd5eb0	0.10809076
99	0xbd7463fa	-0.059665658
100	0x3ca6d918	0.02036719
101	0x3daeb44c	0.08530483
102	0xbd64c45c	-0.055851325
103	0x3e0b2898	0.13589704
104	0x3e1b7b36	0.1518372
105	0x3deb0a50	0.11476576
106	0xbdafc2df	-0.085820906
107	0x3e254c10	0.16142297
108	0x3d12c914	0.035836294
109	0x3d453808	0.04814914
110	0x3e1ead94	0.15495902
111	0xbd2706bc	-0.040777907
112	0xbe38bcf3	-0.18040828
113	0x3d9ac82c	0.07557711
114	0x3e368010	0.1782229
115	0x3deb5c30	0.11492193
116	0xbe28d8c8	-0.16488945
117	0x3d872280	0.06598377
118	0xbce1e348	-0.027574196
119	0xbd65f7b0	-0.056144416
120	0xbd80180c	-0.062545866
121	0x3e032c08	0.12809765
122	0x3da043c0	0.07825422
123	0x3d8a4840	0.06752062
124	0x3e2375be	0.15962884
125	0xbe1a9e2a	-0.15099397
126	0x3e392b1a	0.18082848
127	0xbcf1bcd0	-0.029508978
128	0xbd94fcfe	-0.07274817
129	0x3d3107f0	0.04322046
130	0xbdca7e2a	-0.09887345
131	0x3db19fe8	0.08673078
132	0x3d2acc0c	0.0416985
133	0xbdeac7db	-0.11463901
134	0x3d0e4ae0	0.034739375
135	0x3ddf1c2c	0.10894045
136	0x3d4b5d54	0.04964955
137	0xbc5a8e40	-0.013339579
138	0xbdb61492	-0.08890642
139	0x3d15c43c	0.036564097
140	0x3d972fd0	0.073821664
141	0x3dfb323c	0.12265441
142	0xbd84d275	-0.06485454
143	0x3bec86e0	0.007218227
144	0x3b09f140	0.0021048337
145	0xbc7efad0	-0.015562728
146	0xbe2e5c4d	-0.17027397
147	0x3e2df85e	0.16989276
148	0x3e1f2efa	0.15545264
149	0x3deedb18	0.116628826
150	0x3d78f7bc	0.060783133
151	0x3ccace28	0.024756506
152	0xbc40afb0	-0.011760637
153	0xbdff1b64	-0.12456396
154	0xbd841ed3	-0.06451192
155	0x3e25252e	0.16127464
156	0x3dccdedc	0.100034446
157	0xbdc81f69	-0.09771616
158	0x3b93dc80	0.0045123696
159	0x3d46d89c	0.04854642
160	0x3da17108	0.07882887
161	0xbd580c1c	-0.052745923
162	0x3dcb5f2c	0.09930262
163	0xbbdfc3e0	-0.00682877
164	0xbda80126	-0.08203344
165	0x3dae21d4	0.08502546
166	0x3d6d2c14	0.057903364
167	0xbd3660f0	-0.04452604
168	0x3cfd3ee0	0.03091377
169	0x3de17510	0.11008656
170	0xbddad6d8	-0.106855094
171	0xbe004596	-0.12526545
172	0xbcb346b8	-0.021884307
173	0xbe01a33a	-0.12659922
174	0xbd9418e6	-0.072313115
175	0xbcef5008	-0.029212967
176	0xbd604368	-0.054751784
177	0x3ca4a118	0.020096347
178	0x3dd8331c	0.10556623
179	0x3d52d4d0	0.051472485
180	0xbceae3c0	-0.028673053
181	0x3b66da80	0.003522545
182	0xbe367ff1	-0.17822243
183	0xbdbd40c1	-0.092408665
184	0xbda9497c	-0.08265969
185	0xbe078a9e	-0.13236472
186	0xbd3d70b4	-0.04625006
187	0xbe04c443	-0.12965493
188	0x3d17eda4	0.037091866
189	0xbe117cd5	-0.14207776
190	0x3d3bba0c	0.045831725
191	0x3d97ff38	0.07421726
192	0xbaff0800	-0.001945734
193	0xbdad1ad4	-0.08452383
194	0x3d5ef4c0	0.05443263
195	0xbdec7e14	-0.11547485
196	0xbe2ddf5d	-0.16979738
197	0xbe1a5f1b	-0.15075342
198	0xbe05a89f	-0.13052605
199	0xbe11b2ce	-0.14228365
200	0xbdfc053e	-0.12305687
201	0xbcb176f0	-0.02166316
202	0x3d5115b0	0.051046073
203	0xbd238708	-0.039923698
204	0x3e10d912	0.14145306
205	0xbd45cef4	-0.04829307
206	0x3bbdf240	0.0057967007
207	0x3cfa7010	0.030571014
208	0x3decae44	0.11556676
209	0x3dcea12c	0.10089335
210	0xbc500970	-0.012697563
211	0x3d3e73f4	0.0464973
212	0x3d9b4d28	0.07583076
213	0xbd8e6206	-0.0695229
214	0x3ccf7a40	0.025326848
215	0xbe348f0f	-0.17632698
216	0x3deb0e50	0.11477339
217	0xbe2e2278	-0.17005336
218	0xbddaabc1	-0.10677291
219	0x3cf766b8	0.030200347
220	0x3e200370	0.15626311
221	0x3df305dc	0.11866352
222	0x3e1d0cca	0.1533691
223	0xbdf7e530	-0.12104261
224	0xbe1c4f42	-0.1526461
225	0x3dff7648	0.12473732
226	0x3be329c0	0.006932467
227	0xbe210341	-0.15723898
228	0xbe2ab10b	-0.16669099
229	0xbe334c6d	-0.17509623
230	0x3dd9b838	0.1063084
231	0x3c916630	0.017748922
232	0x3d89abe8	0.06722242
233	0xbde1c086	-0.11023049
234	0x3e1276fa	0.14303198
235	0xbe0b8e1b	-0.13628428
236	0x3c2dfc50	0.010619238
237	0xbe262968	-0.16226733
238	0x3ddf5724	0.10905293
239	0x3bc96540	0.006146103
240	0xbd1346a0	-0.035956025
241	0xbd853979	-0.06505103
242	0xbe331bf4	-0.17491132
243	0x3d4da3e0	0.05020511
244	0x3dfd2a48	0.1236158
245	0x3c8811e8	0.0166101
246	0xbdc8aef6	-0.09798996
247	0xbe34f1f4	-0.17670423
248	0xbd590dec	-0.052991793
249	0xbd7160e4	-0.058930293
250	0xbe1f58ca	-0.15561214
251	0x3d8fc840	0.070206165
252	0x3ddedf94	0.10882488
253	0x3de29854	0.110642105
254	0xbe195ea1	-0.14977504
255	0xbdf64b3a	-0.12026067

bias f4 [64]
0	0xbcfdf710	-0.031001598
1	0x3e39ca16	0.18143496
2	0x3e3265fc	0.17421716
3	0x3e2d92d8	0.16950548
4	0x3e0ce7fa	0.13760367
5	0xbde2786c	-0.11058125
6	0x3d838196	0.06421201
7	0xbc343200	-0.010998249
8	0x3e0ca324	0.13734108
9	0x3e0de090	0.13855195
10	0x3def1c84	0.11675361
11	0xbc63d350	-0.013905361
12	0x3d78c014	0.060730055
13	0xbe1ab8b7	-0.15109526
14	0x3db8cfa8	0.09023982
15	0x3dd47d9c	0.103755206
16	0xbce86e58	-0.028372929
17	0xbdd7a4ba	-0.10529466
18	0x3cb03ff0	0.021514863
19	0x3e06ae30	0.13152385
20	0xbd8b66e3	-0.068067335
21	0x3e025a0a	0.1272966
22	0xbe0165e4	-0.12636524
23	0x3caa44a0	0.020784676
24	0xbe0be387	-0.13661014
25	0xbe2e5b62	-0.17027047
26	0xbe08f6d9	-0.13375415
27	0x3e079e56	0.13243994
28	0x3d1bcea8	0.03803888
29	0xbc2ad6f0	-0.010427222
30	0x3cb005b0	0.021487087
31	0xbbf384a0	-0.0074315816
32	0xbd629578	-0.055318326
33	0x3e0cb482	0.13740733
34	0xbe117ffc	-0.14208978
35	0xbc93a148	-0.01802124
36	0x3e141dd8	0.1446451
37	0x3d8c4a38	0.068500936
38	0x3d4a3a54	0.049372032
39	0xbd796418	-0.060886472
40	0x3d3082dc	0.043093547
41	0x3d217be4	0.039424792
42	0x3e11be9e	0.14232871
43	0x3db04690	0.08607209
44	0x3e37ce2c	0.17949742
45	0x3d1bbc0c	0.038021132
46	0xbe01eea8	-0.12688696
47	0x3dd6a71c	0.10481092
48	0xbe0c96e0	-0.13729429
49	0xbd439858	-0.04775271
50	0xbda35f43	-0.07977154
51	0x3dc29000	0.09500122
52	0xbd77d1ae	-0.0605027
53	0xbdeae439	-0.11469311
54	0xbdb1583b	-0.08659407
55	0xbd4e0b7c	-0.05030392
56	0x3d2e1008	0.042495757
57	0xbd812d26	-0.063074395
58	0xbd2c40b4	-0.042053893
59	0xbc760500	-0.0150158405
60	0x3d595f2c	0.05306928
61	0x3dcb3f68	0.09924203
62	0xbd41290c	-0.047158286
63	0x3d6b7b4c	0.057490632

weight f4 [64, 64]
0	0x3d30ad00	0.043133736
1	0x3d6b1ce0	0.057400584
2	0x3dd8b86e	0.10582052
3	0x3d8ca480	0.068673134
4	0xbad1f800	-0.0016019344
5	0x3df6b57e	0.12046336
6	0x3c452eb0	0.012035057
7	0x3d5e1eb4	0.0542285
8	0xbdb3b59e	-0.08774875
9	0x3d3068f0	0.043068826
10	0x3da85344	0.08219007
11	0xbc030bc0	-0.007998407
12	0x3df9db44	0.12200025
13	0xbdfe4474	-0.124154
14	0x3d8e88dc	0.069596976
15	0x3d9caa06	0.07649617
16	0x3dd41fb2	0.10357608
17	0x3dd8aaba	0.105794385
18	0x3d74caf0	0.05976385
19	0xbd855062	-0.065094724
20	0xbcf22068	-0.029556468
21	0xbcb1d5e8	-0.021708444
22	0x3df8880c	0.12135324
23	0x3d105490	0.035236895
24	0xbdeb80b8	-0.114991605
25	0xbdc998a8	-0.0984357
26	0xbdaaad20	-0.08333802
27	0x3d619194	0.055070475
28	0xbdb9b0de	-0.09066938
29	0xbce12cd8	-0.027487203
30	0xbd904592	-0.070445195
31	0x3cd5b538	0.026087388
32	0x3c59d390	0.013295069
33	0x3dd0e6b4	0.10200253
34	0x3db8671a	0.0900404
35	0xbcdc1e00	-0.026869774
36	0xbb1d5540	-0.0024007112
37	0x3d6a1b3c	0.05715488
38	0xbd747f9c	-0.05969201
39	0x3b9d51c0	0.004801005
40	0xbd9381a0	-0.072024584
41	0x3b27fa40	0.0025631338
42	0xbd8400f0	-0.06445491
43	0x3bb40aa0	0.0054944307
44	0xbd495bc0	-0.049159765
45	0xbd5b1f88	-0.053496867
46	0x3d5e1bc8	0.054225713
47	0xbddef304	-0.10886195
48	0xbd0610bc	-0.032730803
49	0xbdf4bdbc	-0.119502515
50	0x3d89264c	0.06696758
51	0xbc573f30	-0.013137624
52	0xbc1f6cc0	-0.009730518
53	0x3c8652f8	0.016396984
54	0x3d9b152c	0.075723976
55	0xbdca0ff0	-0.09866321
56	0x3d9a5f8e	0.07537757
57	0x3d826f5a	0.06368895
58	0x3c970cf0	0.018438786
59	0x3d992794	0.07478252
60	0x3dd35796	0.1031944
61	0xbd0c0ef8	-0.034193963
62	0x3df8b434	0.12143746
63	0xbc1c4540	-0.009537995
64	0xbca0d168	-0.019631103
65	0xbcadda30	-0.021222204
66	0x3d6cfd14	0.05785854
67	0x3d1e0dc8	0.03858736
68	0x3d5367e0	0.051612735
69	0x3ca447c0	0.020053744
70	0x3cc619b0	0.02418217
71	0x39e25400	0.00043168664
72	0x3db049ec	0.086078495
73	0xbc52cc80	-0.012866139
74	0xbcb25590	-0.021769315
75	0xbd6eccb8	-0.058300704
76	0xbc156a70	-0.009119615
77	0x3d84a066	0.06475906
78	0x3c41c880	0.011827588
79	0xbd8c2e6e	-0.06844793
80	0x3d040ab4	0.03223677
81	0x3db4fb52	0.08836998
82	0xbdb94cca	-0.090478495
83	0x3dbf2fc8	0.093352854
84	0xbd52ea1c	-0.051492795
85	0xbd8180cc	-0.06323394
86	0xbcf1cab0	-0.029515594
87	0xbb84afe0	-0.0040492862
88	0xbda74a92	-0.0816852
89	0x3dc51f26	0.09625082
90	0xbddbcf40	-0.10732889
91	0x3d3648d8	0.044503063
92	0xbd70ba00	-0.058771133
93	0xbc2ed100	-0.010669947
94	0xbdf88de8	-0.121364415
95	0xbdcd444a	-0.10022791
96	0xbd9ff3f8	-0.07810205
97	0xbdf4fb72	-0.11962022
98	0x3d1bc964	0.038033858
99	0x3d5ec0e4	0.054383174
100	0x3dbfd0ac	0.09365973
101	0xbddf7c78	-0.109124124
102	0xbd03d7b0	-0.032188118
103	0x3db8f282	0.0903063
104	0xbc948f08	-0.018134609
105	0x3ce8cc20	0.028417647
106	0x3de88abe	0.11354588
107	0x3d8b7f96	0.068114445
108	0x3db1ba9e	0.086781725
109	0x3d57f94c	0.052727982
110	0x3de80a3a	0.113300756
111	0x3df58458	0.11988133
112	0xbd3facc8	-0.046795636
113	0x3cc0d050	0.023536831
114	0xbda04566	-0.07825737
115	0xbdc5bed6	-0.0965554
116	0xbd303df4	-0.043027833
117	0x3ddcb792	0.10777201
118	0xbcfd0290	-0.030885011
119	0x3d07e5a0	0.03317797
120	0xbcc76978	-0.024342284
121	0xbdf882f6	-0.12134354
122	0xbd610eb0	-0.054945648
123	0x3d978286	0.07397942
124	0x3d9999f4	0.07500067
125	0xbb2e0880	-0.002655536
126	0x3de563aa	0.1120065
127	0x3d8fc3c8	0.07019764
128	0x3d9473a8	0.07248622
129	0xbdc4ce8e	-0.0960971
130	0xbc031290	-0.008000031
131	0xbdbf1406	-0.09329991
132	0xbd9263d6	-0.071479484
133	0x3d121cb0	0.03567189
134	0xbd13430c	-0.035952613
135	0xbdcdd80e	-0.10050975
136	0x3d4dd8ac	0.050255463
137	0xbd5250d4	-0.051346615
138	0x3d8d5cc6	0.06902461
139	0x3c41a4b0	0.01181905
140	0x3de9098a	0.113787726
141	0xbda617d8	-0.081100166
142	0x3c857920	0.016293108
143	0x3ddef7ae	0.10887085
144	0x3d1dc700	0.03851986
145	0x3ddc54f2	0.107583895
146	0xbd67d540	-0.056599855
147	0x3d5b33a4	0.053516045
148	0x3df3f6ee	0.119123325
149	0x3df0b180	0.117526054
150	0x3de0f2b4	0.10983792
151	0xbdfcd1b2	-0.12344684
152	0xbdf85ace	-0.121266946
153	0x3c572ce0	0.013133258
154	0x3b754d00	0.0037429929
155	0x3def059c	0.11670992
156	0xbddf23ee	-0.10895525
157	0x3d84ef04	0.06490901
158	0x3dd7b6ce	0.10532914
159	0x3bc53ca0	0.00601919
160	0x3dd22b6a	0.10262187
161	0x3ce6b168	0.028160766
162	0x3dc3117e	0.09524821
163	0x3cbb4eb0	0.02286467
164	0xbca86018	-0.020553634
165	0x3d0bad9c	0.034101114
166	0xbd9c71d6	-0.076389
167	0xbdc50ef4	-0.09621993
168	0xbccbf1d8	-0.024895594
169	0xbd485c48	-0.04891613
170	0xbdbe2bd8	-0.09285706
171	0xbcbc2ee0	-0.02297157
172	0xbd782f3c	-0.06059192
173	0x3d7b8e50	0.061415017
174	0xbc5200c0	-0.012817562
175	0x3dd53642	0.104107395
176	0x3de9e5f8	0.11420816
177	0x3d425f9c	0.04745446
178	0x3d221340	0.03956914
179	0xbd9b557c	-0.07584664
180	0xbd127c78	-0.035763234
181	0x3d9cf6be	0.0766425
182	0xbce39678	-0.02778171
183	0x3d8ebf8c	0.069701284
184	0x3aa67a00	0.0012701154
185	0x3d9674cc	0.07346496
186	0x3cdc4fa0	0.026893437
187	0xbdd834de	-0.105569586
188	0xbddefff0	-0.1088866
189	0xbdb182ae	-0.08667503
190	0xbde9e5b8	-0.114207685
191	0xbd56846c	-0.05237238
192	0xbde56dc0	-0.11202574
193	0x3d80c9de	0.06288503
194	0xbdf77dac	-0.12084517
195	0xbda86636	-0.0822262
196	0x3dd8abca	0.10579641
197	0xbdc31362	-0.09525181
198	0x3ddfc4f0	0.10926235
199	0xbce55a40	-0.027997136
200	0xbdaccda8	-0.08437663
201	0x3ddb41ec	0.10705933
202	0x3ce00d78	0.027350172
203	0xbcc65a78	-0.02421306
204	0xbda0d096	-0.078522846
205	0x3dbc6d86	0.092005774
206	0xbc9aff80	-0.01892066
207	0x3d850e66	0.06496887
208	0xbdb9deda	-0.09075709
209	0xbdc1ac30	-0.0945667
210	0xbdf621b4	-0.12018147
211	0x3d147b10	0.036250174
212	0x3dda77fc	0.106674165
213	0xbdadc49a	-0.084847644
214	0xbd139cdc	-0.036038265
215	0x3b8f3380	0.004370153
216	0x3bab6ae0	0.0052312464
217	0x3dfddbec	0.123954624
218	0x3caf1c78	0.02137588
219	0x3d95c4c2	0.07312919
220	0xbcb865b8	-0.02250944
221	0xbb2b0e00	-0.0026100874
222	0xbdca2cc4	-0.098718196
223	0xbd375648	-0.04476002
224	0xbd615f18	-0.05502233
225	0x3d7a8d8c	0.061170146
226	0x3d6c5af0	0.057703912
227	0xbd3a4464	-0.04547538
228	0xbd5f1c50	-0.05447036
229	0xbdf43b00	-0.11925316
230	0xbc18dff0	-0.009330735
231	0xbdff1316	-0.12454812
232	0x3d589784	0.05287887
233	0xbdd5a446	-0.10431723
234	0xbd4e1304	-0.050311103
235	0xbd2c398c	-0.04204707
236	0x3db0d166	0.086336896
237	0x3d972b50	0.07381308
238	0x3da0fd38	0.07860798
239	0x3d52a09c	0.0514227
240	0xbdc57d88	-0.09643084
241	0x3dff8f62	0.1247852
242	0x3dc22f86	0.094817206
243	0x3dd7163e	0.10502289
244	0x3c2c5ff0	0.01052092
245	0xbdbd0172	-0.09228791
246	0xbda40dee	-0.080104694
247	0x3da2e482	0.07953741
248	0x3d6daed4	0.058028057
249	0x3d7dba54	0.061945274
250	0x3d696ce4	0.05698861
251	0xbd559274	-0.05214162
252	0xbdcec8ac	-0.10096869
253	0xbbf006e0	-0.0073250383
254	0xbcc95f48	-0.024581566
255	0xbc210f50	-0.009830311

bias f4 [64]
0	0xbd999d72	-0.075007334
1	0xbd3df840	-0.046379328
2	0x3dfb63c8	0.12274891
3	0xbd0149d4	-0.03156455
4	0x3cda8570	0.026674956
5	0xbde081f4	-0.109622866
6	0xbda7b28c	-0.08188352
7	0x3c131ff0	0.008979782
8	0x3d381154	0.0449384
9	0x3a8faf80	0.0010962337
10	0x3af2c080	0.0018520504
11	0xbd7f67f4	-0.062354997
12	0x3d8d0492	0.06885637
13	0x3c16b880	0.009199262
14	0x3d75b224	0.05998434
15	0x3ccc0d88	0.024908796
16	0x3da01efe	0.07818411
17	0x3d939a3a	0.07207151
18	0x3d11e1c4	0.035615698
19	0xbdcc22d0	-0.099675775
20	0x3dc5a870	0.096512675
21	0x3dca58f4	0.09880248
22	0x3dbacf7a	0.09121604
23	0x3d82c15a	0.06384535
24	0x3df57478	0.11985105
25	0x3d1c2180	0.038117886
26	0x3cef91a0	0.029244244
27	0x3d54d250	0.051958382
28	0x3dbf661e	0.09345649
29	0xbd43823c	-0.047731623
30	0x3dd135ba	0.10215326
31	0x3cce80d8	0.025207922
32	0x3c86d618	0.01645951
33	0x3d58bd80	0.052915096
34	0x3dbee4e8	0.09321004
35	0xbc98a260	-0.018632114
36	0x3cbc7788	0.023006216
37	0xbcbfba20	-0.023404181
38	0x3d7790e4	0.060440913
39	0x3daef32a	0.085424736
40	0x3dfba6f4	0.12287703
41	0x3d013870	0.031547964
42	0x3debdf52	0.11517204
43	0x3de60f96	0.112334415
44	0xbda197f6	-0.078903124
45	0xbc1a93e0	-0.00943467
46	0xbdc53e7c	-0.096310586
47	0x3aa93a80	0.0012911111
48	0xbd5ba484	-0.05362369
49	0xbcf4c370	-0.029878348
50	0x39c72e00	0.0003799051
51	0x3d3d02f4	0.046145394
52	0x3da6242c	0.08112368
53	0xbcce48e8	-0.025181249
54	0x3d1a9be0	0.03774631
55	0xbddc7a56	-0.10765521
56	0xbd8e7250	-0.06955397
57	0xbcf39890	-0.029735833
58	0xbdfcccae	-0.12343727
59	0xbda3f50e	-0.08005725
60	0xbd11fe70	-0.03564304
61	0xbdcfa79a	-0.10139389
62	0xbde14ad6	-0.11000602
63	0xbde760fc	-0.11297795

weight f4 [30, 64]
0	0xbd8e55de	-0.069499716
1	0xbda061ea	-0.078311756
2	0x3da7e44e	0.081978425
3	0xbbfcd4e0	-0.0077158064
4	0x3d9682dc	0.07349178
5	0xbdfd9fec	-0.12384018
6	0xbdd89918	-0.10576075
7	0xbcbeedc8	-0.023306742
8	0xbdbedc3e	-0.093193516
9	0x3daa093a	0.08302541
10	0x3d8b12b8	0.0679068
11	0x3d805590	0.0626632
12	0x3da63438	0.08115429
13	0x3dc9dfe0	0.09857154
14	0xbdb45bd6	-0.08806579
15	0xbdb36abe	-0.08760594
16	0xbcc12938	-0.023579225
17	0x3df57f50	0.119871736
18	0xbdcc2faa	-0.09970029
19	0xbd82a7d4	-0.06379667
20	0xbc0975e0	-0.00838992
21	0x3d4ee478	0.050510854
22	0x3cdd0770	0.026981086
23	0xbdb35c88	-0.08757883
24	0x3d0a0b10	0.033701956
25	0xbd107ef0	-0.035277307
26	0xbdecc334	-0.115606695
27	0x3ddfcaa2	0.10927321
28	0xbdce9bb8	-0.10088295
29	0xbdd3d8ea	-0.103441074
30	0xbd062f10	-0.032759726
31	0x3d37ed80	0.044904232
32	0xbcdaa160	-0.026688278
33	0x3dd85cf2	0.10564603
34	0x3d8b95c2	0.068156734
35	0xbdd16cb0	-0.102258086
36	0xbdd2508a	-0.10269268
37	0xbdf3f224	-0.11911419
38	0xbcff3268	-0.031151965
39	0xbddfeed6	-0.10934226
40	0xbd75f47c	-0.06004761
41	0xbcec40e0	-0.028839529
42	0x3dce1e4c	0.100643724
43	0x3d982910	0.07429707
44	0x3dc2836c	0.09497723
45	0xbc2ae8b0	-0.010431454
46	0x3de19484	0.11014655
47	0xbd904258	-0.07043904
48	0x3dfcfbcc	0.12352714
49	0x3d8479a4	0.064685136
50	0x3ded7636	0.115948126
51	0x3d629f88	0.055327922
52	0xbdd8cc06	-0.105857894
53	0x3d4c89c4	0.04993607
54	0xbced0dd0	-0.02893725
55	0xbd4fc18c	-0.05072169
56	0xbd805a42	-0.06267215
57	0xbdceb6e6	-0.10093479
58	0x3cab9b50	0.020948082
59	0x3d81c94c	0.063372225
60	0x3d8cb754	0.068709046
61	0xbdc5f6e4	-0.09666231
62	0x3def6d94	0.11690822
63	0x3d825d76	0.063654825
64	0x3da22032	0.07916297
65	0xbd83ef96	-0.06442182
66	0xbddd19d2	-0.107959405
67	0x3dbe13c6	0.09281115
68	0x3defc954	0.11708322
69	0xbcf8eaa8	-0.03038533
70	0x3d814c02	0.063133255
71	0xbddb6e8a	-0.10714443
72	0xbdd9beec	-0.106321186
73	0xbdb56526	-0.08857183
74	0xbd961b34	-0.07329407
75	0xbdbcd456	-0.09220187
76	0xbc46e890	-0.012140408
77	0x3df069e0	0.11738944
78	0x3d402c90	0.046917498
79	0x3dc77aa6	0.0974019
80	0x3b464ec0	0.003025934
81	0xbdd02382	-0.101630226
82	0xbd90c83e	-0.07069443
83	0xbd75c434	-0.060001567
84	0xbdbe5bc2	-0.09294845
85	0xbd8b427e	-0.06799792
86	0x3cb9fce8	0.022703603
87	0x3d8a2d2c	0.06746897
88	0xbdf09dd8	-0.11748856
89	0xbd0a3d40	-0.03374982
90	0xbdd8fc70	-0.10595024
91	0x3c755ff0	0.014976487
92	0xbc805d38	-0.01566945
93	0x3b7ea280	0.0038854182
94	0x3dadd50e	0.084879026
95	0xbd9066c2	-0.070508495
96	0x3d4aa1d8	0.049470752
97	0x3d1d86c0	0.038458586
98	0xbbecdcc0	-0.007228464
99	0xbda49c26	-0.080375955
100	0x3cc632e8	0.024194196
101	0xbdf765ee	-0.120799884
102	0xbc83c3f8	-0.016084656
103	0x3dba9686	0.09110741
104	0x3d560734	0.052252963
105	0xbdcf4fa0	-0.10122609
106	0x3d3e6558	0.046483368
107	0xbc8c9380	-0.017160177
108	0x3b8b7a60	0.0042565316
109	0xbdbe1b00	-0.092824936
110	0xbd9315da	-0.07181902
111	0xbdc3fde4	-0.0956991
112	0xbc8a60a8	-0.016891792
113	0x3dd064b4	0.101754576
114	0x3c949fa8	0.018142536
115	0xbdc81610	-0.09769833
116	0x3d8360a6	0.064149186
117	0x3daad96e	0.08342253
118	0x3de8e2dc	0.11371395
119	0xbde3621e	-0.11102699
120	0x3ddb1600	0.106975555
121	0x3c0ae620	0.008477718
122	0x3cf32bb0	0.029683918
123	0x3db5853a	0.088633016
124	0x3de6b7ca	0.11265524
125	0x3dad5522	0.084635034
126	0x3dd9556e	0.106119975
127	0xbdc43544	-0.09580472
128	0x3c190770	0.009340152
129	0xbdacace6	-0.08431415
130	0x3da586c0	0.08082342
131	0x3c588880	0.013216138
132	0x3cc0b690	0.023524553
133	0x3d7ffc64	0.062496558
134	0xbd2786f4	-0.040900186
135	0x3cb94f60	0.022620857
136	0xbdff1136	-0.124544546
137	0x3db7195c	0.08940384
138	0x3d658db4	0.05604334
139	0x3dc4ae82	0.09603597
140	0x3c0c05b0	0.008546278
141	0x3d79c5d8	0.060979694
142	0xbdd6d06e	-0.104889736
143	0x3dac0eaa	0.084012344
144	0xbc4dde00	-0.012565136
145	0xbdceffc0	-0.10107374
146	0xbdb8ad52	-0.09017433
147	0xbdbc17b2	-0.09184207
148	0x3dc521d2	0.09625591
149	0x3bd734e0	0.0065675825
150	0x3dc99c9e	0.098443255
151	0xbdadee8a	-0.08492763
152	0xbd0b1fcc	-0.03396587
153	0x3d90adde	0.070644125
154	0x3cd797a0	0.026317418
155	0xbd48870c	-0.048956916
156	0xbd28f588	-0.04124978
157	0xbbb3c6a0	-0.0054863244
158	0xbdcc5fd4	-0.09979215
159	0x3dd96fd0	0.1061703
160	0x3d1174cc	0.035511777
161	0x3d18913c	0.03724788
162	0xbca1aad8	-0.019734785
163	0x3cda9e20	0.026686728
164	0xbd77f3a8	-0.060535103
165	0x3d930bb2	0.07179965
166	0xbcbdff50	-0.023193032
167	0x3d1d3ad4	0.03838618
168	0xbd23eafc	-0.04001902
169	0x3decb6c8	0.115583
170	0x3dc321f2	0.09527959
171	0xbc344ef0	-0.011005148
172	0xbd8fa79e	-0.07014392
173	0x3d89a49c	0.0672085
174	0xbdcbb09a	-0.099457934
175	0x3dbb7b38	0.091543615
176	0xbd05e81c	-0.03269206
177	0x3dc1b410	0.09458172
178	0xbd5b1188	-0.053483516
179	0x3d9651c4	0.07339814
180	0xbdc69060	-0.09695506
181	0x3d0054f4	0.031331018
182	0x3d87f38a	0.06638248
183	0xbdbbb81a	-0.09165974
184	0x3df187f8	0.11793512
185	0x3de07992	0.10960688
186	0x3da77ea8	0.08178455
187	0x3da10770	0.07862747
188	0xbd2efdf4	-0.042722657
189	0x3c8e6a00	0.01738453
190	0xbd6e77dc	-0.058219776
191	0xbd86ecd4	-0.0658814
192	0x3ddb7280	0.107151985
193	0x3de6e79e	0.11274646
194	0xbc4f9e30	-0.012671992
195	0x3db12cd8	0.086511314
196	0xbae0cf00	-0.0017151535
197	0x3de12502	0.10993387
198	0x3d3bfce4	0.045895472
199	0xbc3956f0	-0.011312231
200	0x3d50cf74	0.050979093
201	0xbdedf168	-0.1161831
202	0xbc885548	-0.016642228
203	0xbc76fdd0	-0.015075162
204	0x3da8adea	0.082362965
205	0x3d83394e	0.064074144
206	0xbdf59a0a	-0.11992271
207	0x3c339920	0.010961801
208	0xbdb40728	-0.087904274
209	0x3df74938	0.12074512
210	0xbdcc8868	-0.09986955
211	0x3d6c3c28	0.057674557
212	0xbc4597a0	-0.012060076
213	0x3dcd352e	0.10019909
214	0xbd9f83ae	-0.07788788
215	0xbdf9db8e	-0.1220008
216	0x3d95830c	0.07300386
217	0x3d82bd38	0.06383747
218	0xbcf31060	-0.029670894
219	0x3dbea972	0.09309663
220	0xbd41c3c0	-0.047305822
221	0x3d4a8644	0.049444452
222	0x3da312fa	0.07962604
223	0xbd8c9c08	-0.06865698
224	0x3dbc9e28	0.092098534
225	0xbdf447a4	-0.11927727
226	0xbdf74edc	-0.12075588
227	0xbd6f8aac	-0.058481857
228	0xbdabcd18	-0.08388728
229	0xbdd475ea	-0.10374053
230	0xbc9eef08	-0.019401088
231	0x3d395580	0.045247555
232	0xbd6d4424	-0.057926312
233	0x3dcd6bdc	0.10030338
234	0x3dde9e90	0.10870087
235	0xbd861d24	-0.06548527
236	0x3dfc451c	0.12317869
237	0xbd7f7e78	-0.06237647
238	0x3dd99200	0.106235504
239	0x3d001de0	0.03127849
240	0x3ddc9a72	0.107716456
241	0x37dfc000	2.6673079e-05
242	0xbdc23db4	-0.09484425
243	0x3d1b2b28	0.037882954
244	0x3c455760	0.012044758
245	0xbd1fe354	-0.039035156
246	0x3db4bcc6	0.08825068
247	0x3d24e118	0.04025373
248	0x3c7bdd80	0.015372634
249	0xbd11c244	-0.035585657
250	0xbd853002	-0.065032974
251	0xbd9aa86a	-0.07551654
252	0x3daa25ee	0.08308016
253	0xbc623540	-0.013806641
254	0xbdefd82e	-0.11711155
255	0xbcb7d980	-0.02244258

bias f4 [30]
0	0xbc910060	-0.017700374
1	0xbdd7d6ca	-0.10539015
2	0x3d4e8c24	0.050426617
3	0x3d75fbe8	0.06005469
4	0xbdf3b6b6	-0.11900084
5	0xbdaea4ec	-0.0852755
6	0x3d618220	0.055055737
7	0xbd46513c	-0.048417315
8	0x3da9c904	0.08290294
9	0xbdad49c0	-0.08461332
10	0x3dd871ee	0.10568605
11	0x3da5bfe2	0.08093239
12	0xbdf65772	-0.120283976
13	0xbc667380	-0.014065623
14	0x3da15cbe	0.07879017
15	0xbda66da2	-0.081263795
16	0x3cd5a260	0.026078403
17	0xbd6248e0	-0.05524528
18	0xbd94ff20	-0.07275224
19	0x3d8fd72e	0.07023464
20	0xbd59cdfc	-0.053174958
21	0xbdf055d2	-0.11735119
22	0xbd315d7c	-0.043302044
23	0xbdd767ba	-0.10517831
24	0x3df1f3b0	0.11814058
25	0xbd8bc6b4	-0.06825009
26	0xbdf4ae06	-0.11947255
27	0xbd1d45a8	-0.038396508
28	0xbde3a8c4	-0.11116174
29	0xbded00a0	-0.11572385
