darts_logs/2022-11-19_12.56.16.313036_torch_model_run_8564/_model.pth.tar (torch, 74546 bytes, 16 tensors)

weight f4 [64, 2]
0	0x3ee81dc2	0.45335203
1	0xbf2c51fd	-0.67312604
2	0x3ca39ae0	0.019971311
3	0x3e8fc3e4	0.2807914
4	0x3ce14a80	0.027501345
5	0x3e50c3e8	0.20387232
6	0xbf1360eb	-0.5756976
7	0xbecf4a1f	-0.40486237
8	0xbeecc189	-0.46241406
9	0x3e9393da	0.2882374
10	0xbbbc4a00	-0.005746126
11	0xbf01a0d4	-0.5063603
12	0xbf1b1127	-0.6057305
13	0x3e5b79f0	0.21433234
14	0xbeacf630	-0.33781576
15	0x3d555df0	0.05209154
16	0xbde73758	-0.11289853
17	0xbeaff5ce	-0.34367222
18	0x3e8cab70	0.27474546
19	0xbe87106d	-0.2637972
20	0x3dd57668	0.10422975
21	0x3e9bb16a	0.30408794
22	0xbe2712f0	-0.16315818
23	0x3e52ba74	0.20578939
24	0xbed2ffb8	-0.41210723
25	0x3eb9e68e	0.36308712
26	0x3e84d716	0.25945348
27	0x3d1b7fc0	0.03796363
28	0x3f2fee05	0.68722564
29	0xbe404d90	-0.18779588
30	0x3d6db810	0.058036864
31	0xbe58ba8e	-0.21164915
32	0x3ed94262	0.4243346
33	0x3eec6aca	0.46175224
34	0xbd106270	-0.035250127
35	0x3dd83f18	0.10558909
36	0x3ea443b6	0.3208291
37	0xbe949f4b	-0.2902778
38	0xbefb9661	-0.49138168
39	0x3e58e36c	0.21180505
40	0x3ec14716	0.37749547
41	0x3eaf3dce	0.3422684
42	0x3ec8dae6	0.39229506
43	0xbe24892c	-0.16067952
44	0xbf29cf2c	-0.66331744
45	0x3e5b3a54	0.21408969
46	0x3db855d8	0.090007484
47	0xbdb38320	-0.087652445
48	0x3e65c9b8	0.22440231
49	0xbee28716	-0.44243687
50	0xbec2768a	-0.37981063
51	0xbf299d6f	-0.6625585
52	0xbeb0b00d	-0.34509316
53	0x3f2eb0a5	0.6823829
54	0x3e150798	0.14553678
55	0x3f1dc04f	0.61621565
56	0x3d9dd598	0.077067554
57	0xbe11fc58	-0.14256418
58	0x3e09efd4	0.13470393
59	0x3ed1b21e	0.40956205
60	0xbee1977f	-0.44060895
61	0x3f20730f	0.62675565
62	0xbc40afc0	-0.011760652
63	0xbd679e10	-0.056547225
64	0x3ee50f3e	0.4473819
65	0xbdeb4018	-0.11486834
66	0x3d9b14a8	0.07572299
67	0x3cd38d20	0.02582413
68	0xbf28d038	-0.65942717
69	0xbf1f989a	-0.62342227
70	0x3f163caf	0.58686346
71	0xbe82b9f9	-0.2553251
72	0x3ea0266e	0.3127932
73	0xbf062cdf	-0.5241222
74	0xbf073f8c	-0.5283134
75	0xbee58b61	-0.448329
76	0x3e8a76f6	0.27043885
77	0xbe984e19	-0.29747084
78	0xbe8959d0	-0.26826334
79	0x3e8103b0	0.25198126
80	0xbee337ad	-0.44378415
81	0x3e10e21c	0.14148754
82	0x3ea033fa	0.31289655
83	0x3ebcf34a	0.36904365
84	0xbf1fae8b	-0.62375706
85	0xbf09d6e3	-0.53843516
86	0x3d4bfd00	0.049801826
87	0xbdd3b808	-0.103378356
88	0x3ef305ee	0.47465461
89	0xbf1f5ea0	-0.6225376
90	0xbd85f300	-0.06540489
91	0xbf1b1b9d	-0.6058901
92	0xbf1bfcbc	-0.6093252
93	0xbefadc0e	-0.48996013
94	0xbe6ca7bc	-0.2311086
95	0x3ead0ac6	0.33797282
96	0x3f314aa1	0.692545
97	0xbf02e067	-0.5112366
98	0xbf2d65ce	-0.67733467
99	0x3e983aca	0.29732352
100	0xbf0f8951	-0.56068903
101	0x3eb9d39e	0.36294264
102	0x3e447584	0.19185454
103	0x3e74e240	0.23914433
104	0xbe1fa364	-0.15589672
105	0x3e4dcb80	0.2009716
106	0xbe9b18d2	-0.30292374
107	0x3e970e92	0.29503304
108	0x3ecf91c6	0.40540904
109	0x3f09c76d	0.53819925
110	0xbdfaf908	-0.1225453
111	0xbe654dee	-0.22393009
112	0x3f217219	0.63064724
113	0xbe9d9441	-0.3077717
114	0xbdc47280	-0.09592152
115	0x3e7f758c	0.24947184
116	0x3e8d578c	0.27605855
117	0x3d01d190	0.031693995
118	0xbee2eeca	-0.44322807
119	0xbf1cd27c	-0.61258674
120	0xbe2be3e4	-0.16786152
121	0x3f2b4457	0.66901153
122	0xbe8293b9	-0.25503328
123	0x3e1cbf44	0.15307337
124	0x3f1070dd	0.56422216
125	0xbe20db24	-0.15708596
126	0x3ed0995a	0.40741998
127	0x3ebfd37a	0.3746603

bias f4 [64]
0	0xbf0e8370	-0.5566931
1	0xbef3d7ce	-0.47625583
2	0xbda8a748	-0.08235031
3	0x3d721760	0.059104323
4	0x3f15ff23	0.5859243
5	0xbe9c749b	-0.30557713
6	0xbece4160	-0.40284252
7	0x3ee8af22	0.45446116
8	0xbf233614	-0.6375439
9	0xbf0f464a	-0.5596663
10	0x3e337c00	0.17527771
11	0x3e5fcef0	0.21856284
12	0x3f182fbf	0.59447855
13	0x3dde2b10	0.10848057
14	0xbdd59c18	-0.10430163
15	0x3ea5f38a	0.32412368
16	0xbf295e70	-0.66159725
17	0xbf09ab90	-0.5377741
18	0x3e4bf228	0.19916594
19	0xbedbf8d8	-0.4296329
20	0xbf014215	-0.5049146
21	0xbf0aa810	-0.54162693
22	0xbe1fb29c	-0.15595478
23	0xbcc35cc0	-0.023847938
24	0xbf13c442	-0.5772134
25	0x3ca36700	0.019946575
26	0x3e2e6a20	0.17032671
27	0x3f294633	0.6612274
28	0xbe42f87c	-0.19040102
29	0x3d920208	0.07129294
30	0xbd273720	-0.040824056
31	0x3f2e1a03	0.6800844
32	0x3d303040	0.043014765
33	0xbeb31d36	-0.34983224
34	0xbf1a95c3	-0.6038477
35	0x3ea835a6	0.3285343
36	0x3e954806	0.29156512
37	0x3e8ad1c6	0.2711317
38	0xbebfbc67	-0.37448427
39	0x3f13dd17	0.5775923
40	0xbc391200	-0.011295795
41	0x3f1c1c5f	0.6098079
42	0xbf14d170	-0.58132076
43	0x3eae2df2	0.34019428
44	0xbe4b2a94	-0.19840461
45	0xbf12d663	-0.5735838
46	0x3e584834	0.21121293
47	0xbeb0a6d1	-0.3450227
48	0x3f2a6489	0.66559654
49	0xbf011d16	-0.50435007
50	0x3f21b751	0.63170344
51	0xbdf63db0	-0.12023485
52	0x3f08651b	0.53279275
53	0x3ef3a5e6	0.47587508
54	0xbe606d66	-0.21916732
55	0xbcb57240	-0.022149205
56	0x3ec0e4da	0.376746
57	0xbea96f96	-0.33092946
58	0x3ea94e2e	0.3306746
59	0x3ea53202	0.32264715
60	0xbd8611d8	-0.06546372
61	0x3f1eb751	0.6199847
62	0xbdc18668	-0.09449464
63	0xbf1ab3c5	-0.60430557

weight f4 [64, 64]
0	0x3de9b274	0.1141099
1	0x3d96c590	0.07361901
2	0xbbbd8d80	-0.0057846904
3	0xbd638e60	-0.0555557
4	0x3dc5531e	0.09634994
5	0x3d0f75f8	0.035024613
6	0x3d9ed0f8	0.077547014
7	0x3cdd29e0	0.026997507
8	0xbd9cc0b6	-0.07653944
9	0xbc96fd48	-0.01843132
10	0xbc96baa8	-0.018399552
11	0x3d320e58	0.04347071
12	0xbd8f8a62	-0.07008816
13	0x3ca68818	0.020328566
14	0xbbad76c0	-0.005293697
15	0x3d0c4a5c	0.034250602
16	0xbcd71268	-0.026253894
17	0x3d5a1aa4	0.053248063
18	0xbdfbfe54	-0.123043686
19	0xbd00a4cc	-0.031407163
20	0x3d8fb846	0.07017569
21	0xbd7f2014	-0.06228645
22	0xbc126460	-0.008935064
23	0xbdd8a6a6	-0.10578661
24	0xbd35b01c	-0.044357404
25	0xbdb29d2c	-0.087213844
26	0x3cd5f260	0.02611655
27	0x3d536064	0.051605597
28	0x3db42a12	0.08797087
29	0x3cbf65f8	0.023364052
30	0xbd8da5f4	-0.06916419
31	0xbd3bf330	-0.04588622
32	0xbd94697c	-0.07246682
33	0x3d16f8c4	0.036858335
34	0xbd6ec428	-0.058292538
35	0x3df145c4	0.11780885
36	0x3dac29fc	0.084064454
37	0x3ce1ead8	0.027577803
38	0x3ded990e	0.116014585
39	0xbc2f20a0	-0.010688931
40	0xba441800	-0.0007480383
41	0x3d7b1480	0.061298847
42	0xbbce6860	-0.0062990636
43	0x3dfe273e	0.124098286
44	0x3cb90548	0.022585526
45	0x3d48abb0	0.04899186
46	0x3dbf3f1a	0.093382075
47	0xbd050e40	-0.032484293
48	0x3d8f0e4e	0.0698515
49	0x3df4e36e	0.11957441
50	0xbcd94638	-0.02652274
51	0xbdbeff88	-0.093260825
52	0x3c383d40	0.011245072
53	0xbda4379a	-0.08018418
54	0xbc6aa050	-0.014320448
55	0x3dfa98e4	0.12236193
56	0x3db20704	0.086927444
57	0xbdebf4dc	-0.115213126
58	0x3dc0b62a	0.09409745
59	0x3dc0c1e2	0.0941198
60	0x3d25f548	0.04051712
61	0x3d7d88a4	0.06189789
62	0xbdfdf906	-0.12401013
63	0xbd5760f8	-0.05258271
64	0x3dd61a22	0.10454203
65	0x3dad4bbc	0.08461711
66	0xbdd26184	-0.10272506
67	0xbb864540	-0.0040976107
68	0x3d4a2098	0.04934749
69	0xbd23c238	-0.039980143
70	0x3d648278	0.055788487
71	0xbce06280	-0.027390718
72	0x3ba2a360	0.0049633235
73	0x3c89ff78	0.01684545
74	0x3da1a6a4	0.07893112
75	0x3d27aef0	0.040938318
76	0xbd8ae722	-0.06782366
77	0x3caea9b8	0.021321163
78	0xbcce8648	-0.025210515
79	0xbc021940	-0.00794059
80	0x3d97b760	0.07408023
81	0x3de23bfc	0.11046597
82	0xbdfb8d5a	-0.1228282
83	0x3d398cb8	0.045300215
84	0x3d1ddad0	0.038538754
85	0xbcc3f120	-0.023918688
86	0x3ce3af50	0.027793556
87	0xbd9ff708	-0.07810789
88	0x3cc597e0	0.024120271
89	0x3d94db48	0.07268387
90	0xbce3e8a0	-0.027820885
91	0xbcb99d18	-0.022657916
92	0xbd4688d0	-0.04847032
93	0xbdf232e8	-0.11826116
94	0xbd4afc90	-0.04955727
95	0xbd96bd84	-0.07360366
96	0xbd7479e0	-0.05968654
97	0xbdcb3868	-0.09922868
98	0xbdd6620c	-0.1046792
99	0xbdbbd9a0	-0.09172368
100	0x3d674db0	0.056470573
101	0xbdf76342	-0.12079479
102	0x3cce2618	0.025164649
103	0x3beb3f40	0.007179171
104	0x3df34f04	0.118803054
105	0x3d0e37a4	0.03472103
106	0xbda0394e	-0.0782343
107	0xbd22d584	-0.039754406
108	0xbd4cb87c	-0.049980626
109	0xbd8918b2	-0.066941634
110	0x3d1504f4	0.036381677
111	0x3c1fd570	0.009755477
112	0xbc06f470	-0.008236989
113	0x3deccf94	0.1156303
114	0x3cbb5860	0.022869289
115	0x3cb57fa8	0.022155598
116	0x3ddf8e3a	0.109157994
117	0x3d1423dc	0.03616701
118	0xbc1006d0	-0.008790687
119	0x3de1302c	0.10995516
120	0xbbe93820	-0.0071172863
121	0x3dc3e210	0.095646024
122	0xbc7a0e90	-0.015262261
123	0xbd8cae64	-0.068692
124	0x3d9253ec	0.07144913
125	0x3b76e4c0	0.0037672967
126	0xbddf8c06	-0.10915379
127	0xbcb51710	-0.022105724
128	0x3da2a864	0.07942274
129	0x3dddbda8	0.1082719
130	0xbd5baeb8	-0.05363342
131	0xbda3d7c0	-0.080001354
132	0xbdeb48a2	-0.11488463
133	0xbcf85250	-0.030312687
134	0x3c8a7090	0.016899377
135	0x3c5a7e60	0.013335794
136	0xbddd8132	-0.10815658
137	0x3daef724	0.08543232
138	0x3cb45908	0.02201511
139	0xbdbbb184	-0.09164718
140	0x3df3c65a	0.11903067
141	0xbb86ac40	-0.0041098893
142	0x3d5365b4	0.051610664
143	0x3d85b18e	0.065280065
144	0x3cb4e2d8	0.022080824
145	0xbdbc189e	-0.09184383
146	0xbdb870e4	-0.09005907
147	0x3cd660d8	0.026169226
148	0x3d32fcc0	0.043698072
149	0x3c8167e8	0.015796617
150	0x3bdd0ae0	0.006745681
151	0x3dde77c0	0.10862684
152	0xbdfe133e	-0.12406014
153	0xbd14d284	-0.036333576
154	0xbdee6150	-0.11639655
155	0xbd351634	-0.044210628
156	0xbcac4148	-0.021027222
157	0x3daf93ea	0.08573134
158	0x3dfbd2e8	0.122960865
159	0xbd8913a4	-0.06693199
160	0x3d823a50	0.063587785
161	0xbd7736a4	-0.060354844
162	0xbc70bbc0	-0.014693201
163	0x3dede996	0.116168186
164	0x3cfc48d8	0.030796453
165	0x3df8b778	0.12144369
166	0x3cbf1d38	0.023329362
167	0xbd3427f8	-0.04398343
168	0x3ca02cc0	0.019552588
169	0x3d8fa7b6	0.0701441
170	0x3cae8e98	0.021308228
171	0x3da8f61c	0.08250067
172	0x3cf258f0	0.029583424
173	0xbde054d4	-0.1095368
174	0x3aa81500	0.0012823641
175	0xbdb0c688	-0.08631617
176	0xbc5d7e70	-0.013518915
177	0xbd3f3e00	-0.046689987
178	0xbda3b4ae	-0.07993446
179	0x3d8146ea	0.06312354
180	0xbd8bea1c	-0.06831762
181	0xbd129010	-0.03578192
182	0x3dc9a99a	0.09846802
183	0x3dc16c22	0.09444453
184	0x3dcd394c	0.10020694
185	0xbd8e71ba	-0.06955285
186	0xbdd2fd7e	-0.10302256
187	0x3db572cc	0.088597864
188	0x3d1da1a4	0.03848423
189	0xbd90812e	-0.07055889
190	0xbdcd497c	-0.10023782
191	0xbd7e0678	-0.062017888
192	0xbd272004	-0.040802017
193	0x3d558b50	0.052134812
194	0x3d1ecb90	0.03876835
195	0x3bd17920	0.006392613
196	0x3dcefd34	0.101068884
197	0xbdb0f126	-0.086397454
198	0xbce39090	-0.027778894
199	0xbbec50c0	-0.0072117746
200	0x3d9bb7b6	0.076033995
201	0x3dbbc2ce	0.091680154
202	0xbd52fbe4	-0.051509753
203	0x3dc70344	0.0971742
204	0x3c797380	0.015225291
205	0xbdceeb04	-0.101034194
206	0x3d420a84	0.04737331
207	0x3d95721a	0.07297154
208	0xbdf6dd84	-0.120539695
209	0xbcaced28	-0.021109179
210	0xbdaf3746	-0.085554644
211	0x3d829ab2	0.06377162
212	0x3c89cf80	0.016822577
213	0xbd99af4a	-0.07504137
214	0xbca621d0	-0.020279795
215	0xbc0f3420	-0.008740455
216	0x3dc1c600	0.09461594
217	0xbcb85148	-0.022499695
218	0xbc6d0590	-0.014466658
219	0x3dc16650	0.09443343
220	0xbc521af0	-0.012823805
221	0x3d3b4e90	0.04572922
222	0xbd830dea	-0.06399138
223	0x3d15a534	0.036534503
224	0x3d9257de	0.071456656
225	0xbddb83fa	-0.10718532
226	0x3d8df3c4	0.0693126
227	0xbdf737ba	-0.12071176
228	0xbdf7f3a4	-0.12107018
229	0x3d5ffd5c	0.05468498
230	0x3cef9b58	0.029248878
231	0xbc408540	-0.011750519
232	0xbd8dd622	-0.06925608
233	0x3dc54fa4	0.09634331
234	0xbda367a4	-0.07978752
235	0x3d770688	0.060308963
236	0xbdb34a80	-0.08754444
237	0xbcc4b4a0	-0.02401191
238	0x3c629210	0.013828769
239	0x3d86726e	0.065647945
240	0xbdf5e40a	-0.120063856
241	0xbd430790	-0.047614634
242	0x3da5cff0	0.080963016
243	0xbdcce718	-0.10005015
244	0x3d92f468	0.07175523
245	0xbd5430a4	-0.0518042
246	0xbdbe4c12	-0.09291853
247	0x3da6ab1e	0.08138107
248	0xbd7bc550	-0.06146747
249	0x3c48e840	0.012262404
250	0x3db35204	0.087558776
251	0x3deb64a6	0.114938065
252	0x3ddec6ea	0.108777836
253	0x3dc4ee40	0.09615755
254	0x3cd1d948	0.025616303
255	0x3bf3dd20	0.0074421316

bias f4 [64]
0	0x3d91db92	0.07121958
1	0xbd9ba422	-0.07599665
2	0xbd042b2c	-0.032267734
3	0xbd401954	-0.046899155
4	0xbdaeb200	-0.085300446
5	0xbcd5b958	-0.026089355
6	0x3df99664	0.12186888
7	0xbad4e200	-0.001624167
8	0x3dcd40cc	0.10022125
9	0x3df592fa	0.11990924
10	0xbd59b46c	-0.05315058
11	0xbdda406e	-0.1065682
12	0x3dc9d2f8	0.09854692
13	0x3debebec	0.11519608
14	0x3bdcad60	0.006734535
15	0xbdbd9656	-0.0925719
16	0x3db9b366	0.09067421
17	0x3dd1f2fe	0.10251425
18	0x3df5a0de	0.119935736
19	0xbdb02434	-0.08600655
20	0x3dc106fc	0.0942516
21	0xbd91d24e	-0.071201906
22	0xbdefeb9a	-0.11714859
23	0xbd634c2c	-0.055492565
24	0xbd921e14	-0.07134643
25	0x3dd9d83e	0.10636948
26	0x3d699efc	0.057036385
27	0x3ac9fc00	0.0015410185
28	0xbd6dc1b0	-0.058046043
29	0x3d035e10	0.032072127
30	0xbd8316e0	-0.064008474
31	0xbd021e68	-0.03176728
32	0xbd99dcf0	-0.075128436
33	0xbd5491d0	-0.05189687
34	0x3d3f5260	0.04670942
35	0xbcf15830	-0.029460996
36	0xbd83345e	-0.064064726
37	0xbd93cd4a	-0.0721689
38	0xbdb739da	-0.08946581
39	0x3b3a4400	0.0028421879
40	0x3d5f8110	0.054566443
41	0xbdd2cd26	-0.10293035
42	0x3d43b0b4	0.04777594
43	0xbdfa3438	-0.12216991
44	0x3caccb00	0.021092892
45	0x3dac0384	0.08399108
46	0x3d8d9b36	0.0691437
47	0x3c71a9e0	0.014749974
48	0x3de9e032	0.11419715
49	0x3dfee796	0.12446515
50	0xbd9c4b9a	-0.07631607
51	0xbd516be4	-0.051128283
52	0x3d3f9b48	0.046778947
53	0xbd958cda	-0.07302256
54	0xbca13738	-0.01967965
55	0x3cd5a8c0	0.026081443
56	0xbd523114	-0.051316336
57	0x3d89b7fe	0.06724547
58	0x3b736140	0.0037136823
59	0xbbe2ae40	-0.006917745
60	0x3c1a6ba0	0.009425074
61	0xbd83e422	-0.06439997
62	0xbdbb8258	-0.091557205
63	0x3d788548	0.060673982

weight f4 [10, 64]
0	0x3b8bad40	0.0042625964
1	0xbd020b2c	-0.031748936
2	0xbdbe0724	-0.09278706
3	0x3dcfb266	0.10141449
4	0xbde4bcbe	-0.11168812
5	0x3daf9ad0	0.0857445
6	0xbd9926ca	-0.074781016
7	0xbdca1bd0	-0.09868586
8	0xbddacdb6	-0.106837675
9	0x3dc84160	0.09778094
10	0x3c9f2650	0.019427449
11	0xbdfd18ac	-0.123582214
12	0x3d459d5c	0.048245773
13	0x3dc633e4	0.09677866
14	0x3cbb5600	0.022868156
15	0x3dcd343e	0.1001973
16	0xbdc60082	-0.096680656
17	0x3dec9544	0.11551908
18	0x3d1d2a6c	0.038370535
19	0x3d818830	0.06324804
20	0x3c129580	0.008946776
21	0xbd20f8f4	-0.03929992
22	0x3de42666	0.111401364
23	0x3d28a63c	0.04117416
24	0xbc8f78a0	-0.017513573
25	0xbd7df628	-0.06200233
26	0x3d777b78	0.060420483
27	0x3dfdad6e	0.12386595
28	0xbd0af1ac	-0.033921883
29	0xbde57ae6	-0.11205082
30	0x3baef000	0.005338669
31	0x3d96b0cc	0.0735794
32	0x3c546dc0	0.01296562
33	0xbdbd1dfe	-0.09234236
34	0x3d0190b4	0.03163214
35	0xbd0b5fb8	-0.03402683
36	0xbdb91d9e	-0.09038852
37	0xbd2ab0d4	-0.041672543
38	0x3daafefe	0.08349417
39	0x3d87fdbc	0.06640193
40	0x3c65eb20	0.014033109
41	0xbde00ae2	-0.10939576
42	0xbde77674	-0.1130189
43	0xbdd44ffe	-0.1036682
44	0xbd62e69c	-0.055395707
45	0x3d6df64c	0.058096215
46	0xbdecf13a	-0.11569448
47	0xbacbe000	-0.0015554428
48	0xbddfa0c0	-0.109193325
49	0xbdfc65d2	-0.12324108
50	0xbdddaec6	-0.10824351
51	0xbdf75248	-0.12076241
52	0xbb8170a0	-0.0039501935
53	0x3db9aa4c	0.09065685
54	0xbde1a5ee	-0.11017977
55	0x3d636418	0.05551538
56	0xbd90befc	-0.070676774
57	0xbc6673f0	-0.014065728
58	0x3de37036	0.11105387
59	0xbd4ccd88	-0.050000697
60	0x3d1cf760	0.038321853
61	0xbd939bfe	-0.072074875
62	0xbda0865a	-0.078381255
63	0x3d514aa8	0.05109659
64	0xbd89c74e	-0.067274675
65	0xbc37def0	-0.011222586
66	0x3ca60468	0.020265773
67	0xbcd721b8	-0.026261196
68	0xbd81f1ea	-0.063449696
69	0x3cde8cd8	0.027166769
70	0xbdec4438	-0.11536449
71	0x3dc16388	0.09442812
72	0x3daa940a	0.083290175
73	0x3c12f7a0	0.008970171
74	0x3cd37280	0.025811434
75	0x3cc45ee8	0.023971036
76	0x3dfc6c92	0.12325396
77	0xbc4456a0	-0.011983544
78	0x3d46d054	0.04853852
79	0x3d7c9d10	0.061673224
80	0x3d1d962c	0.038473293
81	0x3c95c398	0.018281743
82	0xbd2cff9c	-0.042235956
83	0x3b136980	0.0022493303
84	0x3da620fe	0.081117615
85	0x3d072698	0.03299579
86	0xbad84b80	-0.0016501993
87	0xbc098730	-0.008394048
88	0x3db48b8a	0.088156775
89	0xbdf23b0a	-0.11827667
90	0xbd58e420	-0.052951932
91	0xbd7cb2e4	-0.06169404
92	0xbde3cb42	-0.11122753
93	0x3ca67720	0.020320475
94	0x3dd196f8	0.10233873
95	0xbde9b6e8	-0.1141184
96	0xbd810bce	-0.0630108
97	0x3dbd49f0	0.09242618
98	0xbdb55332	-0.08853759
99	0x3d255810	0.040367186
100	0xbd9b6d18	-0.07589167
101	0x3c5336b0	0.0128914565
102	0xbdc1fd20	-0.09472108
103	0xbdb5e2dc	-0.088811606
104	0xbd771bf0	-0.060329378
105	0x3da37d1a	0.079828456
106	0xbd7d1fa4	-0.061797753
107	0xbc3278d0	-0.010893062
108	0xbd525068	-0.051346213
109	0xbcaf2010	-0.021377593
110	0x3d8c4088	0.06848246
111	0xbdc91116	-0.09817712
112	0xbd6ea840	-0.058265924
113	0x3db8095a	0.08986159
114	0xbd94b55e	-0.072611555
115	0xbd608614	-0.054815367
116	0x3dc649a2	0.09682013
117	0x3df929a8	0.121661484
118	0x3ce26880	0.02763772
119	0xbdd3b9fa	-0.103382066
120	0xbae28600	-0.0017282367
121	0x3d1f8870	0.038948476
122	0xbd5e82f8	-0.05432412
123	0x3d8f55ae	0.06998764
124	0x3ce5d768	0.028056815
125	0xbd834d06	-0.064111754
126	0xbded8a26	-0.11598615
127	0xbc21a230	-0.009865329
128	0x3da4dcb8	0.08049911
129	0xbdac3a98	-0.08409613
130	0xbdc807f8	-0.09767145
131	0xbdaf419c	-0.08557436
132	0x3da1c7be	0.07899426
133	0xbd1911b4	-0.0373704
134	0x3c232890	0.009958401
135	0x3d8cd9c8	0.06877476
136	0xbd7bc8d8	-0.061470836
137	0xbdc07286	-0.093968436
138	0xbdabfb86	-0.08397584
139	0x3cca0370	0.024659842
140	0xbdf06114	-0.11737266
141	0xbb2ff380	-0.0026848018
142	0xbdd360d4	-0.10321203
143	0x3d6e7b28	0.05822292
144	0x3dd419d0	0.10356486
145	0xbb51c700	-0.0032009482
146	0x3d34d4c0	0.044148207
147	0xbd106be8	-0.035259157
148	0x3bed8c60	0.0072494
149	0xbade0200	-0.0016937852
150	0x3d47b034	0.048752025
151	0x3d7271d4	0.059190586
152	0x3dba79f2	0.091052905
153	0x3d0554b4	0.032551482
154	0xbc80a620	-0.015704215
155	0xbcd4a080	-0.025955439
156	0x3d94bc98	0.07262534
157	0x3ddd1886	0.10795693
158	0x3db566c6	0.08857493
159	0x3d6a8f38	0.05726549
160	0x3d196a40	0.037454844
161	0x3d6df828	0.05809799
162	0x3d359064	0.044327155
163	0xbcb66760	-0.02226609
164	0x3d4c64ac	0.049900696
165	0xbdf1fcde	-0.11815809
166	0x3ce1b6a8	0.027552918
167	0xbdc0696e	-0.09395109
168	0x3cc48d78	0.023993239
169	0x3d866dc2	0.065639034
170	0x3db03f02	0.08605768
171	0x3a294900	0.0006457716
172	0xbddc2590	-0.10749352
173	0xbde64d64	-0.1124523
174	0xbda7d6c6	-0.08195262
175	0xbdcf8302	-0.1013241
176	0xbd18d480	-0.03731203
177	0xbdfa6d0e	-0.12227832
178	0x3d973568	0.07383233
179	0xbdef285e	-0.11677621
180	0xbdcae7cc	-0.09907493
181	0x3b7c9a40	0.0038544089
182	0x3d6e2a48	0.05814579
183	0xbc951618	-0.018199012
184	0x3d6ea364	0.05826129
185	0x3df46586	0.119334266
186	0x3d7c580c	0.061607406
187	0x3db51116	0.088411495
188	0x3d93863e	0.07203339
189	0x3c0def30	0.008662984
190	0xbdc33cfc	-0.09533116
191	0x3c418170	0.011810645
192	0xbc1f32a0	-0.00971666
193	0xbd277c00	-0.04088974
194	0xbb74e1c0	-0.0037366003
195	0xbd81ac16	-0.06331651
196	0xbd49ad88	-0.049237758
197	0xbdde1d3a	-0.10845418
198	0xbde80f86	-0.11331086
199	0x3d0ab998	0.033868402
200	0xbdb0e920	-0.08638215
201	0x3db50fa0	0.08840871
202	0x3da4b7ea	0.08042891
203	0x3d8c1426	0.068397805
204	0x3d1b8048	0.037964135
205	0xbdadce80	-0.084866524
206	0xbd3ce1ac	-0.046113655
207	0x3de69656	0.11259143
208	0xbdab0290	-0.08350098
209	0x3dfff1d0	0.12497294
210	0x3d8f0c3c	0.069847554
211	0x3dda5076	0.10659878
212	0x3c9b4810	0.01895526
213	0xbdee14d0	-0.116250634
214	0x3dd0cd74	0.10195437
215	0xbdba8d54	-0.091089875
216	0xbdaacd3e	-0.08339928
217	0x3d495e2c	0.049162075
218	0x3dde2d7c	0.10848519
219	0xbaa85980	-0.0012844056
220	0xbdec2f5a	-0.11532469
221	0xbd90ac22	-0.07064082
222	0x3d1f1770	0.03884071
223	0x3c946b40	0.018117547
224	0x3dc06a8a	0.09395321
225	0x3d8e0be4	0.06935862
226	0x3d592680	0.053015232
227	0x3d3dc5f8	0.046331376
228	0x3d81acde	0.063318
229	0xbd0c5384	-0.034259334
230	0xbcaad0e0	-0.020851552
231	0x3d4197d8	0.04726395
232	0x3d7881ec	0.06067078
233	0x3d4ba8ac	0.049721405
234	0xbdd09238	-0.10184139
235	0x3d3889d0	0.045053303
236	0x3da595c0	0.08085203
237	0x3bf7c5a0	0.0075614005
238	0xbdd9169a	-0.10600014
239	0xbcabe868	-0.020984843
240	0xbdb283ce	-0.08716546
241	0x3db25920	0.087084055
242	0x3caaa3a0	0.020829976
243	0x3d677fb8	0.056518286
244	0x3c299af0	0.010351881
245	0xbcb1f110	-0.021721393
246	0x3ddaf6ec	0.10691628
247	0x3db712b8	0.08939117
248	0x3d9f3a7c	0.07774827
249	0xbd334bd0	-0.043773472
250	0xbd59af64	-0.05314578
251	0x3c95d8b8	0.018291816
252	0x3dbcab14	0.09212318
253	0x3d90c0c2	0.07068016
254	0xbcbb4878	-0.022861704
255	0x3dd56c3e	0.10421036

bias f4 [10]
0	0x3dc1898a	0.094500616
1	0xbd141690	-0.03615433
2	0x3cb63a90	0.022244722
3	0x3d0c0e88	0.034193546
4	0x3dfd480a	0.12367256
5	0x3c544a00	0.012957096
6	0x3d264a00	0.040597916
7	0xbd91a7f8	-0.071121156
8	0xbd5732a4	-0.05253853
9	0xbdf9e186	-0.12201218

weight f4 [2, 64]
0	0x3db00948	0.0859552
1	0x3d93485e	0.07191537
2	0xbd4083c8	-0.047000676
3	0xbdc3cf4e	-0.095610246
4	0x3dd7be7c	0.10534379
5	0xbde21f6e	-0.11041151
6	0x3df3e900	0.119096756
7	0x3cd8cc38	0.026464567
8	0xbc720de0	-0.014773816
9	0xbd6aa77c	-0.05728863
10	0x3de1fb14	0.110342175
11	0xbdeafbca	-0.11473806
12	0x3deaf900	0.11473274
13	0xbcb85c00	-0.022504807
14	0x3c3c1070	0.011478528
15	0x3d98011e	0.07422088
16	0xbd18dec8	-0.037321836
17	0xba204b00	-0.00061146915
18	0x3d32240c	0.04349141
19	0x3d5bfbd0	0.053706944
20	0xbd9958fc	-0.074876755
21	0xbceee758	-0.029163048
22	0xbda68360	-0.081305265
23	0x3d82ab7c	0.06380364
24	0xbda4abb6	-0.08040564
25	0xbd8000ea	-0.06250174
26	0x3d28ba34	0.041193202
27	0x3c64e860	0.013971418
28	0x3dd5b862	0.10435559
29	0xbcb03620	-0.021510184
30	0xbd82e946	-0.063921496
31	0xbd08e050	-0.033417046
32	0xbdaeb170	-0.08529937
33	0x3d04bbdc	0.03240572
34	0x3c413300	0.0117919445
35	0xbded508e	-0.1158763
36	0xbb8a7500	-0.0042253733
37	0xbdf63236	-0.12021296
38	0x3db2d870	0.087326884
39	0xbc0a7600	-0.008450985
40	0xbd752d40	-0.059857607
41	0xbdfb215e	-0.12262224
42	0xbd280004	-0.04101564
43	0x3c61e3e0	0.01378724
44	0xbde67e1a	-0.11254521
45	0x3ca12618	0.019671485
46	0x3c5dbcd0	0.013533786
47	0x3ddc6920	0.107622385
48	0xbdabba08	-0.08385092
49	0xbced5c20	-0.028974593
50	0xbd163c04	-0.03667833
51	0xbdb243de	-0.08704351
52	0xbd078704	-0.033087745
53	0xbde168f2	-0.11006345
54	0xbcb45778	-0.022014365
55	0xbda40146	-0.080080554
56	0x3d560810	0.052253783
57	0xbdb69366	-0.08914833
58	0x3db51b52	0.088431016
59	0x3df113d6	0.117713615
60	0xbd805402	-0.06266023
61	0xbd93e9fa	-0.07222362
62	0xbd6bc5c8	-0.057561666
63	0x3ca3de60	0.020003498
64	0xbd2462cc	-0.040133283
65	0xbdaf430e	-0.085577115
66	0x3c7c7e60	0.0154109895
67	0xbddaa2ac	-0.106755584
68	0xbd4620ec	-0.04837124
69	0xbd5a8d0c	-0.05335717
70	0xbd736df0	-0.059431016
71	0xbd2cbb4c	-0.042170808
72	0xbd332f14	-0.04374607
73	0xbab4f600	-0.0013806224
74	0xbc5293e0	-0.012852639
75	0xbdc51f18	-0.09625071
76	0x3df8d1da	0.12149401
77	0xbd9b8be2	-0.0759504
78	0xbd361e1c	-0.04446231
79	0xbd06d8f8	-0.03292176
80	0x3d8933de	0.06699346
81	0x3d980246	0.074223086
82	0xbd854272	-0.06506814
83	0x3d17e5c4	0.037084356
84	0xbda9f35e	-0.08298372
85	0xbd6f1c34	-0.058376506
86	0x3b1b5d00	0.0023706555
87	0xbdf5272c	-0.11970362
88	0xbd06ef48	-0.03294304
89	0x3d601a14	0.05471237
90	0x3dd22ec0	0.10262823
91	0x3d32c620	0.043645978
92	0xbdc99908	-0.098436415
93	0x3d0d9720	0.034567952
94	0x3dbe8ff4	0.09304801
95	0x3dd7fa40	0.10545778
96	0x3dcc0b94	0.09963146
97	0xbd0a8510	-0.033818305
98	0xbde9a6f0	-0.11408794
99	0x3ded9ec4	0.11602548
100	0xbd09ea58	-0.033670753
101	0x3d2dee04	0.042463318
102	0xbdfd6806	-0.123733565
103	0x3dade74e	0.084913835
104	0xbd2bda4c	-0.04195623
105	0xbc984448	-0.018587247
106	0x3bf90500	0.007599473
107	0xbb041c00	-0.002015829
108	0xbda98c4e	-0.08278714
109	0xbd547160	-0.051865935
110	0x3dc685f2	0.09693517
111	0x3cc7c1d8	0.024384424
112	0x3dad4884	0.08461097
113	0x3d8922c2	0.06696083
114	0x3d8a1a14	0.06743255
115	0xbd9f1f02	-0.07769586
116	0x3db1ed6c	0.08687863
117	0x3d5f5ea8	0.05453363
118	0xbc81f270	-0.015862674
119	0xbdca090c	-0.09865007
120	0x3dcf8c24	0.101341516
121	0x3c562de0	0.013072461
122	0xbd9dfd7e	-0.077143654
123	0x3d5181b8	0.0511491
124	0x3d65df54	0.056121185
125	0x3d03c700	0.032172203
126	0x3dec0234	0.11523858
127	0xbdd0dea2	-0.10198714

bias f4 [2]
0	0xbdce6420	-0.10077691
1	0xbd45c44c	-0.048282906

weight f4 [64, 30]
0	0xbd9132d0	-0.0708977
1	0xbe15d190	-0.14630723
2	0xbd2fa330	-0.042880237
3	0xbcb03e50	-0.021514088
4	0x3e00077a	0.12502852
5	0xbe175592	-0.14778736
6	0x3daffb88	0.08592898
7	0xbc243a70	-0.010023698
8	0xbdd88643	-0.105724834
9	0xbe2bb1c1	-0.16767026
10	0x3d4c5828	0.04988876
11	0x3e06e580	0.13173485
12	0xbe2da03d	-0.16955657
13	0x3be55220	0.0069983155
14	0x3de5204c	0.11187801
15	0xbde0ed1d	-0.10982726
16	0x3e26b4d2	0.16279915
17	0xbddcbd6a	-0.10778315
18	0x3d56e63c	0.052465662
19	0xbd604d9c	-0.054761514
20	0xbe013280	-0.1261692
21	0xbd3e41d8	-0.046449512
22	0xbe19117e	-0.14948079
23	0xbd628e7c	-0.055311665
24	0x3ded0cec	0.1157473
25	0xbc7e9520	-0.015538484
26	0xbdcec5b9	-0.10096306
27	0x3def8574	0.11695376
28	0xbe266403	-0.16249089
29	0xbe1cf2b0	-0.15326953
30	0x3d2343b4	0.03985949
31	0x3d7b25a4	0.061315194
32	0xbdf8309a	-0.12118645
33	0x3d819150	0.06326544
34	0x3dd42148	0.103579104
35	0x3e2b4a7a	0.1672763
36	0xbe1827ce	-0.14858934
37	0xbd9d04e4	-0.076669484
38	0xbe1bc706	-0.1521264
39	0xbe1a89e3	-0.15091662
40	0xbd9ca718	-0.07649058
41	0x3e27aee6	0.16375312
42	0xbd36af14	-0.04460056
43	0x3e306ee6	0.17229804
44	0x3e2fe264	0.17176205
45	0xbe0c8763	-0.13723521
46	0xbde9d7d9	-0.11418123
47	0x3d10e95c	0.0353788
48	0xbdd5bafc	-0.10436055
49	0x3ce1cd68	0.027563766
50	0x3df42ebc	0.119229764
51	0x3dacaf54	0.08431879
52	0x3dffe9b8	0.1249575
53	0x3d9641d4	0.073367745
54	0x3b243c00	0.0025060177
55	0xbe14c645	-0.14528759
56	0x3ddf3794	0.108992726
57	0xbd34dab0	-0.04415387
58	0x3b470940	0.0030370504
59	0xbd7fae6c	-0.0624222
60	0x3e0898b2	0.13339499
61	0xbe1254da	-0.14290181
62	0xbd0dee44	-0.034651056
63	0x3e12bedc	0.1433062
64	0xbe03409e	-0.12817618
65	0x3dbf80c4	0.09350732
66	0x3d6a84ec	0.05725567
67	0x3dd07568	0.101786435
68	0x3c0d1750	0.008611515
69	0xbe35f4e6	-0.17769203
70	0x3e2cd196	0.16876826
71	0x3da08cb0	0.07839334
72	0xbd4d1d00	-0.050076485
73	0xbdd348aa	-0.10316594
74	0x3d7d0cf8	0.061779946
75	0xbe31b42d	-0.17353888
76	0xbd426f50	-0.047469437
77	0x3d35026c	0.044191763
78	0x3e392b0c	0.18082827
79	0xbe2473b5	-0.16059764
80	0xbe19d9fc	-0.1502456
81	0xbc552de0	-0.013011426
82	0xbddd050d	-0.10791979
83	0xbd07cc58	-0.03315386
84	0x3deb3aa4	0.11485794
85	0x3d5c4510	0.0537768
86	0x3d81eaa6	0.06343584
87	0xbe2a9172	-0.16657045
88	0x3e16b3aa	0.14716974
89	0xbd55a308	-0.05215743
90	0x3c82fd38	0.015989885
91	0x3cd310d8	0.025764868
92	0x3da1cd74	0.07900515
93	0x3d86052e	0.06543957
94	0x3d8bf260	0.06833339
95	0xbdc1a4f1	-0.09455288
96	0xbdf83320	-0.12119126
97	0xbe1d9a54	-0.15390903
98	0x3ca0cb00	0.019628048
99	0x3c9298e8	0.017895177
100	0x3e11fb0c	0.14255923
101	0x3e129656	0.14315161
102	0x3cec1d58	0.028822586
103	0x3db6a99c	0.08919069
104	0x3d896a2a	0.06709702
105	0xbe15f581	-0.14644434
106	0xbda28d79	-0.0793714
107	0x3d6b93e0	0.05751407
108	0xbd15de68	-0.036589056
109	0xbe3953f6	-0.18098435
110	0xbd83c367	-0.064337544
111	0xbd2fd268	-0.04292527
112	0x3e2bde64	0.16784054
113	0x3caec0b0	0.021332115
114	0xbe0a8818	-0.13528478
115	0xbe3a3e8f	-0.18187927
116	0x3d927ff4	0.07153311
117	0x3d044acc	0.032297894
118	0x3d3b5290	0.045733035
119	0x3db80d1c	0.089868754
120	0xbd9974f1	-0.07493008
121	0x3d41e578	0.04733798
122	0xbd2b896c	-0.041879103
123	0x3dbb940c	0.09159097
124	0x3d289c20	0.041164517
125	0x3de061a0	0.109561205
126	0xbe0464ce	-0.12929079
127	0xbd85ec05	-0.06539158
128	0xbc547620	-0.012967616
129	0x3ce0c960	0.027439773
130	0x3d4131c0	0.047166586
131	0xbd3ee910	-0.046608984
132	0x3dbc1000	0.09182739
133	0x3e38b164	0.18036419
134	0xbdd7e585	-0.10541824
135	0xbdf98fd2	-0.12185635
136	0xbd1ede04	-0.03878595
137	0x3e39dd0c	0.18150729
138	0x3e2d332a	0.16914049
139	0xbc4da9f0	-0.012552723
140	0xbda752f3	-0.08170118
141	0x3cd55660	0.026042163
142	0x3da44ce0	0.08022475
143	0x3dc00848	0.093765795
144	0x3e08e178	0.1336726
145	0x3e205c22	0.15660146
146	0xbc849978	-0.01618646
147	0x3d067b88	0.032832652
148	0xbd127b24	-0.035761967
149	0x3cd9a3b8	0.026567325
150	0xbd48c2d8	-0.049013942
151	0x3e2e103e	0.16998383
152	0x3e3ae9b8	0.18253219
153	0xbd926590	-0.07148278
154	0x3c011f50	0.007881001
155	0xbdf0022b	-0.117191635
156	0xbd77ecac	-0.060528442
157	0x3da327b8	0.0796656
158	0x3c80cf30	0.015723795
159	0x3cab49a8	0.020909145
160	0x3d1913dc	0.037372455
161	0xbda49db4	-0.08037892
162	0x3e28c5d0	0.1648171
163	0x3bc292c0	0.005937904
164	0xbd5c9c50	-0.05386001
165	0xbb85f3e0	-0.00408791
166	0x3d8c6fe0	0.06857276
167	0x3e0da1a2	0.1383119
168	0xbe14fea6	-0.14550266
169	0xbbc3f980	-0.0059806705
170	0xbe2e0f63	-0.16998057
171	0x3e020afe	0.12699506
172	0x3c8064e8	0.015673116
173	0xbda4f719	-0.08054943
174	0xbdd96287	-0.10614496
175	0xbd08e95c	-0.033425674
176	0x3e095f44	0.13415247
177	0xbe0bc258	-0.13648355
178	0xbdb39dc4	-0.08770326
179	0x3e344d44	0.176076
180	0x3e00e60c	0.12587756
181	0x3d9c0e18	0.07619876
182	0xbdd9114e	-0.10599004
183	0x3e12fff0	0.14355445
184	0xbe066aab	-0.13126628
185	0xbdd47f13	-0.103758
186	0xbe22b928	-0.15890944
187	0x3db07e34	0.08617821
188	0x3df79924	0.12089756
189	0xbda9bb12	-0.08287634
190	0xbdd9d68b	-0.10636624
191	0xbc36d0e0	-0.011158198
192	0xbda05edd	-0.07830594
193	0x3c5cba10	0.013472095
194	0x3d8f2fbc	0.069915265
195	0x3e004d88	0.12529576
196	0xbdce8e6d	-0.10085759
197	0x3e086cc6	0.13322744
198	0xbdc8a76b	-0.097975574
199	0xbdbb12f7	-0.09134477
200	0xbdc309c0	-0.09523344
201	0x3c982938	0.018574342
202	0x3ab4a600	0.0013782382
203	0xbd443d30	-0.047909915
204	0xbdc5240f	-0.09626018
205	0x3bd7c6e0	0.006584987
206	0xbcd4a1b8	-0.02595602
207	0xbbdefec0	-0.006805271
208	0x3dac0478	0.0839929
209	0x3c63ddc0	0.01390785
210	0x3c8f0300	0.017457485
211	0xbcde5e70	-0.02714464
212	0x3d91c53c	0.071176976
213	0xbe2ac6f1	-0.16677453
214	0x3d331174	0.043717816
215	0xbe368477	-0.17823969
216	0x3e292ffc	0.16522211
217	0xbdf11936	-0.11772387
218	0x3dd6e2e8	0.10492498
219	0x3e1f4924	0.15555245
220	0xbe13b7cc	-0.14425582
221	0xbdcf31ee	-0.10116945
222	0x3e0abbe8	0.13548243
223	0x3e3649c0	0.17801571
224	0x3dee5204	0.11636737
225	0x3e0cc67a	0.13747588
226	0x3e0416da	0.12899342
227	0xbdb80503	-0.08985331
228	0xbd4dbe80	-0.050230503
229	0xbd141d60	-0.036160827
230	0xbd867d33	-0.065668486
231	0xbe28d91b	-0.16489069
232	0x3de08a54	0.10963884
233	0xbe24050a	-0.16017547
234	0x3d728cf4	0.059216455
235	0xbd9d128f	-0.076695554
236	0x3e1a8b24	0.1509214
237	0xbd846f00	-0.06466484
238	0xbd1d836c	-0.03845541
239	0x3d9daf8c	0.076994985
240	0xbe04c7a9	-0.1296679
241	0xbd2fca30	-0.04291743
242	0x3d9fe744	0.07807782
243	0x3db58004	0.08862308
244	0xbdb5825d	-0.088627554
245	0xbdd30369	-0.10303385
246	0xbe202eb4	-0.15642816
247	0x3d1c125c	0.038103446
248	0x3db4a6f8	0.08820909
249	0xbe23c596	-0.15993342
250	0xbe1e5e4c	-0.15465659
251	0xbd98288b	-0.07429608
252	0x3d64cee8	0.055861384
253	0x3c23d5c0	0.009999692
254	0xbdc87a3e	-0.09788941
255	0x3deceb9c	0.115683764

bias f4 [64]
0	0xbdcf57b9	-0.10124154
1	0x3d48f4b8	0.049061507
2	0x3e2fab28	0.17155135
3	0x3d9967ec	0.07490525
4	0xbc05e060	-0.008171171
5	0x3e2decda	0.16984883
6	0xbdb86641	-0.090038784
7	0x3dbae7ac	0.09126219
8	0xbc440180	-0.011963248
9	0x3d326ae8	0.043558985
10	0xbe104400	-0.1408844
11	0xbe1e2046	-0.15441999
12	0x3dff44d8	0.12464303
13	0x3ddb5184	0.10708907
14	0x3c5908b0	0.0132467
15	0xbcdfec20	-0.027334273
16	0x3de9dad8	0.11418694
17	0x3e180de6	0.14849052
18	0x3d3f2554	0.04666646
19	0x3d65a23c	0.056062922
20	0x3e27f76e	0.1640298
21	0xbdf6982f	-0.120407455
22	0xbe0398a1	-0.12851192
23	0xbc5e5870	-0.01357089
24	0x3e3a6a16	0.18204531
25	0xbd0b4a08	-0.03400615
26	0xbc99f000	-0.018791199
27	0x3dbc72e0	0.09201598
28	0xbe061c51	-0.1309674
29	0x3de8702c	0.1134952
30	0xbe2a3963	-0.16623454
31	0xbd553b04	-0.052058235
32	0x3cd98ae0	0.026555479
33	0xbd824540	-0.06360865
34	0x3d0aea7c	0.033915028
35	0x3e149374	0.14509374
36	0x3e004c80	0.12529182
37	0x3e291c2a	0.1651465
38	0x3e306d36	0.1722916
39	0x3d5e4b6c	0.054271147
40	0xbe22523b	-0.15851681
41	0xbe2fc10e	-0.17163488
42	0x3d1e9d18	0.038724035
43	0xbe2cabeb	-0.16862457
44	0x3d7aeedc	0.06126295
45	0xbdf70179	-0.12060828
46	0xbdb20e2e	-0.08694111
47	0xbe0fac25	-0.14030512
48	0x3da5ae34	0.08089867
49	0x3d4fa0c8	0.050690442
50	0xbce33078	-0.027733073
51	0x3e36cdf0	0.17851996
52	0x3e1a99f6	0.15097794
53	0xbe2ca81d	-0.16861005
54	0x3dcf04ec	0.10108361
55	0x3d85068a	0.06495388
56	0xbc66ab00	-0.0140788555
57	0x3d05caa4	0.032663956
58	0x3d657780	0.056022167
59	0x3e13b8e8	0.14426005
60	0x3d9d7b00	0.07689476
61	0xbe296203	-0.16541295
62	0x3d45c54c	0.04828386
63	0x3c2574f0	0.010098681

weight f4 [64, 64]
0	0x3b86fd00	0.0041195154
1	0xbdbc9100	-0.09207344
2	0x3d8068b6	0.06269972
3	0x3d9d5a92	0.076832905
4	0x3de8b8a4	0.113633424
5	0x3b4a9440	0.0030911118
6	0x3d6460ec	0.055756494
7	0xbc680da0	-0.014163405
8	0x3ca0aa20	0.019612372
9	0xbdd8dbf6	-0.10588829
10	0x3c5cd8f0	0.013479456
11	0xbd587064	-0.05284156
12	0x3dc159c4	0.094409496
13	0xbdbee55a	-0.09321089
14	0xbd410bd4	-0.04713042
15	0xbdc70b50	-0.097189546
16	0xbdfd2296	-0.12360112
17	0x3d9e052c	0.0771583
18	0xbcffd328	-0.031228617
19	0x3d783bd8	0.060603946
20	0xbd87c5fa	-0.06629558
21	0x3bf4afc0	0.00746724
22	0x3d7baab8	0.061442107
23	0x3d9a1506	0.07523541
24	0xbbcc9fa0	-0.0062446147
25	0xbdd2ba96	-0.10289495
26	0xbd50f718	-0.051016897
27	0xbd54cd20	-0.051953435
28	0xbdb1d26a	-0.086827114
29	0x3d8fe2be	0.070256695
30	0x3ddcf27a	0.10788436
31	0xbdfb5c0e	-0.122734174
32	0x3d1ddae0	0.038538814
33	0xbd2f4fc0	-0.042800665
34	0x3d8bad5c	0.06820175
35	0xbd75f378	-0.060046643
36	0xb78ea000	-1.7002225e-05
37	0xbdcf8ba6	-0.10134058
38	0x3ded492e	0.115862235
39	0xbdb0ecac	-0.086388916
40	0x3dedb686	0.11607079
41	0xbdf03662	-0.11729123
42	0x3db99414	0.09061447
43	0x3dfc0806	0.12306218
44	0xbd936e00	-0.07198715
45	0xbd661c4c	-0.05617933
46	0xbd87e406	-0.06635289
47	0x3cb0bc10	0.02157405
48	0x3ddbd730	0.10734403
49	0x3dd8d3f6	0.10587303
50	0x3ddd96a2	0.108197466
51	0xbde54534	-0.1119484
52	0xbd5dda78	-0.054163426
53	0xbd6570c0	-0.05601573
54	0xbc42d2d0	-0.011891082
55	0xbc1d3e20	-0.009597331
56	0xbd6cf290	-0.057848513
57	0x3da162ee	0.078801975
58	0x3db184a8	0.0866788
59	0xbdbe120a	-0.092807844
60	0x3deb3e5e	0.11486505
61	0xbb356dc0	-0.0027683824
62	0xbd1447d0	-0.0362013
63	0x3dc66e0a	0.09688957
64	0xbbc3dce0	-0.005977258
65	0xbc285df0	-0.010276303
66	0x3d8940c2	0.06701805
67	0xbcdb7f60	-0.026794136
68	0xbd344ae4	-0.044016734
69	0xbd9e5b48	-0.07732254
70	0xbdf0c8b4	-0.11757031
71	0xbda0ed20	-0.07857728
72	0x3d7fe840	0.06247735
73	0x3de62bb4	0.112388045
74	0xbd466370	-0.048434675
75	0xbc6c1fc0	-0.014411867
76	0xbda50278	-0.080571115
77	0xbd002810	-0.031288207
78	0x3d9c17f4	0.07621756
79	0xbd35c8c0	-0.044380903
80	0xbdcf0250	-0.10107863
81	0x3dc78e64	0.09743956
82	0x3da1a0e8	0.078920186
83	0xbdf64c42	-0.12026264
84	0xbdc787da	-0.097427085
85	0x3ddef3d4	0.1088635
86	0x3d9ffab8	0.07811493
87	0xbd90e910	-0.07075703
88	0x3c5459a0	0.012960821
89	0x3c6bb030	0.014385268
90	0x3dd6dd3e	0.10491417
91	0xbdd84f92	-0.10562052
92	0xbbfcd980	-0.0077163577
93	0xbd8df27c	-0.06931016
94	0x3dd4c7d8	0.1038968
95	0xbdcf5678	-0.101239145
96	0xbde70664	-0.11280516
97	0x3d041408	0.032245666
98	0xbde2e55c	-0.11078903
99	0xbd9d992c	-0.07695231
100	0x3baf87c0	0.005356759
101	0x3c847ff0	0.016174287
102	0xbd992e02	-0.074794784
103	0x3dd77b0c	0.10521516
104	0x3c85b870	0.016323298
105	0x3d8ade36	0.067806646
106	0xbda59e0a	-0.08086784
107	0xbd948abe	-0.072530255
108	0xba79a400	-0.0009523034
109	0xbdc2ed6a	-0.095179394
110	0x3ddcac48	0.107750475
111	0x3d4458ac	0.047936127
112	0xbccb8de8	-0.02484794
113	0x3d14001c	0.036132917
114	0x3d8e561c	0.06950018
115	0x3ddb15d6	0.10697524
116	0x3cb62018	0.0222321
117	0xbddd79fe	-0.10814284
118	0xbcbd0260	-0.023072422
119	0x3cce6330	0.02519378
120	0x3d456ebc	0.048201308
121	0x3de0634c	0.109564394
122	0xbdcd9f8a	-0.10040195
123	0x3d832284	0.06403068
124	0x3de4ffe2	0.11181618
125	0xbd04eed8	-0.03245434
126	0xbaacd800	-0.0013186932
127	0x3dec7950	0.11546576
128	0x3de03a84	0.10948661
129	0xbde5aa2a	-0.11214097
130	0x3da4a62c	0.08039507
131	0xbd73e07c	-0.059540257
132	0x3d575308	0.05256942
133	0x3da7592a	0.081713036
134	0xbd04614c	-0.032319352
135	0x3d9c02c8	0.07617718
136	0x3d757db4	0.059934333
137	0xbbe7cb20	-0.007073775
138	0x3c67fae0	0.014158934
139	0x3d1a27b4	0.03763552
140	0x3c173070	0.009227857
141	0x3dee4ad6	0.116353676
142	0xbba7d0e0	-0.0051213354
143	0x3dd44362	0.10364415
144	0x3d9f0e4a	0.07766397
145	0x3d31aea4	0.04337944
146	0x3d518134	0.05114861
147	0xbd0df5b4	-0.03465815
148	0x3d4940a8	0.049133927
149	0x3d3ec9d4	0.046579197
150	0xbca83d80	-0.020537138
151	0xbda5981e	-0.08085655
152	0xbde89b30	-0.11357725
153	0xbdfdb2fa	-0.12387653
154	0xbdcf66ac	-0.10127005
155	0x3bd8dba0	0.006617978
156	0x3c560450	0.013062552
157	0xbccc5018	-0.024940535
158	0x3d0bbef4	0.034117654
159	0x3dac1df0	0.084041476
160	0xbbb75860	-0.005595252
161	0xbdb7e726	-0.08979635
162	0x3c53b840	0.012922347
163	0x3d9d272c	0.07673487
164	0xbd49946c	-0.04921381
165	0x3dd0be3a	0.10192533
166	0xbdbd4da2	-0.09243323
167	0xbc891d18	-0.016737506
168	0x3df8ae60	0.121426344
169	0x3d2fa794	0.042884424
170	0xbdfa846e	-0.1223229
171	0xbccf17c8	-0.025279894
172	0xbd1a0274	-0.037599996
173	0xbd6ebdcc	-0.058286473
174	0xbaa3d780	-0.0012500137
175	0x3d9e0c72	0.077172175
176	0xbd1410c0	-0.036148787
177	0x3dbba7dc	0.09162876
178	0x3db954ae	0.090493545
179	0xbde9e9ac	-0.114215225
180	0xbdbb3b3e	-0.09142159
181	0xbdb73a8e	-0.08946715
182	0x3dd46f36	0.10372774
183	0xbdbb1140	-0.091341496
184	0xbd68fd4c	-0.056882188
185	0xbdfe52ae	-0.12418114
186	0xbd9ba20c	-0.07599267
187	0xbd893d62	-0.06701161
188	0x3caa6b20	0.020803034
189	0xbdecefa2	-0.11569144
190	0xbda81408	-0.08206946
191	0xbda7894a	-0.08180483
192	0xbd962440	-0.07331133
193	0xbd13ca00	-0.036081314
194	0xbdad83e6	-0.08472423
195	0xbd4c1f64	-0.049834624
196	0x3b965840	0.004588157
197	0xbd89bc26	-0.067253396
198	0x3c59e770	0.013299808
199	0x3de57b0c	0.1120511
200	0x3c83b360	0.016076744
201	0x3def9156	0.116976425
202	0xbdc85a86	-0.09782891
203	0x3df9ae16	0.121914074
204	0x3d89ec9e	0.06734584
205	0xbd320d04	-0.043469444
206	0xbcaddc08	-0.021223083
207	0xbdf06fc4	-0.117400676
208	0x3df597f4	0.119918734
209	0xbc820980	-0.01587367
210	0x3dc0f634	0.094219595
211	0x3d8d0338	0.068853796
212	0x3da06802	0.07832338
213	0x3dd9d7f0	0.1063689
214	0x3dba7646	0.0910459
215	0xbdd02cda	-0.10164805
216	0x3cfc4a80	0.030797243
217	0xbd3c1e5c	-0.04592739
218	0x3bb14d00	0.0054107904
219	0x3dc67db0	0.09691942
220	0x3d2d3d74	0.042294934
221	0xbda4171e	-0.08012222
222	0x3d8375a6	0.06418924
223	0xbd95773e	-0.07298134
224	0xbcf645d8	-0.030062601
225	0x3dcd23ea	0.10016616
226	0x3ca9fa08	0.020749107
227	0x3c5640c0	0.013076961
228	0x3da89a9a	0.08232613
229	0x3d5c96f8	0.053854913
230	0x3d70d1cc	0.058793828
231	0x3d9e6170	0.077334285
232	0x3d9078d8	0.07054299
233	0x3c3d5320	0.011555463
234	0x3cdb17c8	0.026744738
235	0x3ccd37a0	0.025050938
236	0x3cd42348	0.02589573
237	0x3dc3e82c	0.09565768
238	0xbd9f60f8	-0.07782167
239	0xbdc9fd24	-0.09862736
240	0x3a7b7500	0.00095923245
241	0x3da90808	0.08253485
242	0x3d809fe2	0.06280495
243	0xbd3dc944	-0.04633452
244	0x3db5077a	0.08839317
245	0xbdaed46e	-0.085366115
246	0x3d9ece60	0.07754207
247	0x3db68484	0.08911994
248	0x3da4eb16	0.080526516
249	0x3d9aca94	0.0755817
250	0x3da3bbd8	0.07994813
251	0xbda87378	-0.08225149
252	0x3d5ab33c	0.053393587
253	0x3d8c882a	0.06861909
254	0xbdf02f4a	-0.1172777
255	0x3c0410e0	0.008060664

bias f4 [64]
0	0xbd804e76	-0.06264965
1	0xbdfd5d88	-0.12371355
2	0xbd96c43e	-0.07361649
3	0x3d2b9e44	0.04189898
4	0xbccc1b48	-0.024915352
5	0x3df8db86	0.12151246
6	0x3d3e3b40	0.046443224
7	0xbdc43ece	-0.095822915
8	0x3bd96540	0.0066343844
9	0xbde6940e	-0.11258708
10	0x3ddc19b8	0.10747093
11	0x3cc536e0	0.024074018
12	0xbdaf8b18	-0.08571452
13	0xbc15c530	-0.009141251
14	0x3db0d208	0.0863381
15	0xbcaeb270	-0.02132532
16	0x3cf7bdd0	0.030241877
17	0x3d2969a0	0.041360497
18	0x3d83c212	0.064335
19	0xbd755818	-0.059898466
20	0xbd47a450	-0.048740685
21	0x3cee47f0	0.029087037
22	0x3ca52a70	0.020161837
23	0x3d89aedc	0.06722805
24	0x3dbd15ae	0.09232651
25	0xbd322e58	-0.043501228
26	0x3aedeb80	0.001815185
27	0x3d8c29e2	0.06843926
28	0x3dd62104	0.10455516
29	0xbbbfe800	-0.005856514
30	0x3c0ec550	0.008714035
31	0x3d804ccc	0.06264648
32	0xbdf8b0e0	-0.12143111
33	0xbb87a700	-0.004139781
34	0xbd89f9d6	-0.067371055
35	0xbd106dec	-0.03526108
36	0xbd53908c	-0.051651523
37	0xbdf82bce	-0.1211773
38	0x3dbc76dc	0.09202358
39	0xbc19a4e0	-0.009377688
40	0x3d9e69ca	0.077350214
41	0xbc9dae78	-0.019248232
42	0xbd4a68bc	-0.04941629
43	0xbdb528a6	-0.08845644
44	0xbb57fa00	-0.0032955408
45	0x3d9f2c1a	0.077720836
46	0x3d1c1058	0.038101524
47	0xbc3db2f0	-0.011578307
48	0x3cf9def8	0.030501828
49	0xbbb1ce80	-0.005426228
50	0xbcb82388	-0.02247788
51	0x3c8ecb60	0.017430961
52	0xbda7d116	-0.08194177
53	0xbdb9538c	-0.090491384
54	0x3c8cbcd8	0.017179891
55	0xbcbe6fb0	-0.023246616
56	0x3de099f0	0.10966861
57	0xbdba23ce	-0.090888605
58	0xbd94225e	-0.072331175
59	0xbd1eb6cc	-0.038748547
60	0xbdda1514	-0.106485516
61	0x3de8d0d8	0.11367959
62	0xbd853d76	-0.06505863
63	0x3d95b28c	0.07309446

weight f4 [30, 64]
0	0xbdc94426	-0.098274514
1	0xbd02aa24	-0.03190054
2	0xbdc89416	-0.0979387
3	0x3dd93d76	0.10607426
4	0xbde101d8	-0.1098668
5	0x3ce64908	0.028110996
6	0xbd86d440	-0.06583452
7	0x3df02148	0.11725098
8	0x3dd7cf40	0.10537577
9	0xbd183590	-0.037160456
10	0xbc80c488	-0.015718713
11	0xbd934014	-0.07189956
12	0x3d7954e4	0.060871974
13	0x3df368ae	0.118852004
14	0x3d90cdbc	0.07070491
15	0x3d7f7624	0.062368527
16	0x3db2f4ee	0.08738123
17	0x3d88b8ca	0.06675871
18	0xbdab480e	-0.08363353
19	0xbde08df6	-0.10964577
20	0xbdd8f47e	-0.10593508
21	0xbd2472f0	-0.040148675
22	0xbc16e170	-0.009209022
23	0x3dd5225a	0.10406943
24	0x3d603b28	0.054743916
25	0x3d961cb4	0.073296934
26	0xbc8db280	-0.01729703
27	0x3ba80be0	0.0051283687
28	0x3de854f6	0.1134433
29	0xbd3bf80c	-0.045890853
30	0x3cd167d8	0.025562212
31	0xbdf90dbc	-0.12160823
32	0x3d07d014	0.033157423
33	0xbdb12f1c	-0.086515635
34	0x3ba78240	0.0051119626
35	0xbdb064e4	-0.08612993
36	0x3ded00b6	0.11572401
37	0xbdc5deac	-0.09661612
38	0xbdff7836	-0.124741
39	0xbca5b528	-0.020227984
40	0x3d13fbb0	0.0361287
41	0xbd76d348	-0.060260087
42	0x3cb57820	0.022152007
43	0xbdd9585a	-0.10612555
44	0x3dd41a82	0.103566185
45	0xbc0508b0	-0.008119747
46	0x3df677ac	0.12034544
47	0x3da611fa	0.081088975
48	0xbde29e0a	-0.110653
49	0x3dd8f118	0.1059286
50	0xbddb2032	-0.106995
51	0xbdddf22c	-0.10837206
52	0x3b2d6080	0.0026455224
53	0x3ca9c1d0	0.0207223
54	0xbdd2f3de	-0.1030042
55	0x3ccdc640	0.025118947
56	0x3d4ecda8	0.050489098
57	0x3d2743dc	0.0408362
58	0xbd7298a0	-0.059227586
59	0x3de8b0a6	0.11361818
60	0x3d90f2e0	0.07077575
61	0x3de7625c	0.112980574
62	0xbdf096f4	-0.11747542
63	0x3d2c5590	0.042073786
64	0x3db75718	0.08952159
65	0xbd8ab5b8	-0.06772941
66	0x3d73ea9c	0.059549913
67	0xbdf4ce4a	-0.11953409
68	0xbc9b8858	-0.018985912
69	0xbd9be8ce	-0.07612763
70	0xbdcc365c	-0.09971306
71	0xbdf977cc	-0.121810526
72	0x3dc6e192	0.09710993
73	0xbdb7146c	-0.08939442
74	0xbd745dbc	-0.059659705
75	0x3df35f6c	0.11883435
76	0xbc2074f0	-0.009793505
77	0xbddd64be	-0.10810231
78	0x3d4e9d08	0.050442725
79	0xbcb2f240	-0.02184403
80	0x3d0d6504	0.034520164
81	0xbdf923f6	-0.12165062
82	0xbdcbac12	-0.09944929
83	0x3d7720a0	0.060333848
84	0x3ce75928	0.028240755
85	0x3ddba718	0.1072523
86	0xbd4de98c	-0.050271556
87	0x3da5eb9c	0.081015795
88	0xbcc21ee0	-0.023696363
89	0x3cb2e8a8	0.021839455
90	0xbdc5e5de	-0.09662984
91	0x3d7d4430	0.061832607
92	0xbcd84640	-0.026400685
93	0x3dd290be	0.10281514
94	0xbd97a922	-0.074053064
95	0x3c5ebb60	0.013594478
96	0x3d6b76d0	0.057486355
97	0x3da53f50	0.080687165
98	0xbd79069c	-0.06079732
99	0xbdeccfe8	-0.115630925
100	0xbd985718	-0.07438487
101	0xbcd49270	-0.025948733
102	0x3d13b388	0.036059886
103	0xbbaca300	-0.0052684546
104	0xbda95c56	-0.08269565
105	0xbd9775ca	-0.07395513
106	0x3d564c48	0.05231884
107	0xbb39a040	-0.0028324276
108	0xbd7763f8	-0.060398072
109	0xbcd426f0	-0.025897473
110	0x3d050d5c	0.032483444
111	0x3d04f640	0.032461405
112	0xbde9302c	-0.11386141
113	0xbdeefb54	-0.11669031
114	0x3dd544e8	0.104135334
115	0x3d3a9b24	0.04555811
116	0xbdde62d2	-0.10858692
117	0x3dc767de	0.09736608
118	0xbd9ea028	-0.07745391
119	0xbd90da40	-0.07072878
120	0xbdad4380	-0.0846014
121	0xbd985ea0	-0.07439923
122	0xbc976ee0	-0.018485487
123	0x3dd2a4a8	0.10285312
124	0xbd54637c	-0.05185269
125	0x3dcf53c6	0.101234004
126	0xbc127bf0	-0.008940682
127	0x3d9ab9b0	0.07554948
128	0xbdef7516	-0.11692254
129	0x3dbc3a56	0.09190814
130	0xbde73fc8	-0.11291462
131	0x3d0eeed8	0.034895748
132	0x3d4d9930	0.05019492
133	0xbc0fd3a0	-0.008778483
134	0xbb140d80	-0.0022591054
135	0xbdfec934	-0.1244072
136	0xbdac280c	-0.08406076
137	0xbdd56790	-0.104201436
138	0x3d830552	0.06397499
139	0xbbadb6a0	-0.0053013116
140	0xbd2aa884	-0.041664615
141	0xbd941e2a	-0.07232316
142	0xbcd269e8	-0.025685266
143	0x3d929e16	0.07159059
144	0xbdf02d02	-0.117273346
145	0xbd923d32	-0.07140578
146	0x3dfb5672	0.122723475
147	0x3d83744c	0.06418666
148	0xbd9a4568	-0.075327694
149	0x3d584d14	0.052807882
150	0x3c874a00	0.016514778
151	0x3df428d8	0.11921853
152	0x3db54144	0.08850339
153	0xbdb94044	-0.09045461
154	0x3d189174	0.03724809
155	0xbcca44c0	-0.024690986
156	0xbd6e3e24	-0.05816473
157	0xbd8d3c6a	-0.06896289
158	0x3d5a8e74	0.05335851
159	0x3c867c20	0.01641661
160	0xbd9c4f2e	-0.0763229
161	0xbd838b8c	-0.06423101
162	0x3dad8542	0.084726825
163	0x3cabb058	0.02095811
164	0xbd2993e8	-0.04140082
165	0xbdf47662	-0.11936642
166	0xbd06a118	-0.032868475
167	0x3bf11580	0.0073572993
168	0x3cc0ac18	0.02351956
169	0x3ce64378	0.028108343
170	0x3d55ca58	0.052194923
171	0xbde063c6	-0.1095653
172	0xbc91fa18	-0.01781945
173	0x3da3234a	0.07965715
174	0x3dc222be	0.09479283
175	0xbdd15a1c	-0.10222265
176	0xbd9f6e92	-0.077847615
177	0x3d4aefb8	0.04954502
178	0xbdf2df94	-0.118590504
179	0x3cdae000	0.02671814
180	0xbd32dfa4	-0.04367031
181	0xbd21f56c	-0.039540693
182	0x3d979820	0.074020624
183	0x3ced1000	0.028938293
184	0xbdb85b52	-0.09001793
185	0x3dfd173e	0.12357949
186	0xbd9b7f22	-0.07592608
187	0xbcde0538	-0.027102098
188	0x3d1f732c	0.038928196
189	0xbd82a130	-0.063784
190	0xbd41f410	-0.047351897
191	0xbd570c7c	-0.05250214
192	0xbc7466c0	-0.014917076
193	0x3b286400	0.002569437
194	0xbc4dd310	-0.012562528
195	0xbd6670a4	-0.056259766
196	0xbd307468	-0.043079764
197	0x3d69413c	0.056946978
198	0x3da0d73a	0.07853551
199	0xbdd46424	-0.10370663
200	0x3dcbc6d2	0.09950031
201	0x3daea2f6	0.08527176
202	0xbde01ccc	-0.109429926
203	0xbd79e2e0	-0.06100738
204	0x3b5ab600	0.003337264
205	0x3dc4232e	0.095770225
206	0xbdaa5668	-0.08317262
207	0xbcc774a0	-0.024347603
208	0xbd031b10	-0.03200823
209	0x3de76522	0.112985864
210	0xbdb4afb4	-0.08822575
211	0x3d713054	0.05888398
212	0x3d78f1ec	0.06077759
213	0x3de31cf0	0.11089504
214	0xbcc8e7a8	-0.024524525
215	0xbd83f944	-0.06444028
216	0x3cbc3050	0.022972256
217	0x3ca778d0	0.02044335
218	0x3d56a82c	0.052406475
219	0x3dbabc44	0.0911794
220	0x3db0dce6	0.08635883
221	0xbd1b757c	-0.03795384
222	0xbdeb9a62	-0.115040556
223	0xbd80ecd4	-0.062951714
224	0xbdac5ee8	-0.084165394
225	0xbdbed066	-0.093170926
226	0xbcffe108	-0.031235233
227	0xbdf70186	-0.120608374
228	0xbdf9460e	-0.12171565
229	0xbd9af47c	-0.07566163
230	0xbd3e7ab0	-0.046503723
231	0xbd97365e	-0.073834166
232	0x3d337a58	0.043817848
233	0x3df2a04a	0.11846979
234	0x3d9a0246	0.07519965
235	0x3dd4ebe0	0.10396552
236	0x3d7efc08	0.062252074
237	0x3dd58828	0.1042636
238	0xbdaba878	-0.08381742
239	0xbd4afa34	-0.04955502
240	0xbdae6e62	-0.085171476
241	0x3afed200	0.0019441247
242	0x3cf44008	0.029815689
243	0xbd2b0f10	-0.04176241
244	0x3c29e910	0.010370508
245	0xbd0b025c	-0.033937797
246	0x3d1e2784	0.038611904
247	0x3d8756b4	0.06608334
248	0x3c635e90	0.013877526
249	0x3c5e8300	0.0135810375
250	0x3de1504a	0.11001642
251	0xbd7b1e3c	-0.06130813
252	0xbd9a0092	-0.0751964
253	0x3db879d8	0.09007615
254	0xbd22f8ec	-0.03978817
255	0xbbd685a0	-0.006546691

bias f4 [30]
0	0xbd2cd428	-0.042194515
1	0xbc9c4aa0	-0.019078553
2	0x3dd4372c	0.10362086
3	0x3d2dd53c	0.042439684
4	0xbdf864a2	-0.12128569
5	0xbd0949b8	-0.03351757
6	0xbcdb39b0	-0.026760906
7	0x3db76da2	0.08956458
8	0xbdeb3e50	-0.114864945
9	0x3d07d8ec	0.033165857
10	0xbd12b2f8	-0.03581521
11	0xbcefc158	-0.029266998
12	0xbbda9600	-0.0066707134
13	0xbdee7afc	-0.11644551
14	0x3d4cff74	0.050048307
15	0x3c82d668	0.015971377
16	0xbda7eca6	-0.08199434
17	0x3d2a9870	0.041649282
18	0x3d797920	0.06090653
19	0xbcac39c0	-0.021023631
20	0x3dfa54a6	0.12223177
21	0xbd85db04	-0.065359145
22	0x3c3f8720	0.011689931
23	0xbd3cd224	-0.046098843
24	0xbdabe656	-0.083935425
25	0x3c99bb90	0.018766195
26	0x3d88a958	0.06672925
27	0xbdbb06be	-0.09132145
28	0xbd3740f8	-0.044739693
29	0xbd525b04	-0.05135633
