darts_logs/2022-11-19_16.24.24.966506_torch_model_run_10440/checkpoints/last-epoch=0.ckpt (torch, 603124 bytes, 44 tensors)

stacks.0.blocks.0.layers.0.weight f8 [64, 8]
00000000: e57c e70a 0dac d1bf 74a1 707d 0b19 d4bf
00000010: ff08 368f f746 a53f e783 fe9b ddb3 d7bf
00000020: 235e ba01 c7c0 9d3f 2d48 8fba b60b c43f
00000030: f512 c823 2628 aebf 25a4 475d c4ed d13f
00000040: 7240 9eb0 e250 c7bf c35d 708c 035c ca3f
00000050: a33a f0a2 3c64 c43f 71ce 060b 4134 a3bf
00000060: 8168 3d17 b7bf d03f 6a42 3c71 0d2c 903f
00000070: 1e79 25cc 97fb cbbf 606f 55c7 167d b6bf
00000080: 0000 0040 e1f6 cabf 0000 0000 23b1 bb3f
00000090: 0000 0040 1461 c8bf 0000 00e0 48be d4bf
000000a0: 0000 0000 0aae b1bf 0000 00e0 0f6f d6bf
000000b0: 0000 0000 088f 8a3f 0000 0040 4828 d6bf
000000c0: 13f9 d161 b835 d73f 7777 9585 8dbd cc3f
000000d0: 4419 100c 9db3 c2bf 1fea 43f2 0ca2 c1bf
000000e0: 2657 7a9d e23e b0bf 26dc f165 44a7 bf3f
000000f0: 10e3 d7a9 1387 a5bf ed68 a6c1 e296 d0bf
00000100: c616 e87c 64b4 cabf 08e5 db4b 4ad2 d03f
00000110: 8866 d055 3bfd ca3f f4b6 3990 7354 9cbf
00000120: 6868 3d54 949f 9fbf ebd2 318d 70c4 d6bf
00000130: e22f 2167 89d1 a93f 7f6d e075 4075 aebf
00000140: 0000 0040 07aa c3bf 0000 0000 ea2f 9ebf
00000150: 0000 00e0 6b3b c8bf 0000 0060 67d6 d2bf
00000160: 0000 0040 4c67 c63f 0000 0080 899a d4bf
00000170: 0000 0000 29f1 aebf 0000 00c0 9b70 d1bf
00000180: accd 55a6 a94e d3bf b583 7b9f 5e1e c83f
00000190: f8c6 5ba4 41e5 a9bf 4eca 0a2e 956a d33f
000001a0: 32bb e509 cc89 cb3f 986a 9427 65b4 9fbf
000001b0: 4b94 0bbb 297b b53f fe88 4ee9 a3a5 bf3f
000001c0: 856c 0c4a c608 c43f 5f75 b3df 15fa cb3f
000001d0: aeef 8dc8 fe1a d3bf f367 8ada 4fab cebf
000001e0: a13b 146e e11c ba3f 9204 1db5 3fb5 d43f
000001f0: 8b37 b40c cdff 60bf 89d8 485c 6418 b7bf
00000200: 0ce9 b2f8 5117 c63f 54c7 edf2 f9f8 c6bf
00000210: b6c8 5601 3e2e ca3f a44c bf9f 80f6 bd3f
00000220: 3be6 f757 853b d7bf e433 92ae 04a9 c43f
00000230: 4e56 e1bc 9a8c b03f bfc4 04f8 034e d03f
00000240: aee5 0c18 2257 c7bf 225b ce80 8fd3 8cbf
00000250: aee5 0cd8 b29c c1bf 7f12 f7fa 012c d33f
00000260: da3b 1cbf 99a2 d5bf 5a27 71af edb4 983f
00000270: 5a27 71af c53e 993f d24c bae5 880f d3bf
00000280: ddad a8a4 3b55 c0bf 7bff b94c c7dc c43f
00000290: de33 1b81 4f5b d63f d564 77fd 1102 d13f
000002a0: 81ac e351 8f03 c5bf 6559 bfc7 8e2f d33f
000002b0: eea3 8b32 43f3 d0bf 14df 131c 3db5 c13f
000002c0: 0000 0000 eb7c aebf 0000 0040 6588 c93f
000002d0: 0000 00c0 e728 c43f 0000 00c0 658e d5bf
000002e0: 0000 00c0 9699 c0bf 0000 0000 bfbc b0bf
000002f0: 0000 0000 8531 abbf 0000 0000 00fb 35bf
00000300: 49d4 2a16 c656 bb3f a5ea c8fc e3dc c53f
00000310: 75f3 689b 5f31 bd3f 399a 0731 9eea babf
00000320: 343a 5ba9 9035 ccbf 5dee a482 14c8 c4bf
00000330: cd15 b88c f174 d63f 1643 b759 c4ac 983f
00000340: aba8 cd80 16f1 d6bf 8087 a922 9914 d63f
00000350: 5231 9bc8 df43 c0bf 84aa 33cb 2faf d4bf
00000360: 8087 a962 3dd7 d33f 6bf2 ad3c b7f2 c6bf
00000370: baa1 39e3 0301 8ebf 3abb e655 7c56 b93f
00000380: 7863 7453 4394 d73f 6ae6 2058 b7b7 c9bf
00000390: 0fe2 99f1 2592 cdbf 6713 f907 248b d0bf
000003a0: 3c8f 1941 37bf d7bf de2c f718 7e95 d13f
000003b0: 4fb8 81ca 8da5 bbbf 155f aff4 d52e b13f
000003c0: 0000 0000 c07e 82bf 0000 0040 1663 d0bf
000003d0: 0000 0040 5bbf cdbf 0000 0000 3e79 babf
000003e0: 0000 00e0 8924 d43f 0000 0000 ce62 983f
000003f0: 0000 0000 9062 adbf 0000 00e0 45c0 c2bf
00000400: 8a60 998f b403 b4bf a052 7c25 bbaf bebf
00000410: 65f4 f2fa 5810 d43f c00f c8fc 79f3 bb3f
00000420: af92 693e 01ef d13f f218 c8f7 fb05 b53f
00000430: aea9 9dfe 4cc0 b8bf a0b3 b71a 41bd d03f
00000440: b504 01c9 67a3 c43f 1098 91a1 22a1 c7bf
00000450: 548a 0ab5 5848 bc3f 7eee dd1f 0a7e d23f
00000460: 6b47 a801 c092 d7bf 5ac7 7f58 2cb3 b93f
00000470: 9013 8cb1 8c29 d1bf 6e27 10a5 d51d c33f
00000480: e4c1 3dbc 4d00 b3bf 01ae 3caf 78d6 c7bf
00000490: 637a e0a7 ef5b b23f 15be 7621 928a cf3f
000004a0: d6ea 922d 7ca1 d3bf 03c3 2d83 8ffd cc3f
000004b0: 511b 391e 6c48 a8bf 5b75 c604 80ad d2bf
000004c0: d5c9 0576 1644 b4bf 820e 3f6e 90ba cbbf
000004d0: ce53 cfea d663 a1bf ad41 13a5 e421 b7bf
000004e0: 29d4 9c6a b6e9 d63f 9a32 7d4d e025 cdbf
000004f0: 9e36 4896 cb90 d03f 7b92 cf47 dd62 d03f
00000500: ea9e 881b 9de3 cd3f 539b 20da ea25 d23f
00000510: 271e c101 0658 b4bf 8678 0dd3 7eae d2bf
00000520: 0f6e c213 6184 d7bf c32c 4577 00ec ce3f
00000530: 33a7 a5e7 c9d3 cc3f 397c 4ba7 63a9 d23f
00000540: 9509 f063 4415 d4bf 6566 53d4 3557 d4bf
00000550: 9e02 1742 eae7 cb3f 02cd 2adf 2a3b be3f
00000560: be07 68d4 76ec cabf c91a a858 51f3 d53f
00000570: ed56 1d62 7ecd bc3f 1538 8a8f 219a d53f
00000580: 8eba 9dec 3002 d53f 5e53 b1ee c8d2 c53f
00000590: dd3a eada 4470 d5bf b0ae 91e4 419c 963f
000005a0: 6e84 0c3f d7ab cabf a9a3 2734 d425 923f
000005b0: af74 375d 0847 d43f d096 74f5 0821 d0bf
000005c0: c55f 0a81 8ad7 d9bf ac55 4304 043a d23f
000005d0: 90ce 5f06 815b c33f 09ca 0ea9 2b4c bd3f
000005e0: 6be3 042d a2e7 b6bf fc1e b59c d5cb 9c3f
000005f0: bc4e 5b37 04db c73f 2260 d8a9 3725 cbbf
00000600: feae ee82 e75f bf3f 6cd0 3efd 4e5e a7bf
00000610: fd01 7acd 4554 c8bf 559d d3b5 099a d13f
00000620: 42f0 b3d2 afb1 c7bf 701c 8ab2 5344 ca3f
00000630: a05e a8c4 915d b6bf 6598 b0b4 4b0e b6bf
00000640: 38f1 e72f c9d1 c5bf 2af7 fcfd 8c0d b5bf
00000650: 5c25 f6b9 7af7 d5bf e808 5bbc 85a3 bebf
00000660: 27d0 3728 53c0 92bf 7268 88ab 38fb ce3f
00000670: 49e4 bd0b 773d c1bf 9d2c bfcd 4121 a03f
00000680: 1de5 26e9 6811 d33f 6f52 4140 e273 b63f
00000690: 45c5 6add 05d7 cbbf e9e7 0d52 ec0e b43f
000006a0: a3b5 cb4f 15cb d53f 87b0 a4c5 d0b7 b9bf
000006b0: 494a 6a8d 407a d1bf bcaf 2748 ce9c babf
000006c0: b2c1 902e ae9a b9bf 27f8 535c d003 c4bf
000006d0: 7a24 03cb 02ba b5bf 5d8d 93e2 c3cf c1bf
000006e0: 2fc0 25a3 72f8 a5bf 09f6 d292 9eb9 d93f
000006f0: 6049 2e53 b27b 503f 5e9a 7e9c 73ad d1bf
00000700: fbf7 a3dc 735c cb3f 4ff7 17a2 1c3a a4bf
00000710: 6034 8a07 e708 c53f bbc3 e5cb cc71 b83f
00000720: 5978 9b24 681a c53f 2482 75b8 2031 a33f
00000730: 658c 6710 0b98 b63f a5f1 8ffc 92f5 cfbf
00000740: b864 3ecd 9cd5 c83f ddc2 92a7 3b13 abbf
00000750: d154 ce4b 23b4 c2bf 92ea c031 d837 c2bf
00000760: ef1c ddb2 4f88 c63f 732e 4c2d 7f3e c2bf
00000770: 798f b2c4 5266 cabf f90e fa5d 1255 c03f
00000780: cfbf b8a9 ce8c cc3f 8f7d 1c58 4f73 b4bf
00000790: 06fa 9baf ec75 d23f 3ed4 4826 ad39 d8bf
000007a0: 1fb5 bdcf 62a5 cc3f 87cf 6825 29b9 c6bf
000007b0: d2ce 8a53 600a aabf 48c1 78c6 2f73 c13f
000007c0: da20 2b2b c77c ce3f 60f2 0a8a e359 d8bf
000007d0: 69cb 3dc4 435d d8bf d38c 8228 e08c c13f
000007e0: 22c4 f19b fdc7 c8bf bb10 0af3 dd09 cbbf
000007f0: 674b 7ee5 3ffc d43f 222b 08b7 d92d c7bf
-0.27612615647190203 -0.31402861833568996 0.04155706046278062 -0.3703531287556516 0.02905569980666035 0.156607476323701 -0.05890006243502014 0.2801371489463825
-0.18215592979368328 0.2059330402123419 0.1593089862439757 -0.03750804195024394 0.2617013670875466 0.01579304698595011 -0.21861550777516298 -0.08784620634599838
-0.2106591761112213 0.10817164182662964 -0.1904626190662384 -0.324114054441452 -0.06906187534332275 -0.35052868723869324 0.012968122959136963 -0.3462086319923401
0.36265382340197155 0.22453469298028114 -0.14610636796005327 -0.13775789098129196 -0.06345955223727326 0.12364604462514758 -0.04204617927820753 -0.2592093363870294
-0.20863014315562206 0.2628350964365187 0.21085302057399624 -0.02766590659887576 -0.030882184640497107 -0.3557397250036007 0.05042676338106823 -0.05948831023143963
-0.15362635254859924 -0.029479652643203735 -0.1893133968114853 -0.2943361699581146 0.17502740025520325 -0.32193219661712646 -0.060433655977249146 -0.27249807119369507
-0.3016761898390665 0.188426807281784 -0.05057721263245968 0.3033802938108793 0.21514273150702362 -0.030961590328937832 0.08391056839498494 0.12362122007337814
0.15651777854586527 0.2185695020952307 -0.2985226591624678 -0.23960302515916929 0.102003182768597 0.32356255232668574 -0.002075100410030955 -0.09021594288864966
0.17258667605876388 -0.17947315561064647 0.20453620019322266 0.11704257869796436 -0.36300786581668704 0.16140802883128835 0.06464545356114934 0.25476168842858365
-0.18234659361205047 -0.014075394743299056 -0.13759456204733794 0.29956101902306637 -0.33804935134042824 0.02412768729508428 0.024653519471292774 -0.29782316622113314
-0.1276011041639852 0.16298762556470678 0.34932315452607365 0.2657513594873085 -0.16417113779548134 0.2997776938112991 -0.26484756408768717 0.1383434664819495
-0.05954679846763611 0.19947496056556702 0.1574983298778534 -0.3368162512779236 -0.12968716025352478 -0.0653800368309021 -0.053112179040908813 -0.00033539533615112305
0.10679281274026765 0.17080354540833756 0.11403462928951831 -0.10514248559011542 -0.22038467664101946 -0.1623559606467663 0.35088766805742183 0.024096553779432282
-0.35846483782246236 0.34500721344931407 -0.12707135482049609 -0.3231925472634105 0.3100121940134315 -0.17928209746232268 -0.014650373813496088 0.0989759168357808
0.3684242548929926 -0.20091907313490093 -0.23102258965424524 -0.2584924772129881 -0.3710458884945529 0.27474930227317695 -0.10799490159999546 0.06712090705638858
-0.009030818939208984 -0.256047785282135 -0.2324022352695465 -0.10341250896453857 0.31473013758659363 0.023814409971237183 -0.05739259719848633 -0.14649270474910736
-0.07818153863752478 -0.1198689428823152 0.3134977770494685 0.10918390675948242 0.280212698888401 0.08212256240230767 -0.09668427673537991 0.2615511666215813
0.16123673739096991 -0.18460495843027092 0.11047892017317312 0.2889428435516733 -0.3683319107232054 0.10039021645186832 -0.26816098536101496 0.14934797820779572
-0.07422338338597673 -0.1862326484345971 0.07171533440166793 0.24641634592033826 -0.3067312665040566 0.22648805527889956 -0.04742753857549665 -0.2918396040566528
-0.07916393643771553 -0.21663098700638633 -0.03396484009105159 -0.09036091833264122 0.35801468287837906 -0.22771838935513672 0.25883760143265444 0.25603420269752747
0.23350871891420094 0.28356429387570364 -0.0794681314738389 -0.2919003544865365 -0.3674547856296337 0.2415772039770215 0.22521327792065335 0.29158870065106474
-0.3137980438188149 -0.31782289252223556 0.2180149862961302 0.11809032390992871 -0.2103413140430898 0.3429759374416049 0.11251058478714145 0.33753241555757657
0.32825873477023826 0.17049514441410002 -0.3349773538438237 0.022080449653386125 -0.20836916521605836 0.01772243088081252 0.31683549025712926 -0.2520162961030623
-0.4037805805360189 0.28479099670706876 0.15122998057596648 0.11444352033030482 -0.08947194670771601 0.028121316613833422 0.18637135222399148 -0.21207328599189262
0.12255713411894573 -0.04564139214872473 -0.19007179768597374 0.27502672916894727 -0.18511007106997296 0.20521017282246445 -0.08736525584424237 -0.0861556354653615
-0.17046465720330573 -0.08223801804430467 -0.3432299438505504 -0.1196826538898993 -0.018311786012375954 0.24204166770579466 -0.13468826363876676 0.03150373112256342
0.29793761032813554 0.08770574635247795 -0.2174994784486818 0.07835270884780211 0.34052021782448544 -0.10046105218197186 -0.27308667955472693 -0.1039551664504747
-0.10001648556568091 -0.15636639126017934 -0.08486955124239329 -0.13915298999118422 -0.042911131301366694 0.40195431078231586 0.0010060540632577872 -0.27621164591474734
0.21375892899953883 -0.03950585821801999 0.16433418148190793 0.095486449985187 0.1648683718439681 0.03748419048020349 0.08825749540805956 -0.2496818288053763
0.1940189363638518 -0.05288111134121263 -0.1461223716875453 -0.14232923917173373 0.1760348914487859 -0.14253225051685411 -0.20624765972490502 0.12759618366919037
0.22304709708396195 -0.07988449002413332 0.2884475436148083 -0.378520285975643 0.2237971796379634 -0.17752565695411368 -0.05086041469385595 0.13632771674157085
0.23818292243800593 -0.3804863784860455 -0.38069242634008177 0.1371116826822801 -0.19360323061440093 -0.2112386166301173 0.32789609347780985 -0.1810867446623315

stacks.0.blocks.0.layers.0.bias f8 [64]
00000000: db5b b8c2 10f7 d4bf 5228 1c96 1a8d ae3f
00000010: 0000 0000 ff22 be3f 4ef0 c76a ac5d c4bf
00000020: bc6e 2a18 f5a0 d03f 0000 0000 50f3 92bf
00000030: a547 d38f af8b d6bf 20f6 223a eb0c bd3f
00000040: dda5 fd0d e6d3 c83f 13db 112a 9822 c0bf
00000050: 5abc a9de 673e d4bf 0000 0060 5603 d5bf
00000060: 25e0 8d1a bf9a cabf 8078 569d d513 d6bf
00000070: 96fa 92e9 de0a bf3f 0000 00c0 2109 d2bf
00000080: 54f9 d10d 7984 d7bf 2212 f08f 099c 813f
00000090: 7494 ff24 e0fb d93f bcf8 02f3 313e a63f
000000a0: 4619 330a 9ed2 dabf 4713 be1f 1e4f ad3f
000000b0: 35c6 ac6b 56da be3f 106f 4a5c 6f71 cf3f
000000c0: 264b f2a5 d48d d23f 9797 7714 5b43 c5bf
000000d0: eb7a d318 8726 9c3f 23df 1173 a8cf da3f
000000e0: ae04 8211 1650 d3bf 17b8 2c6d 1c23 b43f
000000f0: 6b6c 994f 7daa c73f 63a5 20c2 eabc a83f
00000100: e6c2 2ed2 afc6 d83f 9d6f 4cc2 2719 99bf
00000110: e6ad 0288 adca be3f 1f85 b147 ff5f b53f
00000120: c97d 2b03 9d49 d4bf 78b3 40c8 ea13 b23f
00000130: 6d96 e65f 38ad a53f 1a31 9b9c ced2 d5bf
00000140: aa3b 969c ab19 88bf 761d 0d88 7a37 afbf
00000150: 1c76 4575 8a83 ac3f 7c78 a0ab 2167 d03f
00000160: 0000 00e0 4526 ccbf c01a 8700 c665 cbbf
00000170: 6a8d e580 8400 d33f 3f6d 40bc 1fed b23f
00000180: c08e 2a55 31a0 ccbf 564f be67 d34d c33f
00000190: 6acd 09f1 ca8d b8bf 1b4e 5761 a9b3 c53f
000001a0: 0000 0060 b8c4 c7bf ac12 e88e caf2 d2bf
000001b0: 0000 0020 22af cfbf c4ff 60a4 13d0 d9bf
000001c0: 9e33 313c a746 d9bf 8897 cc9d 4185 b13f
000001d0: 0795 512e 3cd0 d33f 47e2 7c1c b63d c4bf
000001e0: 74bc fc76 1026 a93f 547a e048 c61f b9bf
000001f0: aa26 c418 f260 d0bf e911 169e ae26 d23f
-0.32757967963828855 0.05967028696439115 0.11772149801254272 -0.15910868848721055 0.2598240600579904 -0.018506288528442383 -0.3522757439178526 0.11347837609624678
0.19396663363595126 -0.12605573705851522 -0.3163089441722541 -0.3283286988735199 -0.20784748837081782 -0.34496059765832143 0.1212596245049816 -0.2818073630332947
-0.3674605021441455 0.008598398881084771 0.4059982644378757 0.04344326106500904 -0.41910506244711987 0.0572442449329516 0.12051906708509182 0.24564926153549793
0.28990665631970314 -0.16611803531048672 0.0274907215979238 0.41892443883215175 -0.30176307401422775 0.07866075196645315 0.18489042650876128 0.048316322514731856
0.38712687993670014 -0.024510022386592934 0.12028011866157548 0.08349605083778443 -0.3169930010753573 0.07061641110403893 0.042337190348274635 -0.34099164289070105
-0.01176771232237946 -0.060970143420997866 0.05569107705626328 0.2562946487468094 -0.21991799771785736 -0.2140433790757097 0.2969065912968377 0.07393072458255733
-0.22363869341380926 0.1508125549850045 -0.09591358551715748 0.169545338182261 -0.18569092452526093 -0.29606880145756054 -0.24753214418888092 -0.4033249955427858
-0.3949373328985589 0.06843957998770922 0.3095846607523786 -0.15813328162200177 0.04911853268128477 -0.09814109114857078 -0.25591709536147766 0.2836109679995205

stacks.0.blocks.0.layers.3.weight f8 [64, 64]
00000000: 0000 0000 74fd a23f 876e 7133 cdaf a33f
00000010: 0000 0080 ba14 b13f 0000 0080 4b4b abbf
00000020: 799a 89e8 0dc0 a5bf 0000 0000 1214 a33f
00000030: d09e c7b9 6fec a33f 9e5f 8090 1fb2 a13f
00000040: 9347 f964 2801 bcbf 0000 0000 8811 703f
00000050: e2ae 572f 63fb a9bf 0000 0040 0227 b73f
00000060: e4c3 5202 48f1 a03f 0000 00c0 ca76 b4bf
00000070: 188c 0e21 940c b23f 0000 0000 1fac 9dbf
00000080: ba4d da24 4f2e 873f 2cad a9b6 e958 b43f
00000090: c746 7af7 d1a0 b43f 3946 4d1b bb13 bbbf
000000a0: efb9 f6c0 f58d b2bf 5f52 fd30 6346 aabf
000000b0: 9be0 94da 8974 a7bf 1d2a 9359 a4c8 73bf
000000c0: 4300 d596 0df2 a53f 0000 00c0 3aff babf
000000d0: ae79 9966 0bb1 c2bf eea6 23a0 31d2 a7bf
000000e0: 6bca b756 9dd0 c0bf bcd8 c4f0 b99e bdbf
000000f0: 4042 1138 1b07 a5bf 7b73 f322 9ec9 bd3f
00000100: 8bc0 8444 127d 99bf 07b2 7a05 7aec 913f
00000110: 0000 0080 cc02 a73f 0ce2 7e0b b377 b5bf
00000120: 47e8 22d4 0c8c bcbf d8d4 50c7 aa71 a7bf
00000130: c309 c566 4d33 b6bf 0000 0000 0f14 bc3f
00000140: 0000 0000 1958 94bf 5045 3b0e 962f a13f
00000150: ad3c 45ee 47dd bebf 2890 dcb4 066f ae3f
00000160: 0000 0000 ab43 9d3f a5ec bd16 6a46 babf
00000170: 85d5 e0f4 7c8e 853f 73b1 44e5 afe9 9abf
00000180: 6871 5c2b 491e b33f 99a1 e71c 6b7e b2bf
00000190: aadf 1b73 3e61 8a3f 0000 00c0 10f8 b2bf
000001a0: 0000 0000 4ebe 94bf 2282 cf0f c3cf 8d3f
000001b0: 0000 0000 8196 95bf ec3d 7607 b595 7dbf
000001c0: 8305 3501 bc21 923f 3b21 bf60 cdda bdbf
000001d0: efcf 2108 4300 9fbf 6493 bab9 b161 b43f
000001e0: fbcf 879e 8a72 b9bf af69 49c6 4f87 aabf
000001f0: 13a6 4002 5b17 b73f 0497 d6b5 14eb 87bf
00000200: 62a8 1cfb 2aa8 933f b057 acab 89e3 813f
00000210: 0000 0000 d627 943f 3f1b 285a 9123 64bf
00000220: a933 2289 6449 a13f 0000 0000 fae7 ba3f
00000230: da3c f82a 8c7a b73f f2bb 0f20 09ec a6bf
00000240: 5bfb 7dc1 3f82 acbf 0000 00c0 42a5 b2bf
00000250: 797b 0a73 0646 88bf 0000 0000 0de3 9d3f
00000260: 2c33 0762 508b a83f f06e c9cf f6a9 b9bf
00000270: 62d7 9365 e075 b6bf 0000 0080 d898 a9bf
00000280: 6c71 1c8f 4063 acbf 4978 66b2 7bdd 61bf
00000290: 4368 5f6d 2ba0 c3bf 0b69 bb68 fa59 b7bf
000002a0: 6b1e f9a0 ccf7 803f 9427 8b6d bd85 c1bf
000002b0: 643f 83e5 6ab7 c0bf 5033 c285 c1d5 c0bf
000002c0: a12c 87b9 2504 b8bf 0000 0000 3d50 93bf
000002d0: 70a0 a3f4 d6c9 c3bf 6709 c550 e17f b9bf
000002e0: 8859 bdc9 7cd6 903f 55f8 60c2 5a99 9b3f
000002f0: 9716 33fa 9638 ba3f c8c5 9b88 7601 b83f
00000300: 0f63 057a e2d8 a7bf fa2e d560 55f3 b73f
00000310: ef0f 41ce de22 b83f cc12 554e 583c ad3f
00000320: 47c6 cdf7 bfd6 9ebf be07 5eeb 22c4 b9bf
00000330: c5fa b9c9 4e25 97bf 9d19 69e0 9af5 b53f
00000340: 90c9 fba4 0272 b23f a9c3 fdc3 cdc6 ad3f
00000350: eb0d 4404 5cee b53f 9b4b 02b5 22ff a23f
00000360: 0000 0000 4c2e a9bf 0a54 ac49 e093 b83f
00000370: d9ad f53d a97a b13f b804 a258 9cdf c0bf
00000380: 88ea f49c da65 c2bf f42c 262f 7f05 433f
00000390: e0ac 15dd 8bb5 993f 1c10 fc27 8e3f b03f
000003a0: 0000 0080 8403 b43f b9d7 3d82 d72e 5c3f
000003b0: 0000 0080 4691 b73f 3e04 6f08 1c4b aebf
000003c0: af30 0ebb 9cad 91bf 2bb0 da53 1170 a9bf
000003d0: e708 753b 954e b53f 3c7a 64e3 a51b b83f
000003e0: 3df2 3e6c 25fd bebf fa4c 2baf acd6 96bf
000003f0: ef0f 9757 55ae 9b3f c75c e2b9 7a41 9cbf
00000400: 23f3 8081 2f98 98bf d3fd a7af cb80 84bf
00000410: 0000 0080 f542 b83f db4d cae8 ce5f 98bf
00000420: ae60 51dd f10f b83f 0000 0000 bc52 b2bf
00000430: fca1 3b13 a0e9 9ebf 393c d379 cb79 bebf
00000440: 2455 706b 32e7 b63f 0000 0000 4ff4 9fbf
00000450: dc36 ca44 274a 93bf 0000 0000 9033 9f3f
00000460: 3895 4432 1f36 b93f 2b65 9b80 2c55 8d3f
00000470: 43e7 4804 551e bbbf 0000 0000 ae3b 853f
00000480: 3520 f872 174c 9d3f 4774 516e ed63 8cbf
00000490: e549 5560 cef8 d2bf 37b9 4f78 e503 91bf
000004a0: 0dce 346b 1a9e ca3f 58c6 28e9 430a 973f
000004b0: 38bd cb70 0760 c3bf 8e9b 3e95 9084 ab3f
000004c0: 7412 020a a2f3 b1bf 2cc3 8106 3dfd b6bf
000004d0: 8bde 0058 a9c2 763f 4611 528a 2876 d7bf
000004e0: a5c2 3bf2 56a7 ca3f a927 d37f 4d41 76bf
000004f0: f8b0 6f37 b051 be3f 7650 c83d 50bc b7bf
00000500: ce80 0fa5 ac46 c6bf 3b32 5b73 fa11 a2bf
00000510: 776d f72b f279 80bf e7c2 a352 d8b9 7fbf
00000520: a78c 7d24 6653 dd3f 1340 3792 8439 a6bf
00000530: 0746 8c67 7afa acbf 6c27 1290 1932 b5bf
00000540: 3401 499d 1fb1 ad3f 1248 7ca1 b16e 9bbf
00000550: 4c83 6ae3 d4a9 89bf 1368 65e2 e115 d9bf
00000560: 0000 0000 37ce a93f 5402 4335 0d11 b43f
00000570: 234f f40a 2654 733f 32b7 a3f3 a4fe 93bf
00000580: 5c37 7b5a 1794 c83f 00ab e991 9de3 6a3f
00000590: 1f20 13aa d0dd 913f 2a01 977a dabe 903f
000005a0: 0000 0040 aee8 b13f 3bf4 a960 3350 c13f
000005b0: 0000 0080 15bd b23f 2866 cbdb 36f8 b73f
000005c0: 080b 37ed 1c48 d73f 7242 4e45 0aa2 bd3f
000005d0: 8870 2a86 a33a c1bf 5fcc fca2 6f79 703f
000005e0: 8ca4 d95f 00bf a9bf f517 a68c 1b29 a23f
000005f0: fa90 6401 a1b9 be3f 8113 1f8a 0355 b0bf
00000600: 188a 86c4 baa3 aebf 823c e1a7 f8d5 98bf
00000610: 0000 0080 0815 a03f 3015 c57d 3d21 c2bf
00000620: dc06 9fda 3da8 b2bf 0000 0080 7073 a83f
00000630: 5bbc 4e60 40b8 90bf 0a84 03be 10d9 96bf
00000640: beb1 0009 ca3b b43f 0000 0000 7d0a a03f
00000650: aafe d653 233b 913f 0000 0000 8bb3 93bf
00000660: c6b6 509d 9f1d b13f 9edd 0898 f00f b23f
00000670: 376e 77f7 5fe6 acbf 0000 0080 c4a5 b63f
00000680: cfe0 d598 8266 bdbf 8e14 4343 acc1 b23f
00000690: 72de 0727 691e a9bf 8e65 ef2c 8511 a5bf
000006a0: 07f7 f317 43bc 973f 90d3 3686 469b c5bf
000006b0: f2bc 8deb 2cc7 a2bf 0562 b433 741a a8bf
000006c0: b92d 20f6 eee3 b4bf caff 05c4 e6df c2bf
000006d0: aca5 b94b 909d a8bf 9d36 54a5 578b ae3f
000006e0: aa06 428f 84f7 b8bf eb4e 5a29 3c7c bdbf
000006f0: 3a1c d8c8 ae31 863f e024 1bac ab71 c2bf
00000700: e155 322e 563f 93bf f44f 7cf0 fe29 473f
00000710: 1d24 6949 9fa1 acbf 90aa 894f 4300 b5bf
00000720: c8e7 d15a 631f 8f3f 9a6c 31f4 4777 c6bf
00000730: 3d8d cc43 f7d2 aabf d3d8 41c1 76b0 b9bf
00000740: 97b1 300f d953 933f 0eea 4ff7 9fd6 9ebf
00000750: 97df ab7d a205 ae3f 04cb ec29 7f88 b9bf
00000760: 0000 0000 84df acbf eb57 e06b 517b b8bf
00000770: b9e8 d7b2 ca2b 913f c854 6895 0141 7a3f
00000780: 4a5e a3bb 75ed 84bf 4a82 a092 c19b b8bf
00000790: 6a44 408b 8278 bdbf 2acc 8848 d688 a0bf
000007a0: 0000 0000 e7f1 99bf b024 8861 c10d 74bf
000007b0: 0000 0000 8db9 933f 2e39 b8cd c7cf aabf
000007c0: d5de 8bfe b8ff a9bf 0b80 2c49 cfc5 9fbf
000007d0: 67b5 0524 fac2 b1bf 1649 82cc 2bd6 7abf
000007e0: 7a4e edc2 0e5f b4bf 81da bd2c 710a 983f
000007f0: 0137 b22d f48f b23f 76d7 55d0 d61c bebf
0.03708994388580322 0.03845063450782243 0.06672254204750061 -0.05330882966518402 -0.04248088325112049 0.03726249933242798 0.0389132417947714 0.03456209792074037
-0.10939266648463634 0.003922969102859497 -0.05074605896865393 0.09043897688388824 0.03309083011971106 -0.07993762195110321 0.07050443465281864 -0.02897690236568451
0.011318796455532677 0.07948170384922965 0.08057892124113684 -0.10576981941746845 -0.07247863732366232 -0.05131826375023673 -0.04581099313003386 -0.004830018989375987
0.042862343465913465 -0.10545699298381805 -0.14602797040693133 -0.04652552680802367 -0.1313664124896435 -0.11570322158954388 -0.04106984195152963 0.11635769227309638
-0.024891171867409894 0.017503649315289162 0.044943228363990784 -0.08385771780638879 -0.1115119951163318 -0.045789086180244076 -0.086720311727766 0.10968106985092163
-0.019867315888404846 0.03356617854809463 -0.12056397978925544 0.059440812661961495 0.028578445315361023 -0.10263693862173058 0.010525680754748698 -0.026282070511272914
0.0746808749067377 -0.07224149184879138 0.012880790603489196 -0.07409767806529999 -0.02025720477104187 0.01455643074035701 -0.021081939339637756 -0.007222849984273232
0.01770681149833343 -0.11661990749337729 -0.03027443635114929 0.07961569580454647 -0.09940401430486638 -0.05181359572880539 0.09020012669557102 -0.011678849982512236
0.019196197106034048 0.008734775115538301 0.01968321204185486 -0.0024583662900598264 0.03376306699747229 0.10510218143463135 0.09171367692055146 -0.044769559062721856
-0.05568122136081995 -0.07283417880535126 -0.01185231245591266 0.029186442494392395 0.047937881437610436 -0.10024969647332305 -0.08773615341109811 -0.049994245171546936
-0.05544473406755199 -0.00218080672784907 -0.15332548943007582 -0.09121670777259198 0.008285139715680864 -0.13689391945655116 -0.1305974598567402 -0.13152331381970805
-0.0938132837247161 -0.018860772252082825 -0.15459715791007822 -0.09960754606166732 0.016443204701624775 0.026952188600482724 0.10242599113834171 0.09377232394378787
-0.04657657374872858 0.09355672468262446 0.09428207908155149 0.057101020395327134 -0.03011608076071173 -0.10064905401489363 -0.022603255331427947 0.08577888468526003
0.07205215957563937 0.058157377409663376 0.085668326417412 0.03710277995664698 -0.049181342124938965 0.09600641058598583 0.06827790987670514 -0.13182405784394802
-0.14373333610440775 0.0005804892555699979 0.025106606835305523 0.0634697768801406 0.07817867398262024 0.0017201523378082963 0.09206047654151917 -0.05916679003667767
-0.017263840596158427 -0.04968313358890016 0.08323033048239702 0.09417187501501528 -0.12105020420762798 -0.02230329341075519 0.027032216521334303 -0.027593534083817397
-0.024018041877059148 -0.010011283205129928 0.09477171301841736 -0.02380297942961627 0.09399329808491316 -0.07157492637634277 -0.030188084768186116 -0.11904594158407712
0.08946528552072103 -0.031205400824546814 -0.01883756024704196 0.03047013282775879 0.09848208405727099 0.014322612452292013 -0.10593158106430871 0.010367736220359802
0.02861057891098558 -0.01386247151293153 -0.2964359226945404 -0.0166164259607566 0.2079499267070876 0.022500096422112342 -0.15136807448969036 0.05374576398690244
-0.0701237940248321 -0.08980161103114587 0.005556737422061207 -0.3665868140017391 0.2082318003445113 -0.0054333712880153895 0.118433965238811 -0.09271718510018609
-0.1740318113288652 -0.03529341371686142 -0.008045093504668739 -0.007745594988805427 0.4582152706481772 -0.043407576416598335 -0.05659849657071097 -0.08279571311336803
0.05799197001442949 -0.026789451104441815 -0.012530959310710486 -0.39196059330936456 0.05040141940116882 0.07838518667541311 0.004718922238015985 -0.019526078577590762
0.19201938550980457 0.003282363656855636 0.01744771993688243 0.0163530480692781 0.06995667517185211 0.13526003093639524 0.07319769263267517 0.09363119951321919
0.3637764278939106 0.11575378601106381 -0.13460201312125641 0.004022060471288474 -0.05028535051389679 0.03546987621216139 0.12001997264866651 -0.06379720804313928
-0.05984290741914239 -0.02425373577744639 0.031410470604896545 -0.14163941041093997 -0.07287966334754564 0.047755733132362366 -0.016327863577029294 -0.022312413785474695
0.07903731078903939 0.03133001923561096 0.01682715605943367 -0.01923958957195282 0.06685826864915176 0.07055572234900473 -0.05644512077170954 0.08846691250801086
-0.11484543067297469 0.07326771394862616 -0.04906014062356413 -0.04114929364704799 0.023179100357984896 -0.16880113175798472 -0.03667583823595945 -0.04707682734641953
-0.08160298832824865 -0.14745792933899643 -0.04807711529140177 0.05965684788871537 -0.09752682206638022 -0.11517692575062781 0.01083694982936666 -0.14409395125975433
-0.018796297616594407 0.0007069105931543072 -0.05592057963492201 -0.08203526203002753 0.015196586808304505 -0.17551516936768935 -0.05239079191803817 -0.10034887521928519
0.01887454180921252 -0.03011560389493622 0.05863673957895726 -0.09973902486380487 -0.056392788887023926 -0.09563168414783234 0.016768614927038714 0.0064096509800226145
-0.010218543804895525 -0.09612665014038516 -0.11512008571323099 -0.032293983797352446 -0.025336846709251404 -0.004895930666415513 0.019262507557868958 -0.05236648927903996
-0.05077913386588554 -0.031028021660972665 -0.06938136462641396 -0.006551905717190351 -0.07957546481093827 0.02347733340817593 0.07250906100872713 -0.11762754999457833

stacks.0.blocks.0.layers.3.bias f8 [64]
00000000: 3bb6 3d15 3284 873f 4f77 5363 12f6 a53f
00000010: bcc2 4f9e cd45 913f f16c 398c faaf b13f
00000020: 3942 c926 3569 c13f 7b81 4c5b 2fd5 b8bf
00000030: 60a1 c7be cf95 c3bf a4fd ac99 51b4 85bf
00000040: 6974 3390 0935 7bbf 1420 e95b 3e11 b2bf
00000050: 25ab d2c5 14fe b93f 1030 976c cfc1 b3bf
00000060: fd6d a41f f752 6dbf 28e6 999f 3314 bdbf
00000070: f09b 9883 c08d a53f a201 8dae bb52 c0bf
00000080: f1f0 5eb3 9b40 a6bf 9f27 fea8 09b1 c43f
00000090: 6a33 3498 0cc4 b83f 1bd5 0feb 26ce bdbf
000000a0: 75fd 2b29 b3a9 bd3f 1374 7391 4d9f 90bf
000000b0: 689f f2a4 c4f0 823f 7171 c6bc 3b66 b1bf
000000c0: 3249 4f11 b537 c03f 295c 1233 215e abbf
000000d0: 32cc f9b2 bdf2 b93f 9aee 07d9 2168 98bf
000000e0: 36af bcb5 20c7 72bf 55fa 9f04 804e bfbf
000000f0: cd8f 1227 3de2 c1bf 1875 cc2f 2fa1 b23f
00000100: aeda 6e5d 256e b9bf c86b 87cb 8125 a0bf
00000110: 8f0b d30d 015e adbf 0058 d627 a55d c1bf
00000120: 6b60 b96d f342 c1bf bd87 d2b8 e82f c1bf
00000130: 6aec ab5a 2c45 abbf ec85 8009 7025 9b3f
00000140: ddd8 e902 5df0 c1bf 6b81 063a 4e7d 9f3f
00000150: 2f5d aafa 045f a93f 754d dfa4 fbba b43f
00000160: 3bd0 5494 d08d 9a3f 8e02 c712 ecc9 70bf
00000170: d1a7 df9d 4c03 bfbf 446f c384 5126 b6bf
00000180: 0006 66bf 45af b5bf 94ca 2d2f 10ba 9e3f
00000190: c330 7948 7bd4 b6bf ddd1 d85c 8200 9bbf
000001a0: d1ec 8192 fd8d bc3f c4d3 08d1 eabc b1bf
000001b0: 2071 44dd 42e8 793f 7cc6 441e 4540 a5bf
000001c0: 11ba 66e0 91e6 c0bf fb44 f934 ffcf 8ebf
000001d0: f55a 4802 0261 a93f 4bd6 4250 1e76 87bf
000001e0: aa4f 65cd 2d68 b3bf 742d d1fa 5655 a3bf
000001f0: 2b17 e254 d91c 9bbf ef86 3fc9 97dd bdbf
0.01148261191675736 0.042893004059563304 0.016867840564318767 0.0690914718956497 0.13602318185668752 -0.09700294474578712 -0.15300938430233213 -0.010597836973487436
-0.006642377239782873 -0.07057561630165338 0.10153322057400922 -0.07717605973374497 -0.003579600013052574 -0.11358950277817625 0.042097106994610445 -0.1275248148249491
-0.04346167149148695 0.16165276290513206 0.09674147334972152 -0.11642688025297725 0.11587066416904242 -0.0162326927210082 0.009248291286283197 -0.06796620711106073
0.12670005173874582 -0.05345252750810687 0.10136018390203175 -0.02383473288681035 -0.004584434292876518 -0.12229156601822784 -0.13971676261746638 0.07277197758636011
-0.09933694392280287 -0.031536155791136944 -0.057357819497631295 -0.1356703228490801 -0.1348556791078893 -0.1342745687916799 -0.053262125080402026 0.02651000078197356
-0.14014780657061623 0.030751440326299766 0.049553065871061334 0.08097813391878168 0.025931605389999595 -0.004098817979354975 -0.121144093078015 -0.08652219287199353
-0.08470569536986972 0.030006649856157155 -0.08917971152658581 -0.026369130055359114 0.1115416033443808 -0.06928889850026027 0.006325017155429685 -0.041505966133979805
-0.13203643281072222 -0.015045160106782243 0.04956823613991005 -0.011455761741994716 -0.07580839409393883 -0.037760465733834986 -0.02647723751626711 -0.1166624895409105

stacks.0.blocks.0.backcast_linear_layer.weight f8 [40, 64]
00000000: 3758 5354 625b b1bf b034 a871 ee84 b43f
00000010: ba1b 6706 4a0d 813f e903 b5bb 4a44 c23f
00000020: da64 5da0 6a0c b13f 338c bebf 108f babf
00000030: e2a9 7c3b b3e6 c0bf 8e9a 7fc2 4d05 9cbf
00000040: 4e2a 669a ef43 b83f 87c6 bab3 e9cf 8bbf
00000050: edb3 22e8 f003 9e3f cde0 701c 0128 b33f
00000060: 0b81 cc60 57a6 bcbf 36e7 801b df0e a9bf
00000070: f918 6a68 ace7 b83f 7455 485d 9177 a6bf
00000080: 51a2 401e 612c c63f 95a8 80e6 95bb b03f
00000090: 28a6 c472 1096 c33f 3fff 6fcc d6a3 acbf
000000a0: 1450 ef7e 9bd4 5cbf cf4b 32dd 0f62 bf3f
000000b0: e1f8 977a 9f40 aebf 7556 2275 b980 a03f
000000c0: a6a2 2f94 2001 b03f c819 2a9c 0ab0 b23f
000000d0: d89f 7d48 748a babf 3df0 8aca fd4e c63f
000000e0: 4d4b c154 387e c9bf 5392 6dd9 1e94 b7bf
000000f0: 6b57 be5e 1268 ab3f 3783 65f6 a496 b83f
00000100: 1e49 5f3d 259e b43f 999e 5f18 aae3 b83f
00000110: 9c62 c11c acaa 5ebf 17dd 1c92 64e9 b93f
00000120: 4865 161e ce35 af3f bf01 c1e3 cc0d c23f
00000130: b0f1 8e38 1001 b9bf 4b6b fa97 3e42 8abf
00000140: 17ea 025c 9b38 a2bf f789 d792 97e7 b4bf
00000150: 1893 aa22 7508 b83f e8c3 73b6 9b6f b0bf
00000160: c709 30b8 c38d b6bf 797e 9a56 9900 b4bf
00000170: 6639 b291 0cee a7bf 97b3 8768 1aeb adbf
00000180: 39a9 77b5 e286 91bf d837 99bb ecc6 a0bf
00000190: 245a eead d817 b2bf d6aa c7d3 49d3 bc3f
000001a0: 8964 1386 8117 a73f c7bc ae31 1dd2 a53f
000001b0: 7fb7 3f5a 1f77 9b3f 4ecc 127d 334c ba3f
000001c0: dea5 9d48 5993 70bf 5562 8256 c533 b43f
000001d0: aa9c 96a8 a28c a73f 9453 2d9e ec0b bd3f
000001e0: 6859 9bda 7c1f 983f 50b8 1475 a592 b73f
000001f0: dc74 184c 7f95 b3bf 0936 615e 25e7 b4bf
00000200: e915 9d07 599b c03f ef7a 4d11 89d1 a5bf
00000210: d0d9 c4aa a518 aa3f dfe9 835d f9d6 973f
00000220: ab75 87fc cd43 b83f be3f 985d 3405 b73f
00000230: 057b 58d9 ef83 7fbf 6a0e 6ed2 8fe4 a33f
00000240: d736 4b35 c260 81bf 3c24 5ec8 6d3c 973f
00000250: daf0 12b1 7d51 aa3f 771e 0e5f 3873 c33f
00000260: 4c80 76d2 c6e0 b8bf 49d0 efeb c5c2 873f
00000270: bf40 65e8 9a04 b2bf aba7 ed8e 5c73 7a3f
00000280: 47e4 e5f9 c3cd c4bf ce20 49ac 863f c53f
00000290: 0c8f 2521 730c ac3f 2ccc 2c1b 8785 95bf
000002a0: 73d4 5f16 ef90 c23f 7079 4185 c736 88bf
000002b0: d817 8b7a e790 983f a062 e632 1332 aebf
000002c0: 6c60 1cde 55f1 963f bc3c 448a 2940 c03f
000002d0: 968b 7b77 544b 79bf bed8 16e2 2609 c63f
000002e0: 6ae3 c9b0 5e82 a33f 0e6b b2a5 00b2 a63f
000002f0: 0114 55af 3f84 a13f e567 9c3b 255d b83f
00000300: d50c 3ebe ab04 b83f 4126 bf6a c5ce a1bf
00000310: 9eb8 2706 8c6e b23f e3c6 37a2 ed0e a6bf
00000320: 540b ad57 4fc8 bc3f 19aa 0dba 9170 74bf
00000330: 338b ba27 915c b93f 82f3 0ca0 afe3 903f
00000340: b601 400a 6996 c03f a59e 0a18 ec68 b13f
00000350: 0095 0152 cd45 bbbf f511 8b49 1212 afbf
00000360: a846 e80d 1a22 b23f 25de 5930 3019 b53f
00000370: 3a6f 3f8a d35a aebf a3e0 b681 b1f3 a1bf
00000380: db9f 0fbf 8f31 bb3f 534f 762e 1809 b73f
00000390: 4433 1a18 4061 b33f 5543 5ae0 bf47 c1bf
000003a0: 733a 28bf d812 c23f 1076 ae5e 872e 7b3f
000003b0: 1646 cd44 ad6a 64bf 445e 4375 367c b93f
000003c0: 5873 eee1 e25a a9bf 797f 8dc4 2ca8 b1bf
000003d0: 0f58 e152 27d8 b43f 4944 3bae df1c ba3f
000003e0: 430c 29ce 8029 8cbf 5ac1 910a 7142 a63f
000003f0: 7043 4b7f b5ca 9d3f 47bf 072a 7393 9d3f
00000400: a379 9bea a1a7 a4bf 209e 3dff 4132 b6bf
00000410: 72f9 1ae0 5d22 843f 590c 1b68 ee19 813f
00000420: 921d 198d 8c48 bf3f 9c13 57cf 9524 c03f
00000430: 329c ea3a 6411 bfbf 7c61 2078 377a a7bf
00000440: fcab df10 0c84 ba3f 879d 3576 533a b8bf
00000450: d9a6 810a ce9d acbf 7151 d4d4 3013 66bf
00000460: 2671 7834 d1db b53f 5b48 ab56 f767 bf3f
00000470: e7a5 7ab2 92fe bc3f 9a6f 27ef 21e8 64bf
00000480: 1536 cc49 9f52 823f ed72 95c7 60f6 b43f
00000490: 7424 29ed 3891 aa3f f13e a326 ce84 b83f
000004a0: 4ef1 9cb8 24b0 ad3f f59f 1c04 6f0e bc3f
000004b0: b3b7 eac9 bdd7 b5bf 3884 c713 622f b2bf
000004c0: 9eb7 b43f d795 a63f 4f16 fd9f e230 653f
000004d0: fd6e 5379 747f b63f 5c8c 7ab9 0b2a bc3f
000004e0: 6854 0884 61f2 b8bf 0cd9 32b5 e4f3 bc3f
000004f0: 0926 20f1 8dfd a5bf 24db b49a b56b aa3f
00000500: 7043 e6be 0b60 a7bf 4e20 5cd7 e20b a8bf
00000510: bf8a 056f 01ad b53f 3ce6 d9df 92c7 b63f
00000520: 877c a8ec d5fe 843f dce2 220f dcab b93f
00000530: 098a 4759 fa2a b3bf 477c 3a80 712f c03f
00000540: ec1d a9bf 45db a73f 390e 0bfe 7e2b b1bf
00000550: 3779 21e3 4861 933f 3d58 7fa9 cfbd b9bf
00000560: 18da 75ed 8ce5 79bf e7df f1e4 0cb3 b13f
00000570: c4d0 e24c 0b11 a93f 47dd ab0b eeee a03f
00000580: d520 1ab2 85e0 a33f cead eaee a72b 76bf
00000590: 6095 b70b 271f a83f 22da 9c44 8778 b23f
000005a0: a646 2efb 0bf7 c13f 0928 6a08 0daa ab3f
000005b0: 4542 9623 7622 bc3f 37f3 6f12 16ae afbf
000005c0: 8721 187e dd71 903f 63de 3401 ab38 a73f
000005d0: 4f75 c1e9 1a38 6e3f f638 c5d5 e18a be3f
000005e0: c26d e577 9752 b8bf 9b1c 9bfe dd7d ac3f
000005f0: 2833 0ed0 d3c3 9bbf 4e32 3b7a b611 adbf
00000600: d3f7 d577 78f6 a63f 8e9b 778b a5a4 aabf
00000610: 8377 797f cc87 c33f 40ae ee73 8dd7 a63f
00000620: 1021 a76f 0a31 c73f 008f 9d2c 2b7c 903f
00000630: 5dfc 5ee4 60a7 a83f 639f 670a 49a8 96bf
00000640: fba8 bbb1 17e6 81bf e810 e69b 1f2b b73f
00000650: 0abb 3cc8 3557 b23f 73a4 63f3 a255 973f
00000660: 430c 3a70 ba7a acbf 9c54 9d89 fe57 69bf
00000670: 0c4b 1111 9a82 af3f b8cc 8258 874d b83f
00000680: a6c8 de51 5467 b1bf 8303 5b3f 1ca6 973f
00000690: d17b a382 bca4 c13f a9d8 4114 6009 a73f
000006a0: 3a3d 2e0b f14f 883f 57c1 ce74 6468 ae3f
000006b0: 675f 92bd da69 af3f 81c5 babe af9b acbf
000006c0: cef9 6e2b 2dad 9e3f de5f bd87 d878 903f
000006d0: 8fc4 c656 afac ba3f 27cd 9f00 c8dd 933f
000006e0: 1cd5 f50c 2b3b 41bf 8e14 9dbd fb69 7bbf
000006f0: ec0f 1cbe bc4e b0bf fdc6 808b f2c2 c13f
00000700: 1501 34ee 2809 a83f 466d 7cd4 b18f a4bf
00000710: e4c3 0a98 524f 673f 30b1 3824 e763 be3f
00000720: 7d11 8012 3af2 b7bf 8c18 2403 deee abbf
00000730: f1ec 3b09 a137 a43f af61 098e a23c a13f
00000740: 106d 02a9 efa6 a43f 4fed dde0 0bb3 ac3f
00000750: a3ac 43a8 a3bf a4bf 66d7 1b51 9b6d abbf
00000760: 98db c9c2 e91d c23f f007 fb70 432c b43f
00000770: 8638 8998 2c68 ae3f 65de d850 30d9 9dbf
00000780: f54b 799a 6dc5 c73f 8ef1 e708 ec4e bc3f
00000790: 1263 9844 cf2f b6bf 4441 dd01 465b b03f
000007a0: a449 f021 39e9 c63f 602d 8e26 eb01 8a3f
000007b0: 93b8 d64e 836a a43f 7811 07b8 63b1 bf3f
000007c0: 4d5d d8a1 9fcc aabf 9d20 d154 e80b b33f
000007d0: 8e0e 32ed 7ba4 b53f 8e66 99f2 ded6 bbbf
000007e0: ffc1 b551 1866 64bf cfa2 4a3e 849f bcbf
000007f0: 005d 09e3 9c81 95bf 2e53 1ada 0a68 b93f
-0.06780066069345102 0.08015337252455157 0.008326128311535775 0.14270910420785235 0.06659571089894048 -0.10374550515420893 -0.13204040913235732 -0.027363982197039997
0.0947866203261267 -0.013580156133090838 0.02931190888255124 0.07482916778906486 -0.11191316712620762 -0.04894158564316202 0.09728505658322097 -0.0438809801454835
0.1732293508259937 0.06536232831482132 0.1530170975104721 -0.055937492805240734 -0.0017596739305547658 0.12259005689911294 -0.059086784091037854 0.032232089565849366
0.06251720063995467 0.07299867928131853 -0.10367514390748 0.17428562536031392 -0.19916443003111298 -0.0921038895444977 0.05352837950265051 0.09604865088978164
0.08053810833306271 0.09722388358170021 -0.001871746138041675 0.10121754233556533 0.06095737569121212 0.14104615326688294 -0.09767247563190185 -0.01282166386891039
-0.03558812616525502 -0.08165881476410407 0.09387905212731729 -0.06420300678634272 -0.08810065504807262 -0.0781341396745975 -0.046738045487574806 -0.05843431974412921
-0.017116110158817952 -0.03276767530461172 -0.07067636724819032 0.11259900494011829 0.045101211182278673 0.04261866790272389 0.026821603663783385 0.10272523692656074
-0.004046772732047425 0.07891496049922726 0.04599483783686627 0.11346320020432038 0.02355761608381482 0.09208139522954295 -0.07649989707757093 -0.08165200761978765
0.12974083778151105 -0.042614253389492755 0.050969292732066074 0.023280998547287154 0.09478461661588848 0.08992316517856033 -0.007694184217625692 0.03885316318249184
-0.008485333682439684 0.02269145522544512 0.051402976861454966 0.15195374146809446 -0.09717981947187687 0.011601969015807028 -0.07038276838034373 0.00645767360297526
-0.16252946569491852 0.16600116169343554 0.05478248386023496 -0.021017180474881922 0.1450480326890645 -0.011823233369963687 0.02399026570744653 -0.05897579189622104
0.022404996568269928 0.12695807696625205 -0.0061753558618161866 0.17215429343713667 0.03810401828827177 0.0443268015162258 0.0342121030358058 0.09517128663392745
0.09382127184476315 -0.034780663757896686 0.0719993128802536 -0.04308264355848992 0.11243148699308608 -0.004990166897963743 0.09906871051729808 0.016493553298676307
0.12959015846719318 0.068007236356261 -0.10653384449104308 -0.06068474910492575 0.07083285178694132 0.08241559200711686 -0.05928669989199738 -0.03506235798289594
0.10622499861312866 0.08998252043084891 0.07570267284809257 -0.13500212149349503 0.14120015462727373 0.006636170185541981 -0.0024922737269796975 0.09955158579702422
-0.04952153213455429 -0.0689723949303679 0.08142324231570817 0.10200307849596969 -0.013751035968317398 0.043475658931927355 0.029093585867318195 0.02888278907806743
-0.040341434372510386 -0.08670437318289048 0.009831174279835795 0.008350241233875776 0.12220076031473173 0.12611649154692095 -0.12135912359609405 -0.045854314245107525
0.10357737934070593 -0.09463998447392018 -0.05589145544293012 -0.002694697736510481 0.08538539439218037 0.12268014779991303 0.11325947625541453 -0.0025520956780677563
0.008946651878001291 0.08188443062449453 0.05188920874622563 0.09577644770910944 0.0579844928128944 0.10959524011980178 -0.08532320193873381 -0.0710355089463669
0.04411194470081557 0.002586786867967906 0.0878823085981217 0.11001656797684362 -0.097448439344889 0.11309651778978863 -0.042950092014574955 0.05160300744539928
-0.045654646924169096 -0.0469656837358917 0.08467110596169912 0.08898275342098655 0.010251685414060198 0.10027861947572653 -0.07487454108881066 0.12644785653262344
0.046594791074820424 -0.06706994726396766 0.0189257992391216 -0.1005525387584791 -0.006322432039601832 0.06913834180329524 0.04895816148328572 0.033072890209889176
0.0388223438176866 -0.005412727345781089 0.04711267488509452 0.07215161728968458 0.14035177006421867 0.05403176048010045 0.10990084046194067 -0.061875047445914814
0.016059361287291487 0.04535421743133552 0.003688862385429793 0.11930667370799938 -0.0950102489199969 0.05564779026968233 -0.027114209722230914 -0.056775762959294526
0.04484917128409873 -0.05203740432243996 0.15258175110187375 0.044613285447976825 0.18118410541342955 0.016098665807830592 0.048151996495555884 -0.022126332531029812
-0.008739647971613076 0.09050176197166915 0.0716432203159735 0.022787614922809184 -0.055623842429689783 -0.0030937167584093716 0.06154328783363469 0.09493299399291544
-0.06798293112550144 0.02309459816638394 0.13783985499227794 0.04499340293198035 0.011871226457314966 0.059390200861687496 0.061354480401120175 -0.05587529376260659
0.029957490707369243 0.016085990223785866 0.10419746273579931 0.01940071586427652 -0.0005258522232184678 -0.006692870485328529 -0.06370143548343749 0.13876182376548477
0.04694488437417214 -0.04015880316566238 0.0028454411661518065 0.11871189722359499 -0.09353983832995101 -0.05455678737966804 0.03948691594811205 0.03366573318334375
0.04033612192253078 0.05605351562459281 -0.04052459172256675 -0.053570607806178214 0.14153787623555725 0.07880040653529341 0.05938853609096477 -0.029148821768301043
0.1857125286356617 0.11057925431663859 -0.08666701721848494 0.06389272256388262 0.17899240643653258 0.012698971857182328 0.03987512910258419 0.12380049937116222
-0.05234240389489262 0.07440044470524972 0.08454107800394636 -0.10874741957504794 -0.0024900889381387343 -0.11180902977742878 -0.021002246243679856 0.09924381088997045

stacks.0.blocks.0.backcast_linear_layer.bias f8 [40]
00000000: fb34 aab1 6421 a83f e0ca 3778 df56 ba3f
00000010: f952 8a6c 66c9 c83f 1d27 e113 6d27 a7bf
00000020: c0f4 2560 2919 b2bf 3dc0 e841 a8bc cb3f
00000030: d572 0fa7 53ef ba3f 5d0d b40e a23d 853f
00000040: 327e 86b1 7a05 b0bf 90f3 3c16 615f ca3f
00000050: 5999 8a16 5e6f b33f f44f 7436 6403 aebf
00000060: 23f0 8001 e164 bbbf bc33 c4ba ed55 be3f
00000070: 1d34 f730 080d 8c3f 9781 a037 f480 afbf
00000080: 3c8f d6c9 a580 803f 8899 6e81 6c83 cb3f
00000090: ebf8 eb10 1ef3 c43f e6ab a7dc 2c83 b83f
000000a0: 6081 0434 03cb b4bf 0315 0e6f efe3 b63f
000000b0: 3e30 c42b afb1 c63f 20e2 5d4b f9e5 a6bf
000000c0: 8d30 3e7f 1e1a b2bf 0bc1 c150 1a81 c13f
000000d0: ef21 10a5 ff4c a93f 5916 171c 1d26 bebf
000000e0: 03c0 4001 e0b6 a0bf e340 5173 27ef 96bf
000000f0: e2bd 12ee 7502 c13f da5f 61a0 1560 80bf
00000100: 8728 a3f7 bca8 b73f ac6e f6cd e275 b03f
00000110: 35f6 8c84 13cc 803f c9e7 05cc 9c63 c13f
00000120: 1089 1651 efa7 7abf 37f7 6880 a6a6 94bf
00000130: 42d2 26fd 6053 b63f 7a1d e04b a695 a03f
0.047129770934683145 0.10288807568558012 0.1936462430936883 -0.04522267215413776 -0.07069643590326091 0.21669486253949968 0.10521433666822173 0.010371461938581456
-0.06258360704531965 0.20603574357837973 0.07591808367087562 -0.058619624755152616 -0.10700804030142357 0.11849866685606875 0.013696731561958992 -0.06153071574249507
0.008057875845061006 0.2149482376091323 0.1636693556428733 0.09575157534679554 -0.08122272510491291 0.08941551648429784 0.17729749333409645 -0.044723310899773105
-0.07071104628102116 0.1367524046249929 0.0494155777924482 -0.11776906905932928 -0.03264522567076258 -0.02239667550412684 0.13288759350460483 -0.007995766598625598
0.09241848989327837 0.06429879692444257 0.008201744539856207 0.1358524318891894 -0.006507811385207299 -0.02016697081329896 0.08720976047954657 0.03239173580373751
