darts_logs/2022-11-19_12.58.27.094379_torch_model_run_5752/checkpoints/last-epoch=0.ckpt (torch, 318132 bytes, 44 tensors)

stacks.0.blocks.0.layers.0.weight f8 [64, 2]
0.5926548155639465 -0.1289072485966821 0.5088350639630804 0.21020483248004143 0.10665355451233317 -0.23860662462887408 -0.29534206021424586 0.4430818742322184
-1.2708577594760082 -0.9411847717343507 0.2753474008085964 -0.12048553249115526 -0.5803617793400395 0.6865507063396079 0.06516764081717917 0.0137534750205284
-0.05984634258298038 -0.2110363273211857 0.5338816548827472 -0.4136883066942245 0.2107185789345139 -1.3268789416129572 0.09557053047234682 -0.44974801871843456
-0.09217084217482133 -0.13068690539153735 -1.101848079536168 0.15847570744111228 -0.41602435402159493 0.6390464278977015 0.35535629259187446 -0.18495698230109178
-0.19262130969393979 0.25186177406930693 0.592912292752308 0.12567633935253494 0.3780216603026946 -0.7323890520114339 0.009974300861358643 -0.4368284046649933
-0.6599575828752929 -0.9424963205393239 -0.24344980716705322 -0.5804800987243652 0.6288197714294277 -0.6522799488824249 0.4412053034378768 -0.21317838553482663
0.5090789499402626 -0.18278699647538094 -0.3528525807064666 0.39896584609132607 0.1399551342952066 0.19812478920715423 0.6548477791796583 0.08725709876027418
0.36231477790697036 -0.3800811391677663 0.34390403665337016 -0.06651175107234338 -0.39269694685935974 -0.09580069780349731 0.15481704672907817 -0.2570157600528754
0.12994062589073463 0.45296706941933634 -0.5230159163475037 -0.2542531490325928 0.38784810655715596 -0.2449527571952063 0.6046088850878476 -0.4658359553288059
0.4308487128045 -0.10269883280261838 -0.07470009508356981 0.1873066887592733 -0.2738372340212165 0.4389604620363853 0.1600860274287139 0.5577039284639852
0.25896063422295884 0.17701925911691446 0.3196558211279205 0.042933845717240925 -0.5578237771987915 -0.6373662352561951 0.09889022155003163 0.056358304791950926
0.5936775521351977 0.27458805030216815 -0.3150777816772461 -0.6339441537857056 0.038963164454188404 -0.5098725753537341 0.1672558978866699 -0.2538265210532375
-0.30954026279873387 0.658302318794146 -0.4554140043145084 0.6294860140318528 -0.08325921489500464 0.19484584131544244 0.1393926393086872 0.6792878533151849
0.33709877734917043 -0.008713050459580395 0.633962586778782 -0.16166425532773332 0.31730931367984455 0.2083584831410763 0.1758524347757194 -0.15851730297109648
0.5701842224043295 0.1690726276046198 0.539215082475438 -0.6483346653748097 -0.19496040108920715 0.37869820208683974 -0.03801465585456964 -0.6212473383901926
0.17234889892259808 -0.1251250855034731 -0.5164347724438919 0.15792760297979055 0.4570354529911771 0.5835944083490695 0.17591490219238357 -0.6351301886997667
00000000: ff3f 553b 07f7 e23f eb54 7860 0880 c0bf
00000010: a7f1 d878 6048 e03f 8141 7bf0 fde7 ca3f
00000020: a9f3 a1b8 a54d bb3f 49ea b170 a98a cebf
00000030: 8138 7062 e2e6 d2bf dfc6 d113 745b dc3f
00000040: 9e13 2df2 6e55 f4bf cef3 c286 2f1e eebf
00000050: d5bc 60b4 4a9f d13f eace b0cd 23d8 bebf
00000060: 90a4 c3dd 5292 e2bf 32c7 d82f 39f8 e53f
00000070: e737 1196 d3ae b03f 902e 5b2b c82a 8c3f
00000080: b0b4 5b08 2ea4 aebf 9064 0e06 3d03 cbbf
00000090: f8fb f4fa 8e15 e13f e450 ff84 de79 dabf
000000a0: 6a77 978e d3f8 ca3f f0a8 bf69 e53a f5bf
000000b0: dc10 d76e 4f77 b83f c388 f5e9 abc8 dcbf
000000c0: 621f c920 8298 b7bf 5707 5638 59ba c0bf
000000d0: bf4a ac73 2ba1 f1bf e8c3 5596 ee48 c43f
000000e0: 892f b79c 24a0 dabf ae47 8e7e 1173 e43f
000000f0: bb08 c751 28be d63f 8334 139f abac c7bf
00000100: e1f6 d2a8 d0a7 c8bf ab5f afd8 801e d03f
00000110: b18f 5833 23f9 e23f a337 b38b 2916 c03f
00000120: 1e80 0bc3 8131 d83f 39cd 4a2a bb6f e7bf
00000130: 0000 0000 686d 843f 0000 0020 fff4 dbbf
00000140: 7d4a 665d 5f1e e5bf a522 2a0b ee28 eebf
00000150: 0000 0000 5d29 cfbf 0000 0000 4b93 e2bf
00000160: 46c3 2ba4 4a1f e43f 8e2b 0933 7adf e4bf
00000170: 9298 452b b53c dc3f 4907 0be9 6d49 cbbf
00000180: 146a 22f0 5f4a e03f 4e77 ff75 9065 c7bf
00000190: e361 9cfd 2295 d6bf cbb9 4b0b a888 d93f
000001a0: 0144 5ac2 0cea c13f aff7 1531 275c c93f
000001b0: 64ea 6d54 83f4 e43f 96eb 8431 7b56 b63f
000001c0: bff2 7d52 2a30 d73f a853 a3d7 3f53 d8bf
000001d0: fdde 9813 8602 d63f cdc8 a703 ea06 b1bf
000001e0: 0000 0060 f221 d9bf 0000 0000 6586 b8bf
000001f0: e947 4884 0bd1 c33f aaf4 fe3a f272 d0bf
00000200: 4cad 4ff9 e4a1 c03f 738b 5497 69fd dc3f
00000210: 0000 00e0 8bbc e0bf 0000 0000 af45 d0bf
00000220: e09f 5edd 80d2 d83f d5f5 9ba8 9c5a cfbf
00000230: b358 8abb f458 e33f 750a 5c9c 41d0 ddbf
00000240: b037 c17a 0693 db3f 9080 3980 784a babf
00000250: 9a5b 64a1 8b1f b3bf 4685 4563 aaf9 c73f
00000260: 1816 239b 8c86 d1bf 96bb 2b9f ed17 dc3f
00000270: 572b 2dee b27d c43f 3350 b3e8 b5d8 e13f
00000280: 0319 bc9f cf92 d03f 8aab 552c 91a8 c63f
00000290: c31b 6eb0 3d75 d43f 937e 7ece 6cfb a53f
000002a0: 0000 0040 b1d9 e1bf 0000 00e0 4d65 e4bf
000002b0: c49a 739b de50 b93f e1fc e0e7 feda ac3f
000002c0: c147 d910 68ff e23f cee4 fac1 d992 d13f
000002d0: 0000 0000 3c2a d4bf 0000 0040 4549 e4bf
000002e0: 48a8 28da faf2 a33f d0b0 884a e050 e0bf
000002f0: 2241 be29 a468 c53f b7fd b197 b13e d0bf
00000300: fd02 61f6 81cf d3bf 2342 4306 d010 e53f
00000310: 36f5 aac7 8025 ddbf 6ecc 71da bf24 e43f
00000320: ef8e 10d5 7950 b5bf 2b10 1b62 b5f0 c83f
00000330: cd24 9135 9ed7 c13f 66e1 51e1 b9bc e53f
00000340: 171f 0fc0 0693 d53f 4ca9 2dd6 25d8 81bf
00000350: 1d47 23e8 6b49 e43f a44b c810 6ab1 c4bf
00000360: 1f27 3eb9 cb4e d43f 08b1 77a3 7dab ca3f
00000370: e34f 2424 5582 c63f b134 0e84 4b4a c4bf
00000380: 457f 7dfb f23e e23f e3f5 1aff 2ba4 c53f
00000390: 0cbe 17fd 3f41 e13f b0bb 1457 28bf e4bf
000003a0: 5eba 5861 76f4 c8bf 2116 4162 973c d83f
000003b0: 2f01 542f a876 a3bf 109d 2319 42e1 e3bf
000003c0: c0e4 2f5a 870f c63f 77c4 124b 1904 c0bf
000003d0: 2d3d 4537 a286 e0bf 2389 f7c0 f836 c43f
000003e0: ec6a eda0 1140 dd3f 6d9b 3f2e ceac e23f
000003f0: 3fcd e527 6184 c63f ac5e a58b fc52 e4bf

stacks.0.blocks.0.layers.0.bias f8 [64]
-0.2482491877545409 -0.02599042225590997 0.1871334484195394 -0.004790403673460363 0.36720056995836087 -0.16476468341533546 -0.003056542455214758 0.40397326090654956
0.43131776491051005 -0.568734893247731 0.4286554029654437 0.5666330428704975 0.47560471704292046 0.26013489205672324 0.08856623974636253 0.5124151610952804
0.37630068535193917 -0.5756991974969881 0.4342650221862429 -0.15377861261367798 0.2965658596190725 -0.31029149889945984 -0.04296418445791617 0.08600941209120044
0.05889322868551818 0.47369605039675916 -0.47411850299431646 0.4995564471234895 0.2799212000281689 0.41681568544739117 -0.4871743321418762 0.268145415496341
-0.33939999434543955 -0.33275434374809265 0.5979035432142839 0.025499259901379648 0.10210255218773523 -0.3439123164067942 -0.009293115178171982 -0.37395322732482283
-0.5610656526762844 -0.5019549799573054 -0.22931593656539917 0.4466447286674953 0.0851610436124572 -0.4004204273223877 0.286535945961392 0.16171341233726927
-0.3528907183803248 0.2219916829208294 0.01662169355038249 -0.6147951878513759 -0.40057943958011516 0.23144102211695905 -0.21754674300848434 0.07956874407678086
-0.5525663103304344 0.503562617306831 0.26256002002804885 0.552253615955206 0.6307348315870673 0.26336969227207285 0.09108620667672934 0.3600715763207272
00000000: 5608 551f a1c6 cfbf 7fb9 64b6 3b9d 9abf
00000010: 4d8d 7924 fdf3 c73f 595e cb31 1a9f 73bf
00000020: 4fcc c2d1 3680 d73f 14ff 6657 0217 c5bf
00000030: 9296 49bc 080a 69bf b355 03aa b2da d93f
00000040: 815d 9ed3 b59a db3f 50fa d284 1333 e2bf
00000050: c860 3f12 176f db3f aec6 7e9e db21 e23f
00000060: 8b73 61c4 4e70 de3f cca7 7bd1 0ca6 d03f
00000070: c585 3def 46ac b63f 231f dc7a b465 e03f
00000080: 3e22 4378 4f15 d83f 02a8 32b9 206c e2bf
00000090: 4f8b 0585 ffca db3f 0000 0080 04af c3bf
000000a0: 8723 0b5f effa d23f 0000 00e0 d0db d3bf
000000b0: 91c8 4ace 66ff a5bf dc73 147c b604 b63f
000000c0: 23ff 51d6 4027 ae3f 61b3 2c3d 0951 de3f
000000d0: 1480 3222 f557 debf 91af b99a bbf8 df3f
000000e0: eefe e49b 3aea d13f 2335 5db2 1bad da3f
000000f0: 0000 0040 dd2d dfbf 7143 8863 4b29 d13f
00000100: d87a fec0 bab8 d5bf 0000 00e0 d84b d5bf
00000110: 6892 889c 0622 e33f 34ff 645d 7a1c 9a3f
00000120: 5005 7c92 6423 ba3f 8a29 eacd a802 d6bf
00000130: 384b 25ce 4408 83bf 4a00 6684 d9ee d7bf
00000140: c5e9 a4f4 3ff4 e1bf 0b64 dfe3 0310 e0bf
00000150: 0000 0080 395a cdbf 21b1 a3c5 d395 dc3f
00000160: 8d6f 3539 1dcd b53f 0000 0000 7da0 d9bf
00000170: 2616 42dd 9a56 d23f ca14 a86c 06b3 c43f
00000180: 2659 a0f3 c295 d6bf e581 1035 396a cc3f
00000190: 4ae6 cff8 4605 913f 2dea 31f5 66ac e3bf
000001a0: 2395 1cf2 17a3 d9bf bcfa 7802 dc9f cd3f
000001b0: 1950 4959 92d8 cbbf 0af4 9701 9e5e b43f
000001c0: 04b3 f78a 9fae e1bf a845 9a59 2f1d e03f
000001d0: 1b7c d08a c8cd d03f e502 74c6 0fac e13f
000001e0: 2aaa 43d0 fa2e e43f 963b c48d 0cdb d03f
000001f0: 6412 cbf6 6c51 b73f 7911 21a7 690b d73f

stacks.0.blocks.0.layers.3.weight f8 [64, 64]
-0.04221455781367909 0.04216968258566878 -0.10607262067664844 0.043472742320995114 -0.21246976293667827 0.06077477640128924 0.07356612784643829 -0.03451969735704668
-0.05434225364014928 -0.16880742556214554 -0.21154852018843753 0.009769524050478552 0.04868695220800786 -0.2553841311141482 -0.056820793831163126 -0.04055222467858873
0.109884939245674 0.1436261528313157 -0.09807469507832403 -0.012114763259887695 -0.10911340266363766 -0.003412678837776184 -0.011739953218416074 -0.06388487313514503
0.011965431493946526 0.15527098441822704 -0.044009391296729226 0.10028260886459395 0.10933419524137439 0.03701048543454602 0.07130315899848938 0.03994243519202328
0.02906959900570441 0.04934230446815491 -0.023823421543151257 0.003781577511929116 -0.06325784080771123 -0.0665642435476244 0.17362048920186043 0.041032960977417245
-0.012007113156171978 0.1725530659612006 0.1116146594285965 0.04551335839215832 -0.030621111357653334 0.041619375348091125 -0.21331156916663452 -0.004874739952752354
0.17336812780082142 0.18335905651885423 0.04426192942623509 0.08219202832581135 0.14314821122747806 -0.08411610597921594 -0.03902053982555684 -0.04562402715259951
0.0032501561317120307 0.03262343621365163 0.12097952754390626 -0.10364063540816404 -0.07374374090667085 -0.06775615367988885 0.07796720077376046 -0.1484190658419407
0.06623932163485143 -0.06600274204244637 -0.05186244957555256 -0.01423516870316267 0.05294572721454092 -0.18947984166499995 -0.02140778805473919 -0.012282129898999534
-0.0716638944358793 -0.11529539000794867 0.04488877964761408 -0.07005617277476198 -0.06953251593835909 0.02000419541341801 0.006907638375343495 0.055453220428588725
0.03793996662109843 -0.11675646343238515 0.056021397242837 0.029173389077186584 -0.11670221369919347 0.004812553524971008 0.017885342251887808 0.08938270581870963
-0.10427441488317815 0.09483771618958867 -0.11054397834548241 -0.11104353406796282 -0.023870742361537464 -0.04164820250875163 0.10343238711357117 0.07140012900422232
-0.060031034740236196 0.07233355939388275 -0.05533782830042441 -0.04305052087912765 0.0015891879216747725 -0.050608321566012776 -0.17471549099869443 0.05564272710202355
0.07187728773503262 -0.31508215450793486 -0.03854028880596161 0.03085695631155613 -0.007307045115777636 0.10054048895835876 0.03704580139237923 -0.06572693723470988
-0.011857552583447789 0.014297017159144046 -0.14946758283109482 -0.11444760496241693 0.015000720633968153 0.09406608864883839 0.0480394079189523 0.06504584415460962
0.08536469801511788 -0.021542350984885824 -0.0013830305048296925 -0.0031121816538466755 0.058354169798468386 -0.046574120151117615 -0.0774333055659434 0.09413583027717803
0.08917689490228503 0.06740896611198129 -0.04863036080575783 0.11086551039894273 -0.1077609342623551 -0.0917651577041473 0.1475596742981583 -0.0892618727214364
-0.029963708287737995 -0.12416760113575566 -0.1710731706633283 -0.0037953420050928026 0.005393426090971264 -0.09237508369812968 0.04508808761822784 -0.05984252310452364
0.2034734176819732 0.08938254328513505 0.0827037727947272 0.051089346408843994 -0.02390408364063544 -0.12039129436016083 -0.13319310653929958 -0.08311509525069918
-0.0019504239801066661 0.01685926075528955 0.10478664751422866 -0.05237811804041938 -0.1006523422872352 0.051842638893384904 -0.022506996989250183 -0.08218464646709282
-0.03898583861249998 -0.05116729438304901 0.009104729272163617 0.0636077968774405 0.0890429556974087 0.1527116239582304 0.07405829700254755 0.09977381414225442
0.07284520598115794 -0.11071653932797504 0.0232839435338974 0.0466270059403811 0.12074427134274868 -0.07888063788414001 -0.07135350227875058 -0.09378704662734658
-0.06042921322743639 0.09609783065455293 0.07820382222707147 -0.09472388322130655 0.04495860672965876 -0.06368525264205889 -0.016046429664854603 -0.0680072469393868
-0.026627925662447573 -0.02592260902008251 -0.010418047219737511 0.010322046475500867 -0.08467291666068005 -0.035805242559786045 0.031143039008449214 -0.13455777258970297
0.015370690373135942 -0.045833271272651646 0.061176187282291725 -0.14224220804728108 -0.09343226456998091 0.0680321652101577 -0.1732625408050108 0.01879541158893272
0.03855034093462739 0.052279075915050426 0.030523047837605708 0.10523853416248379 0.0068716444164075826 0.09407930003357459 -0.04644140068241723 0.02982449695806061
-0.09031154559868881 -0.028781112813645114 -0.0700756149506007 0.0941372811794281 0.08720584313646146 -0.09646633267402649 0.06275414210347875 0.0008932908497082387
0.02818925223056943 -0.07086483358041291 -0.21869842364807096 -0.019972028354220607 0.02052051504106389 0.065315363949549 -0.0044583529233932495 0.053047980181045284
-0.06655649871884813 -0.07394298911094666 -0.004720849152661415 0.09119343524877217 0.058818807165520876 -0.0998216123523666 -0.25173095956702696 -0.13949170429099875
0.026604721820232574 0.12395487930589198 -0.0030159205198287964 0.07504988800333705 -0.04465871137691022 -0.008188709616661072 -0.11462448261148621 0.11641661239638824
0.03446902564538681 -0.018146388216567947 0.015943278743533705 -0.14159220333392597 0.017455119855705442 -0.060017184705358655 -0.0077344116442859346 -0.056999960593591206
0.04517752795368577 0.052865104193166305 0.04013513727843171 -0.11631977986737206 0.02416409587047694 0.033647054085824905 -0.009220652353893478 -0.061842711438412225
00000000: ed1f 7382 259d a5bf c021 2dbf 4397 a53f
00000010: dea5 ce44 9327 bbbf e67c 122d 0f42 a63f
00000020: 0fd8 998d 3532 cbbf 6e68 211a df1d af3f
00000030: 5c9d 31d1 3ad5 b23f 37c3 6ed6 90ac a1bf
00000040: 29cb 5974 bfd2 abbf 5b41 0e52 7b9b c5bf
00000050: 19ff dc9b 0514 cbbf 27b5 5a52 0b02 843f
00000060: ab5b f306 7fed a83f 7f5e c3ae 3658 d0bf
00000070: 41a7 7976 9d17 adbf 1b96 8cdd 42c3 a4bf
00000080: f013 625c 6b21 bc3f da61 a17e 5762 c23f
00000090: f233 ed57 6c1b b9bf 0000 0000 a0cf 88bf
000000a0: d7df fe1f dbee bbbf 0000 0000 e8f4 6bbf
000000b0: d88e 09d9 1d0b 88bf 2916 d350 c25a b0bf
000000c0: 639c 9707 5581 883f 8b08 0c6c ebdf c33f
000000d0: 0332 ac20 6688 a6bf 6855 6efd 1eac b93f
000000e0: 2c6c e568 53fd bb3f d4d5 19d1 09f3 a23f
000000f0: 0000 0080 ec40 b23f 47a3 beb9 5573 a43f
00000100: 083b 26c4 6bc4 9d3f 0000 0000 6543 a93f
00000110: 906a a0c1 2a65 98bf 3a79 b6f7 8afa 6e3f
00000120: e714 7c75 aa31 b0bf 03ba 1eb1 5a0a b1bf
00000130: 2fcd 8439 3239 c63f 8d7f e9b2 4502 a53f
00000140: c0dd 9972 2f97 88bf 9d5e 9007 3816 c63f
00000150: 0000 0040 c792 bc3f 02a1 a6e3 864d a73f
00000160: 81a7 64ff 235b 9fbf 0000 0080 224f a53f
00000170: f8ed b622 cb4d cbbf 92f7 c60a 89f7 73bf
00000180: 1f61 8943 ed30 c63f 2d42 963f 4f78 c73f
00000190: 71e4 afe6 7fa9 a63f 54b9 a669 890a b53f
000001a0: 3af9 d93a ae52 c23f e162 3f14 a288 b5bf
000001b0: ac97 d80c 80fa a3bf 9180 1051 085c a7bf
000001c0: 78f4 5c49 12a0 6a3f 54d6 3ddf 04b4 a03f
000001d0: 2e5f 49aa 83f8 be3f 905e 9d53 3188 babf
000001e0: d495 7aab dee0 b2bf 586a 28a0 7758 b1bf
000001f0: 44e5 7b91 a8f5 b33f ca6e f25c 65ff c2bf
00000200: 7583 2168 0ff5 b03f 07c5 8442 8ee5 b0bf
00000210: 7588 a209 b78d aabf c6d7 4300 5427 8dbf
00000220: 4de3 b2cd b31b ab3f 53e9 991d e040 c8bf
00000230: 7e99 4c56 eceb 95bf 2a71 ee91 5f27 89bf
00000240: 09f6 e7a2 9058 b2bf 5ab5 76a9 ff83 bdbf
00000250: e273 1681 a9fb a63f d255 f38a 33ef b1bf
00000260: f1be f609 e2cc b1bf fc6c 55d4 fa7b 943f
00000270: 1a97 a20e 2f4b 7c3f c5b7 6550 5d64 ac3f
00000280: 7ea9 b207 de6c a33f 2be9 0968 c0e3 bdbf
00000290: e883 112a d6ae ac3f 0000 0000 a1df 9d3f
000002a0: 7b76 353f 32e0 bdbf 0000 0000 54b6 733f
000002b0: eed0 3200 8950 923f b6c0 51f6 c8e1 b63f
000002c0: da97 bb61 bab1 babf 462c 76d9 4847 b83f
000002d0: ec79 c333 9c4c bcbf c510 415b 596d bcbf
000002e0: 4f9f 1867 9271 98bf 1aaf 6cc7 e952 a5bf
000002f0: 0000 0080 8b7a ba3f 50d9 0063 4747 b23f
00000300: 21a1 e845 63bc aebf 0000 00c0 7384 b23f
00000310: 7c60 9065 3d55 acbf 21d4 80c6 b70a a6bf
00000320: cb90 a689 8909 5a3f ac1d 107c 55e9 a9bf
00000330: 2cd4 f8c3 135d c6bf efae 531a 347d ac3f
00000340: 6dab 25c8 8c66 b23f 128c 4a57 4e2a d4bf
00000350: 0000 0080 8dbb a3bf f753 d948 f798 9f3f
00000360: 90b3 d7fc fded 7dbf 0000 0080 05bd b93f
00000370: 1067 ded2 aaf7 a23f b6aa e305 7bd3 b0bf
00000380: c3ba 73c4 c548 88bf 5bef 0729 c147 8d3f
00000390: 3b2e 09f6 c021 c3bf aa4a 6b30 704c bdbf
000003a0: f189 50a4 b2b8 8e3f 4ace 6816 b714 b83f
000003b0: 9bb9 dc0b 9f98 a83f b47f 622d d8a6 b03f
000003c0: 7d35 35fa 75da b53f 0f0e d6b3 320f 96bf
000003d0: 2144 68b2 d9a8 56bf 5dfa 84cd b77e 69bf
000003e0: 1c43 bd05 99e0 ad3f 402e c725 90d8 a7bf
000003f0: 07e3 064b abd2 b3bf f41a 6c28 4919 b83f
00000400: 4c05 2a07 4cd4 b63f 557b e8c8 b641 b13f
00000410: f8be 8122 14e6 a8bf 65f5 6a9d ae61 bc3f
00000420: ef76 7178 3896 bbbf 8968 40df eb7d b7bf
00000430: 0cd5 a843 3ce3 c23f da47 1eb8 ddd9 b6bf
00000440: c59f a66c ceae 9ebf d9d0 19aa 72c9 bfbf
00000450: 356b 9cc4 b9e5 c5bf 138f 3fb9 6817 6fbf
00000460: 7f2c c9ca 6a17 763f f3df 72bb e4a5 b7bf
00000470: 66d9 842b c915 a73f 5fc1 49df ada3 aebf
00000480: 7e53 46bd 6a0b ca3f 9732 3e3c c6e1 b63f
00000490: 39bf 680f 132c b53f 0000 0000 6228 aa3f
000004a0: bcd5 e8e5 4f7a 98bf 0000 00c0 f6d1 bebf
000004b0: a3c8 51c2 780c c1bf 82da e7e7 0747 b5bf
000004c0: 721b 4ecd abf4 5fbf 0398 50d6 8d43 913f
000004d0: 3b8f 2138 4cd3 ba3f 12ee 0400 4ed1 aabf
000004e0: 81b4 6316 5ac4 b9bf eebc 2b4d 1e8b aa3f
000004f0: 0000 0000 130c 97bf 733a cf90 0d0a b5bf
00000500: a715 b2ab f3f5 a3bf 0000 0080 9932 aabf
00000510: a8f8 b313 80a5 823f b4f5 5bbf 9948 b03f
00000520: 16d8 a8e6 84cb b63f ae50 4ff3 0d8c c33f
00000530: eb96 9f0b 7cf5 b23f 62f8 bcd4 c68a b93f
00000540: 5f05 5cc1 fba5 b23f 343a 8a4b eb57 bcbf
00000550: 0000 0000 bfd7 973f c7a8 3fb3 7edf a73f
00000560: 50b1 98b8 18e9 be3f 0000 0080 8531 b4bf
00000570: 0f07 be1e 3944 b2bf 9689 0d8a 6d02 b8bf
00000580: d9d7 11ed 93f0 aebf daba e00f de99 b83f
00000590: 3931 e36a 2a05 b43f 29ec 950c d33f b8bf
000005a0: 7cbc 2783 d004 a73f c5cb 553d ad4d b0bf
000005b0: 8430 83aa 796e 90bf bbe3 7e45 ec68 b1bf
000005c0: 0aaa 85d7 5944 9bbf aa7c dfd7 748b 9abf
000005d0: 0b91 c6a0 0e56 85bf 530f 52a0 b923 853f
000005e0: 3c20 eacf 1fad b5bf 55a6 a393 1055 a2bf
000005f0: 2d49 28f8 f5e3 9f3f 3202 5968 3039 c1bf
00000600: 26a9 c123 ab7a 8f3f 9a95 5e62 7577 a7bf
00000610: 96c3 5737 7c52 af3f 5d42 d61f fe34 c2bf
00000620: 3a23 b848 2deb b7bf a458 a754 8e6a b13f
00000630: c08f 3089 772d c6bf 2078 5bb8 1a3f 933f
00000640: 30b4 20cb debc a33f dff6 a3b2 52c4 aa3f
00000650: 3971 f210 6f41 9f3f b3c0 819e e9f0 ba3f
00000660: bd83 9c00 7125 7c3f 3af1 dfbc 9415 b83f
00000670: 440b 39d2 2ac7 a7bf 90d4 371c 508a 9e3f
00000680: 482e cc4e a81e b7bf 16be 1bc9 cb78 9dbf
00000690: 3bbd 75ba 79f0 b1bf 0000 0080 6119 b83f
000006a0: 9c8c 4a44 1f53 b63f 0000 0080 04b2 b8bf
000006b0: e1e1 05cc a710 b03f fbbb 1e7e 7745 4d3f
000006c0: 5a49 b7b1 a4dd 9c3f 3d13 aa9e 3224 b2bf
000006d0: faaa a058 4ffe cbbf 3af3 7622 8c73 94bf
000006e0: 8068 fe73 5403 953f 53f3 16f8 81b8 b03f
000006f0: 0000 0000 ec42 72bf 202e fed7 1a29 ab3f
00000700: 956e 55c1 d809 b1bf 0000 0080 eded b2bf
00000710: 453e 854b 2b56 73bf dddc 00f6 7358 b73f
00000720: 1ccf 54aa 7f1d ae3f 85c6 7cc0 e88d b9bf
00000730: 00ca ae2b 5c1c d0bf 4b1f ff39 ddda c1bf
00000740: c85d 8ca8 443e 9b3f 1f66 ccc8 81bb bf3f
00000750: 0000 0000 d8b4 68bf a3f4 8a2e 7836 b33f
00000760: 6dcf b0b1 81dd a6bf 0000 0000 3ec5 80bf
00000770: 1323 23b4 0758 bdbf d91e f4a6 7acd bd3f
00000780: 836c be93 eca5 a13f f103 b97f f794 92bf
00000790: 968e 2d53 6f53 903f a409 587d b11f c2bf
000007a0: 9849 b643 c1df 913f efd7 038b 92ba aebf
000007b0: 2960 0e51 1eae 7fbf cada 3e4d 192f adbf
000007c0: 6d81 264a 8221 a73f c7f3 378b 2211 ab3f
000007d0: 180b 10bc 978c a43f 2f85 6812 22c7 bdbf
000007e0: 3922 0106 79be 983f 7f8b cfc9 2f3a a13f
000007f0: c749 7602 47e2 82bf cd75 3f0e d9a9 afbf

stacks.0.blocks.0.layers.3.bias f8 [64]
0.06904689428604394 0.08461247334696978 0.15726102508208387 -0.04916238585632534 -0.04259827364530189 0.036174830798267985 -0.10950427374045639 0.029599604389284256
-0.04284551491911125 0.10043597352024383 0.07088683263778027 0.011485133581944503 -0.07381304775849484 0.1179244022270904 0.004241272847339678 0.19919105683108856
-0.03129274824986945 0.15083089739037664 0.01771004164268245 0.05994062435142526 0.02455834622829838 -0.05900179288446545 0.09829215556348166 0.047135787589572375
-0.011609705442735728 0.13298024177682205 -0.0850527965016344 -0.06141288570399543 0.15808547767326103 0.13492344619320007 -0.05470418565782018 0.04030301880889349
0.006075382423663871 0.11385223051891706 0.20808195207970387 0.011673761097527857 -0.08148599452701555 -0.06029323073039728 -0.13238336038205514 0.005433608489010195
-0.05804356089351799 -0.017707780159867494 0.09595229314003612 -0.08745485168379745 -0.03500296986317508 -0.03100288694750618 0.13547571860266214 -0.02048800364380645
-0.011491220012704965 -0.0028990095260980012 0.12847534384242282 0.014031719905617395 0.020177659917603407 -0.11522821425182068 0.090223650971129 -0.02470254313601355
-0.07512408863273466 -0.02394120046519389 0.1700382649366297 0.07362865067375064 -0.02370747546927259 0.00819805374085301 -0.0675229969998592 0.07831074048621262
00000000: 5853 d9a8 0ead b13f 52e1 dbbd 29a9 b53f
00000010: b9dc d417 2121 c43f eb7a e4ee cf2b a9bf
00000020: 0063 58e0 70cf a5bf ce0c 6fe6 8185 a23f
00000030: 43cc 7cda 7808 bcbf ab59 4ed3 5b4f 9e3f
00000040: ce39 b7ea d8ef a5bf b282 9c05 2cb6 b93f
00000050: 5f73 e5b3 a325 b23f d144 ff88 8485 873f
00000060: e00c 2472 69e5 b2bf 4d38 f72a 4b30 be3f
00000070: 9487 c302 4c5f 713f ce62 5fb1 177f c93f
00000080: d998 ab64 9a05 a0bf ce4d c245 6d4e c33f
00000090: 2a1b aac6 9422 923f 3617 959a 89b0 ae3f
000000a0: 0dda 93b7 d225 993f b933 b0a5 7b35 aebf
000000b0: 2d37 99b9 ac29 b93f a03a 5694 2e22 a83f
000000c0: ecbc 8a49 d4c6 87bf 320a b91e 7f05 c13f
000000d0: b569 6823 05c6 b5bf 96a4 4d7f 8271 afbf
000000e0: 0a23 4a1a 253c c43f 3884 6ee6 2b45 c13f
000000f0: ad94 b5e0 2f02 acbf dab4 6de7 98a2 a43f
00000100: df11 200d 80e2 783f 6bc8 a776 6b25 bd3f
00000110: 3efb 88ed 6da2 ca3f 53e3 14b1 69e8 873f
00000120: 5858 9321 44dc b4bf 9181 501c c1de aebf
00000130: ad10 b01d f0f1 c0bf 7a2f 272c 8d41 763f
00000140: 0ae5 8fb7 e2b7 adbf 7a80 af02 fd21 92bf
00000150: b43d 0359 5490 b83f c3c2 dbef 7063 b6bf
00000160: 0082 a6c5 e8eb a1bf 9da1 1586 38bf 9fbf
00000170: db77 66b2 4457 c13f 0621 71a6 cefa 94bf
00000180: 3c69 2a71 b588 87bf f44c 5fe3 a9bf 67bf
00000190: bea1 124c e171 c03f d660 cf90 a9bc 8c3f
000001a0: d3db d2d5 73a9 943f b5bd c9a3 987f bdbf
000001b0: e428 3fae e518 b73f 8fbd 969b 9f4b 99bf
000001c0: 3fc4 d10f 553b b3bf 6396 19c4 0a84 98bf
000001d0: 1a57 7c59 d0c3 c53f fd3e b1c6 53d9 b23f
000001e0: ceb7 3ebf c546 98bf 759a a925 24ca 803f
000001f0: 10a1 d7e7 2f49 b1bf ec56 5035 2c0c b43f

stacks.0.blocks.0.backcast_linear_layer.weight f8 [10, 64]
0.10717916304844986 0.05645915474366425 -0.08178498919368667 0.0256209938424101 0.02616751448676465 -0.03226204157042024 0.12049808155313702 0.026252466746846042
0.1233245970708853 0.26331954517390255 -0.018005057312908725 0.24093167927818077 -0.13337601199310525 0.01706001387364331 -0.08619875971377791 -0.11192504981433372
0.02356617917304531 0.018584961070425322 0.004215895884178217 0.10544285478128243 -0.1252732120885692 0.029170173344089508 0.033830167469443964 -0.03795872959280914
0.1776596255739028 0.00018481817358549483 -0.08535704111184152 0.13270354866512207 0.07779420822275138 -0.020618246263473593 0.03947572962985817 0.05984624583210743
-0.0426154834538628 -0.10277277318863136 0.24737006535492465 0.0008510071838211845 0.07108865805665773 0.08405501392336515 0.013913026331483043 0.03996630051248891
-0.1583373287773315 -0.050653067506902606 0.15012872248397485 -0.07995873933123329 -0.0022286485620357727 -0.2887460720388074 0.029533527642865307 0.06991099170705274
0.13656305720422726 -0.007459814384354025 0.14183189982302283 -0.08775420736302308 -0.06497829912083435 0.06263219934072148 0.18126336903522725 0.04411478882269043
0.24934189634244913 0.03339991663272229 0.14349492553260168 0.25455439586200396 0.03749541056233353 -0.0011676569962380888 0.2462856753593836 0.0340658763601621
0.16701351379638985 0.09599153886430445 -0.03506623797848194 0.10365611669441854 -0.004547934988644319 -0.01145653698926577 -0.004734417786865144 0.04129173217519028
0.16612785771084718 0.17441115935342325 0.04334842523677952 0.021287100570011618 -0.05423551628601143 -0.044004784543261906 -0.02782331930948767 -0.12812312770406264
0.05680927723407048 -0.03208596962826746 -0.016640305224422624 0.022956831335947312 0.15792985833821646 -0.14714907082024578 -0.06991883512643236 0.049675662116405624
0.11696014467416221 0.03532437310828563 -0.06759081244872264 0.10658586022582306 -0.0244115124155638 -0.007301538781402509 0.07791989702213767 0.07613063073726564
-0.060537717061444125 -0.11965883661611174 0.17040792062827462 -0.11901963827014007 -0.10617791020568686 0.09778777708826494 0.00848909483870977 -0.016224431101017633
-0.3238515393394866 -0.03579488357142856 0.05076556710908646 0.07295575701248375 0.06097579302244169 -0.1832817391118072 0.10088125151625503 0.005302817207229477
0.29557634558270013 0.1247733474059731 0.10969614253430575 0.08482653009755323 -0.08836759766009383 0.03471156445380134 0.14752592082236615 -0.06015089347565975
-0.08976242327397588 -0.017661191441577597 0.14724606913342678 0.1952981853666536 -0.11078179043317335 0.05655924415520724 0.10732275368526532 0.009188431190829842
0.06674068509956828 0.08975002292659445 0.06740163079732915 0.06573482403825631 -0.09926636082851986 0.04431921914699989 0.07614953505226935 -0.08334761295287686
0.11252384026858013 0.20422404847848538 0.12460574523610275 -0.013192830071453474 -0.07485768676684458 0.01066356794404898 -0.004044096002964107 -0.183696875323882
0.12266930977376098 -0.024006190018486404 -0.016950372146452404 0.047436406568649635 -0.05958349580737226 -0.07240040409066073 0.05664297213981288 0.07857416973212222
-0.004161892641396165 -0.09220429675423045 -0.04909277791325137 0.04685604864420729 0.07688554443779147 0.07797535768373055 0.12742618747356144 0.10055464512584668
0.10951913450806748 -0.03275377423709351 0.0882000818471456 -0.14431893635663223 0.08277489615262361 0.005848227860377549 0.053842364381276334 -0.08405845973041452
-0.14880809199639283 0.064873635436199 0.026733292222894403 -0.0537219684264959 0.08689386002165471 -0.10418233856423317 0.031214903858878377 0.08204733099110582
0.12302938586453142 -0.10072685884500256 0.10946440043126213 -0.06824201912202886 -0.11186465473006668 -0.10114267645062174 0.08056709588729082 0.06470655411310335
0.02749355093605741 -0.08087500017280061 0.11036437629857082 0.059306336987918006 0.004326829179823675 0.06638121610522478 0.0654245240888118 -0.03708752905034501
0.17511177361589303 -0.03032254657624221 -0.010995781800670004 -0.005670715631012958 -0.14025628447860403 -0.05133420213566264 -0.06295151700402438 -0.029405722886647785
-0.07366250379389161 0.1762624668170133 -0.025472399700116475 0.0607323758898557 0.05965847557556507 0.09839518888758447 0.03248802757103996 -0.038773571089785595
0.09466333579147305 -0.0749325226187519 0.05048332882283277 0.030950954433124303 -0.0953487021646863 0.08701864028413078 0.05866929344558321 -0.10491822494082471
0.07838567374252302 0.028918419418517343 -0.03755236793989348 0.05401442854486788 -0.05584051115341125 -0.017116263324848332 0.0877817019631242 0.08884528445451234
-0.03631581154673013 -0.05871444513118976 0.11927187609727753 -0.10338744240327881 -0.037558275843324974 0.04477047255463525 0.011888929104816391 0.09122700056777627
-0.24139642739969078 -0.002829455644604518 0.11626074896562208 0.09944789302273123 0.022702498302239926 -0.1840374289558553 0.13558828448176682 -0.03234488438025117
0.1326331654759995 -0.08471940203631594 0.11158659130810687 -0.02503022059980653 -0.012358284691980873 -0.050676641079415 0.07932353189118367 -0.001046481624997487
-0.02543985399412093 -0.018134118309072855 0.18620714457936519 -0.06654559814563182 0.08001675488942578 -0.02786012709338208 0.026975635727379703 -0.06085177076323298
00000000: 0712 1bf8 1770 bb3f 7020 5ede 36e8 ac3f
00000010: 35fe e36d dcef b4bf faa0 93ca 633c 9a3f
00000020: 55c7 c02b a8cb 9a3f 81f0 e47a a684 a0bf
00000030: f85f 8057 f6d8 be3f 0bd7 7738 ede1 9a3f
00000040: 7a3a 3667 3392 bf3f 30d9 ba38 3ada d03f
00000050: 0a44 49f1 ea6f 92bf 96fa 8869 d9d6 ce3f
00000060: bd67 ca14 7712 c1bf e05c a026 2e78 913f
00000070: 122b ed35 1f11 b6bf 9944 8ebc 1ea7 bcbf
00000080: 4d10 5c83 bb21 983f aac9 fa9f ef07 933f
00000090: d359 22ef af44 713f 8eea e18c 4dfe ba3f
000000a0: 8b1d 7ede f308 c0bf 9245 2032 c9de 9d3f
000000b0: aa86 cc0d 3052 a13f 15cc 659c 536f a3bf
000000c0: 146b d4f4 8cbd c63f c45d c305 7839 283f
000000d0: 1906 0f84 f5d9 b5bf 5238 ca0c 6efc c03f
000000e0: de8a 223c 52ea b33f 3327 9c15 f31c 95bf
000000f0: f6f0 7daf 2936 a43f 4449 46c9 2aa4 ae3f
00000100: c1a2 7957 b2d1 a5bf 8baf c303 514f babf
00000110: 6fb9 5a82 d2a9 cf3f 9d55 f702 c4e2 4b3f
00000120: 8649 78c5 dd32 b23f 129d dd1f a184 b53f
00000130: 7727 a8c8 6e7e 8c3f ca57 4983 7676 a43f
00000140: 6fd5 6ac8 6544 c4bf 65b9 c4e8 32ef a9bf
00000150: ae24 a100 6b37 c33f 4e00 750a 2d78 b4bf
00000160: 32e8 0596 d041 62bf 2e54 10ce d07a d2bf
00000170: 1c4c 727d 093e 9e3f 8941 03cf afe5 b13f
00000180: ed57 44f4 e57a c13f da5d 0aad 2e8e 7ebf
00000190: b97c a235 8c27 c23f 00e9 b54a 0f77 b6bf
000001a0: e376 acf5 6aa2 b0bf be4e d8ef a908 b03f
000001b0: d10a fc58 a333 c73f 98dc 86ae 3696 a63f
000001c0: d61e 286d 6fea cf3f b8da 403b cb19 a13f
000001d0: 30f9 26ae 0a5e c23f 2bf1 5185 9e4a d03f
000001e0: a10a 3b34 9932 a33f a389 2727 8221 53bf
000001f0: 5727 92fc 4986 cf3f 6ec1 c021 1571 a13f
00000200: d46d dfe5 b260 c53f 206a 1dc8 e692 b83f
00000210: 0d67 9fb2 33f4 a1bf 809e 3b0f 3589 ba3f
00000220: cc23 a600 dba0 72bf d0f2 8d5d 8676 87bf
00000230: 1c86 f698 6564 73bf a844 939e 3024 a53f
00000240: f14b e979 ad43 c53f a97d bdd8 1a53 c63f
00000250: 423c 73c9 c331 a63f a675 1923 49cc 953f
00000260: f1ce 75f1 c1c4 abbf 2930 f68c cb87 a6bf
00000270: c06c 005a b77d 9cbf b8d2 acb1 5666 c0bf
00000280: 60d2 a807 1b16 ad3f cc7e 6d7c 926d a0bf
00000290: 43fa effa 270a 91bf e910 3bdf fe81 973f
000002a0: 57f1 4fac 0b37 c43f ada5 67df c7d5 c2bf
000002b0: bf10 3e66 33e6 b1bf 61eb 64a0 166f a93f
000002c0: c49a 4f9c 19f1 bd3f 71ea 8046 0916 a23f
000002d0: 8632 faa8 a14d b1bf c8cc e2ff 3549 bb3f
000002e0: d70a e2dd 54ff 98bf 91f3 6ce4 37e8 7dbf
000002f0: eaf2 6af1 8ef2 b33f 668b 3d09 4c7d b33f
00000300: 8924 e8b5 ccfe aebf 3e90 f125 f6a1 bebf
00000310: 75f5 093f edcf c53f 61b6 f32d 1278 bebf
00000320: d51b e4bb 792e bbbf 32ea 8aa8 9e08 b93f
00000330: 0fa3 a305 bb62 813f 537a e623 239d 90bf
00000340: 063b 8ece fbb9 d4bf fe58 9bfc b453 a2bf
00000350: b62a fec4 f1fd a93f 246d 6c7e 3aad b23f
00000360: 1c13 c219 3838 af3f 3b38 b8a9 c675 c7bf
00000370: b7b7 0a8c 5ad3 b93f 871c b527 68b8 753f
00000380: d5ed 6f0c b9ea d23f de66 8566 25f1 bf3f
00000390: 83a4 aee0 0b15 bc3f 8e26 9a04 31b7 b53f
000003a0: 88e7 f945 429f b6bf 5580 3ed4 b6c5 a13f
000003b0: cc46 9f1e 21e2 c23f f534 9b10 19cc aebf
000003c0: 6816 5f90 abfa b6bf f791 997e c615 92bf
000003d0: 7941 b28d f5d8 c23f 1a18 8feb 87ff c83f
000003e0: 3e1e e706 325c bcbf 87be dd4f 55f5 ac3f
000003f0: 87e3 3105 8179 bb3f 5cb2 ba5b 62d1 823f
00000400: 35b6 d0e3 ea15 b13f 04f4 4885 dbf9 b63f
00000410: 75ba f8b7 3b41 b13f 44df 7357 ffd3 b03f
00000420: 34f7 592d 8569 b9bf 8228 a439 02b1 a63f
00000430: ccb4 a732 897e b33f c90f d5e7 4456 b5bf
00000440: 2b50 f9c5 5cce bc3f c7ca a27c 0324 ca3f
00000450: f5c9 ae80 29e6 bf3f 12b0 96ad d704 8bbf
00000460: 298f 8494 df29 b3bf 7a7d a0dc c7d6 853f
00000470: aa9f 31c1 8a90 70bf fb5c f213 6183 c7bf
00000480: 9e81 b381 4167 bf3f 2cb4 1f24 1495 98bf
00000490: 929e 1838 705b 91bf bb47 b4ad 9549 a83f
000004a0: 277f bf5b ba81 aebf d05c c937 d588 b2bf
000004b0: 5608 c7c1 4e00 ad3f 3c50 4fd1 6f1d b43f
000004c0: c753 8c8c 0f0c 71bf 6e2f 1c67 b39a b7bf
000004d0: ace3 3647 b022 a9bf 39e3 1719 84fd a73f
000004e0: 763d e562 c5ae b33f 2141 256b 31f6 b33f
000004f0: 322c ed55 804f c03f f9c1 4600 f3bd b93f
00000500: 7f95 ff2c 7209 bc3f f677 564a 1ac5 a0bf
00000510: 43bb 09d3 4794 b63f da30 ecfb 0a79 c2bf
00000520: b3c2 e74f bc30 b53f 15e6 65b6 4ff4 773f
00000530: d254 50f4 3991 ab3f 0b88 7eef da84 b5bf
00000540: ea98 40c0 240c c3bf b433 92fe 8e9b b03f
00000550: 7439 3fdf f85f 9b3f 10e5 ef22 7281 abbf
00000560: 4326 040f ad3e b63f 3645 f498 b1ab babf
00000570: a1fc e2bc ccf6 9f3f ffb4 54cb 0d01 b53f
00000580: 4b31 bc94 da7e bf3f a16e 9144 3cc9 b9bf
00000590: 6eb3 ede3 db05 bc3f 3795 5718 4f78 b1bf
000005a0: 18db a479 29a3 bcbf 2bd8 9587 7ce4 b9bf
000005b0: 5f38 f891 0ba0 b43f 91ac c0d5 9b90 b03f
000005c0: fa2f 7cf8 4427 9c3f 5a61 ce58 39b4 b4bf
000005d0: 4c86 d8fa d640 bc3f 1309 9e73 665d ae3f
000005e0: b1dd 295d 02b9 713f 2b9b 3d00 5cfe b03f
000005f0: 0e5c 515f a9bf b03f 47ab b8f8 22fd a2bf
00000600: 9493 6906 106a c63f 3b6e 81a7 df0c 9fbf
00000610: 5b98 d2d9 f484 86bf 01c2 e122 2d3a 77bf
00000620: 1b71 72fd eaf3 c1bf 8087 adfe 7948 aabf
00000630: 3a10 c432 971d b0bf c21c 74a8 881c 9ebf
00000640: 407a bcbc 8bdb b2bf cce4 3ebd c48f c63f
00000650: 398b a6ce 6f15 9abf e1b7 8260 5018 af3f
00000660: d672 0d43 8e8b ae3f 701d 5b56 6d30 b93f
00000670: 3fbb db4f 45a2 a03f bb3c 8f27 21da a3bf
00000680: e3c9 5a3b db3b b83f e5e7 0d1e c72e b3bf
00000690: 7c16 936c f3d8 a93f f4f0 4764 9bb1 9f3f
000006a0: 5a6c 83c5 c568 b8bf aaa8 2986 da46 b63f
000006b0: 5aa4 41d1 e609 ae3f 010e e0b8 ebdb babf
000006c0: bff5 3261 1511 b43f 9b40 9e46 ca9c 9d3f
000006d0: 01df 6060 103a a3bf 2984 3978 c7a7 ab3f
000006e0: 1e43 64a2 2097 acbf 8ffc d6fc ec86 91bf
000006f0: 216c 1e93 dc78 b63f 78cd 2287 90be b63f
00000700: df80 d76d fc97 a2bf 7451 48db d10f aebf
00000710: 719d 2b07 9a88 be3f 316d f073 9977 babf
00000720: 95e8 e19c d63a a3bf 0bb2 e5c6 27ec a63f
00000730: ac66 840d 3959 883f d465 f317 a75a b73f
00000740: c3c5 8600 14e6 cebf 829c b06e cc2d 67bf
00000750: e6a5 9db2 43c3 bd3f 1551 30c8 6a75 b93f
00000760: c382 fbde 523f 973f 307b 4dd9 898e c7bf
00000770: 8ff3 c8f7 f45a c13f 1e50 3639 828f a0bf
00000780: c5cc 0aa2 1ffa c03f bb28 15b5 2bb0 b5bf
00000790: df26 5758 f090 bc3f 8024 8dab 85a1 99bf
000007a0: c897 b1e4 4c4f 89bf 38e5 36e8 49f2 a9bf
000007b0: e79d 4607 8c4e b43f 0413 bc16 4325 51bf
000007c0: b6d6 adb3 e70c 9abf 402a 5114 c091 92bf
000007d0: 49fd 1fbe a2d5 c73f 646e badf 2109 b1bf
000007e0: 64d3 6161 fa7b b43f 8cf6 e97a 5d87 9cbf
000007f0: 5e9d f344 809f 9b3f 5dde a99a f627 afbf

stacks.0.blocks.0.backcast_linear_layer.bias f8 [10]
0.11663610937848598 0.16653256833496183 0.1003212467463633 0.04875037553098198 0.0988752105899952 0.03766053146956102 0.13740603195137072 0.0419206494603527
-0.04261126027112681 -0.08399345211120014
00000000: de32 5033 dddb bd3f 8ed8 5b6f f050 c53f
00000010: 959c de39 a7ae b93f c685 2529 cff5 a83f
00000020: 1b80 dec3 e24f b93f 3b03 06be 3d48 a33f
00000030: dd8b c056 8596 c13f b328 eb94 9f76 a53f
00000040: 3d96 9ca2 24d1 a5bf a94f e549 9880 b5bf

stacks.0.blocks.0.forecast_linear_layer.weight f8 [2, 64]
0.09935266704611183 -0.06450912061209688 0.04590954665783287 -0.0935220284862892 -0.09397287496534364 0.09634422481950623 0.0887648509086181 0.02499246363631529
-0.036687134051225756 0.09468992907418601 0.08742329948129235 -0.04090677648879159 -0.07453632510701155 0.08395244867208491 -0.09038236885946443 0.08126969193534389
0.05491484145183944 0.05942052672577946 0.12977112264433505 -0.04669838806686225 -0.05529849766146005 0.06853375438520003 0.005500120694271763 0.07563232741416955
0.1311220692666501 0.11262680887919356 -0.05328106003950401 0.09474587616984169 0.0658714618740423 0.0789142046896822 0.06149207194169796 0.11360780857295452
0.08921886055604487 0.029011045772333596 0.11997770190017061 -0.04994883735452182 0.07779965530499157 -0.10142405025617868 0.028598087914352296 -0.04983559404554946
0.07810622094529732 0.052735336555678955 0.0940348921365594 -0.08607355551110364 -0.0689009860523577 -0.07280521978750104 0.08761868825272412 0.06953810578221414
-0.026198069779842303 -0.08244844534951952 0.07597291694116046 -0.06088863609982929 0.06957203739160692 -0.05429516839654091 0.08503470854312495 0.017655439489056013
-0.09920466394423488 0.10799269765191018 0.07729390754678973 -0.048845453737869395 0.01697655764370122 -0.07350259496447137 -0.023095737770874175 0.1209336599073796
0.09968417495661379 -0.06307886404425941 0.046483594870966004 -0.09210290097291927 0.07970967634840306 0.09533435205536593 -0.04295949042061161 0.013490849743061173
-0.03465467287472008 0.09533660115300097 0.0875050655927146 -0.04103427770894567 -0.06794027087491203 0.08385616522388116 0.029450946866503597 0.08202242656959693
0.055681956906328794 0.058604096235327516 0.13168728556965836 -0.03554918362651285 -0.054447251884915324 -0.06051656564390454 -0.04619528986585625 0.07851508722747724
0.13113339578165165 0.1148144532945147 -0.09700675206484943 0.09456007700718407 0.06624403056153043 0.0790862174776984 0.06091899765266715 0.11317718344842882
0.08695366553635477 0.09793017837942795 0.12001758570411235 -0.09468444425919731 -0.00988598997989703 0.100351369155149 -0.11064904041002206 0.12064369034886113
0.07424911363557804 0.055453119946127304 0.09411440944662852 0.12631048691967625 0.00807458839431397 -0.06465197714911497 0.08752209433384124 0.06962136082804264
-0.02348579967867136 -0.08027886284038246 0.07597248560983057 -0.08188167483952452 -0.0034515661217362696 -0.053112886493683883 0.08474262918797067 -0.09634343456598886
-0.09830160414664882 0.10661011917446317 0.07736727631742198 -0.04787850033666338 0.1326909994430382 0.06084020215215726 -0.023409208850099436 0.11959177736115026
00000000: e3c1 bb27 2d6f b93f de9a 5273 ab83 b0bf
00000010: 906c f0c2 7481 a73f 8fdf cd45 0ff1 b7bf
00000020: 7def af38 9b0e b8bf b91c c2de 03aa b83f
00000030: 22d4 af13 4bb9 b63f 0e97 dbd7 9f97 993f
00000040: f832 def1 a7c8 a2bf 2d5a a264 993d b83f
00000050: 7839 2e94 5f61 b63f 3f85 68a6 bbf1 a4bf
00000060: f6d9 b206 d014 b3bf a539 775d e87d b53f
00000070: aceb 6286 4c23 b7bf 1caf 042d 17ce b43f
00000080: bf8b 3350 cc1d ac3f 5f23 ff05 5e6c ae3f
00000090: f27e dc13 579c c03f 75d2 0be3 d9e8 a7bf
000000a0: 77a3 f2ad 1550 acbf ffab c199 6d8b b13f
000000b0: 115f 1868 4b87 763f 15a4 c3e4 a35c b33f
000000c0: ae5d a4a3 9bc8 c03f 83fa c94c 1cd5 bc3f
000000d0: e954 bbb4 a747 abbf e390 9407 4441 b83f
000000e0: ec1c 7dbe f3dc b03f 3d00 55a8 b833 b43f
000000f0: d5de e78b e37b af3f 0a1d 64be 6615 bd3f
00000100: ff4b 4618 0cd7 b63f 7f7d 4253 12b5 9d3f
00000110: 8d14 e9d1 dbb6 be3f bf60 d2dd e492 a9bf
00000120: 91cd 2c9f adea b33f 4cce e032 edf6 b9bf
00000130: 6cf6 4731 d148 9d3f 7b69 340d 0d84 a9bf
00000140: eafe 92f0 c4fe b33f ae4c b343 2000 ab3f
00000150: 1bcf 68b2 ab12 b83f 417b f8a1 ea08 b6bf
00000160: 9ecc c1b9 7ea3 b1bf 0c25 f7e5 5ca3 b2bf
00000170: c059 90a8 2d6e b63f dc0f 29d2 3fcd b13f
00000180: 03e5 b0b3 aad3 9abf cdd9 6160 571b b5bf
00000190: bedd a409 f672 b33f 1d5e 7e99 cb2c afbf
000001a0: 7223 5019 79cf b13f ff1a 3089 93cc abbf
000001b0: 84b5 37ac d5c4 b53f c0d9 ce7c 4414 923f
000001c0: f84b 4013 7a65 b9bf 552c 9fd0 68a5 bb3f
000001d0: 3df0 1795 88c9 b33f 6d90 b974 4502 a9bf
000001e0: a46f 837f 4d62 913f 5c25 8be9 10d1 b2bf
000001f0: e890 9cb9 68a6 97bf 11ac 4922 82f5 be3f
00000200: d30d 5eef e684 b93f 8e90 23ba ef25 b0bf
00000210: 73e9 8a9f b2cc a73f 4fa0 8b43 0e94 b7bf
00000220: ae54 1775 da67 b43f 9b5d 4304 d567 b83f
00000230: 9b96 d14c c9fe a5bf d398 8833 17a1 8b3f
00000240: 790e 4ddd 41be a1bf 0c5e 10c0 fa67 b83f
00000250: c57d f462 bb66 b63f 25c0 8ce1 7102 a5bf
00000260: 8637 7d99 8864 b1bf df5c 34ff 9877 b53f
00000270: 78ef 8296 6328 9e3f caac a7f7 6bff b43f
00000280: 4ca9 c76f 5882 ac3f b617 7c29 5b01 ae3f
00000290: 8c0c 6904 21db c03f 1397 26aa 8033 a2bf
000002a0: 86d3 679c 82e0 abbf d515 9dfc 06fc aebf
000002b0: c8fb 67b6 e8a6 a7bf 4875 e293 9019 b43f
000002c0: d1d6 25a7 fac8 c03f 3a10 02e2 7a64 bd3f
000002d0: e015 9c3b 6fd5 b8bf f9ca 40d6 1635 b83f
000002e0: c326 d168 5ef5 b03f 088d a18d fe3e b43f
000002f0: fd21 3f5d c630 af3f 257c 900d 2ef9 bc3f
00000300: a1f7 be6d 9842 b63f df5b 6ec1 f311 b93f
00000310: 2f46 8bf5 78b9 be3f f87e 885f 3d3d b8bf
00000320: 5cca 371d 1b3f 84bf 0254 a198 a0b0 b93f
00000330: 6513 e5d9 7e53 bcbf 4861 8440 81e2 be3f
00000340: 2e61 d26a fd01 b33f cb72 42f1 5964 ac3f
00000350: e8d6 a7c6 e117 b83f bf1d 3b29 f12a c03f
00000360: 436d a8e8 6889 803f 0029 7a2f 088d b0bf
00000370: cd5d d714 d967 b63f 7b05 dc9b b4d2 b13f
00000380: 9d44 2956 a90c 98bf 9aa2 75d2 278d b4bf
00000390: b50d 17cd ee72 b33f acd4 938b 32f6 b4bf
000003a0: 2f60 9c73 7546 6cbf c61a f9bc 9c31 abbf
000003b0: cd7b f064 b1b1 b53f 532e a59c f6a9 b8bf
000003c0: 1a46 f43e 4b2a b9bf 48e8 46ff cc4a bb3f
000003d0: 3d5d 9081 57ce b33f ec46 41e2 8783 a8bf
000003e0: 6c6b 8ac7 04fc c03f 2314 0d6d 7226 af3f
000003f0: 7ce2 be69 95f8 97bf bafb a214 919d be3f

stacks.0.blocks.0.forecast_linear_layer.bias f8 [2]
0.02448655462819932 -0.02365173137759574
00000000: 7082 47dd 0013 993f d0cd 0ad3 2838 98bf
