darts_logs/2022-11-19_13.28.16.559181_torch_model_run_14368/_model.pth.tar (torch, 74610 bytes, 16 tensors)

weight f4 [64, 2]
0	0xbf0131f7	-0.50466865
1	0xbf14cfce	-0.58129585
2	0x3e0fda70	0.14048171
3	0xbf32307e	-0.69605243
4	0x3dae6c90	0.085168004
5	0x3eb646d6	0.3560092
6	0xbdc640d8	-0.09680337
7	0x3f1a62b3	0.60306853
8	0xbed4b9ed	-0.415481
9	0x3eb1cb6a	0.34725505
10	0x3e798b5c	0.24369568
11	0xbe1b6824	-0.15176445
12	0x3ee5eafa	0.44905835
13	0xbd3c8b00	-0.046031
14	0xbf00f0ac	-0.50367236
15	0xbe51d250	-0.20490384
16	0xbed7b70a	-0.42131835
17	0x3e5d8918	0.21634328
18	0xbec308a2	-0.38092524
19	0xbf25f247	-0.6482281
20	0xbe0d7050	-0.13812375
21	0xbf33787f	-0.7010574
22	0x3cd47840	0.025936246
23	0xbf314242	-0.69241726
24	0x3f1ca367	0.6118683
25	0x3e996ee2	0.2996741
26	0xbeb865eb	-0.36015257
27	0xbeda1874	-0.4259678
28	0xbe87e150	-0.26539087
29	0x3d9f29a8	0.07771617
30	0xbe70e21e	-0.23523757
31	0xbf176769	-0.59142166
32	0xbe867d51	-0.26267484
33	0x3f2d3b93	0.6766903
34	0x3f104bc7	0.5636563
35	0x3dacad48	0.08431488
36	0x3daa0b50	0.08302939
37	0xbf134bc4	-0.57537484
38	0x3e7d8840	0.24759007
39	0x3d37aa40	0.044840097
40	0xbe9d503a	-0.3072527
41	0xbd717f50	-0.058959305
42	0xbec1db5f	-0.3786268
43	0xbf16b33b	-0.58867234
44	0x3eb33a62	0.3500548
45	0xbf24d44c	-0.6438644
46	0xbdf78948	-0.12086731
47	0xbf0b84de	-0.54499614
48	0xbf17a428	-0.5923486
49	0x3ec61c92	0.38693672
50	0xbdb3c028	-0.08776885
51	0x3f223e03	0.6337587
52	0x3eed9ede	0.4641027
53	0xbc8a1ec0	-0.016860366
54	0x3e456ad8	0.19279039
55	0x3e874460	0.26419353
56	0x3e9cb56a	0.30607158
57	0x3edb6f46	0.42858332
58	0xbf1bcdc6	-0.6086086
59	0xbef6ff9e	-0.48241895
60	0x3e4eaad4	0.20182353
61	0x3f24748f	0.64240354
62	0xbc51d240	-0.012806475
63	0xbe46a958	-0.19400537
64	0x3ed06e4e	0.40709156
65	0xbe96cd8b	-0.29453692
66	0x3eeeb4ba	0.46622258
67	0x3e988bb2	0.2979408
68	0xbf29d7fb	-0.66345185
69	0x3ec3b80e	0.3822636
70	0x3e355da4	0.17711502
71	0x3f0d246b	0.55133694
72	0xbeb57dc1	-0.35447505
73	0xbc92e780	-0.017932653
74	0xbe87aa47	-0.264971
75	0x3f20b301	0.6277314
76	0xbf2a60e9	-0.66554123
77	0x3d9d6b40	0.07686472
78	0x3d9f92a0	0.077916384
79	0xbf1477ac	-0.57995105
80	0xbe7e8da2	-0.24858716
81	0x3eabfc02	0.33590704
82	0x3f34eafd	0.70671064
83	0x3f0f3725	0.5594352
84	0xbe9e86ef	-0.3096232
85	0x3f1c4505	0.61042815
86	0xbf0affe5	-0.54296714
87	0x3e896ee2	0.2684241
88	0xbdf3e758	-0.1190936
89	0x3ecc432a	0.39894992
90	0x3ea1473e	0.31499666
91	0xbf2c732e	-0.6736325
92	0xbe84ccb6	-0.25937432
93	0xbe05e5f8	-0.13076007
94	0xbdd98c28	-0.10622436
95	0xba2fd800	-0.0006707907
96	0x3e5c26b4	0.21499139
97	0x3eab7d32	0.33493954
98	0x3e5d9378	0.21638286
99	0xbe48424c	-0.1955654
100	0xbed70b14	-0.4200064
101	0xbea01af5	-0.31270567
102	0x3f2d4ca9	0.676951
103	0x3d2174f0	0.03941816
104	0xbf2e8010	-0.6816416
105	0x3f33532f	0.70048803
106	0xbe97aa45	-0.29622093
107	0xbf1e65c2	-0.6187402
108	0x3f216851	0.630498
109	0xbea78ac1	-0.32723048
110	0xbc2b6000	-0.0104599
111	0x3e42a9f4	0.19010144
112	0x3f3219b1	0.6957045
113	0xbef4cd62	-0.47812945
114	0xbedc0ded	-0.42979375
115	0xbefb0e29	-0.4903424
116	0xbf34b0cc	-0.7058227
117	0x3f224127	0.63380665
118	0xbe0fcb60	-0.14042425
119	0x3e66ba6c	0.22532052
120	0xbc93f600	-0.018061638
121	0xbf0318b2	-0.5120956
122	0xbeedfada	-0.46480447
123	0xbe53c9f0	-0.20682502
124	0x3f21244f	0.6294603
125	0x3d431670	0.04762882
126	0xbdeb1480	-0.114785194
127	0xbe96022f	-0.2929854

bias f4 [64]
0	0xbde4a378	-0.11163992
1	0xbe467e30	-0.19384074
2	0x3f2b8591	0.6700068
3	0x3e8d558c	0.2760433
4	0x3f1f9457	0.62335724
5	0x3e6120e8	0.21985209
6	0xbe164268	-0.1467377
7	0x3f1205ab	0.570399
8	0x3ebe5f16	0.3718192
9	0xbea509da	-0.3223408
10	0x3e89e26a	0.26930553
11	0x3f203e1d	0.6259478
12	0xbf30c919	-0.6905685
13	0x3e7d8374	0.24757177
14	0xbef95de0	-0.48704433
15	0x3eafe896	0.34357136
16	0xbe2d6b64	-0.16935498
17	0xbed15389	-0.40884045
18	0x3df7f010	0.12106335
19	0x3eebc446	0.46048182
20	0xbf261ef1	-0.6489096
21	0x3edc911a	0.43079454
22	0xbdc1e148	-0.09466797
23	0xbf10c357	-0.56548065
24	0xbe444194	-0.19165641
25	0xbeecbe63	-0.46239004
26	0xbdc95a10	-0.09831631
27	0xbe496170	-0.19666076
28	0x3f3224d9	0.69587475
29	0xbef46dcd	-0.4774002
30	0x3ef6e4fa	0.4822157
31	0x3ef1c45a	0.47220117
32	0x3f04fa69	0.51944596
33	0x3f21053f	0.6289863
34	0xbdd6ef70	-0.10494888
35	0xbf02a68b	-0.51035374
36	0xbf29277f	-0.6607589
37	0x3f0c6e3d	0.5485571
38	0x3efbe7e6	0.49200362
39	0x3f15cebb	0.5851857
40	0xbf34bcd4	-0.7060063
41	0xbf34dc50	-0.7064867
42	0x3eb76fc6	0.35827464
43	0x3e342758	0.17593133
44	0xbef3db1c	-0.47628105
45	0x3f218983	0.6310045
46	0x3e1c2a08	0.15250409
47	0x3f1adeb9	0.604961
48	0x3f2508fb	0.6446683
49	0x3ea7337a	0.3265646
50	0xbf2de8b6	-0.67933214
51	0x3d2a06d0	0.041510403
52	0xbed937df	-0.4242544
53	0x3cc03b80	0.023465872
54	0x3f1ded0f	0.6168985
55	0xbefd9368	-0.49526525
56	0xbf31d21c	-0.69461226
57	0x3f2f3fc9	0.68456703
58	0x3ed554da	0.416663
59	0x3eae57e6	0.34051436
60	0xbd907ff8	-0.07055658
61	0x3e2cc3d0	0.16871572
62	0x3ef8d626	0.48600882
63	0xbea1e6dd	-0.31621447

weight f4 [64, 64]
0	0x3d464ea4	0.04841484
1	0xbc3a4640	-0.011369288
2	0xbd800ea4	-0.062527925
3	0x3dd4537e	0.10367487
4	0xbd747d74	-0.059689954
5	0x3d9fbfea	0.078002766
6	0xbcdd2f88	-0.027000204
7	0xbcd61aa0	-0.026135743
8	0xbd515278	-0.05110404
9	0xbca94ac0	-0.020665526
10	0xbde7c1a2	-0.113162294
11	0xbd0ecc04	-0.034862533
12	0xbb169500	-0.0022976995
13	0x3dbfdd7e	0.09368418
14	0xbd280b64	-0.041026488
15	0x3c9d4b50	0.01920095
16	0x3dce8004	0.10083011
17	0x3cbed480	0.023294687
18	0xbdae82c6	-0.08521037
19	0x3ca11e48	0.01966776
20	0x3dea5d16	0.11443536
21	0xbd33a5d4	-0.043859318
22	0xbdd2d1e6	-0.10293941
23	0xbd1a9a2c	-0.037744686
24	0xbd7c0d14	-0.06153591
25	0xbdb7ba88	-0.08971125
26	0xbd7d4cc0	-0.061840773
27	0xbdb2bdac	-0.08727583
28	0xbd43e250	-0.04782325
29	0x3df0a222	0.117496744
30	0xbcc092e8	-0.02350755
31	0xbdf659f2	-0.120288745
32	0x3d8c588a	0.06852825
33	0xbcc34668	-0.023837283
34	0x3d3f1480	0.04665041
35	0x3cc5fef8	0.02416943
36	0x3d46f87c	0.048576817
37	0x3b17b380	0.0023147762
38	0x3ca3d1c8	0.019997492
39	0xbdbfb98c	-0.09361562
40	0x3d9740be	0.073853955
41	0xbc4ef210	-0.012630954
42	0xbd3d0370	-0.046145856
43	0xbd3476ec	-0.044058725
44	0x3d8ed332	0.06973876
45	0xbd2cf9dc	-0.042230472
46	0xbd828c5e	-0.06374429
47	0x3d49b5ec	0.04924576
48	0x3dcba7c4	0.09944108
49	0xbc0ac0b0	-0.008468792
50	0x3df2ec34	0.118614584
51	0xbdea7b54	-0.11449304
52	0x3dc85622	0.097820535
53	0xbd3e46b0	-0.04645413
54	0xbb590d80	-0.003311962
55	0x3d8a4760	0.06751895
56	0x3dcce75c	0.10005066
57	0xbded8b7c	-0.1159887
58	0xbdedb4e4	-0.11606768
59	0x3d80d948	0.06291443
60	0xbd4e9c10	-0.0504418
61	0xbd7f1cfc	-0.0622835
62	0x3dfae782	0.12251188
63	0xbd6b0894	-0.057381228
64	0x3d9a15b8	0.07523674
65	0xbda76e30	-0.081753135
66	0xbdde97ba	-0.10868783
67	0x3d8a965e	0.067669615
68	0xbd80239a	-0.062567905
69	0xbde0783a	-0.109604314
70	0x3d037a60	0.032099128
71	0xbdf8af9c	-0.1214287
72	0xbd8bede0	-0.068324804
73	0x3d13e780	0.036109447
74	0x3d101e04	0.035184875
75	0xbaf05680	-0.0018336326
76	0x3dbd1e94	0.09234348
77	0xbc0326c0	-0.008004844
78	0x3d80ec8c	0.06295118
79	0x3c0cc220	0.008591205
80	0xbd7af7cc	-0.061271474
81	0xbd808496	-0.06275289
82	0xbdaac12e	-0.08337627
83	0xbdc79280	-0.097447395
84	0x3dde78aa	0.108628586
85	0xbd516e9c	-0.051130876
86	0xbdf5b826	-0.11998014
87	0x3d8dfa1e	0.06932472
88	0xbdf94d96	-0.121730015
89	0xbd537338	-0.051623553
90	0xbd99db4a	-0.07512529
91	0x3d937930	0.07200849
92	0x3d6c9254	0.057756737
93	0x3d8ebdde	0.06969808
94	0xbcb82cb0	-0.022482246
95	0x3db1a5ca	0.086742
96	0x3d9abdca	0.07555731
97	0x3d444938	0.04792139
98	0xbde5bcb2	-0.112176314
99	0xbcd2fa40	-0.025754094
100	0xbcab0e28	-0.020880774
101	0x3d4431f4	0.0478992
102	0xbc904cf0	-0.017614812
103	0x3d8237f4	0.063583285
104	0x3d84374a	0.06455858
105	0xbdf6c2ca	-0.12048872
106	0x3dc4bdd8	0.09606522
107	0x3d26349c	0.040577516
108	0xbc29da90	-0.010367051
109	0xbd622980	-0.05521536
110	0xbd665608	-0.05623439
111	0xbd72a4f4	-0.059239343
112	0xbdb9fdd0	-0.09081614
113	0x3dbbd3f8	0.09171289
114	0xbd8bb4f6	-0.06821625
115	0xbde28090	-0.110596776
116	0x3d9d10b2	0.076692
117	0x3dab075a	0.083510116
118	0x3d086ec0	0.033308744
119	0x3daf0e1e	0.085476145
120	0x3cf27a28	0.029599264
121	0xbd82f84e	-0.063950166
122	0xbdeece04	-0.11660388
123	0x3d7e70c0	0.062119246
124	0x3dff8558	0.12476605
125	0x3d08c9f4	0.033395723
126	0xbce32d38	-0.027731523
127	0xbb34eb00	-0.0027605891
128	0xbd2ed7d4	-0.0426863
129	0xbdca0b4e	-0.098654374
130	0xbde5f558	-0.11228436
131	0xbd79a964	-0.06095256
132	0xbcc6a9f8	-0.02425097
133	0x3d41f620	0.047353864
134	0x3da004d4	0.07813421
135	0xbc91f208	-0.017815605
136	0x3d84154c	0.064493746
137	0xbd109950	-0.03530246
138	0xbdd72e94	-0.10506931
139	0xbdc13d24	-0.0943549
140	0x3c97ea50	0.018544346
141	0x3d82e21e	0.06390785
142	0x3dabe140	0.083925724
143	0xbd3f6cd0	-0.04673463
144	0x3d8bff58	0.06835812
145	0x3d9fab88	0.07796389
146	0x3aff7580	0.0019489974
147	0xbc8f4618	-0.017489478
148	0x3dbd40fe	0.09240912
149	0xbd594034	-0.053039744
150	0xbd9083c4	-0.07056382
151	0x3d4ceba0	0.050029397
152	0x3ca6b468	0.020349696
153	0xbd684cd0	-0.05671388
154	0x3d9480c2	0.07251121
155	0x3c643d40	0.013930619
156	0xbd8d9bfc	-0.06914517
157	0xbdc4d1b0	-0.09610307
158	0xbcfbbcb8	-0.030729637
159	0xbdad42d4	-0.08460012
160	0xbd68bfe8	-0.05682364
161	0x3d4590b0	0.048233688
162	0xbde2ed7c	-0.11080453
163	0xbdf6737c	-0.12033746
164	0xbd98878a	-0.07447727
165	0xbdab03a6	-0.08350305
166	0x3c94bfa0	0.01815778
167	0xbdff619a	-0.12469788
168	0x3c942118	0.018082187
169	0x3dcb0a32	0.09914054
170	0xbd3a081c	-0.04541789
171	0xbda00be2	-0.078147665
172	0xbd6161e4	-0.055024996
173	0x3ddf957c	0.10917184
174	0x3da3ca9c	0.07997629
175	0xbce66ed0	-0.028129011
176	0xbdfa27ba	-0.122146085
177	0x3da69358	0.08133572
178	0xbc6693f0	-0.014073357
179	0x3cdae558	0.026720688
180	0x3dd6022c	0.10449633
181	0x3bb72a60	0.0055897683
182	0x3d43cd68	0.047803313
183	0x3dcdbb44	0.10045484
184	0xbca012c0	-0.01954019
185	0x3dd965ce	0.10615121
186	0xbd1d8204	-0.03845407
187	0xbded508a	-0.11587627
188	0x3c18f210	0.009335056
189	0x3ded30c4	0.11581567
190	0x3c919b60	0.017774284
191	0xbd6f0334	-0.058352664
192	0x3d6f68bc	0.05844949
193	0x3d94c522	0.072641626
194	0x3d9941a4	0.07483223
195	0x3d9b27d0	0.07575953
196	0x3c6e6d00	0.014552355
197	0xbdfb6178	-0.1227445
198	0xbd7aea20	-0.061258435
199	0xbd6e528c	-0.05818419
200	0x3da416f8	0.080121934
201	0xbcc3e240	-0.023911595
202	0x3ca628c8	0.020283118
203	0x3d8cce52	0.0687529
204	0x3dc97fce	0.0983883
205	0x3d3845ac	0.04498832
206	0x3d4e57d4	0.05037673
207	0xbdc6a44c	-0.09699306
208	0x3b2c38c0	0.0026278943
209	0x3d83a9dc	0.064288825
210	0xbdff7538	-0.124735296
211	0x3de8c55c	0.11365768
212	0xbd1a5aec	-0.037684366
213	0xbd9f5466	-0.077797696
214	0x3d9ad842	0.07560779
215	0x3d3be328	0.04587093
216	0xbd03b630	-0.03215617
217	0xbdee9d38	-0.11651081
218	0x3d92a8d6	0.07161109
219	0xbdc7db20	-0.09758592
220	0xbda501f0	-0.0805701
221	0x3d3a5a3c	0.04549621
222	0x3d50a278	0.050936192
223	0xbde3b864	-0.11119154
224	0x3c1f7ca0	0.009734303
225	0xbd54299c	-0.051797494
226	0xbda33f18	-0.079710186
227	0xbd9c773c	-0.0763993
228	0xbd9c4a68	-0.07631379
229	0xbcdda948	-0.027058259
230	0x3da10ff4	0.07864371
231	0x3c095e80	0.008384347
232	0x3dd716a8	0.10502368
233	0x3b34ec00	0.0027606487
234	0x3deeddfe	0.116634354
235	0x3d3222fc	0.043490395
236	0xbd9a6eae	-0.07540642
237	0x3de55b16	0.11199014
238	0xbdec5db2	-0.115413085
239	0x3dba4984	0.09096053
240	0x3cc257b0	0.023723453
241	0xbd89d8ec	-0.06730828
242	0xbd1bcc3c	-0.03803657
243	0xbce03388	-0.027368322
244	0xbdfb86ee	-0.12281595
245	0xbd85efce	-0.0653988
246	0xbca24bd8	-0.019811556
247	0xbdfc8936	-0.123308584
248	0xbce5f680	-0.028071642
249	0xbc3aeab0	-0.011408493
250	0x3db42eac	0.087979645
251	0xbdc5bea6	-0.09655504
252	0x3dd29bfa	0.102836564
253	0x3df8c9ce	0.12147866
254	0x3dc05b38	0.093923986
255	0xbd3379e0	-0.0438174

bias f4 [64]
0	0xbdfd4498	-0.12366599
1	0x3de42766	0.11140327
2	0xbdb63b02	-0.088979736
3	0x3dec153e	0.11527489
4	0x3dac7936	0.08421557
5	0x3d84c7a0	0.06483388
6	0x3dd9138a	0.1059943
7	0x3d8553f2	0.06510152
8	0x3d808042	0.06274463
9	0xbb175c40	-0.0023095757
10	0xbb9d42a0	-0.004799202
11	0x3c44f310	0.012020841
12	0x3d1deb9c	0.038554773
13	0x3d798518	0.060917944
14	0x3d935a9c	0.07195017
15	0xbcaa95f8	-0.020823464
16	0x3cdfbad0	0.027310759
17	0xbdaf3f42	-0.08556987
18	0x3cf16d70	0.02947113
19	0xbd8af472	-0.067849055
20	0x3de22c66	0.110436246
21	0xbcac2348	-0.021012917
22	0xbd03ed6c	-0.032208845
23	0xbd82ff62	-0.06396367
24	0x3d2d6698	0.04233417
25	0x3ccca830	0.024982542
26	0xbdd408be	-0.1035323
27	0x3d96feac	0.073727936
28	0x3d3f8640	0.04675889
29	0x3df44806	0.119278
30	0xbdc82882	-0.09773351
31	0xbd396dd4	-0.045270756
32	0x3d8d39e4	0.068958074
33	0xbde73fbc	-0.11291453
34	0x3d0218fc	0.03176211
35	0x3dda0d9c	0.10647127
36	0x3d48f2b8	0.0490596
37	0xbde0aeb8	-0.10970825
38	0xbd568f44	-0.052382722
39	0xbd0d8700	-0.034552574
40	0x3cc68d60	0.024237335
41	0xbd846c96	-0.064660236
42	0xbd93c936	-0.07216112
43	0xbd4b9b34	-0.04970856
44	0xbda45292	-0.080235615
45	0x3d07ba40	0.033136606
46	0xbd841c6e	-0.06450735
47	0xbdb35c20	-0.08757806
48	0xbca697a8	-0.020335987
49	0xbde1f1f0	-0.11032474
50	0xbb412000	-0.0029468536
51	0x3dba747c	0.09104249
52	0xbd819d9c	-0.0632889
53	0x3ddad97c	0.10686013
54	0xbd467188	-0.048448116
55	0xbdeb10b6	-0.11477797
56	0x3d098a80	0.03357935
57	0xbdeccacc	-0.11562118
58	0x3c896710	0.016772777
59	0xbddd9bac	-0.10820708
60	0xbdfb0050	-0.12255919
61	0x3df09c22	0.1174853
62	0xbc5bb8a0	-0.013410717
63	0xbde2de0e	-0.1107751

weight f4 [10, 64]
0	0xbddbf07c	-0.10739228
1	0xbd3010a8	-0.042984635
2	0xbcd3b000	-0.02584076
3	0xbd1af96c	-0.037835523
4	0x3ddb7c06	0.10717015
5	0x3de72bda	0.11287661
6	0x3c18daf0	0.0093295425
7	0x3d50da38	0.05098936
8	0x3dfdedd6	0.12398879
9	0xbb65d380	-0.003506869
10	0x3d3def04	0.04637052
11	0x3dc7bee4	0.09753206
12	0xbd0fd214	-0.035112455
13	0xbdf590a2	-0.11990477
14	0xbdce08d4	-0.100602776
15	0xbd61d340	-0.055133104
16	0xbd093090	-0.03349358
17	0xbd600844	-0.054695383
18	0x3d29c7a4	0.041450158
19	0xbd4e05a0	-0.050298333
20	0x3c23b4c0	0.009991825
21	0xbda147e6	-0.07875042
22	0xbdea075c	-0.11427185
23	0x3df585a4	0.119883806
24	0xbd9f24ca	-0.07770689
25	0xbb3abe40	-0.0028494745
26	0x3d5d2e1c	0.05399905
27	0xbd4f3568	-0.05058804
28	0xbb915d60	-0.00443618
29	0xbd02afa0	-0.03190577
30	0x3cc21978	0.023693785
31	0xbcde99c0	-0.027172923
32	0xbc9c7b48	-0.019101754
33	0xbda78758	-0.08180112
34	0x3d486a10	0.048929274
35	0x3da9f56c	0.08298764
36	0x3c966330	0.018357843
37	0x3dd4b25e	0.10385583
38	0xbde4bc86	-0.111687705
39	0x3dfbf83a	0.12303205
40	0x3b31b700	0.0027117133
41	0x3d555344	0.05208136
42	0x3d041f68	0.032256514
43	0xbd6c5890	-0.057701647
44	0xbda12f36	-0.07870333
45	0xbd21fb60	-0.03954637
46	0xbda40cf4	-0.08010283
47	0x3d0b0ad4	0.033945873
48	0x3998e200	0.00029160082
49	0x3d064be4	0.03278722
50	0xbdc6853c	-0.09693381
51	0xbdc571b4	-0.09640828
52	0xbdab348e	-0.083596334
53	0xbd963b9a	-0.07335587
54	0x3d8c8800	0.068618774
55	0x3c59c810	0.0132923275
56	0x3d1042ac	0.035219833
57	0x3af89300	0.0018964708
58	0xbded9f0c	-0.116026014
59	0xbcf22438	-0.029558286
60	0xbdfb308c	-0.12265119
61	0xbc169db0	-0.009192869
62	0xbd9bc58e	-0.0760604
63	0xbd59650c	-0.05307488
64	0x3dad9f90	0.084777
65	0x3c9c3ca0	0.019071877
66	0x3df22a20	0.11824441
67	0xbc816a18	-0.01579766
68	0xbd8dfc7c	-0.06932923
69	0x3dfe6236	0.12421076
70	0x3d1dc618	0.038518995
71	0x3db8eedc	0.09029934
72	0x3de72efa	0.11288257
73	0xbd428fa4	-0.047500268
74	0x3d07b6bc	0.033133253
75	0xbdc2858a	-0.09498127
76	0xbd82e34a	-0.06391008
77	0xbdf02210	-0.11725247
78	0xbb2a7480	-0.002600938
79	0x3def5fc4	0.11688188
80	0x3d5dbeb8	0.05413696
81	0x3dc5be00	0.0965538
82	0xbdab4774	-0.08363238
83	0xbd92fc9a	-0.07177086
84	0x3decd5b0	0.11564195
85	0x3d9e3ed4	0.07726827
86	0x3cd4e318	0.025987193
87	0xbde0a76a	-0.10969432
88	0x3cc01da0	0.023451626
89	0x3dd38b08	0.103292525
90	0x3d76b778	0.060233563
91	0xbdaf0038	-0.085449636
92	0xbb6f2240	-0.003648892
93	0x3d6ce5d4	0.05783637
94	0x3d87d19e	0.06631778
95	0xbde3432e	-0.11096798
96	0xbddf4c96	-0.109032795
97	0xbde9ab60	-0.1140964
98	0x3d8c5b74	0.06853381
99	0x3d4455b0	0.04793328
100	0x3d2fcfd8	0.042922825
101	0x3cca7c08	0.024717346
102	0x3dae9e14	0.08526245
103	0x3cd66808	0.026172653
104	0xbd24ee44	-0.04026629
105	0x3dfda0a8	0.123841584
106	0x3c369290	0.011143342
107	0x3d908a48	0.07057625
108	0x3dea0fce	0.11428796
109	0x3ca9b178	0.020714507
110	0x3dd90efa	0.1059856
111	0xbc24eab0	-0.0100657195
112	0x3dd7b4dc	0.10532543
113	0x3d05eb74	0.03269525
114	0x3d140ec8	0.03614691
115	0x3df8dac6	0.12151103
116	0x3df814dc	0.121133536
117	0x3d7afeec	0.06127827
118	0xbd49f3e8	-0.049304873
119	0xbd7061bc	-0.058686957
120	0xbda67de8	-0.081294835
121	0x3dbb79e8	0.09154111
122	0x3b16cd80	0.002301067
123	0x3d6039ac	0.0547425
124	0xbdef0894	-0.11671558
125	0xbd390958	-0.045174927
126	0x3dbbaaa2	0.09163405
127	0xbd4379cc	-0.047723576
128	0x3c1a0ce0	0.009402484
129	0xbdc976b6	-0.098370954
130	0xbdff4648	-0.12464577
131	0x3d9c35c6	0.07627444
132	0xbde1003a	-0.10986371
133	0xbbc41460	-0.005983874
134	0x3c799310	0.015232816
135	0x3dc3b220	0.09555459
136	0x3d855b64	0.06511572
137	0x3d33547c	0.043781742
138	0x3d2085f8	0.039190263
139	0xbdd65e10	-0.1046716
140	0xbdd31fb2	-0.1030878
141	0xbda6b6dc	-0.081403464
142	0xbd8bda1a	-0.06828709
143	0xbd182b8c	-0.037150905
144	0x3d9907c8	0.07472187
145	0x3be52b00	0.0069936514
146	0xbcccc308	-0.024995342
147	0x3da6580c	0.08122262
148	0x3b09bb80	0.00210163
149	0xbd28d970	-0.04122299
150	0x3c5ab710	0.01334931
151	0xbcfac538	-0.03061162
152	0xbd2743fc	-0.04083632
153	0x3d4a3e28	0.049375683
154	0xbd36bb68	-0.04461232
155	0xbc171cf0	-0.009223208
156	0x3dd02078	0.10162443
157	0x3d926538	0.07148212
158	0xbdf61d74	-0.120173365
159	0x3de49a00	0.11162186
160	0xbcd8e660	-0.026477039
161	0x3dd877f0	0.10569751
162	0xbda8903c	-0.082306355
163	0xbdb9b33e	-0.09067391
164	0x3d8ca238	0.06866878
165	0xbdca1190	-0.09866631
166	0x3dcb7ec0	0.09936285
167	0x3c75def0	0.015006766
168	0x3d216470	0.039402425
169	0xbd63c1cc	-0.05560474
170	0xb9aa1800	-0.00032442808
171	0x3d47db3c	0.048793063
172	0x3d07c064	0.033142462
173	0x3d275d98	0.040860742
174	0x3bac4340	0.0052570403
175	0x3d6bd904	0.05758001
176	0x3d0569cc	0.0325716
177	0xbd0a584c	-0.033775613
178	0xbd4bd1b8	-0.04976055
179	0x3d6a58ec	0.05721371
180	0xbda07008	-0.07833868
181	0x3d2a96e8	0.04164782
182	0x3db45e3e	0.08807038
183	0x3cf12350	0.029435784
184	0xbc677520	-0.014127046
185	0x3cf903e8	0.03039737
186	0x3d871c98	0.06597251
187	0xbd842ca6	-0.064538285
188	0xbc937d80	-0.018004179
189	0x3b23a1c0	0.0024968237
190	0xbc4132f0	-0.01179193
191	0x3dae9280	0.085240364
192	0x3d8c7388	0.06857973
193	0xbd76c434	-0.060245708
194	0x3bfad9e0	0.0076553673
195	0x3daed81a	0.08537312
196	0x3cae7fe8	0.021301225
197	0xbdcecf56	-0.1009814
198	0x3b5ea2c0	0.0033971518
199	0xbd38c4a4	-0.045109406
200	0xbde5aeb4	-0.112149626
201	0x3d06e924	0.032937184
202	0x3d8bff74	0.06835833
203	0x3dbd3338	0.09238285
204	0x3df426d6	0.1192147
205	0xbdf8b352	-0.12143578
206	0xbdb99962	-0.090624586
207	0xbd950fea	-0.07278426
208	0x3dce9894	0.10087696
209	0x3c8e2de8	0.017355874
210	0xbc0b54c0	-0.008504093
211	0xbd823a68	-0.06358796
212	0xbd51d9d8	-0.051233143
213	0x3cafcbf8	0.021459565
214	0xbcac5008	-0.021034256
215	0x3df77738	0.12083286
216	0xbdf5708a	-0.11984356
217	0xbdac0aee	-0.08400522
218	0xbdb728ee	-0.089433536
219	0x3db78f5a	0.08962889
220	0x3d57a03c	0.052643046
221	0x3bbc2e20	0.005742803
222	0xbd66a380	-0.05630827
223	0x3d2b3570	0.04179901
224	0xbdf621e0	-0.1201818
225	0x3de8db84	0.11369994
226	0x3d8a34bc	0.067483395
227	0xbd987140	-0.07443476
228	0x3d542cac	0.051800415
229	0xbdfce778	-0.12348837
230	0xbcd68de0	-0.026190698
231	0x3c86e3b8	0.016466007
232	0xbd187f00	-0.03723049
233	0x3d8e6f54	0.06954828
234	0x3d8d1150	0.06888068
235	0x3beb9a00	0.007189989
236	0x3dacdb28	0.08440238
237	0x3dd91d88	0.10601336
238	0xbd91bcdc	-0.071161
239	0x3b87fbc0	0.004149884
240	0xbc53e8b0	-0.012933895
241	0x3dc7f4ec	0.09763512
242	0x3d58b3fc	0.05290602
243	0x3bc162a0	0.0059016496
244	0x3c49ad70	0.012309417
245	0x3dddccd0	0.108300805
246	0xbd0c9cc0	-0.034329176
247	0xbd9060ea	-0.07049735
248	0xbd387dbc	-0.045041785
249	0x3d9033e2	0.07041146
250	0x3daee120	0.08539033
251	0x3b057b40	0.0020367652
252	0x3dc1f178	0.09469885
253	0x3deb2e88	0.114834845
254	0x3d75e530	0.060033023
255	0xbd537d54	-0.051633194

bias f4 [10]
0	0xbbae6960	-0.0053226203
1	0xbcddad58	-0.027060196
2	0x3d23e6d4	0.040015057
3	0xbc2f5720	-0.010701925
4	0x3dc07af2	0.0939845
5	0xbd6cd38c	-0.057818934
6	0xbda27ae0	-0.07933593
7	0x3da1ddf0	0.07903659
8	0x3d8a2b8e	0.06746589
9	0xbde74716	-0.112928554

weight f4 [2, 64]
0	0xbd3e84b8	-0.04651329
1	0xbde2044e	-0.11035977
2	0xbc994070	-0.018707484
3	0x3c3646a0	0.011125237
4	0xbd595648	-0.0530608
5	0x3cf96848	0.030445233
6	0x3da0efd6	0.07858245
7	0xbdd9eb6c	-0.10640606
8	0xbcc12028	-0.023574904
9	0x3b68d540	0.0035527498
10	0x3bef1de0	0.0072972625
11	0xbd14fa48	-0.0363715
12	0xbcb8a6d8	-0.022540495
13	0xbde9cc76	-0.11415951
14	0x3dabc9c0	0.0838809
15	0xbd97475a	-0.07386656
16	0xbc53faf0	-0.012938246
17	0xbdc2dd6c	-0.09514889
18	0x3dadf250	0.08493483
19	0x3d190440	0.03735757
20	0x3cf8b118	0.030357882
21	0xbd2b6b80	-0.041850567
22	0xbdb61426	-0.08890562
23	0x3d48fd9c	0.049069986
24	0x3d725548	0.05916336
25	0x3c077a90	0.008268967
26	0x3d115428	0.03548065
27	0x3caa46f8	0.020785794
28	0xbd8382e6	-0.06421451
29	0x3d11ed6c	0.035626814
30	0x3d893cc2	0.06701042
31	0xbaed6480	-0.0018111616
32	0x3de33fd8	0.110961616
33	0xbdd631be	-0.10458706
34	0xbdca6974	-0.09883395
35	0xbcc75b60	-0.024335563
36	0x3df18248	0.11792427
37	0x3a4e7500	0.0007875711
38	0xbd735efc	-0.059416756
39	0x3d45add0	0.048261464
40	0x3dbf024e	0.093266115
41	0xbdb571cc	-0.08859596
42	0xbdd89940	-0.10576105
43	0x3dcbb04e	0.09945737
44	0xbda404b4	-0.080087095
45	0xbd76b7d8	-0.06023392
46	0xbdbce736	-0.092237875
47	0xbd3c1464	-0.045917884
48	0xbdea12d8	-0.114293754
49	0xbdd718a6	-0.10502748
50	0x3d9f22b4	0.07770291
51	0xbdf3590e	-0.1188222
52	0x3da0eedc	0.07858059
53	0xbd5ba2bc	-0.053621992
54	0x3d9b4186	0.07580857
55	0x3c625950	0.013815239
56	0x3c84cc98	0.01621084
57	0xbd002340	-0.031283617
58	0x3daf360e	0.08555232
59	0x3d117a14	0.035516813
60	0x3dcf6054	0.10125795
61	0xbd0ed704	-0.034873024
62	0x3dcfeb12	0.10152258
63	0x3d4ef088	0.050522357
64	0xbbd0b460	-0.0063691586
65	0x3deae404	0.11469272
66	0xbd601190	-0.05470425
67	0xbdc3c90e	-0.095598325
68	0xbd95e0aa	-0.07318242
69	0xbde46634	-0.11152306
70	0x3d71c10c	0.059021994
71	0x3ccfc418	0.02536206
72	0x3d609c88	0.05483678
73	0x3df59d2a	0.11992867
74	0x3dbf5006	0.09341435
75	0xbd4301d4	-0.047609165
76	0xbdb84a76	-0.08998577
77	0xbda8e80a	-0.08247383
78	0xbdf89724	-0.12138203
79	0x3dc86542	0.097849384
80	0xbc916920	-0.017750323
81	0xbd4815f8	-0.048849076
82	0x3d7b9380	0.061419964
83	0xbcb39680	-0.02192235
84	0x3dae5af4	0.08513442
85	0xbdfd95ca	-0.123820856
86	0x3d84d0aa	0.06485112
87	0xbdfb1e04	-0.122615844
88	0x3def53ea	0.11685927
89	0xbcddc6d8	-0.027072355
90	0xbd3f9214	-0.04677017
91	0xbdf40b32	-0.11916198
92	0xbc1a2540	-0.009408295
93	0xbdabd03c	-0.08389327
94	0x3dfab47a	0.122414544
95	0x3c512840	0.012765944
96	0x3c2422d0	0.010018066
97	0x3df25866	0.11833267
98	0x3dab99cc	0.08378944
99	0x3cca3408	0.024683014
100	0x3cd971b8	0.026543483
101	0xbd9230e4	-0.071382314
102	0xbde38f92	-0.11111368
103	0x3dc7f846	0.09764151
104	0x3d466d6c	0.048444197
105	0x3dddb6e0	0.10825896
106	0xbc7d38d0	-0.01545544
107	0x3dc7acb0	0.097497344
108	0xbd91a2ce	-0.07111131
109	0x3da9e626	0.082958505
110	0xbd78e534	-0.06076546
111	0xbbd9c9a0	-0.00664635
112	0xbdd56cf6	-0.10421173
113	0xbcdf0f40	-0.027228951
114	0xbd787c54	-0.060665444
115	0x3dd4236a	0.10358317
116	0xbd67e670	-0.056616247
117	0xbd290aac	-0.041269943
118	0xbdcd89fe	-0.100360855
119	0x3c882f28	0.016624048
120	0xbd93542c	-0.07193789
121	0xbdac083c	-0.08400008
122	0x3cc319a8	0.023815945
123	0xbcad9b18	-0.021192119
124	0x3d9782b4	0.073979765
125	0x3dee40fc	0.116334885
126	0x3dd2bcaa	0.10289891
127	0xbcd6f750	-0.026240975

bias f4 [2]
0	0x3d8f398e	0.069933996
1	0xbdfcb37a	-0.1233892

weight f4 [64, 30]
0	0x3d7e523c	0.062090144
1	0xbe0879da	-0.13327733
2	0xbccbbee0	-0.02487129
3	0x3ba26500	0.004955888
4	0x3dabd36c	0.08389935
5	0x3d542a6c	0.05179827
6	0x3c5da420	0.0135279
7	0xbd2a3dbc	-0.04156278
8	0x3d512820	0.051063657
9	0xbcb45378	-0.022012457
10	0xbdd17ea4	-0.10229233
11	0x3cb29768	0.021800712
12	0x3d010840	0.03150201
13	0xbe073d7e	-0.13207051
14	0xbe06df92	-0.13171223
15	0xbd8cb16a	-0.068697765
16	0xbcf352e0	-0.029702604
17	0x3e2f4ca4	0.1711908
18	0xbbffb560	-0.007803604
19	0xbdd5df74	-0.10443011
20	0xbacfee00	-0.0015863776
21	0xbd0e5ee0	-0.03475845
22	0xbc9ca618	-0.019122168
23	0xbd3c73f8	-0.046009034
24	0xbe271a74	-0.16318685
25	0xbe1d218b	-0.15344827
26	0x3dbb5d1c	0.091486186
27	0xbe024321	-0.1272092
28	0xbe2b01fc	-0.16699976
29	0xbd132548	-0.035924226
30	0xbe351b2e	-0.1768615
31	0x3b4dd180	0.003140539
32	0xbd701394	-0.05861242
33	0xbd44c32c	-0.048037693
34	0x3e0b7744	0.13619715
35	0x3d7a4ec4	0.061110273
36	0x3c620390	0.013794795
37	0x3cf20400	0.029542923
38	0x3c923b90	0.017850667
39	0x3e0b2c3c	0.13591093
40	0x3dc9d3d8	0.09854859
41	0x3e2965da	0.1654276
42	0x3e116e50	0.14202237
43	0x3d6f5944	0.05843474
44	0xbb0d55c0	-0.0021566004
45	0x3cc24d48	0.023718491
46	0xbda3f39a	-0.08005448
47	0xbd8a9bc0	-0.06767988
48	0x3dca49ec	0.09877381
49	0x3b3c5280	0.0028735697
50	0xbd2117ec	-0.039329454
51	0x3dddd080	0.10830784
52	0xbe00e4df	-0.12587307
53	0x3c0b2880	0.008493543
54	0xbe0daa50	-0.138345
55	0x3c185030	0.009296462
56	0xbdac3a0b	-0.08409508
57	0xbd43a9e4	-0.047769442
58	0x3de4b710	0.11167729
59	0xbd0a04f0	-0.033696115
60	0x3e1dda34	0.15415269
61	0xbdc6da33	-0.09709587
62	0xbe11f657	-0.14254127
63	0x3db31aa0	0.08745313
64	0xbc583920	-0.013197213
65	0xbd7f8972	-0.062386937
66	0xbcef60c8	-0.029220954
67	0xbb270780	-0.0025486648
68	0x3e014050	0.1262219
69	0xbe063fa0	-0.13110209
70	0xbd981bbb	-0.07427164
71	0xbbbf4600	-0.005837202
72	0x3e1a96ae	0.15096542
73	0xbe3a07f9	-0.18167104
74	0x3cc62c58	0.024191067
75	0x3d63cc9c	0.055615053
76	0xbe05b42d	-0.13057013
77	0x3ded7a90	0.115956426
78	0x3bdfa400	0.0068249702
79	0x3ca72748	0.020404473
80	0xbccb5a58	-0.024823353
81	0xbc7f9820	-0.015600234
82	0x3d08f264	0.033434287
83	0xbdb6ce08	-0.08926016
84	0xbe0d0f49	-0.13775362
85	0x3dcbf53c	0.09958884
86	0xbdf60e8c	-0.12014493
87	0x3d157f00	0.03649807
88	0x3e01ea0c	0.12686938
89	0x3dfac708	0.122449934
90	0x3b5bac40	0.0033519417
91	0x3dccada4	0.09994057
92	0xbdb2aa85	-0.0872393
93	0x3ddebef4	0.10876265
94	0xbe04d9dc	-0.12973732
95	0x3d97fb94	0.074210316
96	0xbc265740	-0.010152638
97	0x3e1c9430	0.15290904
98	0x3bfe9500	0.007769227
99	0xbda73508	-0.08164412
100	0xbd56dd08	-0.052456886
101	0x3d0d5fe4	0.034515277
102	0x3caee370	0.021348685
103	0x3db67a1c	0.08910009
104	0xbdfa0d4e	-0.12209569
105	0x3d7e392c	0.062066242
106	0x3e05814a	0.13037601
107	0xbe0d2214	-0.13782531
108	0x3e112fc0	0.14178371
109	0xbd102d34	-0.03519936
110	0x3db6e6e8	0.089307606
111	0xbdc97adf	-0.09837889
112	0x3dd428a4	0.10359314
113	0xbe367cc3	-0.1782103
114	0x3dd05f54	0.101744324
115	0xbbc2e920	-0.005948201
116	0xbd84eae6	-0.06490116
117	0x3dca94a8	0.09891635
118	0xbd79e20c	-0.06100659
119	0x3c885610	0.0166426
120	0x3e0a1e44	0.13488108
121	0x3ccd8970	0.02508995
122	0x3d9c6068	0.076355755
123	0xbd674db0	-0.056470573
124	0x3d712778	0.05887553
125	0x3d8e432c	0.06946406
126	0xbde1ef57	-0.110319786
127	0xbd8aa2f9	-0.06769366
128	0x3da3db20	0.08000779
129	0xbc6908c0	-0.014223278
130	0xbd63037c	-0.055423245
131	0xbe10355e	-0.14082858
132	0x3cc13368	0.023584083
133	0x3e31e0e8	0.17370951
134	0x3e160f98	0.14654386
135	0x3ced2508	0.028948322
136	0xbd09d0f4	-0.03364654
137	0xbd9ec3e6	-0.077522084
138	0x3dda04f8	0.10645479
139	0xbe360ac6	-0.17777547
140	0x3e1d405c	0.15356582
141	0x3d76a118	0.060212225
142	0x3dc0bdc0	0.09411192
143	0xbde37fc6	-0.11108355
144	0xbd20493c	-0.03913234
145	0x3e1e63f6	0.1546782
146	0xbe0adf72	-0.135618
147	0x3e2e49f6	0.17020401
148	0xbe1e6374	-0.15467626
149	0x3c2abdd0	0.010421231
150	0x3bbd50e0	0.0057774633
151	0xbdbbc7fd	-0.09169004
152	0xbcc21690	-0.0236924
153	0xbe194980	-0.14969444
154	0x3cf15c80	0.029463053
155	0x3c77af20	0.015117437
156	0x3e296496	0.16542277
157	0x3e218d60	0.15776587
158	0x3d4989dc	0.04920374
159	0x3d863a46	0.065540835
160	0x3d734288	0.05938962
161	0xbd98c2cc	-0.074590296
162	0x3e1324ea	0.1436955
163	0x3d1b9144	0.037980333
164	0xbd0dad64	-0.034589186
165	0xbe206e7e	-0.1566715
166	0x3e1a3d38	0.15062416
167	0x3e39aca8	0.1813227
168	0x3cddade8	0.027060464
169	0x3d884f36	0.06655733
170	0x3da8ef9c	0.08248827
171	0x3b757480	0.0037453473
172	0xbc797da0	-0.015227705
173	0xbca58568	-0.020205215
174	0xbe15e4e0	-0.1463809
175	0xbd5dacb8	-0.054119796
176	0x3e35aa28	0.1774069
177	0xbd8ef764	-0.0698078
178	0xbd9d3d31	-0.07677687
179	0x3cbbd020	0.02292639
180	0x3e00e898	0.12588727
181	0x3d630fb8	0.055434912
182	0xbdcded91	-0.10055078
183	0x3e36d00c	0.17852801
184	0x3c11ac20	0.008891135
185	0xbe010029	-0.12597717
186	0x3cc9bb50	0.02462545
187	0x3e36a1aa	0.17835107
188	0x3deb11fc	0.114780396
189	0x3cc70340	0.024293542
190	0x3e364dc0	0.17803097
191	0x3d70cd08	0.058789283
192	0xbe28e679	-0.16494168
193	0x3dcf652c	0.10126719
194	0xbde5128e	-0.1118518
195	0xbc8e80a8	-0.017395332
196	0xbd4830b0	-0.048874557
197	0xbdd2ed92	-0.10299219
198	0x3d7565ac	0.059911415
199	0xbcc2e248	-0.02378954
200	0x3e28422a	0.1643149
201	0x3d7e9748	0.06215599
202	0x3d305930	0.043053806
203	0x3da385b0	0.07984483
204	0x3d817c02	0.06322481
205	0xbdedb723	-0.11607196
206	0xbe289a6e	-0.1646516
207	0xbe2c26f7	-0.16811739
208	0xbd40e3d4	-0.047092274
209	0xbde5d66c	-0.11222538
210	0x3e269b34	0.16270143
211	0xbe1aee96	-0.15130076
212	0x3ddf1270	0.108921885
213	0x3e1d1e7e	0.15343663
214	0xbdd8da22	-0.105884805
215	0xbd6158ac	-0.055016205
216	0x3de23170	0.11044586
217	0x3df6f260	0.12057948
218	0x3d0df77c	0.034659848
219	0xbdc789f9	-0.09743113
220	0xbd9f5da4	-0.077815324
221	0x3c68e270	0.014214143
222	0xbca41440	-0.020029187
223	0x3e070eda	0.13189259
224	0x3d782da0	0.060590386
225	0x3c976c70	0.018484324
226	0x3e0ceab6	0.1376141
227	0x3dd68164	0.10473898
228	0xbd8a7c1e	-0.06761955
229	0xbdfe6ab4	-0.12422696
230	0xbcc8c258	-0.024506733
231	0xbd13d90c	-0.036095664
232	0x3d154c48	0.0364497
233	0x3e28dec0	0.16491222
234	0xbe32bff7	-0.17456041
235	0xbca378f8	-0.019955143
236	0x3db404d0	0.087899804
237	0x3e393e3a	0.18090144
238	0xba7b9800	-0.000959754
239	0x3e1f8878	0.15579402
240	0xbcd48770	-0.025943488
241	0x3cf42cc0	0.029806495
242	0xbe2b017d	-0.16699786
243	0xbb10d140	-0.002209738
244	0x3d52b798	0.05144462
245	0xbe0a8ab6	-0.13529477
246	0xbe12749b	-0.14302294
247	0xbba10800	-0.0049142838
248	0xbb84b620	-0.0040500313
249	0xbdfb74f4	-0.122781664
250	0xbdcbe058	-0.099548995
251	0xbe260a9e	-0.16214988
252	0xbcbae2f8	-0.022813305
253	0x3d9382c8	0.07202679
254	0x3d8e22a4	0.06940201
255	0x3d1e36d4	0.038626507

bias f4 [64]
0	0xbc9ddcf8	-0.019270405
1	0xbbdcaa80	-0.0067341924
2	0xbe1776a6	-0.14791355
3	0xbd7a3838	-0.06108877
4	0xbba071c0	-0.0048963726
5	0xbcba2878	-0.022724375
6	0x3e092ddc	0.133964
7	0x3e372d24	0.17888314
8	0xbe15a68c	-0.14614314
9	0x3df0e244	0.11761907
10	0xbdf9795a	-0.12181349
11	0xbe0b1d9e	-0.13585517
12	0xbe1a24df	-0.15053128
13	0x3da6ffe8	0.08154279
14	0x3e17e518	0.14833486
15	0xbdba2974	-0.09089938
16	0xbe2d91b6	-0.16950116
17	0xbcf03900	-0.029324055
18	0xbd453ee4	-0.04815568
19	0xbe344f64	-0.1760841
20	0x3e24bdca	0.16088024
21	0xbd48c9fc	-0.049020752
22	0xbc679070	-0.014133558
23	0xbe37ca55	-0.17948277
24	0x3d305bec	0.043056414
25	0xbe21fca2	-0.15819028
26	0xbcf39f60	-0.029739082
27	0x3d90aad4	0.07063833
28	0x3e0c0804	0.13674933
29	0x3d98d0e8	0.07461721
30	0x3dfc5ae0	0.123220205
31	0xbd6c58b8	-0.057701796
32	0x3dac1528	0.08402473
33	0xbd63999c	-0.055566415
34	0x3e0431f4	0.1290968
35	0xbbedd7c0	-0.0072583854
36	0xbdb96db0	-0.09054124
37	0x3ddc7ddc	0.10766193
38	0xbdd380c8	-0.103272974
39	0x3e33e022	0.17565969
40	0x3d57a94c	0.05265169
41	0x3d597f48	0.0530999
42	0x3d5b8e24	0.053602353
43	0xbe0651c4	-0.13117129
44	0xbe210cb5	-0.15727504
45	0x3e2f7112	0.17132977
46	0xbbfef980	-0.0077812076
47	0x3e0cba92	0.13743046
48	0x3dcd9674	0.10038462
49	0xbdbf0b2c	-0.09328303
50	0xbdedcc9f	-0.11611294
51	0xbcde13b0	-0.027108997
52	0xbdb0beea	-0.08630164
53	0x3dc28ab8	0.09499115
54	0x3d7019e0	0.058618426
55	0xbc9bc360	-0.01901406
56	0xbe2f16ca	-0.17098537
57	0xbe02dc81	-0.12779428
58	0x3d8fab3c	0.07015082
59	0x3d8c9e48	0.06866127
60	0xbbed8d40	-0.0072495043
61	0x3cb49648	0.022044316
62	0xbd5d61bc	-0.054048285
63	0xbda75056	-0.0816962

weight f4 [64, 64]
0	0xbd18e094	-0.03732355
1	0x3ca412c8	0.020028487
2	0x3de5f716	0.112287685
3	0x3d0e4e2c	0.03474252
4	0xbcedcc28	-0.029028013
5	0x3d80b602	0.06284715
6	0x3d0dd3b8	0.03462574
7	0xbdd0ea02	-0.102008834
8	0x3c7c3740	0.015394032
9	0x3df9f402	0.12204744
10	0xbcf5c320	-0.03000027
11	0x3d9bf77c	0.07615563
12	0xbdefcf54	-0.117094666
13	0x3bb89700	0.005633235
14	0xbdd96fe2	-0.10617043
15	0x3d76bb04	0.060236946
16	0x3dd2f562	0.10300709
17	0x3dcf9d58	0.10137433
18	0x3d8dd538	0.06925434
19	0x3bdbee60	0.006711766
20	0x3d943fe6	0.0723875
21	0x3d00ab8c	0.0314136
22	0x3dd146a6	0.10218553
23	0xbd215f40	-0.039397478
24	0x3d8d7cc4	0.06908563
25	0x3ddcae32	0.107754126
26	0xbd23ef30	-0.04002303
27	0xbd9e9576	-0.07743351
28	0xbd292308	-0.041293174
29	0xbd2bbd94	-0.041928843
30	0x3cea6e20	0.028616965
31	0xbd8221d4	-0.063541085
32	0xbd58eb80	-0.052958965
33	0xbd46b9f8	-0.048517197
34	0xbd82c0e4	-0.06384447
35	0xbcbaa7e8	-0.022785142
36	0x3dafd3ce	0.085853204
37	0x3cd8dce8	0.026472524
38	0xbd9582b0	-0.07300317
39	0xbb205400	-0.002446413
40	0xbc95dd50	-0.018294007
41	0x3c7e1ef0	0.015510306
42	0x3df5f494	0.1200954
43	0x3d95b800	0.07310486
44	0x3bdbebe0	0.006711468
45	0xbddd9eaa	-0.108212784
46	0xbdfd6868	-0.123734295
47	0xbdfe2dbe	-0.124110684
48	0xbd3346b8	-0.043768615
49	0xbd48702c	-0.0489351
50	0x3ddea720	0.1087172
51	0x3d14b934	0.036309436
52	0x3bb09280	0.005388558
53	0x3db42278	0.08795637
54	0x3bd491a0	0.0064870864
55	0x3caaa348	0.020829812
56	0x39d78c00	0.00041112304
57	0xbd552f98	-0.052047342
58	0x3d94e646	0.07270484
59	0x3bdedac0	0.0068009794
60	0xbd92c7e4	-0.07167032
61	0xbd87ce0a	-0.06631096
62	0x3da69d00	0.08135414
63	0x3dfb5c80	0.12273502
64	0xbd590bb8	-0.05298969
65	0x3da874bc	0.0822539
66	0xbd38b36c	-0.045092985
67	0x3c5d5fb0	0.013511583
68	0xbdb8b83a	-0.090195134
69	0x3deb01ec	0.11474976
70	0x3c848970	0.016178817
71	0x3dcc6162	0.09979512
72	0x3c8edc90	0.017439157
73	0x3c797240	0.015224993
74	0x3d0dc868	0.03461495
75	0x3d3b1794	0.045676783
76	0xbdd17c42	-0.102287784
77	0x3d0d8420	0.034549832
78	0xbd89e71a	-0.06733532
79	0xbcb36670	-0.021899432
80	0x3d7e2d84	0.062055126
81	0x3dbf2532	0.09333266
82	0x3d31cd6c	0.043408796
83	0x3debbcee	0.11510645
84	0xbd49f22c	-0.04930322
85	0xbcd2faf8	-0.025754437
86	0xbd8e2b9c	-0.069419116
87	0xbda7ae56	-0.08187549
88	0xbdc4a624	-0.09602001
89	0xbc51cbf0	-0.01280497
90	0xbd46c6a4	-0.048529282
91	0xbdfe2c7a	-0.12410827
92	0x3d6e1854	0.05812867
93	0xbdd8bb8c	-0.10582647
94	0x3ca04f38	0.019569024
95	0x3b504c40	0.003178373
96	0x3d338818	0.04383096
97	0x3ded1f70	0.11578262
98	0xbc53b0b0	-0.012920544
99	0x3d4cf358	0.05003676
100	0xbd0c8200	-0.034303665
101	0x3dcf070a	0.101087645
102	0x3d2cd434	0.04219456
103	0x3d9426c6	0.07233958
104	0x3d4792cc	0.04872398
105	0xbdb8a54c	-0.09015903
106	0x3bdf8d00	0.0068222284
107	0xba998d00	-0.0011714995
108	0xbdb85840	-0.09001207
109	0xbd0eaf78	-0.03483531
110	0x3d2d1cb0	0.042263687
111	0xbd6eaecc	-0.058272168
112	0xbd274d40	-0.040845156
113	0xbd237128	-0.039902836
114	0xbdbbd016	-0.091705486
115	0xbda10f7a	-0.0786428
116	0x3bb45f40	0.0055045187
117	0xbd2fb034	-0.04289265
118	0xbdefcce0	-0.11708999
119	0xbd2a95ac	-0.041646644
120	0x3dc72a4e	0.09724866
121	0xbd344a44	-0.044016138
122	0x3da88824	0.08229092
123	0xbdda396e	-0.10655485
124	0x3df70982	0.1206236
125	0x3d28723c	0.041124567
126	0xbd9daaf0	-0.07698619
127	0xbdd46494	-0.10370746
128	0x3c101a60	0.008795351
129	0x3dcde9f6	0.1005439
130	0xbcaed070	-0.021339625
131	0xbc479dd0	-0.0121836215
132	0xbd719a94	-0.058985308
133	0x3d187ea4	0.03723015
134	0x3d9f6282	0.07782461
135	0x3b236f00	0.0024937987
136	0x3d1726a0	0.03690207
137	0x3ddf200e	0.10894786
138	0x3dc08436	0.09400217
139	0xbd65a620	-0.056066632
140	0x3cb64cf0	0.022253484
141	0x3dde6bfc	0.1086044
142	0x3df568aa	0.11982854
143	0xbd334820	-0.043769956
144	0x3dd56ad0	0.104207635
145	0x3b9e7360	0.004835531
146	0xbd0ecbb0	-0.03486222
147	0x3ab1e400	0.0013571978
148	0x3ba98420	0.005173221
149	0xbcb94138	-0.022614107
150	0xbd48c87c	-0.04901932
151	0xbdd60254	-0.10449663
152	0xbdf37a9e	-0.11888622
153	0xbc8c9b68	-0.017163947
154	0x3d12a60c	0.035802886
155	0x3d6faadc	0.058512554
156	0x3d217b88	0.03942445
157	0x3d96ad82	0.07357313
158	0xbdac660e	-0.08417903
159	0xbdbc34ce	-0.09189759
160	0x3c82cea0	0.015967667
161	0x3c8eaab0	0.017415375
162	0xbbb2bbe0	-0.0054545254
163	0xbd573c2c	-0.05254762
164	0x3d40fce0	0.04711616
165	0xbd0d63b0	-0.034518898
166	0xbd83abe4	-0.0642927
167	0xbdc4e6e6	-0.09614353
168	0xbdddb86a	-0.1082619
169	0xbcb00428	-0.021486357
170	0x3c2fc380	0.010727763
171	0xbd597628	-0.0530912
172	0xbcc7b2a8	-0.024377182
173	0xbd2a2a8c	-0.041544482
174	0xbd8803c8	-0.06641346
175	0x3dbf1c1a	0.09331532
176	0xbc903648	-0.017604008
177	0xbd97d346	-0.07413344
178	0xbdb2161c	-0.08695623
179	0x3d00a32c	0.031405613
180	0xbc9ddfe0	-0.019271791
181	0x3cd20c30	0.025640577
182	0x3d507e88	0.05090192
183	0xbc94c258	-0.018159077
184	0xbdc429b6	-0.09578268
185	0x3da05ae6	0.078298375
186	0x3c1cac40	0.009562552
187	0x3cf1d900	0.029522419
188	0xbdbbe330	-0.09174192
189	0x3dcef9da	0.10106249
190	0xbd969d48	-0.07354218
191	0xbd016704	-0.031592384
192	0xbd9aeeca	-0.07565077
193	0x3d756c18	0.05991754
194	0xbdf21fc4	-0.11822465
195	0xbda105f6	-0.07862465
196	0xbd741618	-0.059591383
197	0x3df1d75c	0.11808655
198	0x3d084190	0.03326565
199	0x3c4b4fb0	0.012409136
200	0xbdb1fd08	-0.0869084
201	0xbb93f880	-0.0045157075
202	0x3dac9070	0.08425987
203	0xbdca0abc	-0.09865329
204	0xbdb04e08	-0.08608633
205	0x3d950e38	0.07278103
206	0xbc9fd320	-0.019509852
207	0xbdb0e60c	-0.08637628
208	0xbdd0d272	-0.10196389
209	0xbda62bc0	-0.081138134
210	0x3d68093c	0.05664943
211	0xbd22cfb8	-0.039748877
212	0x3d4699f4	0.048486665
213	0x3c884f58	0.016639397
214	0xbcd49488	-0.025949731
215	0x3db89c0a	0.09014137
216	0xbcf86fc0	-0.030326724
217	0xbd7c74b8	-0.06163475
218	0x3c6b55d0	0.014363721
219	0xbd4de15c	-0.050263748
220	0x3dae025e	0.08496545
221	0x3df9272c	0.121656746
222	0x3d70ae50	0.058759987
223	0xbdc6736e	-0.09689985
224	0xbb7d6e80	-0.00386706
225	0xbcace8b0	-0.021107048
226	0x3c678340	0.0141304135
227	0x3d33b6a4	0.04387535
228	0xbdb9d674	-0.09074107
229	0xbc0f3010	-0.008739486
230	0x3c4c0160	0.0124515
231	0x3dfbd254	0.12295976
232	0x3df4f53c	0.11960837
233	0x3db5931e	0.08865951
234	0xbd8de4dc	-0.06928417
235	0xbdc6b606	-0.09702687
236	0xbc56b6b0	-0.0131050795
237	0xbd0991b4	-0.03358622
238	0x3c41fe50	0.011840418
239	0xbdd5f632	-0.10447349
240	0xbbbcbaa0	-0.005759552
241	0x3de6bf94	0.112670094
242	0x3dffb3c6	0.12485461
243	0xbda5fee0	-0.08105254
244	0x3dd50520	0.10401368
245	0xbd507814	-0.050895765
246	0xbd31c68c	-0.04340224
247	0xbdadd262	-0.08487393
248	0xbd8ccf96	-0.068755314
249	0xbbe420e0	-0.006961927
250	0xbd96e0e0	-0.0736711
251	0xbd6db7ec	-0.05803673
252	0x3dabdffe	0.083923325
253	0x3d9d0438	0.0766682
254	0xbdc92cee	-0.09823023
255	0x3d6c2430	0.0576517

bias f4 [64]
0	0x3d27e798	0.04099235
1	0xbc788ea0	-0.015170723
2	0xbdd8aa06	-0.105793044
3	0x3c86cfa8	0.01645644
4	0x3c8fd468	0.017557338
5	0xbd8e6e84	-0.06954673
6	0xbdf39706	-0.1189404
7	0x3dac8bc4	0.08425096
8	0xbc7eade0	-0.015544385
9	0xbdbdd294	-0.0926868
10	0xbba0d2c0	-0.004907936
11	0xbd18fba8	-0.037349373
12	0xbdaf00dc	-0.08545086
13	0x3c013dc0	0.0078882575
14	0x3d8a0006	0.06738286
15	0x3d9318a2	0.07182433
16	0xbd61f578	-0.055165738
17	0x3dd8c3c6	0.10584216
18	0x3d0bef8c	0.034163997
19	0xbda0d5da	-0.07853289
20	0x3dcfb770	0.1014241
21	0x3dbcf326	0.092260644
22	0x3b826760	0.0039796084
23	0x3dd8c198	0.105838
24	0x3d9f047c	0.07764527
25	0x3d553c14	0.052059248
26	0x3de07d8a	0.10961445
27	0x3c088eb0	0.008334801
28	0x3dfa7036	0.12228434
29	0x3d18b298	0.037279695
30	0xbd3f2cf8	-0.046673745
31	0x3dd33ac4	0.10313943
32	0xbd192558	-0.03738913
33	0x3d657690	0.056021273
34	0xbcff20c8	-0.031143561
35	0xbdfc1968	-0.12309533
36	0xbd50a7e4	-0.050941363
37	0xbd28edf8	-0.04124257
38	0x3df76822	0.12080409
39	0xbd020940	-0.031747103
40	0xbde1e8d2	-0.11030735
41	0x3cac9ea8	0.021071747
42	0xbd7a1a1c	-0.061060056
43	0x3be548c0	0.006997198
44	0x3c0a36f0	0.00843595
45	0x3de44920	0.1114676
46	0xbdb453a2	-0.08805014
47	0xbab66e80	-0.001391843
48	0x3c9032d8	0.01760237
49	0x3b4a7e00	0.0030897856
50	0x3d9847ca	0.07435568
51	0x3dd80eec	0.10549721
52	0x3a88e700	0.001044482
53	0xbd13e8a8	-0.03611055
54	0xbc84a540	-0.016192079
55	0x3cbe4d08	0.02323009
56	0x3de1c91a	0.11024685
57	0xbcbe60f0	-0.023239583
58	0x3d9b66b6	0.0758795
59	0xbdb6c6b2	-0.08924617
60	0x3d35d7cc	0.044395253
61	0x3d9f9744	0.077925235
62	0xbd18fe78	-0.037352055
63	0xbd7a11d0	-0.061052144

weight f4 [30, 64]
0	0xbd30ed54	-0.043195084
1	0xbd0dd480	-0.034626484
2	0xbb45e600	-0.0030196905
3	0xbcf77868	-0.030208781
4	0x3b554080	0.0032539666
5	0x3d25a6e8	0.040442377
6	0xbce22bd0	-0.027608782
7	0x3c0b2df0	0.008494839
8	0x3dba4d2e	0.09096752
9	0x3da99912	0.08281149
10	0xbddc0c18	-0.10744494
11	0x3d80760a	0.06272514
12	0x3cf21208	0.029549614
13	0xbdff573e	-0.12467812
14	0xbc91bb68	-0.017789558
15	0x3df87cc6	0.12133174
16	0xbcdcb060	-0.02693957
17	0x3d3dd830	0.04634875
18	0xbddddda4	-0.1083329
19	0x3d9438ae	0.07237373
20	0x3d6c3d90	0.057675898
21	0xbd8f3584	-0.06992629
22	0xbc616ed0	-0.01375933
23	0x3d85078c	0.0649558
24	0xbc31a780	-0.010843158
25	0xbd8d4822	-0.06898524
26	0x3d8963f6	0.06708519
27	0x3dcafd16	0.099115536
28	0xbdffb874	-0.124863535
29	0xbdad2a10	-0.084552884
30	0xbbdde7c0	-0.0067720115
31	0xbd8f4112	-0.06994833
32	0xbd8e9f78	-0.0696401
33	0xbcb4e390	-0.022081167
34	0x3d802fd0	0.062591195
35	0xbd858858	-0.06520146
36	0xbd0019ec	-0.03127472
37	0x3ded0178	0.11572546
38	0x3d9136b6	0.070905134
39	0xbc7f9680	-0.015599847
40	0x3df079ec	0.11742005
41	0x3da31c20	0.07964349
42	0xbc89bc38	-0.016813383
43	0xbde46252	-0.111515656
44	0xbd3a71e8	-0.045518786
45	0x3db86606	0.090038344
46	0x3bc1e680	0.0059173703
47	0x3dada2a0	0.08478284
48	0x3d5141a8	0.051088005
49	0x3cd5eeb0	0.026114792
50	0xbd35374c	-0.04424219
51	0xbdbd2d26	-0.09237127
52	0x3da53d08	0.080682814
53	0x3ded00b0	0.11572397
54	0x3d2d2fb0	0.042281806
55	0xbd1fa010	-0.038971007
56	0xbdbbcad4	-0.09169546
57	0xbdbd1d9e	-0.09234165
58	0xbdaba744	-0.08381513
59	0xbb3161c0	-0.002706632
60	0x3c824228	0.015900686
61	0x3c575a20	0.013144046
62	0x3d36adb4	0.04459925
63	0x3d6fe160	0.058564544
64	0xbccdaae0	-0.025105894
65	0xbda1cf9a	-0.07900925
66	0x3dd576b2	0.1042303
67	0x3d1ab180	0.037766933
68	0x3de955d2	0.11393322
69	0x3d6328e4	0.05545892
70	0x3d0db9f0	0.034601152
71	0xbdec8fc2	-0.11550857
72	0xbd536ed0	-0.05161935
73	0x3dc4bb86	0.0960608
74	0xbb80d540	-0.0039316714
75	0xbd502808	-0.050819427
76	0xbdce4dae	-0.1007341
77	0xbd103e04	-0.035215393
78	0xbbe6f600	-0.0070483685
79	0xbde44e9e	-0.111478075
80	0x3de8e300	0.11371422
81	0x3d0106b8	0.031500548
82	0xba6a4100	-0.00089360774
83	0x3d423ce0	0.047421336
84	0xbcfa7658	-0.030574009
85	0x3dc3582e	0.09538303
86	0xbdd2769e	-0.10276531
87	0xbd993f46	-0.074827716
88	0xbc4e38b0	-0.012586758
89	0xbd827d14	-0.06371513
90	0x3c12ba90	0.008955613
91	0x3cf8ea30	0.030385107
92	0x3dc14d18	0.094385326
93	0x3d43d74c	0.047812745
94	0x3b00c680	0.0019649565
95	0xbdfa3ea2	-0.122189775
96	0x3dec8654	0.115490586
97	0xbdb5a9ba	-0.088702634
98	0xbd3f10a8	-0.046646744
99	0xbde37de6	-0.111079976
100	0x3da993da	0.082801536
101	0xbdb6b7e2	-0.089217916
102	0xbdbc5634	-0.091961294
103	0xbdc00e88	-0.093777716
104	0x3d4fa168	0.05069104
105	0x3c5056a0	0.0127159655
106	0xbc7ac820	-0.015306503
107	0x3da4be4c	0.08044109
108	0xbd6e8ca0	-0.05823958
109	0x3d9e7d08	0.077386916
110	0x3d967110	0.07345784
111	0x3d494b18	0.04914388
112	0x3da21796	0.07914655
113	0x3d026b48	0.031840593
114	0x3da9d9ca	0.08293493
115	0x3dca6fd4	0.09884611
116	0x3c00e310	0.007866636
117	0x3d8e6ccc	0.06954345
118	0xbdaa8880	-0.083268166
119	0xbdcb7bf8	-0.099357545
120	0xbdd55d4c	-0.104181856
121	0xbdb4c34e	-0.08826314
122	0x3db650f2	0.08902158
123	0x3de2dc2e	0.11077152
124	0xbdff27ac	-0.12458739
125	0xbc7a0660	-0.015260309
126	0x3d94645c	0.072457045
127	0x3d8331dc	0.06405994
128	0x3d00c8f0	0.03144163
129	0x3de71474	0.11283198
130	0x3db0b15a	0.08627577
131	0xbb8db000	-0.0043239594
132	0x3cdc3cf0	0.026884526
133	0x3d81c97e	0.0633726
134	0x3c340330	0.010987088
135	0xbdbf93c4	-0.09354356
136	0xbcc27348	-0.023736611
137	0x3d3944b4	0.045231536
138	0x3cfbbc18	0.030729339
139	0xbcb2eb40	-0.021840692
140	0x3c374dc0	0.011187971
141	0x3c8afe18	0.016966864
142	0xbd645330	-0.055743396
143	0x3dcfd4d6	0.10148017
144	0x3df5388c	0.11973676
145	0xbcb47a00	-0.02203083
146	0xbdccd8ba	-0.10002275
147	0x3d1152f8	0.035479516
148	0xbda71fa0	-0.08160329
149	0xbd085668	-0.03328553
150	0x3c5a6b80	0.013331294
151	0x3da7a88e	0.08186446
152	0x3db8be18	0.090206325
153	0xbdd9b9d0	-0.10631144
154	0x3d0897a8	0.033347756
155	0xbdfc1122	-0.12307955
156	0x3dac083a	0.084000066
157	0xbdb67a12	-0.08910002
158	0xbdf7ce14	-0.12099853
159	0xbdbc2846	-0.09187369
160	0xbcf5cc08	-0.030004516
161	0xbc53cc50	-0.01292713
162	0x3d4b3c24	0.0496179
163	0xbd110878	-0.035408467
164	0x3da5519c	0.080722064
165	0xbce390b0	-0.027778953
166	0x3d83d2d8	0.064367
167	0x3d17f490	0.037098467
168	0xbd61c024	-0.05511488
169	0xbdbadb82	-0.09123899
170	0x3d8734b4	0.06601849
171	0xbbe17aa0	-0.006881073
172	0xbce341c8	-0.027741328
173	0xb9e78c00	-0.00044164062
174	0xbdf38e66	-0.11892395
175	0xbdcb8160	-0.09936786
176	0x3d7f6410	0.062351286
177	0x3cf0b4e0	0.029383123
178	0xbdb2fe64	-0.087399274
179	0xbc4f6490	-0.012658253
180	0x3d953c52	0.07286896
181	0xbdf146f0	-0.117811084
182	0x3c48d8c0	0.0122587085
183	0xbdf33f70	-0.11877334
184	0xbcd2a078	-0.025711283
185	0x3d4606ac	0.048346207
186	0x3d7c01ac	0.061525032
187	0x3d1fd338	0.039019793
188	0x3dfa579c	0.122237414
189	0x3cc7a940	0.024372697
190	0xbc7bd810	-0.0153713375
191	0x3d2d08e0	0.042244792
192	0xbd817336	-0.06320803
193	0xbbe48ae0	-0.006974563
194	0x3df3a78e	0.11897193
195	0x3df920f6	0.1216449
196	0xbd943d24	-0.07238224
197	0x3d85df6a	0.065367535
198	0xbd567b2c	-0.05236356
199	0x3d43a484	0.047764316
200	0xbdd2226e	-0.10260473
201	0xbd5cd8d8	-0.053917736
202	0xbd779428	-0.060444027
203	0xbdd78f02	-0.105253235
204	0x3dd3a98c	0.10335073
205	0xbab0ec00	-0.0013498068
206	0xbdb788e0	-0.08961654
207	0xbc3261e0	-0.010887593
208	0xbc9b5880	-0.018963099
209	0xbd630504	-0.055424705
210	0xbd997d06	-0.074945495
211	0x3c951b50	0.0182015
212	0x3db815dc	0.08988544
213	0xbcf84118	-0.030304477
214	0xbc982360	-0.018571556
215	0xbd861000	-0.065460205
216	0x3da71f74	0.08160296
217	0x3db996a4	0.090619355
218	0xbc395760	-0.011312336
219	0xbd9e08de	-0.07716535
220	0xbcb3ecc8	-0.021963492
221	0x3d6ee4a4	0.058323517
222	0xbd025028	-0.031814724
223	0x3bc690c0	0.006059736
224	0xbcbceef8	-0.023063168
225	0xbdf96f0e	-0.12179385
226	0xbdee65ec	-0.11640534
227	0x3dba4bf0	0.09096515
228	0x3daac670	0.0833863
229	0xbdebe2b8	-0.115178525
230	0x3bbffdc0	0.005859107
231	0x3dce0ff8	0.100616395
232	0xbc64c790	-0.013963595
233	0xbd3ad454	-0.045612648
234	0xbddcd5f4	-0.10782996
235	0xbd5d7be8	-0.054073244
236	0xbde06f1e	-0.10958694
237	0x3dbc5ffe	0.091979966
238	0xbdf9b0d4	-0.121919304
239	0xbdfd7518	-0.123758495
240	0xbb543d80	-0.003238529
241	0xbc24dfa0	-0.010063082
242	0x3dd476f4	0.10374251
243	0xbd650e64	-0.055921927
244	0x3ddf0f26	0.10891561
245	0xbdc51f02	-0.09625055
246	0x3dd46998	0.10371703
247	0x3d741528	0.05959049
248	0xbc9e0d30	-0.019293398
249	0xbd3821b8	-0.04495403
250	0x3cb68050	0.022277981
251	0xbdb16d8e	-0.08663474
252	0xbcdb7628	-0.02678974
253	0xbd27606c	-0.04086344
254	0xbad01580	-0.0015875548
255	0x3d2bccd0	0.04194337

bias f4 [30]
0	0xbdc65822	-0.09684779
1	0xbc253550	-0.0100835115
2	0xbcf67630	-0.030085653
3	0xbd08de5c	-0.033415183
4	0x3de0c3b0	0.109748244
5	0x3d993960	0.074816465
6	0x3dee212c	0.11627421
7	0xbdc6698c	-0.096881
8	0x3ba57a80	0.0050500035
9	0xbcd9a4f0	-0.026567906
10	0x3d158210	0.03650099
11	0x3ded27e4	0.11579874
12	0xbdd3631a	-0.103216365
13	0x3d162cc8	0.0366638
14	0x3da1a78c	0.07893285
15	0xbddc3bd2	-0.10753597
16	0x3d50461c	0.05084811
17	0x3ca71e78	0.02040027
18	0xbd9f3462	-0.07773663
19	0x3dd8b68a	0.105816916
20	0xbda25c08	-0.0792771
21	0xbdfc853e	-0.123301014
22	0x3dac559c	0.08414766
23	0x3d62711c	0.05528365
24	0xbc855008	-0.016273513
25	0xbd19a4d8	-0.037510723
26	0xbdfbdb00	-0.1229763
27	0x3cebdb40	0.02879107
28	0x3d25ea30	0.04050654
29	0xbdc70a7e	-0.09718798
