darts_logs/2022-11-19_12.58.27.094379_torch_model_run_5752/_model.pth.tar (torch, 74546 bytes, 16 tensors)

weight f4 [64, 2]
00000000: ad21 183f 940f 1dbe fb6f 113f 0a94 813e
00000010: f0c1 1a3d 5cd5 04be 0d0e 00bf 0242 913e
00000020: 88e7 2cbf 9bbb e3be c0ec 313e 1426 4cbe
00000030: 0f0d 20bf efd1 233f 005a 4a3d 80a6 d7bc
00000040: 7054 0dbd c8cb 05be 32b8 d33e 8ffd e6be
00000050: c00c 6cbd 9840 1dbf 7030 953d 71da b3be
00000060: 700b d2bd 30ff e4bd 292c c6be c068 5cbc
00000070: 791e e9be 0f71 193f 76a9 933e fd3b 8ebe
00000080: a6c5 93be 7c38 093e 6f38 233f 44d3 0d3e
00000090: c264 d03e d186 1abf 406b 233c f9a7 dfbe
000000a0: 4916 b5be 9821 1fbf e84a 79be 589a 14bf
000000b0: fdd0 1b3f 3e9a 21bf ae8f db3e 155d 83be
000000c0: 53b0 083f 64a6 3abe f09f 06bf a839 6c3e
000000d0: 2876 dd3d 4064 203e 2507 253f 305b 873d
000000e0: c2c2 ba3e 7490 c5be 3a62 a63e a800 d9bd
000000f0: 930f c9be 2833 c4bd d04f 2e3e 8638 63be
00000100: 246f 553e df44 003f 5fe4 05bf 782d 82be
00000110: b2a1 b53e 6b8d 96be 7127 153f 8b78 febe
00000120: cad0 d73e e8e6 08be 8066 37bd d4f5 5c3e
00000130: e6c9 dbbe fa78 973e b0ed 383e df9d 0f3f
00000140: a240 853e 8cd0 143e 742a 673e 1067 72bd
00000150: 8acd 0ebf 6f2a 23bf 603f 563d 00c4 afbb
00000160: ef5a 143f d036 7b3e e051 a1be 2a4a 22bf
00000170: c08f c4bd d48a 43be 5c18 163e e40d 7abe
00000180: 8c7d b2be ddb3 1d3f e28f 20bf e693 e93e
00000190: 7409 0fbe 7021 fd3d 3430 1e3e 55f2 2e3f
000001a0: 0e01 9a3e 30e6 89bd 1bf6 1f3f f8af 47be
000001b0: 5226 b43e 0495 643e 00cc 603e c8d7 e3bd
000001c0: e5bd 103f d0cb 123e b977 123f cf7e 1dbf
000001d0: 82ea 76be aacd a43e 3c64 1ebe 261a b8be
000001e0: 348c 293e f002 1dbe 13f7 cdbe 9095 813e
000001f0: 8efb eb3e d1cd 123f 40ab fe3c c323 9cbe
0.59426385 -0.15337974 0.56811494 0.25308257 0.03778261 -0.12972015 -0.5002144 0.28370672
-0.6754079 -0.4447907 0.17375469 -0.199364 -0.62519926 0.6399221 0.049402237 -0.02632451
-0.034504354 -0.13066018 0.41351467 -0.45115325 -0.057629347 -0.6142669 0.07284629 -0.35127595
-0.10256088 -0.11181486 -0.38705567 -0.013452709 -0.4553106 0.5993814 0.28840226 -0.27780142
-0.2886173 0.13400453 0.63757986 0.13850123 0.40701872 -0.60361964 0.009974301 -0.4368284
-0.35368565 -0.62160635 -0.2434498 -0.5804801 0.60865766 -0.6312598 0.42883056 -0.25656953
0.5339405 -0.18227535 -0.52587795 0.23068869 0.10813552 0.15663242 0.64464027 0.066091895
0.36476713 -0.3858677 0.32496816 -0.10595828 -0.39269695 -0.0958007 0.17022634 -0.2218953
0.20843178 0.5010509 -0.5230159 -0.25425315 0.35474926 -0.29404768 0.5826331 -0.49701342
0.4215148 -0.13369334 -0.044775486 0.21578151 -0.42927474 0.29584485 0.1805942 0.5610027
0.26025873 0.1453268 0.22574788 -0.05918032 -0.5578238 -0.63736624 0.052306533 -0.005363941
0.57951254 0.24532628 -0.31507778 -0.63394415 -0.09597731 -0.19095927 0.1465773 -0.24419361
-0.3486141 0.61602575 -0.6271955 0.4562065 -0.1396845 0.12359893 0.15448076 0.6833852
0.3007893 -0.06733358 0.624849 -0.1950072 0.35185486 0.2232247 0.2195282 -0.111251414
0.56539756 0.14335561 0.5721393 -0.6152162 -0.24112895 0.3218816 -0.15467924 -0.3595745
0.1655739 -0.15333152 -0.40227565 0.2530942 0.46090358 0.573453 0.031087518 -0.30496034

bias f4 [64]
00000000: a419 85be 0016 4b3c e89c 073e 009a f4ba
00000010: e8a9 db3d 51e7 82be a898 93bd a69b d93e
00000020: 4693 ee3e 3e6a 32bf 0e79 dd3e b309 2f3f
00000030: 6a1f f73e c8a8 223e 58ce fa3d e9c8 0f3f
00000040: ba68 c13e 267c 0cbf 1eb5 f13e 2478 1dbe
00000050: 60af 883e 87de 9ebe 804e 55bd 3010 be3d
00000060: 5073 b33d a697 f73e c829 03bf e59a 003f
00000070: 065b 9d3e a290 d83e ea6e f9be 7aa5 9a3e
00000080: da75 96be c75e aabe fb91 163f 0021 083c
00000090: d0f6 d73d 81e5 a1be 9a7e 66be 7288 babe
000000a0: fe34 12bf 6870 17bf ccd1 6abe 72fc e53e
000000b0: f092 ad3d e803 cdbe 8e4b a63e e44b 273e
000000c0: e834 c9be 4048 583e 50b0 763d 4daa 1dbf
000000d0: ab82 e2be 8caf 7c3e 98af 41be 081f fd3d
000000e0: 84a1 11bf 25cf 093f 24fa 863e 1bc1 263f
000000f0: 5d41 2b3f 32ed b33e c87c f73d 9273 a83e
-0.25996125 0.012395382 0.13243449 -0.0018661618 0.107257664 -0.25567105 -0.07206851 0.42501563
0.46596736 -0.6969336 0.4325642 0.68374175 0.48266155 0.15884697 0.12246388 0.5616594
0.37775213 -0.54876935 0.47208494 -0.15377861 0.266963 -0.3102915 -0.052076817 0.09280431
0.087622285 0.48357886 -0.5123563 0.5023635 0.30733508 0.42297846 -0.48717433 0.30204374
-0.2938679 -0.33275434 0.588165 0.008308649 0.105451226 -0.3162041 -0.22509232 -0.36432225
-0.5711211 -0.59155893 -0.22931594 0.44919163 0.08475292 -0.40042043 0.3247952 0.16337544
-0.39298177 0.21121311 0.06022674 -0.61587983 -0.44240317 0.24676341 -0.1891464 0.12359434
-0.5688708 0.538317 0.26362717 0.65138406 0.6689661 0.35141903 0.12084347 0.32900673

weight f4 [64, 64]
00000000: 5214 9ebd 805d 953a 441d 2b3d 4088 ecbb
00000010: 1819 613d 6cb6 6cbd e0c4 da3b 0622 adbd
00000020: cc69 49bd 60bf 1c3c 8a65 9dbd 4886 4b3d
00000030: 38ab 513d cc63 91bd e856 f3bd 8cd2 bcbd
00000040: c4e2 1a3d 3a0a eb3d 4cb6 3bbd 007d 46bc
00000050: 3c5e 573d 40a7 5fbb 7292 923d e81a cfbd
00000060: 48a8 03bd 3253 8e3d 8e35 e9bd e67f 8c3d
00000070: da6d c03d 0094 32ba 6407 923d aa1d 9a3d
00000080: 30ce 2bbc 281b 4a3d 76a8 9bbd 7807 dabc
00000090: a0d0 dbbd 4ad0 c6bd 5464 bb3d 809e bd3a
000000a0: 1264 8dbd 3c2e 6c3d 3a96 e43d 603b babb
000000b0: 9856 3abd 1479 2a3d 42f5 dcbd 7884 ca3d
000000c0: fa08 e83d 4cd2 e63d fc58 b2bd 400b 803d
000000d0: c494 c93d 8237 f5bd c692 a1bd 3c25 bdbd
000000e0: 80d9 55bc 0056 8fbb 78e5 883d e004 08bd
000000f0: f616 fcbd 205a 3bbd e018 5c3d 60a6 e5bb
00000100: 9e8e bf3d fc54 27bd 9424 e3bd aa10 ef3d
00000110: 00a7 033b 20c2 e2bd fc28 223d 600e 89bb
00000120: ca78 97bd 1c22 d1bd fcec 293d 58ee bebd
00000130: b0ce 81bd c027 ad3b 98d5 f33c 8e98 e83d
00000140: 284d 993c 3212 c0bd fc5e 623d 08fd ee3c
00000150: 0c4d e2bd a0b2 9d3b 88c4 ac3c 0a98 f13d
00000160: 58d8 a5bd 58ad fc3d 30c3 99bd 4873 d0bd
00000170: 80c4 a1ba 50a0 26bc 5cd4 d33d 46df c03d
00000180: a493 08bd 9e23 943d 5432 2bbd 182e 95bc
00000190: b85d ed3c a814 03bd 607c 0a3d 64e7 ab3d
000001a0: cae0 ca3d baed e7bd 6cdc 1dbd d877 293d
000001b0: c8f8 993c 2ce8 cd3d 3853 823c 6cb7 82bd
000001c0: b8f4 d43c 0c67 803d 76b2 cebd 9069 bebd
000001d0: fcd8 4c3d f663 f23d aa75 9a3d f64f a63d
000001e0: 484d eb3d 8816 88bc 109f fb3c 20d2 4d3c
000001f0: 58c6 953d 8c59 a3bd 24cb 7abd 84b0 623d
00000200: 74d0 9c3d 0c50 493d 2041 44bd 601c b1bc
00000210: bcda 943d 0c23 66bd 8814 673d 9ecf fbbd
00000220: 2248 d1bd 32fb b0bd de68 bfbd c0ac 73bc
00000230: c097 27bd a4d7 69bd 70dc 00bc 66a0 c0bd
00000240: 424a c63d c220 943d 30b8 cf3d 1043 513d
00000250: 8c36 123d b68f f6bd 9cb5 e8bd ce10 c7bd
00000260: c0f0 f8bc d6ba b9bd ee48 b93d a6be 85bd
00000270: deab fcbd 8ccc 1f3d 9860 b8bc 4a9b e9bd
00000280: 2441 6fbd cc94 51bd e0b4 4cbc 44d0 593d
00000290: baf3 8f3d 4238 ff3d 803b d2bb e06b a23d
000002a0: 4460 5c3d d4e7 29bd f8bd be3c e8de b93c
000002b0: 707d db3d 2c8c a1bd 8816 dbbd 542e 4fbd
000002c0: dc4a bdbd 387b a1bc 0030 a5bc 2eae e2bd
000002d0: 34c3 0a3d 8ae1 bebd eccb 1abd 3416 bbbd
000002e0: f845 f7bc a08a 0ebd 644b 27bd 80e5 5c3c
000002f0: 4eab e8bd eefe 9ebd 0095 793c f44e f9bd
00000300: 14cc 43bd e27c 9cbd 20f5 5d3d 3cbd 28bd
00000310: 60fa e6bd 9c42 58bd 08c5 4fbd c063 323b
00000320: 964c 823d 20ec 3ebd 3456 3d3d ee0a eb3d
00000330: 18d0 f23c 729c eb3d d83d 75bd 9c98 6b3d
00000340: c248 e8bd 2e61 bcbd bc1e 64bd 0ccb c03d
00000350: b26f f83d 2490 c5bd 2821 bebc e818 abbc
00000360: d8fe 92bc 2223 8cbd f835 8abd f83d 42bd
00000370: c82b af3c 6264 9a3d 6017 92bb 6470 973d
00000380: aa01 853d 6c6f 97bd 185a a6bc 307d e2bc
00000390: 4051 5a3d 4840 9fbd fec6 a73d 20e1 f8bb
000003a0: dce2 423d 30ab 43bc c0a6 45bb d86b 673d
000003b0: 2ea9 f4bd f029 06bc 1661 ecbd f6d5 fb3d
000003c0: 7816 e63d 28bc 81bc dcae 0b3d 444e 4ebd
000003d0: 24c9 aebd 72b1 fcbd 4cb6 623d 2a6e 9abd
000003e0: 8248 823d 2c0b 423d 4067 5e3d 943e cbbd
000003f0: 4075 933c f01e d83c 8096 19bb a248 b4bd
-0.077187195 0.0011395663 0.041775957 -0.0072183907 0.054955572 -0.05779116 0.0066763014 -0.08453755
-0.04917316 0.009567112 -0.07685383 0.049688607 0.051188678 -0.07099113 -0.118818104 -0.09219846
0.037813917 0.1147656 -0.04582815 -0.012114763 0.052580103 -0.0034126788 0.071568385 -0.10112554
-0.032142907 0.06949462 -0.11387168 0.06860332 0.093959525 -0.0006812215 0.07130316 0.07525189
-0.010486171 0.049342304 -0.07600491 -0.02661489 -0.107331514 -0.09707697 0.091499954 0.0014466792
-0.069038525 0.05766128 0.11161466 -0.0056833476 -0.04549274 0.041619375 -0.10788967 0.09888548
0.11329837 0.1127058 -0.08708379 0.06252146 0.09842828 -0.11973478 -0.07889323 -0.092356175
-0.013052344 -0.0043742657 0.06684393 -0.033207774 -0.12309067 -0.045740247 0.05373466 -0.007008359
0.09353374 -0.04085253 -0.11090961 0.116731 0.0020088553 -0.11072183 0.039589867 -0.004182622
-0.073960856 -0.10211584 0.04148577 -0.09322804 -0.06338251 0.0052842796 0.029764935 0.113572225
0.018713549 -0.093784705 0.055266365 0.02917339 -0.11049852 0.0048125535 0.021089807 0.11796577
-0.08097905 0.1233775 -0.07507932 -0.10178238 -0.0012341887 -0.010170057 0.10343239 0.09417586
-0.033343926 0.07233356 -0.041796044 -0.018210456 0.028975353 -0.03200212 0.03381002 0.08393744
0.09906156 -0.113246396 -0.03854029 0.041374058 0.018795386 0.10054049 0.015908822 -0.06382641
0.025995597 0.06269655 -0.100926325 -0.09297478 0.05001162 0.11835472 0.07541974 0.0812072
0.114893496 -0.016612306 0.030715495 0.012562305 0.07313222 -0.07976064 -0.061228886 0.05534412
0.07656947 0.049148604 -0.04791367 -0.021619976 0.07268283 -0.056185767 0.056416065 -0.12295459
-0.10218836 -0.08641662 -0.09346174 -0.01487273 -0.040916204 -0.057090417 -0.007865056 -0.094055936
0.09682132 0.072328106 0.10142553 0.051089346 0.03569655 -0.120391294 -0.11362764 -0.09720002
-0.030388236 -0.09068839 0.09047113 -0.06530504 -0.123374686 0.03901343 -0.022506997 -0.11406572
-0.058411732 -0.051167294 -0.012494296 0.053177133 0.07028909 0.12461902 -0.0064157844 0.07930732
0.053802744 -0.041480854 0.023283944 0.022689298 0.10717285 -0.07888064 -0.10697657 -0.05058129
-0.09242794 -0.019712076 -0.02016449 -0.110683784 0.033877566 -0.09320362 -0.03779213 -0.09135094
-0.03018473 -0.03480017 -0.040843382 0.013482451 -0.11360799 -0.07763468 0.015233278 -0.12173262
-0.047802046 -0.07641007 0.054188848 -0.041196093 -0.11278224 -0.0527979 -0.050725013 0.00272201
0.06362264 -0.046611905 0.046224788 0.11476694 0.029640242 0.11504449 -0.059873432 0.057518587
-0.113420025 -0.09198223 -0.055693373 0.09413728 0.12130679 -0.09646633 -0.02320917 -0.0208859
-0.017943785 -0.068426386 -0.06748575 -0.04742238 0.021383181 0.07538678 -0.004458353 0.07394484
0.06494458 -0.07394299 -0.020306632 -0.027647585 0.053300142 -0.077759326 0.081922516 -0.0075951964
0.04757963 -0.01194267 -0.0030159205 0.056499332 -0.11946331 -0.00818871 -0.11541955 0.12296669
0.11234754 -0.01583679 0.034102306 -0.05036761 -0.08534458 -0.123385325 0.055349633 -0.075405434
0.06361486 0.047373936 0.054297686 -0.09924045 0.018000245 0.02638194 -0.0023435652 -0.08802916

bias f4 [64]
00000000: 2871 e2bc 78de be3d 1c6a cb3d 70c7 65bd
00000010: 003c 08bb c058 913b d884 ccbd 1488 5e3d
00000020: 84e2 93bd e87e 673d a44e 263d e056 353d
00000030: a0d3 3dbd f803 7b3d 4001 ef3c 4639 b63d
00000040: 2258 94bd 509f dd3d da0e c3bd 2eb4 a53d
00000050: 8076 433c 08cc f6bc 264e ee3d e02c 873b
00000060: 7e0d a3bd 2059 703d 78e8 81bd 56e2 d9bd
00000070: 2c23 ef3d 7685 b23d ec40 fabd 406c 8bbd
00000080: d0bf 6bbd ce50 e43d 64d8 67bd 584f 1d3d
00000090: b04b 5fbd c013 65bb daec edbd 50e5 d63c
000000a0: 22e7 fdbd 6838 e6bd e024 ec3c 044e 89bd
000000b0: 3857 b4bc f434 1cbd 78f0 373d d073 aabd
000000c0: c01c d6bc 0033 3aba 7450 253d 8c82 333d
000000d0: 50b8 e53c f6bc d4bd 48c9 bc3c 8059 273b
000000e0: 1c68 4bbd 5683 afbd b05b 98bd e411 6b3d
000000f0: f82c 89bc 9878 123d fcc6 23bd 60bb 5f3c
-0.027641848 0.09319776 0.09932348 -0.0560984 -0.0020787716 0.0044356287 -0.099862754 0.054328993
-0.07220939 0.05651751 0.04060234 0.044272304 -0.0463444 0.06128308 0.0291754 0.08897643
-0.072433725 0.10821402 -0.09524317 0.08091007 0.011930108 -0.030126587 0.116359994 0.0041252226
-0.07961558 0.058678746 -0.06343168 -0.10638873 0.116766304 0.08716862 -0.12219414 -0.068077564
-0.057555974 0.11148225 -0.05660285 0.038405746 -0.05451554 -0.00349544 -0.116174415 0.026232392
-0.12397601 -0.112412274 0.028826177 -0.067043334 -0.022014245 -0.038136438 0.044907063 -0.08322871
-0.026136756 -0.00071029365 0.04035993 0.04382567 0.028041989 -0.10387604 0.023045197 0.0025535524
-0.049659833 -0.08569972 -0.07439363 0.05739011 -0.016745076 0.03575954 -0.03998469 0.0136555135

weight f4 [10, 64]
00000000: 3094 363c 8838 743d 64fc cabd 98db 59bd
00000010: e8e0 493d 3a18 c1bd 0ce4 c43d 5433 083d
00000020: a4eb f93d b6cb c53d 4258 d6bd a4fa 8a3d
00000030: e6f7 dcbd 8461 01bd 02b1 89bd a6a7 85bd
00000040: 7c6f a3bd e0bd 97bc 28aa 4dbd 0c71 cb3d
00000050: 4e93 eebd 08aa 9a3d c04e 753d f830 8fbd
00000060: e86a 9e3d b045 69bc 6cfe 6fbd 023a 933d
00000070: 409b 973b 78da acbd 7c95 2fbd 04bd 38bd
00000080: acb1 8dbd bc50 f1bd e888 a83d 68a4 d63c
00000090: 5241 b43d 8ed9 c13d 708d 903c f07b 253d
000000a0: 8022 36bd 0ea2 f2bd f235 b23d 4a3b 8abd
000000b0: c0d5 50bc 5c03 58bd e0cc afbd e0db 933c
000000c0: c015 0a3d 880a 8bbc 6028 c23d 8807 7dbd
000000d0: 3e2a 82bd 80ad 533d 843a f53d 06bf 8d3d
000000e0: 00ef 823b a477 2cbd 58e1 fdbc f004 953d
000000f0: f05c e63c d0e3 db3c 3204 e53d fc26 38bd
00000100: 90b1 d63d a873 e1bc ac7f a3bd 8c68 96bd
00000110: 0875 993c 30ba e8bc d099 6abc 78a4 4e3d
00000120: 68bc c33c c018 123b 704e bd3c 0011 ed3b
00000130: dc11 00bd 4058 acbd d076 0ebc 308c 57bd
00000140: 1851 49bd a461 49bd d2d7 b9bd 7a02 a33d
00000150: 12e3 973d 9422 48bd 649a 43bd 8469 113d
00000160: d0da 583d 24bb 6c3d 38b3 36bd 481e c33d
00000170: 72d3 ccbd 00b2 3cbc 2037 bb3c a835 91bc
00000180: 2a7d 86bd b668 e8bd 98b7 f13d fc33 c1bd
00000190: f032 b1bd 445b f03d 88a4 d43c 302c 69bc
000001a0: e859 eabd 30c6 583c a0e8 64bc 56fd bb3d
000001b0: 70cc 713c b4c5 0f3d 88e3 54bd 909f 6fbd
000001c0: 2ebf eb3d f0e5 c5bc c859 b63c 10d0 dd3d
000001d0: d2ab 8ebd c4c9 ddbd 9ef8 bd3d c8dd 16bd
000001e0: 6453 b1bd 043b 51bd 4416 413d c0a8 823d
000001f0: 2850 dcbd de37 ae3d b4b1 f63d 0059 12bb
00000200: f0db 7abd f855 493d e4e8 503d bea0 883d
00000210: 46e0 a0bd 089b ec3c 32f7 bd3d 8c01 b6bd
00000220: 4841 d43d 0a95 b63d 2684 ee3d bec7 d7bd
00000230: 0032 5fbd 805b 14bc f02b 72bc 8c78 bbbd
00000240: 0cc5 eb3d f421 6bbd de81 a5bd 7493 393d
00000250: 4e98 f0bd 80f2 a93a 9489 ab3d a073 853d
00000260: d48a a2bd 1c28 5cbd 40ee b0bc 20a4 6ebc
00000270: e49a a33d 3ac7 a83d 22db ed3d 46a1 d53d
00000280: 6ad6 d63d 641d 61bd 784c f0bd c233 efbd
00000290: 6e5c ce3d 40f4 553c 2c32 473d ec05 a6bd
000002a0: 545c 973d ac3f 833d e088 80bb 785a 28bd
000002b0: b4ec bd3d cac8 c03d 001d ccbb 1210 8c3d
000002c0: 30aa 66bc 2058 e9bd bc9f 303d cc5b 29bd
000002d0: a6d2 cdbd 2a2b bbbd c83a 103d 143a ba3d
000002e0: 8085 fbba 3235 d7bd 1831 a03c 1a54 cdbd
000002f0: 80c0 c5ba 6092 b23d e034 25bc 5606 92bd
00000300: 5cd2 ed3d ec9f 983d 1057 d7bc 1021 d43d
00000310: 18d7 fdbd a889 c8bd 1cc3 42bd 988a f7bc
00000320: 8847 86bc 1009 19bc 487a b4bd f841 96bc
00000330: 6407 9f3d 0ab5 ba3d 6641 833d d80a f63d
00000340: f02b b93c e8bd ffbd 383d 1c3d 8835 ef3c
00000350: 7ab8 f23d e690 d73d 0cf8 9f3d de48 efbd
00000360: 801f bd3b e433 803d a8ff 94bc 506d 153c
00000370: 687b f5bd 9cb6 73bd f041 683c 00aa 29bc
00000380: ccfb 45bd aa42 89bd 6496 bbbd ae78 adbd
00000390: 046f 58bd dca1 8d3d 408c b53c b872 b63d
000003a0: 1c22 d7bd 5e43 d53d d2d0 cb3d 4c2e d63d
000003b0: d63f 933d c02c c9bb 14cb 123d 6a63 d9bd
000003c0: 28ba e53d a0d4 96bc 68b1 8b3c 6037 eebb
000003d0: c044 08bc a0ff 103c 2031 8f3c 3858 8a3c
000003e0: ce33 afbd f2c3 89bd e019 d5bc b439 dabd
000003f0: 7896 943d 2094 17bc 28d0 58bd 0204 efbd
0.011143729 0.059624225 -0.09911421 -0.053187937 0.049286753 -0.09428449 0.09613809 0.033252075
0.12203148 0.096579954 -0.104660526 0.06786087 -0.107894704 -0.03158714 -0.06723215 -0.06526117
-0.07980248 -0.018523157 -0.0502111 0.09933671 -0.1164919 0.07551962 0.059889555 -0.06991762
0.077352345 -0.014237806 -0.058592245 0.071887985 0.0046266615 -0.08440107 -0.04286717 -0.045102134
-0.06918654 -0.11782977 0.08229238 0.026201442 0.08801521 0.094653234 0.017645568 0.0404014
-0.044466496 -0.11847316 0.087016955 -0.0674959 -0.0127462745 -0.05273758 -0.08583999 0.01804918
0.03371215 -0.016972795 0.09480357 -0.06177476 -0.06355713 0.051679134 0.119740516 0.069212005
0.003995776 -0.042106286 -0.030991241 0.072763324 0.028120488 0.026842028 0.11182441 -0.044959053
0.10483086 -0.02752097 -0.07983336 -0.073441595 0.018732563 -0.028409094 -0.014318898 0.05044982
0.02389355 0.0022292584 0.023108691 0.0072346926 -0.031267032 -0.0841527 -0.008695319 -0.052623928
-0.049149603 -0.049165383 -0.090743676 0.07959457 0.07416357 -0.0488611 -0.04775466 0.03550102
0.05294305 0.05779566 -0.04460451 0.0952726 -0.100012675 -0.011517048 0.022853434 -0.01772578
-0.06566842 -0.11348097 0.11802596 -0.09433743 -0.08652294 0.117361575 0.02595736 -0.0142317265
-0.114429295 0.013230845 -0.013971478 0.09179179 0.014758214 0.035100654 -0.051974803 -0.05850178
0.11511074 -0.024157494 0.022259608 0.108307004 -0.06966366 -0.10829499 0.092759356 -0.0368326
-0.086584836 -0.051081672 0.047140375 0.06379843 -0.10757476 0.085067496 0.12045613 -0.002233088
-0.061244905 0.04915425 0.05100335 0.06671284 -0.07855277 0.028882518 0.092756644 -0.08887014
0.10364014 0.08915146 0.11646299 -0.10536145 -0.054491043 -0.009055018 -0.014780983 -0.09153852
0.11512193 -0.057405427 -0.08081411 0.045306638 -0.117478 0.0012965947 0.0837585 0.06516194
-0.079366356 -0.05374919 -0.021597981 -0.014565498 0.079885274 0.082411245 0.11614062 0.10431151
0.10490115 -0.05495967 -0.11733335 -0.11679794 0.10076223 0.013058722 0.048631832 -0.08106598
0.07390657 0.06408629 -0.003922567 -0.041101903 0.09273663 0.094132975 -0.006229043 0.06839003
-0.014078662 -0.11393762 0.043121085 -0.04134731 -0.100499436 -0.09139092 0.03521231 0.09093109
-0.0019189566 -0.10508193 0.01955466 -0.10025807 -0.0015087277 0.08719325 -0.010083407 -0.07130115
0.116123885 0.07452378 -0.026286632 0.10357869 -0.123945415 -0.09791881 -0.047549352 -0.030217454
-0.01639153 -0.00934054 -0.08812386 -0.018342003 0.077650815 0.09116562 0.06408958 0.12013787
0.022603959 -0.124873936 0.03814432 0.02920033 0.11851592 0.10525684 0.07810983 -0.1168382
0.0057715774 0.06259897 -0.018188313 0.0091203 -0.119864285 -0.05950032 0.014175877 -0.010355473
-0.048335835 -0.06702168 -0.09159544 -0.084702834 -0.052840248 0.06915638 0.022161603 0.089085996
-0.10504553 0.1041324 0.09951939 0.10458049 0.0718991 -0.006139368 0.0358382 -0.10614665
0.11217147 -0.018411934 0.017052367 -0.007269785 -0.0083171725 0.008850008 0.01747948 0.01688777
-0.08554803 -0.06726827 -0.026013315 -0.10655537 0.07255262 -0.009251624 -0.05293289 -0.11670686

bias f4 [10]
00000000: 4c00 ef3d 14dc cd3d f0de ec3c b61e 913d
00000010: 003c 3b3d 0006 5e3b 08d7 f03d 7ca4 5fbd
00000020: f2be dfbd 06b4 fcbd
0.116699785 0.10051742 0.028914899 0.07085936 0.045711517 0.0033878088 0.11759764 -0.054600224
-0.10925092 -0.12339024

weight f4 [2, 64]
00000000: 6285 913d 7ea7 e9bd a036 bcbc 7419 d7bd
00000010: 9678 edbd 40c6 df3d a09c 8c3d 8071 4c3c
00000020: a2b5 a6bd f4dc 783d 5493 463d cc31 1f3d
00000030: 80a3 c6bd c09f c0bb 4031 ecbd f027 373d
00000040: fc4c 7d3d d097 143d 2475 783d c09e a6bd
00000050: b01d 36bc 80de 663d 50d7 34bc 88c3 68bd
00000060: 4057 f53d 62f3 94bd 7e7c 93bd 3004 663d
00000070: 8066 9fba 8016 dd3b 96d5 913d baf8 863d
00000080: e892 543d 5c82 06bd 7857 e03c 52a3 90bd
00000090: 7c9a 7f3d 3e19 f5bd a825 ff3c 3490 c2bd
000000a0: 980f b53c 7467 0cbd 9430 063d 7a85 f0bd
000000b0: 9042 b7bd c0b9 fcbd 682b de3d 12c8 c73d
000000c0: f05e 5ebc 480e f1bd be62 af3d 6491 adbd
000000d0: 4aee a83d a2c8 abbd 3691 fe3d 8069 49bb
000000e0: 4a78 ecbd 462b 953d ec77 61bd f86e 37bd
000000f0: 3494 63bd 924a d0bd b88e e0bc 92a5 993d
00000100: 7804 ae3d 4054 70bc 645a 513d 4022 84bd
00000110: 60a6 763d b82e 993c 1004 64bd a075 ebbc
00000120: f8db 393d 4238 f13d 7e3b 823d 48ab 98bd
00000130: 4461 b8bd ea35 d83d 5068 913c 2048 f73b
00000140: 3cb8 9c3d 901a b93c 8076 c3bc 587c 4dbd
00000150: d4e6 8fbd 4295 9ebd 72a7 85bd 1016 b23d
00000160: 36b5 d13d d051 ea3d 788a efbd 0a9e fb3d
00000170: ace8 683d b887 363d f0ed 6d3c b0f2 4a3c
00000180: 40a0 10bd 6e25 df3d 803b ec3a 829e ebbd
00000190: 006a 11bd 62c8 c33d 38a2 e2bd ba38 c43d
000001a0: 402d babc 3050 7b3d 901c 113d 46bb d53d
000001b0: 6418 3e3d 6813 ba3c 50ab 533c 9096 283c
000001c0: b052 b13c 46a1 aabd 0079 4e3b 2c71 d8bd
000001d0: cc09 65bd 1063 56bd 00df c3ba 4847 f2bd
000001e0: de27 edbd a0a7 a43c 5832 5a3d a0e8 253c
000001f0: 166b f73d 3867 1d3d 24c8 10bd bc2e 4c3d
0.07105519 -0.114089 -0.022975266 -0.10502902 -0.115952656 0.10926485 0.06865811 0.012478232
-0.081401125 0.060757592 0.048480347 0.03886585 -0.09699154 -0.0058784187 -0.11532831 0.04471582
0.061840996 0.036277592 0.06065859 -0.08135748 -0.0111154765 0.056364536 -0.011037663 -0.056827098
0.11979532 -0.07272984 -0.072014794 0.056156337 -0.0012161285 0.006747067 0.071208164 0.065904096
0.051897913 -0.032839164 0.027385458 -0.07062401 0.062403187 -0.11967705 0.031145886 -0.09500161
0.022102162 -0.034278348 0.03276117 -0.11744209 -0.08948243 -0.123401165 0.10848123 0.09754957
-0.01357244 -0.11770302 0.085637555 -0.08474997 0.08248575 -0.08387877 0.124300405 -0.003073305
-0.11546381 0.072836444 -0.055046007 -0.044783562 -0.05556126 -0.10170473 -0.027411804 0.07502283
0.08496946 -0.014668524 0.051111594 -0.06451845 0.06021726 0.018699035 -0.055667937 -0.028742611
0.045375794 0.117783085 0.063590035 -0.07454544 -0.09002927 0.10557158 0.017749935 0.0075464398
0.076523274 0.022595674 -0.023860216 -0.05016741 -0.07026449 -0.077433124 -0.06526078 0.08695614
0.10239641 0.11441386 -0.11696333 0.12286003 0.05686252 0.044563025 0.014522061 0.012386963
-0.035309076 0.10895811 0.0018023103 -0.11504842 -0.03550148 0.09559704 -0.11066097 0.09581132
-0.022726655 0.06135577 0.03542763 0.1043611 0.04640998 0.022714332 0.012919262 0.010289803
0.021645874 -0.08331542 0.0031505227 -0.10568461 -0.055917546 -0.052340567 -0.0014943779 -0.11830002
-0.1157987 0.020099461 0.053270668 0.010126263 0.12080972 0.038428515 -0.03534712 0.049849257

bias f4 [2]
00000000: 8068 273d d0b5 eebd
0.040871143 -0.11655772

weight f4 [64, 30]
00000000: 0246 0d3e f195 1abe d881 56bd 840f 743d
00000010: 51c1 f8bd ffae b3bd 40dd cf3b 005b c9bc
00000020: 88be d53c 20ba 1a3d 8415 c0bd d81e 053e
00000030: 20ac 1b3e 88d9 39bd 08d3 ae3d f476 32bd
00000040: f63d 073e 60c6 b93c ec6a 95bd 2269 033e
00000050: e842 e03d e851 2e3e 5cd5 813d 6917 e4bd
00000060: 4472 b6bd c059 c6bd 02e2 183e d0e4 393e
00000070: 90c2 bd3d cbeb acbd 7056 e5bd 0010 ca39
00000080: 7a41 293e e0fb da3d 56b5 c3bd 285e 763d
00000090: 994a 96bd 8b84 b9bd 00cb e33d eeb9 23be
000000a0: d012 5fbc 92e2 e4bd 1601 8dbd 9ed4 2f3e
000000b0: 4850 613d 43db b1bd 841e 33be 3eb6 a5bd
000000c0: ba65 103e 80ae 493b 6694 30be cb9b 1dbe
000000d0: 86fb 313e 98c7 443d 98ad be3d 24bd 60bd
000000e0: 3bc1 12be 383f a73d 299f 98bd cc69 de3d
000000f0: 5ceb 153e 6cf7 793d 5e70 8ebd cc59 9e3d
00000100: 60cc fcbc 883b a13d 10f8 4fbc 0051 813c
00000110: 532d c2bd 9e55 1c3e 94c7 3dbd 6ac0 243e
00000120: 409a c83d 78a3 13be ccdc 25bd 54de 0a3e
00000130: d039 a73c 19b0 99bd b343 29be a87f 833d
00000140: 6cb9 303e e423 c13d 9661 27be e825 06be
00000150: c3a0 dcbd ea2e 17be 46c5 3abe 4038 28bb
00000160: 588c 603d 562c 0b3e e49c 3cbd bc7d f33d
00000170: 7fc3 d5bd 3cfa 173e c024 903b acaf c6bd
00000180: 140b 303e 601e 29bc 3917 01be a68e 013e
00000190: 10e7 743c 6007 c7bc 4028 503d a0f8 733c
000001a0: 8454 53bd f03a ef3d 842a ce3d 5500 c6bd
000001b0: b05a 64bc a823 be3c 5485 c3bd d60f 083e
000001c0: 8147 38be 544c f7bd 8c32 fb3d 0fb8 bfbd
000001d0: d060 05be 888b 623d 9a9e 2bbe e040 49bc
000001e0: 587b c03d 08c6 233d 647b a13d b444 8b3d
000001f0: 082e 82bc 38e2 2ebe c884 003d 248a cf3d
00000200: 9276 e5bd 2c2b 0dbd 7c0a b33d b8cf c63d
00000210: c0e1 36bd b0f8 dc3d 201a 333c 1eb1 26be
00000220: a8a8 49bd c8f6 063e 20fe dcbd 9cc7 a53d
00000230: c01e dd3c c856 a23c 6c03 083e f496 4b3d
00000240: c91e ecbd 80b3 233e e411 8b3d 987c 1ebd
00000250: 3033 93bc eccb 22be 6042 15be 0041 9f3c
00000260: 1af9 083e 6846 0b3e 3040 3c3c 0cc1 083e
00000270: 68e7 ed3c 8434 cf3d 2ca6 143e b4a4 e73d
00000280: d09c 223c 9e1c 2a3e 5012 25be 2abe 2f3e
00000290: 1632 243e ec7f 0cbe d0c3 56bd 9476 26be
000002a0: b4a3 ff3d 40db f73d ef01 96bd 925b 21be
000002b0: ef15 d4bd 6c10 f23d c4f3 8e3d 281c cbbd
000002c0: 9268 01be 047b 503d 14e0 0f3d f835 49bd
000002d0: fcbb 483d 0185 d7bd 149d 3fbd 80ba 023e
000002e0: 6c49 313e 40f4 0cbb a490 03be f009 523c
000002f0: 4c6d 1a3d 88fc d63c 1c62 9c3d 7822 e03d
00000300: 454e 2abe c436 8a3d 403a 37bd e49b 0f3e
00000310: 70b4 c33d e92b e2bd b8c8 033e 180f f03d
00000320: e08b 86bd c84d ee3d e35a e5bd c894 8d3d
00000330: 0431 353e f0e5 323c a262 073e 7a26 a2bd
00000340: cef4 073e 70a4 303d 0495 b93d 0a62 193e
00000350: 14f4 923d 2c13 163e 485f a2bd 1456 11be
00000360: 9c3c a13d 609e 193c b44a 16be 37b7 16be
00000370: ded4 0fbe cd06 37be 7401 923d 489a 97bc
00000380: 4c9b f73d c226 0b3e 34f8 cb3d 2600 a9bd
00000390: b00f 7abd 9c04 c2bd 005a b239 91c9 a7bd
000003a0: 7138 aabd 047b 2a3e 1e3c 0f3e 4cae ef3d
000003b0: 3c4b ffbd 3e36 043e 1076 393c 6145 91bd
000003c0: dc1b 363e 1a78 febd c88e 893c 88a0 463d
000003d0: 0279 083e 2bf2 bdbd 3e66 6dbd 84dc 4e3d
000003e0: e497 833d b831 2fbd 580e a73d d832 93bc
000003f0: c946 09be 7ec5 17be 488f eebc 6408 e83d
0.13796237 -0.1509626 -0.052369922 0.05958511 -0.12146247 -0.08773612 0.0063435137 -0.024579525
0.026091829 0.03777516 -0.09379104 0.13000047 0.15202379 -0.04537347 0.08536345 -0.043570474
0.1320723 0.0226776 -0.07295784 0.12833074 0.10950261 0.17023432 0.06339523 -0.11137278
-0.08908513 -0.09685087 0.14929965 0.18153691 0.092656255 -0.084434114 -0.11198127 0.00038540363
0.16528884 0.106925726 -0.095560715 0.06014839 -0.07338447 -0.09058484 0.111227036 -0.15988895
-0.013615325 -0.11176027 -0.06884973 0.17170951 0.055008203 -0.08684399 -0.1749211 -0.080914006
0.14101306 0.0030774176 -0.1724411 -0.15391462 0.17381105 0.04804191 0.09310454 -0.05486788
-0.14331524 0.08166355 -0.074522324 0.10860023 0.14640564 0.061026976 -0.06955026 0.07731971
-0.030859172 0.07872683 -0.01269342 0.015785694 -0.09481301 0.15267035 -0.04633291 0.16089025
0.09795046 -0.14417827 -0.04049377 0.13561374 0.02041331 -0.07504291 -0.16529731 0.06420833
0.17258233 0.09430674 -0.1634582 -0.13100398 -0.1077285 -0.1476399 -0.18239316 -0.0025668293
0.054821342 0.13591132 -0.04604806 0.11889216 -0.104376785 0.1484155 0.004398912 -0.097014755
0.17191726 -0.010322183 -0.12606515 0.12652072 0.014947668 -0.024295509 0.050819635 0.01489082
-0.051594272 0.11681163 0.10066703 -0.09668032 -0.013937637 0.023210362 -0.09546915 0.13287291
-0.17996027 -0.12075105 0.122655004 -0.09361278 -0.13025212 0.05530885 -0.1675972 -0.012283534
0.09398526 0.03998378 0.07884863 0.068002135 -0.01589109 -0.17078483 0.03137663 0.1013377
-0.11204256 -0.034465 0.08742234 0.09707588 -0.044648886 0.10789621 0.010931522 -0.16278502
-0.04923311 0.13180077 -0.10790658 0.08094713 0.026992202 0.019816771 0.13282555 0.049704507
-0.11529309 0.15986443 0.06790522 -0.03869304 -0.017968744 -0.15898103 -0.14576101 0.019440174
0.13376275 0.13601077 0.011489913 0.13354892 0.029041007 0.101174384 0.14516515 0.113107115
0.009925082 0.16612479 -0.16120267 0.17162386 0.16034731 -0.13720673 -0.052432835 -0.16256171
0.12482396 0.121023655 -0.073245876 -0.15757588 -0.10355746 0.118195385 0.06980088 -0.0991748
-0.12637547 0.050898567 0.035125807 -0.049123734 0.0490074 -0.10523415 -0.04678066 0.12766457
0.17313164 -0.002150789 -0.12848145 0.012819752 0.03770189 0.026243463 0.076359004 0.109440744
-0.1663142 0.06748727 -0.044733286 0.14024311 0.095559 -0.110435314 0.12869537 0.11721629
-0.06569648 0.11635929 -0.11198976 0.069131434 0.17694479 0.010919079 0.13221219 -0.07917495
0.1327698 0.04312557 0.090616256 0.14978805 0.071754605 0.14655751 -0.0792833 -0.14192992
0.078728884 0.009376138 -0.14676934 -0.14718328 -0.14046046 -0.17873688 0.071291834 -0.018506184
0.120901674 0.13589004 0.0995945 -0.082519814 -0.061050117 -0.094735354 0.0003401786 -0.081927426
-0.083115466 0.16648489 0.13987777 0.11703166 -0.12465522 0.12911317 0.011319652 -0.07093311
0.17784065 -0.12425251 0.016791716 0.04849294 0.13327411 -0.092747055 -0.057958834 0.05050327
0.06425455 -0.042772025 0.08157033 -0.01796858 -0.13405909 -0.14821431 -0.029121056 0.113297254

bias f4 [64]
00000000: 7009 f53d e888 203d 844e f6bd 348a 2dbd
00000010: 0013 53ba 927f 6ebd 361f 023e 1889 c33d
00000020: 400b 203d 24de 193e d8cf af3d 7867 073e
00000030: 55fe d9bd 00a8 91ba 12ec 1e3e c8fd 1e3e
00000040: acfe be3d c076 fa3d e0cf 473c 9e73 13be
00000050: c06d 323c 20cf 2dbc 109b ed3c 0097 053e
00000060: 0593 38be 409c e0bb e12a 97bd a841 bc3d
00000070: 2564 13be eec4 86bd a8b2 6c3d ec12 e3bd
00000080: 222e 23be 6c81 c43d fb6d 8abd 9243 123e
00000090: c49f 243d c05e b6bd 346c 8d3d 742f 243e
000000a0: a84c 4d3d 731f a6bd 6478 383e b01f c83c
000000b0: 10b3 bb3c c46b d83d 3884 523d 8414 153e
000000c0: f252 353e 80a5 17be d89b a63c f0bc 163e
000000d0: 927c febd 5e9d 2a3e 10d7 1c3c 9c09 11be
000000e0: 7515 9cbd a02a 3a3e 68ee be3d c866 9b3d
000000f0: 7493 303e c4dd 34be 8085 963b a0e9 393e
0.11964691 0.039193064 -0.120266944 -0.04236813 -0.00080518425 -0.05822713 0.12707219 0.09547633
0.03907323 0.15026146 0.08584565 0.13223064 -0.10644213 -0.001111269 0.15519741 0.15526497
0.093259186 0.12229681 0.012195557 -0.14399573 0.010890424 -0.0106084645 0.029004604 0.13045883
-0.18024834 -0.006854564 -0.073812254 0.091922104 -0.14393671 -0.0658053 0.057787567 -0.110875934
-0.15935567 0.09594998 -0.06759258 0.14283589 0.040191427 -0.08904791 0.06905404 0.16033727
0.050121933 -0.08111467 0.18014675 0.024429172 0.022912532 0.1056743 0.051395625 0.14558607
0.17707422 -0.14809227 0.020337984 0.14720511 -0.12426104 0.16661593 0.009572759 -0.14163822
-0.0762128 0.18180323 0.09322816 0.07587963 0.17243749 -0.17662722 0.004593551 0.18155527

weight f4 [64, 64]
00000000: 686f 49bd 8666 a03d 1aff d63d c01b b73c
00000010: 4453 59bd fcd6 b83d 3a22 853d e013 0bbd
00000020: a8ad 3b3d 401a 1c3b 46ff e73d e80e f63d
00000030: 76d6 f53d 80ea 9fbb b009 32bc a057 ccbd
00000040: 1e07 f2bd f6cd a03d c289 833d 5478 36bd
00000050: be90 a8bd c07f b63b 14b4 29bd a49e 443d
00000060: 7e20 8b3d 4082 9bbc 0665 f9bd 3678 d83d
00000070: 24b0 eb3d 6ea5 e7bd 40df bc3d 607a ec3d
00000080: d889 ccbc a65c d23d 60b4 9fbc 98c1 b3bd
00000090: 6a69 ac3d 78b8 903c 60e9 0dbd a6a0 97bd
000000a0: e4e6 bebd f067 f33d a084 4f3c 5a49 cfbd
000000b0: 701f e8bd 80e5 edbc b0a6 5c3d 281b 94bc
000000c0: e041 c1bc 8ae8 943d 80dd 69bc 0043 97ba
000000d0: 42fd 8ebd 1004 873d 402c fa3d d00f ad3c
000000e0: 0817 37bd 28ad dabc cc6d a4bd 7875 c8bc
000000f0: 504e 093c 1060 f6bd 5aa4 de3d d4c0 e13d
00000100: 64d5 df3d 9237 ef3d 98d4 b53c 8cf5 bc3d
00000110: dcb4 9c3d 1ce6 42bd e02b b33b 807c 3dbb
00000120: a4cf dbbd e0c0 253d 504c a73d 784b a8bc
00000130: 10f5 85bc 68ad f03c 2a81 e43d 18af 61bd
00000140: a065 8b3b 8037 3cbb b0d2 a03d b811 98bc
00000150: a038 e5bc 6659 b93d 88de 70bd 5458 5a3d
00000160: b0d1 9fbc 1611 85bd 5024 2f3d 7487 f13d
00000170: c4ea 24bd dcbe b6bd c806 bdbd 7893 c6bc
00000180: 0084 1eba f407 31bd b4ce 373d bc27 cb3d
00000190: 508c 823d 1eba ec3d 94af 4abd bc73 e9bd
000001a0: 3ce7 5abd a067 ef3d 8cad 6c3d b438 bfbd
000001b0: 8ee1 f8bd e20c c9bd 74f2 5c3d 68da 99bc
000001c0: 5c32 dabd e6df bd3d 0e3f e8bd d48e 2e3d
000001d0: 88e2 633d 8800 873d f8db 053d 7069 38bc
000001e0: e0f0 d43b f442 6abd c8c9 18bd c0da 203c
000001f0: 70f0 773d 8afb af3d 70e4 d13c 868d b7bd
00000200: 62e2 dbbd 8e15 b8bd 1abb 833d 8012 b2bd
00000210: f0cb 6a3d 182c e5bd 3c88 d9bd 20c6 ccbd
00000220: 72b0 f23d 6878 1fbd 68bb 3bbd 80c4 5abb
00000230: 3473 2f3d 1cef 71bd da3b debd 00df 34bd
00000240: b8af dc3c aaa3 e03d 5081 12bc 6e6e 8f3d
00000250: 0091 3f3d 1412 6c3d 1861 b23d 88b4 babc
00000260: f895 bc3d f8f0 99bd a05e e83b 5cf3 493d
00000270: aab0 ffbd 887d c3bd 8a18 d2bd 7093 70bd
00000280: a0fe a33b 1072 9cbc 8073 4f3d 9e6d e8bd
00000290: 307b 5ebc 60e1 14bc 7876 653d f85b 163d
000002a0: f6e7 d23d c060 3cbc fe70 813d 50f6 99bd
000002b0: bc74 c5bd 5ae1 cf3d 2cd2 12bd 926a f4bd
000002c0: 4015 e03c dc1d 37bd 8cc2 e13d 2e3f 8bbd
000002d0: 9c69 ebbd 2052 b9bb 7c3c e2bd f2d8 86bd
000002e0: 9006 44bc 404a edbd a0b9 933c 4cb7 9f3d
000002f0: ba3f 933d 10f1 1ebd 200f bb3c fe72 9cbd
00000300: 8005 e0ba e465 76bd bc4b 5cbd 7878 c0bd
00000310: 8ee8 b53d aa1e b4bd fad7 abbd c4b7 5b3d
00000320: cacf 98bd b84c 37bd f876 abbd 60bf edbd
00000330: d6bb a83d 449e e1bd bc63 e5bd 7899 c6bc
00000340: dcd9 963d 0405 78bd a69b 9f3d 000e 66bd
00000350: e0b5 2b3c 10b5 1b3d 48bb 8c3d c01e dabb
00000360: bac4 8b3d 40d2 61bd c0fb debc bc83 c93d
00000370: d04b 0e3c 446d ce3d 40e7 1abc 7cd8 fa3d
00000380: 921f c1bd 2441 40bd b031 b8bd 101f f63c
00000390: de7b e0bd 20f2 943b 9c8d 9fbd b2ce a13d
000003a0: f811 30bd 0028 3abc e047 27bc 80ac 25bb
000003b0: 8859 d4bc 8cef e0bd 2eeb b7bd b095 31bd
000003c0: 2035 36bd 9014 7a3c 1a23 c3bd 7432 bfbd
000003d0: d03d 413d d005 6dbd 30e9 2bbc 74e5 f8bd
000003e0: d43e 6abd 780d 52bd b6d5 c73d 7c8a fb3d
000003f0: 0ca7 bf3d 6047 4a3d e096 243d f8c4 73bd
-0.04917851 0.07832055 0.104978755 0.0223521 -0.053057924 0.0902538 0.06500669 -0.0339545
0.04581991 0.0023819357 0.113279864 0.12014562 0.12003796 -0.0048802495 -0.0108665675 -0.09977651
-0.11817764 0.07851784 0.064227596 -0.044548348 -0.082307324 0.005569428 -0.0414315 0.048002854
0.06793307 -0.018983006 -0.12177472 0.105698034 0.115082055 -0.1131085 0.09222269 0.11546779
-0.024968073 0.102715775 -0.01949519 -0.087771595 0.08418544 0.017666087 -0.034646392 -0.07403688
-0.09321383 0.11885059 0.012665898 -0.101214126 -0.11334121 -0.029040098 0.053869903 -0.018079355
-0.023590982 0.07270916 -0.014274001 -0.0011540353 -0.06981899 0.06592572 0.12215471 0.021125704
-0.0446997 -0.026693895 -0.080287546 -0.024470076 0.008380488 -0.12030041 0.10871191 0.11023107
0.10929373 0.11680521 0.0221961 0.09226522 0.07651684 -0.04758273 0.005467877 -0.002891332
-0.10732964 0.040467143 0.08168852 -0.020543799 -0.016352206 0.029379562 0.111574486 -0.055098623
0.004254058 -0.0028719604 0.078526855 -0.018563136 -0.027981102 0.090502545 -0.058805972 0.053306893
-0.019509166 -0.064973995 0.04275924 0.11793414 -0.040262952 -0.08923122 -0.09229809 -0.02424024
-0.0006046891 -0.043220475 0.04487486 0.09919688 0.06374419 0.115589365 -0.04948385 -0.11399028
-0.05344318 0.11689687 0.057782695 -0.09336987 -0.12152396 -0.0981691 0.05394216 -0.018780902
-0.106541365 0.09271221 -0.11340152 0.04261668 0.05563596 0.06591898 0.03268048 -0.011255607
0.006498441 -0.057192758 -0.03730181 0.009817779 0.060532033 0.08592899 0.025621623 -0.0896254
-0.107365385 -0.08988486 0.06432171 -0.08694935 0.057323396 -0.11190051 -0.10621688 -0.09998727
0.118500605 -0.038933188 -0.04583302 -0.0033381283 0.042834476 -0.059065923 -0.108512595 -0.044157982
0.026939258 0.109687164 -0.008941963 0.07003485 0.046769142 0.05763443 0.087099254 -0.022791162
0.09208292 -0.07516664 0.0070913583 0.04930435 -0.12484868 -0.095454276 -0.10258587 -0.058734357
0.005004719 -0.019097358 0.05064726 -0.11349033 -0.013579175 -0.009086937 0.056021184 0.036708802
0.10298149 -0.011497676 0.0632038 -0.075176835 -0.09641406 0.10150404 -0.035844967 -0.11934389
0.027353883 -0.04470621 0.11023435 -0.0679916 -0.11494753 -0.005655542 -0.11046693 -0.06584348
-0.011964455 -0.11586428 0.018032849 0.07798633 0.07189889 -0.038804114 0.02283436 -0.076391205
-0.0017091483 -0.060155764 -0.053783163 -0.093979776 0.08882247 -0.08794911 -0.08390804 0.05364205
-0.074615076 -0.0447509 -0.08372301 -0.116087675 0.08238952 -0.11016515 -0.112006634 -0.024243101
0.07365772 -0.06055166 0.077933595 -0.056165695 0.010480374 0.03801447 0.068716586 -0.0066564977
0.06824632 -0.05513215 -0.027219653 0.098395795 0.008685067 0.100794345 -0.009454548 0.12248322
-0.0942985 -0.046937123 -0.08993852 0.030044109 -0.10961126 0.004545465 -0.07790682 0.07900752
-0.042985886 -0.011362076 -0.010210007 -0.002527982 -0.025921598 -0.1098319 -0.08980404 -0.043355644
-0.044484258 0.015263692 -0.095281795 -0.09335795 0.04717809 -0.05786687 -0.010492608 -0.1215314
-0.057188824 -0.051282376 0.09757559 0.12282273 0.093580335 0.049384475 0.040182948 -0.059514016

bias f4 [64]
00000000: dc7f 1f3d 10c8 de3d 00c9 12bd f0e0 fcbd
00000010: d8c5 fb3c a06e 7dbd 1c9a bd3d 10d1 27bc
00000020: c0a7 d7bb fc2a 233d 5ce0 863d d0e7 933d
00000030: c65b 953d d82b 6abd 1047 0d3d 2691 9bbd
00000040: 4a5b a2bd 3c14 37bd c0b0 cabd 98a2 413d
00000050: a00e da3c a606 d8bd 2c7f 54bd c80a d93c
00000060: d6f6 e73d b256 e5bd 207a 63bc 22eb 8a3d
00000070: e845 893c d894 a0bc 402a 8d3c 60c3 8cbd
00000080: 5876 a53d c009 b73b 289f dc3d 88da 363d
00000090: 46e6 a53d e856 8f3d 1070 c1bd f832 c6bc
000000a0: b0c8 6a3d fee4 b23d 4086 6abb 2028 4abc
000000b0: 6440 0c3d e8bc 663d 50f6 223c 2011 b4bd
000000c0: d42f 093d a206 cb3d 72b7 9a3d 0024 4c3d
000000d0: fcf8 443d 5432 28bd e01c 1abc ee59 a13d
000000e0: 905b babd 00f8 af3a 1093 62bd 6e40 c9bd
000000f0: 3876 91bc 4068 ee3d 9e80 f03d b4de a53d
0.038940296 0.10878003 -0.03583622 -0.12347591 0.030733988 -0.06187308 0.0925791 -0.0102427155
-0.0065812767 0.039835915 0.06585762 0.07221949 0.07292895 -0.05717072 0.0344916 -0.07596044
-0.07927568 -0.04469703 -0.09896994 0.047274202 0.026618302 -0.10548143 -0.051879093 0.026494399
0.11326377 -0.111981764 -0.013884097 0.06783129 0.016756967 -0.019602224 0.01723206 -0.06873202
0.08079213 0.005585879 0.10772544 0.044642 0.08100562 0.06998998 -0.09445202 -0.024194226
0.057320297 0.08735083 -0.0035785586 -0.012338668 0.034241095 0.0563325 0.009946421 -0.08792329
0.033492878 0.099133745 0.07554521 0.04983902 0.048089013 -0.04106362 -0.009406298 0.07878481
-0.090994954 0.001342535 -0.05531603 -0.09826742 -0.017756566 0.11640978 0.11743282 0.08099118

weight f4 [30, 64]
00000000: e0bf 4cbd 08bb 84bd d696 ffbd 30cf c93c
00000010: a8bf b1bd bc9c 11bd 2245 d73d 123e c63d
00000020: 90db edbc b011 bebc 50cd 49bd 1005 18bc
00000030: 482a e5bd a20b e8bd c424 df3d 50d3 38bd
00000040: 226b bc3d b03d 5abd d2a4 cfbd a460 86bd
00000050: debf bcbd e031 79bc aa2a a0bd a0c2 92bd
00000060: 2424 6e3d 8256 e3bd dce7 72bd 7e7a 853d
00000070: fe0a 903d 7813 8d3d 884a bb3d 409c 7bbd
00000080: 3448 693d 4e85 c93d 9e89 f0bd 00f5 8a3a
00000090: ce34 edbd 8619 f0bd 7055 ef3c 6015 453c
000000a0: f267 9dbd c0c2 df3c e858 72bd fece e1bd
000000b0: 9827 223d 3021 26bc e0c6 823c 2448 35bd
000000c0: 60dc 4b3c d0eb ae3d 9840 86bc ecee 68bd
000000d0: 7842 363d 40bc 4ebd 8063 423c ac72 c03d
000000e0: ec7e 50bd 18c3 5bbd c462 2c3d ac78 89bd
000000f0: d4b2 d33d e002 713c 922f d4bd 6827 de3d
00000100: 20f1 f53b 6420 74bd 8822 70bd be75 c8bd
00000110: c8a2 a83c e8b7 cabc d0a5 47bd 2017 29bc
00000120: 24ad 723d 6a03 f0bd 80cf 10bc c0d2 7dbc
00000130: c00b 13bc 52f8 92bd ec82 a6bd 5cab 25bd
00000140: 6675 9abd 849a dcbd ecfa e5bd b89b 8d3c
00000150: 1402 dcbd e8b1 63bd 507e 4dbd 187f a03d
00000160: 0a82 8cbd 563e be3d 626f c83d 0029 bd3d
00000170: 0a2c 893d 36f5 c5bd 5296 86bd 10b5 4ebc
00000180: e036 81bd 0cd0 b8bd 74b2 bb3d a42b 433d
00000190: b017 d63d a01e 1d3d b296 80bd 30cb 933c
000001a0: f685 f43d 6888 353d d8c1 e0bc 4035 e7bb
000001b0: fc44 76bd 88d0 f13d 483c e2bc 2e24 fe3d
000001c0: 9014 6abc 3af6 9fbd e844 e53c 00cc b339
000001d0: f00f 75bd 4887 fdbc aa47 c43d 1cfa 34bd
000001e0: b839 bfbc 8e96 a93d b4a6 6fbd f808 023d
000001f0: 8418 69bd 0035 bdbb 18ea 4ebd 18d3 d8bc
00000200: 547d 733d c6f9 a3bd 3473 3abd 0279 ecbd
00000210: 8c58 a03d d602 f23d 9ce4 c7bd b0d8 8ebc
00000220: 043d df3d da7b 963d 701a 59bc 14d4 f9bd
00000230: 405d 4b3d a00f d8bb e0d5 1fbd f885 e63d
00000240: 40de d6bd 3e6c f33d c4cc eb3d 14ef 3e3d
00000250: c004 103d b6c3 e6bd a267 a33d a830 dfbc
00000260: 0053 c3bd a058 9fbd e05d 383c e822 abbc
00000270: 4c44 efbd a6eb a93d 54e4 353d 0e3d e5bd
00000280: c0d0 67bc e844 963d 8ee2 d83d 18ed f8bc
00000290: 74f0 40bd 3818 fb3c b878 a2bd d0ed 34bd
000002a0: b8d3 bb3c 9832 c6bc 48c8 95bd 822e e2bd
000002b0: 0082 a2bb fe10 86bd b0ba 273d c080 9ebd
000002c0: 3a1a d93d d644 f0bd 88b3 a83d 084e 413d
000002d0: 4004 23bd 0a20 8cbd 20cf 8bbd 200b 3b3c
000002e0: a837 47bd 2627 da3d 8c31 94bd de8e fabd
000002f0: a2a0 bfbd 3c6f 6f3d 1af1 ee3d 506d b2bd
00000300: 60e4 88bd 7837 a9bc 1096 90bd 60ef f83b
00000310: 201a edbb 1843 9d3d 8e6a abbd ac66 ee3d
00000320: f0f7 b33d 6879 2bbd 02ba ae3d 0016 123c
00000330: c05c 08bc 9250 de3d 10de 7abd aacb d0bd
00000340: d062 b83d 1001 903c cebc cd3d fa80 b83d
00000350: 8e09 cfbd 78f7 a9bd b8eb fabd 1c12 d5bd
00000360: 403e 20bc 7851 b6bd bcf7 e43d f4f1 3ebd
00000370: 50c8 bbbd bcf3 2d3d e049 953b c45b 10bd
00000380: 6ea4 d73d 623b 803d 00ce d63b e4ee a13d
00000390: 2ce1 d6bd 889a 2b3d 0866 ca3c d4ac 8a3d
000003a0: 445e 0dbd 862d eabd 80f8 febb cc83 7a3d
000003b0: 5008 613c 60c0 2dbd 0824 f73d 36a9 9fbd
000003c0: 7a32 813d 88f2 a9bc 6c80 e23d c03b babc
000003d0: 800d 80bb fa10 e4bd a0de 0bbd 90bc 03bc
000003e0: c08b 19bc cc6d cb3d 8e67 f4bd c49e d23d
000003f0: 38b9 523d 729f e1bd 6076 acbb 60ff 13bd
-0.049987674 -0.06480986 -0.124799415 0.024634928 -0.08679134 -0.035549864 0.10511233 0.09679808
-0.02903536 -0.023201793 -0.049268067 -0.009278551 -0.11189705 -0.11330344 0.10895684 -0.0451234
0.092001215 -0.053281486 -0.10138859 -0.065614015 -0.09216283 -0.015209645 -0.078206375 -0.07166028
0.058139935 -0.111004844 -0.05930315 0.06517504 0.070333466 0.06888479 0.09145075 -0.06142831
0.056953624 0.09839879 -0.117449984 0.001060158 -0.11582337 -0.11723618 0.029215544 0.012029022
-0.076858416 0.027314544 -0.05916682 -0.11025809 0.03958854 -0.010139748 0.015963972 -0.04425825
0.012442678 0.085410714 -0.016388223 -0.05686848 0.044496983 -0.050472498 0.011864543 0.09396872
-0.050902292 -0.053652853 0.042086378 -0.067124695 0.10336843 0.014710158 -0.10360636 0.1084736
0.007505551 -0.059601203 -0.05862668 -0.097880825 0.020585433 -0.024745896 -0.048742115 -0.010320455
0.05924715 -0.11719401 -0.008838534 -0.015492141 -0.008974969 -0.071762696 -0.0813044 -0.040446624
-0.07541923 -0.10771659 -0.112295 0.017286167 -0.10742584 -0.055589586 -0.05016929 0.07836741
-0.068607405 0.092892334 0.097868696 0.09236336 0.06697853 -0.09665911 -0.0657164 -0.012616411
-0.06309295 -0.09024057 0.091648966 0.04764904 0.10453737 0.038359284 -0.06278743 0.018041223
0.119396135 0.04431954 -0.027436182 -0.0070559084 -0.060124382 0.11807352 -0.027616635 0.124092445
-0.014287129 -0.07810636 0.027986959 0.00034293532 -0.059829652 -0.030948296 0.09583981 -0.044183835
-0.023342952 0.08280669 -0.05850859 0.031746835 -0.056908146 -0.0057741404 -0.050516218 -0.026467845
0.059445694 -0.08006625 -0.045520023 -0.11546518 0.07829389 0.11816947 -0.09760401 -0.017437309
0.1090031 0.073478416 -0.013250932 -0.12198654 0.049649477 -0.0065936595 -0.039022326 0.11256021
-0.104916096 0.1188588 0.11513665 0.04661472 0.03516078 -0.11267798 0.07978751 -0.02724488
-0.09537315 -0.07780576 0.01125285 -0.020890668 -0.116829485 0.082968995 0.044407204 -0.11193286
-0.014148891 0.073373616 0.10590087 -0.030386493 -0.047104314 0.030651197 -0.079331815 -0.04417211
0.022928104 -0.024194047 -0.07313591 -0.11044027 -0.004959345 -0.0654621 0.040949523 -0.07739401
0.106007054 -0.117318794 0.08237368 0.047193557 -0.039798975 -0.068420485 -0.06826615 0.011416227
-0.048637062 0.10651998 -0.07236013 -0.12234281 -0.0935681 0.05845569 0.1166708 -0.08712256
-0.06684184 -0.020656332 -0.07059872 0.007596895 -0.0072357804 0.07678813 -0.08369933 0.11640677
0.08787525 -0.04186383 0.08531572 0.008916378 -0.008322895 0.10855211 -0.06124693 -0.10195096
0.09003222 0.017578632 0.10045777 0.09008975 -0.10109244 -0.08299154 -0.12251991 -0.10403845
-0.009780467 -0.08902258 0.11180064 -0.046617463 -0.09169066 0.04246877 0.0045559257 -0.035243765
0.10529409 0.062613264 0.006555319 0.07906893 -0.10492167 0.04189542 0.024706855 0.067712456
-0.034513727 -0.11434464 -0.0077810884 0.061160848 0.013734892 -0.04241979 0.12067419 -0.07795946
0.06308456 -0.02074553 0.11059651 -0.02273357 -0.0039078593 -0.111360505 -0.03414786 -0.008040562
-0.009371698 0.099330515 -0.11933814 0.102841884 0.05144617 -0.1101674 -0.005263135 -0.036132216

bias f4 [30]
00000000: ce5d c33d b0d8 68bd c869 b8bc e6ba a83d
00000010: c0ff 1ebb 7cfc 15bd 0030 7438 427e a43d
00000020: 207a ac3d 2042 b83c a8be b8bd ee94 a13d
00000030: ec7d a4bd 2e01 8cbd f22e 8f3d 301d 773c
00000040: d857 66bd f05a 843c 483a 993c 4c56 843d
00000050: c0fd c33c 0890 dcbd 3cfe 82bd dcd2 2f3d
00000060: 943d 90bd 8070 bd3b 4cdc 31bd e05c fdbc
00000070: b099 d13c 2870 a5bc
0.09539376 -0.056847274 -0.022511378 0.08238773 -0.0024261326 -0.03661774 5.8218837e-05 0.08031894
0.08421731 0.022492468 -0.0902074 0.07889734 -0.0803183 -0.068361625 0.06991376 0.015082642
-0.056236118 0.016156644 0.018704548 0.06461772 0.023924708 -0.10769659 -0.063961476 0.0429257
-0.07042995 0.0057812333 -0.043422982 -0.030928075 0.02558598 -0.020195082
