darts_logs/2022-11-19_12.50.42.288998_torch_model_run_4168/_model.pth.tar (torch, 74610 bytes, 16 tensors)

weight f4 [64, 2]
000000 a0 1e 27 3d d6 81 83 3e 56 ed dd 3e a6 03 5e be
       0.04080069 0.25684994 0.43345135 -0.2168108
000010 38 ed e8 be 70 ea ce 3d e1 0b 00 3f e2 8d ff be
       -0.45493484 0.10103309 0.50018126 -0.49912935
000020 b6 a5 2f bf f5 47 2e bf db 26 34 3f 51 21 2e 3f
       -0.6861223 -0.6807855 0.7037179 0.68019587
000030 00 39 49 bd 6a 57 5f be e6 fa c3 3e 48 7f b6 3d
       -0.049126625 -0.2181069 0.38277358 0.08910996
000040 b0 03 0a 3e 08 86 55 3e 5b ab b2 be f6 03 ed be
       0.13477969 0.2085191 -0.3489636 -0.46292084
000050 60 c2 2f 3d 42 35 ac 3e 58 d5 0f be ab ee 0c 3f
       0.04290998 0.33634382 -0.14046228 0.5505168
000060 c3 8d 2c 3f ee 89 f1 3e fa 09 ef 3e ce 28 d7 3e
       0.6740381 0.47175545 0.466873 0.4202332
000070 50 ee 05 3d 98 7e 91 3d 8d 17 05 3f 10 4c 39 3e
       0.032697976 0.07104224 0.5198906 0.18095422
000080 20 e0 db 3c fc b0 5e 3e 48 04 2e be eb 51 34 bf
       0.02684027 0.21747202 -0.1699382 -0.70437497
000090 37 05 04 3f a9 87 2c 3f 38 49 a4 3d f8 9c 8c 3e
       0.5157046 0.673945 0.08021778 0.27463508
0000a0 78 c1 66 3e 00 b7 47 bc 08 3c b3 3d 50 a7 33 bd
       0.2253474 -0.012189627 0.087516844 -0.043860734
0000b0 9d c3 87 be 8a 41 9d 3e b0 d8 e8 bd ca 54 9b 3e
       -0.2651643 0.30714065 -0.11369455 0.30338126
0000c0 66 f9 db 3e 40 a5 64 bc 04 14 28 3e 8d 56 03 3f
       0.42963713 -0.013955414 0.16413885 0.5130394
0000d0 6e ac fc 3e 45 a8 2a bf 92 c1 12 bf fe f4 cb 3e
       0.49350303 -0.6666301 -0.57326615 0.39835352
0000e0 f0 c4 75 bd 76 ad d8 3e ec 41 cb be 2b a2 1e bf
       -0.060002267 0.4231984 -0.39698732 -0.619662
0000f0 01 05 9e be f0 e1 97 3d 6c 3c ad be de e8 f7 be
       -0.30863193 0.07416141 -0.3383516 -0.4841985
000100 eb fb 06 3f 54 10 d9 be 44 84 00 be 99 93 1b 3f
       0.52728146 -0.4239527 -0.12550455 0.6077209
000110 18 f5 26 3e d9 7b f3 be 6f a7 29 3f 90 6d 26 3d
       0.16304433 -0.47555426 0.6627111 0.04063183
000120 6e 86 c4 3e 96 42 c4 3e 82 1e e6 3e 80 33 51 bc
       0.38383812 0.3833205 0.4494515 -0.012768626
000130 2d 9a 0a 3f 40 d3 0a 3d 42 d9 a1 3e 40 0d 12 3e
       0.54141504 0.03389287 0.31611067 0.14262867
000140 95 15 33 bf 7e 90 8f 3e 48 c5 db be 71 43 28 bf
       -0.69954807 0.28039926 -0.4292395 -0.6572791
000150 f4 d9 06 be f0 d9 03 bd fd 90 34 3f 83 f1 1f 3f
       -0.1316908 -0.032190263 0.70533735 0.6247789
000160 23 69 2c bf 88 a1 36 be fa 8b d5 3e 56 51 8f 3e
       -0.67347926 -0.17835057 0.41708356 0.27991742
000170 70 57 47 3d 66 79 df 3e 03 0a 17 3f 2c ce 90 be
       0.04866737 0.43647307 0.5899965 -0.28282297
000180 54 0e 87 be 12 38 77 be 33 12 2b 3f b0 f7 33 3d
       -0.2637812 -0.24142483 0.66824645 0.043937385
000190 98 01 29 be 64 6c 37 be d5 f4 21 3f 0e c4 7f be
       -0.16504514 -0.17912441 0.6326421 -0.24977133
0001a0 90 8f ca be 73 d8 17 bf 32 c3 e7 3e e7 de 24 3f
       -0.39562654 -0.5931465 0.4526611 0.6440262
0001b0 92 b6 99 be 28 63 03 bf f5 84 20 bf c8 04 ef bd
       -0.30022103 -0.51323175 -0.62702876 -0.11670834
0001c0 18 0e 87 3e 87 41 33 3f ca 61 98 3e 90 cd 09 bd
       0.2637794 0.7002186 0.29762107 -0.033643305
0001d0 04 25 46 3e a6 6c ac 3e d0 e4 09 bd 00 69 5d 3d
       0.19350058 0.33676642 -0.03366548 0.054055214
0001e0 52 13 25 bf 82 97 91 be 72 11 e6 3e 40 2c 9b bd
       -0.64482605 -0.28435904 0.44935185 -0.075767994
0001f0 9c ab 7f 3e dd e6 2b 3f 83 9c 2d 3f 0c b3 12 bf
       0.24967808 0.67149144 0.6781694 -0.57304454

bias f4 [64]
000000 86 06 a9 3e 4a 0d b3 be 05 38 11 3f a8 0e 9a bd
       0.3301279 -0.34971076 0.56726104 -0.07522327
000010 b6 dd fd 3e 66 6d f4 3e 90 69 2d 3e 32 3b 11 bf
       0.49583215 0.47739714 0.169348 -0.5673095
000020 54 62 29 3e 00 c0 20 bf f0 bc 05 bd f6 a6 b7 3e
       0.16541415 -0.6279297 -0.032650888 0.3586957
000030 96 7b bb 3e 80 93 f9 3b d2 08 f3 be 1a 01 f0 3e
       0.36617726 0.0076164603 -0.47467667 0.4687584
000040 c0 e2 43 be 70 7c 73 be 6e 6b 08 bf 26 51 e5 3e
       -0.19129467 -0.23777938 -0.53288925 0.44788474
000050 80 ae db bd a6 e5 f5 be dd 43 12 3f a0 c4 65 3e
       -0.107266426 -0.4802677 0.571348 0.22438288
000060 63 6e b5 be 62 8d 85 3e e4 53 0f bf c8 40 a4 3d
       -0.3543578 0.2608443 -0.5598738 0.080201685
000070 fd c5 15 3f 16 4f 9e 3e 8c 43 f5 be 2d 60 1e 3f
       0.5850523 0.30919713 -0.47903097 0.618655
000080 a8 63 06 3e 8a e6 f0 be 06 d3 05 bf 4c e0 3c 3e
       0.13123953 -0.47050887 -0.5227512 0.18444937
000090 f3 11 e4 be bf 45 14 3f ce 16 b5 3e 0c 1d 08 be
       -0.44544944 0.57918924 0.3536896 -0.1329233
0000a0 40 59 8d 3e f9 24 31 3f 00 24 7a ba da dc c2 3e
       0.27607155 0.6919704 -0.00095421076 0.3805912
0000b0 ac 02 a9 be 3c 78 12 be e3 3a 2d 3f 45 37 2e bf
       -0.3300985 -0.14303678 0.6766798 -0.68053085
0000c0 bf 65 2d 3f b8 de 99 3d f0 bb 07 3e f4 ee 3a 3e
       0.6773338 0.07513183 0.13255286 0.18255216
0000d0 40 a9 e6 3d 77 26 1a bf 3e 2d a3 3e 2d 33 db be
       0.112627506 -0.6021494 0.31870455 -0.42812482
0000e0 4b 4b 13 bf 0c 8f 2a bf e3 c9 2b 3f c8 ce e1 3d
       -0.5753676 -0.6662452 0.6710493 0.110257685
0000f0 07 b8 82 be 00 ea 61 3e 34 93 42 be 78 49 10 bf
       -0.25531027 0.2206192 -0.19001466 -0.56362104

weight f4 [64, 64]
000000 1c b2 a1 3d 30 1a 9a 3d ce 30 94 3d 3e ca 8e 3d
       0.078953 0.07524526 0.07235871 0.069721684
000010 1c b0 1a bd 3e 71 f7 3d aa 1f f6 bd b4 d6 5b 3d
       -0.037765607 0.12082146 -0.12017758 0.053671554
000020 78 a7 e6 3d 02 d7 a2 3d 30 81 69 3c 80 9a 49 3d
       0.11262411 0.07951166 0.014251992 0.04921961
000030 10 22 0e 3c 0a 87 b9 3d 28 c2 be bd 60 b1 d3 3c
       0.008675113 0.0905896 -0.09314376 0.025841415
000040 44 c6 a3 bd 74 d0 f1 3d 10 ea 4d bc 16 1d 84 bd
       -0.079968005 0.118073374 -0.012568012 -0.0645086
000050 10 2d 6e bc b0 3b 3f bd cc d4 e5 3d c6 a0 b4 3d
       -0.014537111 -0.04668778 0.112222284 0.088197276
000060 80 a4 62 3d 50 a0 e3 3d 40 80 2f 3b a0 4e 88 3c
       0.05533266 0.111145616 0.0026779324 0.016639054
000070 80 6e 7c bc 60 37 85 3b b0 7d 1d 3d 12 66 f0 3d
       -0.015407205 0.004065439 0.038449943 0.11738218
000080 82 57 fa 3d 04 dd 7b 3d 6c ed 6d bd 74 d9 72 3d
       0.12223722 0.061490074 -0.05808775 0.05928941
000090 30 b0 3a bd 88 88 a0 3d e0 54 a7 3b c8 5b d9 bc
       -0.04557818 0.07838541 0.0051065534 -0.026533023
0000a0 f2 37 e0 3d 50 bc d3 3c d4 47 3a 3d be 42 e5 3d
       0.10948171 0.02584663 0.045478657 0.11194371
0000b0 c2 82 8b 3d 8e 0d b0 bd 54 73 a4 3d c8 ab cd 3d
       0.068120494 -0.08596335 0.080298096 0.1004253
0000c0 ba 9d a5 3d 98 05 f6 bc 0e 24 b2 bd c8 8e 74 3d
       0.080867246 -0.030031964 -0.08698283 0.05970648
0000d0 e8 10 14 bd ca be 8f bd 74 51 09 bd 10 83 b3 bd
       -0.036148936 -0.07018812 -0.033524945 -0.087652326
0000e0 c0 33 aa bd 8a 89 d1 3d c8 5e 56 3d 10 4c 40 bc
       -0.08310652 0.102313116 0.052336484 -0.011736885
0000f0 50 13 17 bd 90 af 1a bc c0 72 dd bd e6 2e 83 3d
       -0.036883652 -0.009441271 -0.108129025 0.064054295
000100 e0 4d ac 3d 78 d6 d6 3d 30 0c 9c bd 8e bc 9c 3d
       0.08413291 0.104901254 -0.07619512 0.076531515
000110 bc 54 56 bd 32 7a d7 bd d0 fe 91 3d f8 a9 93 bc
       -0.052326903 -0.10521354 0.0712868 -0.018025383
000120 26 88 94 bd bc 36 a6 bd ea ad cc 3d 84 0f 63 bd
       -0.07252531 -0.081159085 0.09994109 -0.05543472
000130 00 5d b0 ba 10 19 d5 3c 62 5a c9 bd 50 54 07 bc
       -0.001345545 0.026012927 -0.09831692 -0.008259848
000140 68 25 8c 3d 7e 0d bb 3d 42 20 8c bd 6a 83 a2 3d
       0.06843072 0.09133433 -0.0684209 0.079352215
000150 60 98 2a 3d 9c df 56 3d 96 4a e2 3d 60 f7 e1 bd
       0.041649222 0.052459344 0.110493824 -0.11033511
000160 10 06 ad bc 10 5f ae bd d4 a5 74 bd b0 21 cd 3c
       -0.021121055 -0.085142255 -0.05972846 0.025040478
000170 e2 59 98 bd 88 0c f2 3d 14 e1 73 3d 98 92 de 3c
       -0.07439019 0.118187964 0.059540823 0.02716951
000180 5e 2e d0 3d 14 4d d9 bd 22 b6 c2 3d 8e 47 9e 3d
       0.10165094 -0.106104046 0.09507395 0.07728492
000190 da a2 b6 bd e0 d4 40 3d 6a 8b a9 3d 00 0a af 3b
       -0.0891778 0.047078013 0.08278544 0.0053417683
0001a0 5c 9e 8b 3d 70 ab 52 3c 40 5c 76 bc a0 96 9d bb
       0.06817314 0.012858257 -0.015036643 -0.0048092157
0001b0 80 9f 02 3b 9c 90 79 3d 40 83 22 3c 98 80 86 3c
       0.0019931495 0.060928926 0.009918988 0.01641874
0001c0 a0 bd 53 3c e2 7c bf 3d 00 6d 82 3b f0 f2 ad bc
       0.012923628 0.093499914 0.003980279 -0.021234006
0001d0 98 98 f5 bd 00 e8 d0 b9 a0 a1 a1 3d f4 62 45 3d
       -0.119919956 -0.00039845705 0.07892156 0.048190072
0001e0 20 fc c0 bb 40 ef fa 3d 90 39 16 3c 74 39 b6 bd
       -0.0058894306 0.122526646 0.009168997 -0.08897677
0001f0 e6 57 ff 3d 1a f3 c5 bd 04 90 e2 bd c2 97 f8 3d
       0.12467937 -0.096655086 -0.11062625 0.121383205
000200 b6 00 d0 3d d0 e6 c1 bc 3c 15 a3 bd c8 d0 fd bd
       0.101563856 -0.02366963 -0.079630345 -0.123933375
000210 d6 28 d6 bd e0 da d1 bd b6 05 e2 3d a4 19 a1 3d
       -0.104570076 -0.10246825 0.110362455 0.07866219
000220 98 e9 0c 3d ca 8e cf bd 9c 82 e7 bd 9a 6b a0 bd
       0.03440246 -0.10134657 -0.11304209 -0.07833023
000230 9a c5 b2 bd 00 d0 0c bd 08 e5 ff bd 4e 33 f8 bd
       -0.08729096 -0.03437805 -0.12494856 -0.121191606
000240 2a 77 e0 3d f4 20 93 3d 20 40 f0 bb 80 44 e8 3b
       0.10960229 0.0718402 -0.007331863 0.007088244
000250 1e 07 82 3d 64 19 a2 bd 40 dc c4 3b 00 bc 9f 39
       0.06349014 -0.07914999 0.006007701 0.00030466914
000260 e8 c7 75 3d a2 d3 ec 3d 00 05 b3 3b 3a 98 fe 3d
       0.0600051 0.11563803 0.0054632425 0.12431379
000270 30 51 a4 3c 5c db 92 3d 8c 8a 12 3d a2 4c 94 3d
       0.020058244 0.07170746 0.03577666 0.07241179
000280 e8 d8 74 3d f8 8d 49 bd 40 0a c8 bb 5a 0d 9d 3d
       0.05977717 -0.049207658 -0.0061047375 0.07668562
000290 90 7b d0 3c c8 57 3e 3d 48 3d e4 bd cc 74 cc bd
       0.025449544 0.046470433 -0.11144501 -0.09983215
0002a0 28 bb b6 bd bc 21 a1 3d 44 ba 03 bd 3a 46 eb bd
       -0.08922416 0.078677624 -0.03216006 -0.11488004
0002b0 3a e6 cd 3d 1a cf ef bd 20 66 b7 bb 40 6a de 3c
       0.10053678 -0.11709423 -0.005596891 0.027150273
0002c0 20 48 08 bc fc 6c ce 3d 74 f6 1b 3d f0 b3 f0 bc
       -0.008317977 0.10079381 0.038076833 -0.029382676
0002d0 46 14 ef bd 26 0e cf 3d 42 bd 9d bd ba ce a9 bd
       -0.11673789 0.101101205 -0.07702114 -0.08291383
0002e0 80 7f aa ba 28 9f 27 bd ec 7c ad bd a8 63 a6 3d
       -0.0013007969 -0.040923268 -0.084710926 0.08124477
0002f0 9c 62 a9 3d f0 38 87 bc 22 f7 e7 bd a8 81 e9 3c
       0.08270761 -0.016506642 -0.11326434 0.028504208
000300 1a c5 a0 bd e0 d5 e7 3d e8 06 66 3d ee ae a2 bd
       -0.07850094 0.1132009 0.05615893 -0.079435214
000310 28 7a 7b 3d 7a 0b 80 3d 10 4b 22 3d 58 5c 85 3d
       0.061395794 0.06252189 0.039622366 0.06511754
000320 fc dc 60 3d 50 cf da bd 10 64 ed 3c 08 3a f4 bd
       0.054898247 -0.10684073 0.028978378 -0.11925131
000330 10 42 2a 3c 08 4e 4a 3d ac aa d6 3d f0 fa 21 bd
       0.010391727 0.049390823 0.10481772 -0.039545953
000340 00 d5 2d 3b 6c c6 74 3d 00 d6 3d 3c 9a 63 8c 3d
       0.0026524663 0.059759542 0.011586666 0.06854935
000350 a4 e3 a2 3d 70 10 7d bd ec e8 7f 3d b0 2a e8 3c
       0.07953575 -0.061783254 0.06247799 0.028340667
000360 e0 b5 ac bd a0 6b 19 3d d8 2b bb bc 18 a0 e8 bc
       -0.084331274 0.037456155 -0.022848055 -0.028396651
000370 a0 7f 9c bd f4 30 6f bd 24 7a 6d bd 20 96 9c bb
       -0.0764153 -0.058396295 -0.05797781 -0.0047786385
000380 d4 88 d9 bd 84 61 d4 3d 80 2b b0 3a 40 9c c4 3d
       -0.10621801 0.10370162 0.0013440698 0.09600115
000390 10 0a bf bd bc 84 14 bd 1e 89 f5 3d e4 c4 2e bd
       -0.09328091 -0.036259398 0.11989044 -0.04266824
0003a0 18 af 5e 3d f8 66 e5 bd 10 b5 97 3c d4 a3 01 3d
       0.0543662 -0.1120128 0.018518955 0.03165038
0003b0 68 f3 3b 3d 3c b0 41 bd 1a f1 b3 3d a8 be 68 3d
       0.045886427 -0.04728721 0.08786221 0.05682245
0003c0 f0 f6 04 bc 80 b4 9f bc 50 e4 6b bd a4 d3 cc bd
       -0.008115515 -0.019495249 -0.057590783 -0.10001305
0003d0 12 55 fe 3d 48 e0 3a 3d 08 5c 99 bd 46 f4 a8 3d
       0.124185696 0.045624048 -0.07488257 0.082497165
0003e0 78 43 7a 3d 04 12 db 3d 52 51 c6 bd 4a e6 b6 bd
       0.0610995 0.106967956 -0.09683479 -0.08930643
0003f0 6a 0e c7 bd 5a a0 c7 bd 08 f9 e0 bc 7c 1d 0c 3d
       -0.09719546 -0.097473815 -0.027462497 0.034207806

bias f4 [64]
000000 06 16 dc 3d 32 ee f4 bd e8 df 8e bc 40 7a a2 3d
       0.10746388 -0.11959495 -0.017440751 0.079334736
000010 50 f7 2e bd 80 48 6a bd 58 1c 7c 3d dc f3 df bd
       -0.042716324 -0.057198048 0.06155047 -0.10935184
000020 9c 18 19 3d f0 d5 f5 bc 80 c8 58 3d d0 fd cf 3c
       0.037376985 -0.03000924 0.052925587 0.025389582
000030 1c 14 14 3d 46 33 85 bd 20 4d a5 3d 74 de 2f bd
       0.03615199 -0.0650392 0.08071351 -0.042936757
000040 1e 6c f2 3d e8 b4 97 bd 08 51 a2 3d f8 06 4a bd
       0.11837028 -0.07407552 0.07925612 -0.049323052
000050 66 ef 9e 3d d0 f1 b7 3c 06 db a8 3d fa 79 88 3d
       0.077605054 0.022454172 0.082449004 0.0666389
000060 f8 e4 4e bd 52 c3 d4 3d 90 fb 18 bd d8 ba f6 bc
       -0.05051133 0.10388817 -0.037349284 -0.03011839
000070 7e 5d 8d 3d 0a a2 b6 bd 68 65 ed bc c4 46 67 bd
       0.06902598 -0.08917625 -0.028979018 -0.05646397
000080 b0 72 70 3d f0 ac 02 3c d0 a8 bc bc 48 79 97 3d
       0.058703125 0.007975802 -0.023029715 0.073961794
000090 f0 df e7 3c a0 c1 56 bd 04 d3 5a bd 44 89 2e bd
       0.028305024 -0.05243075 -0.053423896 -0.042611375
0000a0 8c 1e ad bd 22 d6 b3 bd 58 3e 4d 3d 54 97 17 3d
       -0.08453092 -0.08781077 0.050108284 0.037009552
0000b0 9e 26 ba 3d 2e a6 9b bd 6c 5e 39 3d 04 a0 b1 bd
       0.09089397 -0.07600056 0.045256063 -0.08673099
0000c0 60 d6 55 3d b0 07 fc 3c 7a 89 df 3d 00 c8 2b 3c
       0.052206397 0.030765384 0.109148934 0.010484695
0000d0 c8 bc cc 3c 00 00 9b bd 58 dd b4 bd 82 5f 81 bd
       0.024992362 -0.075683594 -0.088312805 -0.06317045
0000e0 b4 93 cd bd 9a 07 ac 3d 00 8b ba 3a 6e 19 8b 3d
       -0.10037938 0.083998874 0.0014232099 0.0679196
0000f0 82 0f a9 bd 0c a8 d1 3d f6 36 9f bd 18 97 a5 3c
       -0.08254911 0.102371305 -0.07774155 0.020213649

weight f4 [10, 64]
000000 36 7d 91 bd 00 be e5 3d 8a 7f ae 3d b0 67 16 bd
       -0.0710396 0.1121788 0.0852042 -0.036719978
000010 68 b7 ff 3d f6 2f ba bd 00 e8 5c bd 5c c0 fe bd
       0.12486154 -0.09091179 -0.05393219 -0.124390334
000020 9a 02 a4 bd 9c 16 d4 bd 0c d6 0a 3d 14 96 79 bd
       -0.08008309 -0.10355875 0.033895537 -0.06093414
000030 36 87 92 bd 90 f1 77 3d 3c ce db bd 24 bb 1a 3d
       -0.07154696 0.060533106 -0.107326955 0.037776127
000040 b8 eb aa bc 70 8a 42 bd b0 90 a1 3d 80 9a dc 3a
       -0.020864353 -0.047495306 0.07888925 0.0016830713
000050 20 4b dd 3c 70 89 95 bc 86 a4 9c bd d8 21 df 3d
       0.027013361 -0.018254012 -0.07648568 0.10895127
000060 10 06 7a bd 84 b6 6b 3d 74 1f de 3d 78 b1 06 bd
       -0.061040938 0.057547107 0.10845843 -0.03288409
000070 70 9e cb 3c 3c e4 f5 bd 16 49 d6 3d 5e a2 d5 3d
       0.024855822 -0.12006423 0.10463159 0.1043136
000080 58 39 5d 3d 40 62 07 bd 50 9a 7b bd 4e 12 d2 bd
       0.054009765 -0.033052683 -0.06142646 -0.102573976
000090 d2 f3 ac 3d e2 55 a5 3d 10 f7 68 bd a0 1d c6 bb
       0.084449425 0.080730215 -0.056876242 -0.006046012
0000a0 28 6e e0 bc 50 6c a0 bc 5c 23 59 3d 60 fb 61 bd
       -0.027396277 -0.019582897 0.053012237 -0.05517137
0000b0 98 21 80 3c 56 95 d8 3d 12 e3 a2 3d a8 cd 30 bd
       0.015641019 0.105753586 0.079534665 -0.04316488
0000c0 00 d8 94 3c ee 16 9a 3d 30 4d 2d 3d 60 e5 c2 bb
       0.018169403 0.07523905 0.04230994 -0.005947754
0000d0 cc 8a 97 bd 90 75 d9 3d 88 e4 9b 3d 64 ae 9e 3d
       -0.0739952 0.106181264 0.07611948 0.07748106
0000e0 00 8d 87 3d 26 1f e0 bd f4 3b e2 3d 88 1d be 3c
       0.066186905 -0.10943441 0.110465914 0.023207441
0000f0 f2 02 fb bd 3e a3 8c 3d e8 1d a2 bd e0 e2 d3 3d
       -0.12256421 0.068670735 -0.079158604 0.10346007
000100 e0 ef 29 3c 7c 33 e2 3d 14 11 1d 3d a0 f8 8a 3d
       0.010372132 0.11044976 0.038346365 0.06785703
000110 5e 11 9b 3d ec c5 ea bd 70 f6 30 bc 6c 31 06 bd
       0.07571672 -0.11463532 -0.010800943 -0.032761976
000120 28 4c 81 3c 84 43 9f 3d d0 c3 22 3d f4 60 2c 3d
       0.015783384 0.077765495 0.039737523 0.04208465
000130 aa dc b4 3d ec 20 a2 3d 88 9d 52 bd 0c 29 64 3d
       0.08831151 0.079164356 -0.051419765 0.055703208
000140 d8 d0 bb 3d b2 ad b3 bd 30 4f 4d 3c 7a 9d 99 bd
       0.09170693 -0.08773364 0.012531087 -0.075007394
000150 da a2 94 bd d0 db c9 3c 8e f2 d5 3d 40 34 78 bc
       -0.07257624 0.024640948 0.10446654 -0.015149176
000160 48 e9 92 bc b4 b0 42 bd 4c 19 2a 3d c0 ce 57 3b
       -0.017933503 -0.0475318 0.04152803 0.003292963
000170 00 78 a6 b9 64 7b b0 3d 6c e8 51 bd d8 a7 10 bd
       -0.00031751394 0.08617285 -0.051247045 -0.03531632
000180 12 ef b2 3d 00 ed ab 3a 84 2a c4 bd f4 74 b0 3d
       0.08737005 0.0013116896 -0.09578422 0.08616057
000190 04 10 92 bd 94 7c 79 bd 1a ec dd bd 08 a9 ba 3c
       -0.07131961 -0.060909823 -0.108360484 0.022785679
0001a0 7c 16 df 3d ca a0 b7 3d 10 1d a8 bd f0 f5 a6 3c
       0.108929604 0.08966215 -0.08208668 0.020380944
0001b0 b4 f4 74 3d 8c af c6 3d 44 52 86 bd 66 18 eb 3d
       0.05980368 0.09701452 -0.0655866 0.11479263
0001c0 e8 49 d5 bd 78 a8 fb 3d 30 ab 77 bd d0 a3 52 3d
       -0.10414487 0.12287992 -0.06046599 0.051425755
0001d0 20 b0 f4 bd 50 94 7a bd f8 bb d1 3c 6e c1 e8 3d
       -0.11947656 -0.061176598 0.025602326 0.11365019
0001e0 88 fb 14 3d 3e ed 87 bd ca 4e da bd c0 90 27 3c
       0.03637269 -0.06637047 -0.10659559 0.010227382
0001f0 30 7e 87 bc b8 09 b7 bd ba 67 d9 bd de c4 ee bd
       -0.016539663 -0.089374006 -0.106154874 -0.11658643
000200 60 97 a6 3c 80 19 9f 3b dc 33 67 bd 44 2b e3 bd
       0.020335853 0.0048553348 -0.05644594 -0.11092237
000210 0e 51 e1 3d e2 32 90 bd 50 61 0f 3c 40 13 e2 3b
       0.11001788 -0.07040955 0.008751228 0.0068992674
000220 bc 66 99 bd c8 56 7e 3d 7e db a9 3d c0 b1 d1 3c
       -0.07490298 0.06209448 0.08293818 0.025597453
000230 10 5b cf 3d 40 a6 ba 3d de 99 88 3d d0 ca 53 bc
       0.10124791 0.09113741 0.06669973 -0.012926772
000240 d0 93 a7 3c 76 78 d0 bd 04 c1 63 3d f6 94 f4 3d
       0.020456225 -0.10179226 0.055603996 0.119424745
000250 54 8d 75 3d ca fb d6 bd 5e f0 80 bd 48 87 dc 3c
       0.059949234 -0.10497244 -0.062958464 0.026919976
000260 5e 58 c6 3d 80 fb 77 3d 40 b2 6e bb 74 b4 ae bd
       0.096848235 0.060542583 -0.0036422163 -0.085305125
000270 fc 91 9c bd 94 5d f4 bd 9c 9a 75 bd f4 90 87 3d
       -0.07645032 -0.11931911 -0.0599619 0.066194445
000280 50 04 79 bd 60 21 f1 3b 58 8e 88 bc f0 a2 2f 3d
       -0.06079513 0.007358715 -0.016669437 0.04288
000290 50 3a 48 bd 30 58 68 bd d0 4c ee bc 08 72 85 3c
       -0.048883736 -0.056724727 -0.029089361 0.016289726
0002a0 80 4f f8 3d c0 44 22 3d c0 b8 97 bd 52 79 f9 3d
       0.121245384 0.039616346 -0.07408285 0.12181343
0002b0 e4 3c 33 3d 64 e6 7c 3d 86 7a f1 bd cc ea fa bd
       0.04375924 0.061743155 -0.117909476 -0.12251815
0002c0 00 bb d2 ba f4 52 d5 3d 08 1f 8f bd 08 42 a7 3c
       -0.0016077459 0.10416213 -0.069883406 0.020417228
0002d0 60 e3 c0 bc 7c 73 1b 3d ac 2b 26 3d 4c 18 c5 3d
       -0.02354592 0.03795193 0.040568992 0.09623775
0002e0 40 59 3e 3b 70 83 f5 bd 30 9e d5 bd fc 5a 2f bd
       0.0029044896 -0.1198796 -0.104305625 -0.04281138
0002f0 60 92 e0 3b 28 cc 08 bd 10 f0 91 bd 9c 27 45 3d
       0.0068533868 -0.033397824 -0.071258664 0.048133478
000300 a4 9e 64 bd f0 1c 08 3d f2 4e 8d bd 0a 38 c6 bd
       -0.055815354 0.033230722 -0.06899823 -0.09678657
000310 b8 d8 3a bd d4 41 65 bd 70 49 e1 bd 1a cd b3 bd
       -0.045616835 -0.05597098 -0.11000335 -0.087793544
000320 cc d2 e9 bd 30 17 78 3d 3c c0 1a 3d c0 27 a1 bd
       -0.114171594 0.06056899 0.037780985 -0.0786891
000330 c8 10 b7 3c ec 16 4b bd b0 bd 73 bc 80 16 d8 3a
       0.02234687 -0.049582407 -0.014876768 0.0016486198
000340 40 1c 08 bb 36 4d ab 3d d8 ff fe bc 84 df 7f 3d
       -0.0020768791 0.08364336 -0.031127855 0.06246902
000350 a4 24 3a bd da a1 a7 bd 68 70 50 bd cc ec 32 bd
       -0.0454451 -0.081851676 -0.05088845 -0.04368286
000360 b6 c8 a1 3d 98 15 38 bd 14 7f fe 3d 20 c6 33 3c
       0.07899611 -0.04494247 0.12426582 0.01097253
000370 d6 b2 83 3d 00 53 ce 3a 00 96 1a 3a c6 77 cb bd
       0.064305946 0.0015741289 0.00058969855 -0.09934954
000380 c6 e9 ca 3d f0 9f c1 bd 68 64 84 bc e0 21 a7 bb
       0.0990787 -0.09454334 -0.016161159 -0.0051004738
000390 52 e5 c8 3d cc 77 16 bd 54 41 da 3d 00 65 0b 3a
       0.098093644 -0.03673534 0.106569916 0.00053174794
0003a0 30 5e 7e 3d 88 f6 e6 3c e8 e3 18 3d 0e 24 98 bd
       0.062101543 0.028193727 0.037326723 -0.07428752
0003b0 70 cc 83 3d 34 cd 11 3d 12 2a 94 3d 12 80 d8 bd
       0.06435478 0.035596088 0.07234587 -0.105713025
0003c0 40 34 1e bc 6c 73 a7 bd 74 d1 15 bd 6a 76 96 bd
       -0.009656012 -0.08176312 -0.036576703 -0.073468044
0003d0 d8 9b a6 3c 3c 20 a9 3d 70 86 4c 3d e4 2c ab bd
       0.020337984 0.08258101 0.049932897 -0.083581716
0003e0 98 90 c5 3d 90 79 8a bc c0 53 69 bc c0 38 bb bb
       0.0964672 -0.016903669 -0.014241159 -0.0057135522
0003f0 f0 50 63 bc 6a ac c4 3d 58 b4 a2 bc c0 4f 5d 3b
       -0.0138742775 0.09603198 -0.019861385 0.0033769459

bias f4 [10]
000000 34 78 53 3d a0 f7 0d 3d 04 a8 2d 3d c0 c3 76 3b
       0.051628307 0.03465998 0.04239656 0.0037653297
000010 40 7b d4 3d 38 d8 b8 3d 00 e5 6b 3d 10 7d 21 bd
       0.103750706 0.090256155 0.05759144 -0.03942591
000020 e0 bc df bb 28 31 24 3d
       -0.0068279356 0.04008594

weight f4 [2, 64]
000000 12 69 f1 3d 64 b4 89 3d 94 b9 b9 3d 38 e1 54 bd
       0.11787619 0.0672386 0.09068599 -0.051972598
000010 d8 4c 8a bd 90 5d e2 bc e4 c5 76 3d 60 97 3e bc
       -0.06752938 -0.027632505 0.060247317 -0.01163277
000020 94 bc dd 3d 12 4c b6 bd d0 9e a1 3d 2e db a8 3d
       0.10826984 -0.08901228 0.07891619 0.0824493
000030 ce ee 9e 3d d2 32 ee bd 98 fc e5 3c e2 92 e3 bd
       0.07760392 -0.11630787 0.028074548 -0.11112
000040 48 d6 70 3d 56 2d f9 bd 80 a2 ba bc 46 3d 84 3d
       0.058798105 -0.1216685 -0.022782564 0.064569995
000050 d8 8e c4 bd d2 7b de bd 70 c5 36 3d 28 51 0c 3d
       -0.09597558 -0.108634606 0.044621885 0.034257084
000060 10 ee 76 3c 08 41 8c bc 90 ba eb bc 32 8b b3 bd
       0.015071407 -0.017120853 -0.028775483 -0.08766784
000070 0e 30 f8 bd 48 47 fd 3d 52 15 82 bd 78 c2 27 bd
       -0.12118541 0.123671114 -0.06351723 -0.040956944
000080 08 be c5 bc 80 72 a3 3a 14 5c 8b 3d 50 57 cc 3d
       -0.024138466 0.0012470037 0.06804672 0.09977591
000090 1e ea d5 bd 42 81 d5 3d 40 81 18 3d a0 1c b9 bc
       -0.10445045 0.104250446 0.037232637 -0.022596657
0000a0 f0 cb 0e bc 2c 6e 62 3d c2 27 b1 3d ea 7b 99 bd
       -0.008715615 0.05528085 0.08650161 -0.07494338
0000b0 0c ab d4 3d 96 fe 8d 3d 1a cf d5 3d 30 b6 92 3c
       0.10384187 0.06933324 0.10439892 0.01790914
0000c0 aa 5b a9 bd 22 c2 f1 3d be 9d e0 bd 58 99 28 bd
       -0.08269437 0.11804606 -0.10967587 -0.041161865
0000d0 b0 b9 80 bd 40 aa 9a bd c8 63 14 3d ce 5c cf bd
       -0.06285417 -0.07552004 0.03622797 -0.10125123
0000e0 2c 44 03 bd 90 f5 52 3d 30 8f 45 3c d0 7b 4c 3c
       -0.032047436 0.051503718 0.012058064 0.012480691
0000f0 b8 c1 b7 3d 0a 1d aa bd 10 cc e0 bc 06 1c 84 bd
       0.08972496 -0.0830632 -0.027441055 -0.064506575
000100 68 82 3e 3d ce 39 ba 3d de fb 99 bd c4 dc 46 3d
       0.046511084 0.090930566 -0.07518743 0.048550382
000110 60 e8 e4 3b d0 90 2d bc fc 87 cc bd 64 4d d8 bd
       0.006985709 -0.010593608 -0.099868745 -0.10561636
000120 3a dd b6 3d d0 be 27 3c d4 6f 92 3d 8a e2 b2 bd
       0.08928914 0.010238364 0.07150236 -0.08734615
000130 a0 3b e7 3d e0 9b 92 3c c0 a4 4a bd 88 22 af 3d
       0.112906694 0.017896593 -0.049473524 0.08551508
000140 10 a3 84 bc 78 3e fa 3d c4 f2 c3 bd cc 9f ef bd
       -0.016191036 0.12218946 -0.09567788 -0.11700401
000150 a6 8f d8 3d c4 61 61 3d 50 22 4f 3d a8 5a 96 bc
       0.10574274 0.055024877 0.050569832 -0.018353775
000160 6a 5d ae 3d 30 ab 47 bd 1a 23 cc 3d c0 4d fb bb
       0.08513911 -0.04874724 0.099676326 -0.0076691806
000170 4c ea 2c 3d b0 18 27 bc 14 1e 3d 3d 1c f4 38 3d
       0.04221563 -0.010198757 0.046171263 0.045154676
000180 24 47 13 3d 04 0e bb 3d e0 ca 37 bc 38 af 59 bd
       0.035956517 0.09133533 -0.011217803 -0.053145617
000190 00 d9 a4 3b f8 99 5a bd 10 b8 8d bc 20 aa c7 3d
       0.005030751 -0.053369492 -0.017299682 0.09749246
0001a0 e0 00 77 3d 46 0d fc bd 86 b0 8a bd b0 98 b8 3d
       0.06030357 -0.12307219 -0.067719504 0.09013498
0001b0 ae e3 8b bd 9a 7b dd 3d 20 1f 32 3c 80 a5 35 bb
       -0.06830536 0.10814591 0.010871679 -0.0027717054
0001c0 48 b5 f8 3d 40 e5 df 3c 0e 7a 9b 3d 66 02 d7 3d
       0.12143952 0.027330995 0.075916395 0.10498504
0001d0 c4 89 be 3d d0 73 97 3d 48 42 68 bd 30 4b 70 3d
       0.093036205 0.07395136 -0.056703836 0.058665454
0001e0 d6 7c fe bd 00 4e 77 ba 18 71 cb 3d ba 92 f0 bd
       -0.12426154 -0.0009433925 0.0993368 -0.11746736
0001f0 5e 81 9d 3d f0 04 31 bc a2 52 ab bd 08 41 b9 bd
       0.076906905 -0.0108044 -0.0836537 -0.09045607

bias f4 [2]
000000 70 0b 88 3d aa c8 f3 bd
       0.066428065 -0.11903508

weight f4 [64, 30]
000000 a0 c3 a6 3d 40 25 05 be 02 4e 31 3e 2c 0c 0d 3e
       0.08142781 -0.13002491 0.17314914 0.13774174
000010 b0 af 62 3c 0f df f3 bd 76 d5 22 3e 78 b2 0b 3e
       0.0138358325 -0.119077794 0.15901741 0.13642299
000020 c8 e7 e4 bc e4 a0 07 be d6 a8 17 3e 30 a2 46 3c
       -0.027942553 -0.13244969 0.148105 0.012123629
000030 bc 88 37 bd de c8 8e bd a9 24 28 be d4 61 21 bd
       -0.044808134 -0.06971906 -0.16420235 -0.039399937
000040 7c 77 e3 3d 34 a7 cd 3d f8 5f c4 3c cc a1 03 3e
       0.11106774 0.10041657 0.023971543 0.1285469
000050 02 ac 86 3d c0 9c a3 bc d3 7d 85 bd b4 cd df 3d
       0.06575777 -0.019972205 -0.0651814 0.10927907
000060 0b 66 e7 bd 40 73 78 3d a0 47 95 3d 9c f1 31 be
       -0.1129876 0.060656786 0.07289052 -0.17377323
000070 b0 dd 0c 3d 2c 68 31 bd 6d 43 20 be 90 4a 7a 3d
       0.034391105 -0.043312237 -0.15650721 0.061106265
000080 78 be 7c 3d c6 2f 0b 3e b7 e6 07 be e0 47 f3 3b
       0.061705083 0.13592443 -0.13271604 0.0074243397
000090 e4 07 13 3e e8 77 82 bc 64 23 13 3e 04 b3 04 3e
       0.14358479 -0.015926316 0.14368969 0.12958914
0000a0 f0 0c c2 3c 67 bc 37 be e8 07 12 3d 20 b3 28 bc
       0.02368781 -0.17942964 0.03565207 -0.010296613
0000b0 bc 4a 97 3d 87 39 96 bd 94 5e 3e 3d 96 0d 15 3e
       0.07387301 -0.07335191 0.046476915 0.14555964
0000c0 14 9c 9b 3d 5c 65 f6 bd 6c 11 22 3e f8 b8 a0 3c
       0.07598129 -0.120310515 0.15826958 0.01961945
0000d0 46 6a f1 bd d0 ba 4a bd 84 4a 9e 3d 19 c4 d1 bd
       -0.11787848 -0.049494565 0.077290565 -0.10242481
0000e0 d4 02 12 3e bc 34 f8 bd 78 c6 f0 3d ab 06 b9 bd
       0.14258891 -0.12119433 0.11756605 -0.09034475
0000f0 54 65 8b 3d e5 34 1e be 00 25 11 3e 8c 35 1b bd
       0.06806436 -0.15449865 0.1417427 -0.037892863
000100 24 9a 23 3e 38 73 50 3d 3c 2a 4d 3d a3 11 2b be
       0.15976769 0.05089113 0.050089106 -0.16705947
000110 12 04 19 3e 68 e5 c6 3d 0c 74 03 3e 08 56 d3 3c
       0.14942959 0.097117245 0.12837237 0.025797859
000120 54 7e 02 be 80 c3 e1 bb a9 94 86 bd 40 1b 36 bd
       -0.12743503 -0.0068897605 -0.065713234 -0.04445958
000130 00 cc d8 3c f0 f3 b6 3c ae 7a 98 bd c2 13 b5 bd
       0.026464462 0.022333115 -0.07445274 -0.08841659
000140 24 f9 69 3d 3c 7c aa bd 8c d5 2f bd 3d 9d 2c be
       0.057122365 -0.08324477 -0.042928264 -0.16856857
000150 80 28 99 bc 31 78 0f be 18 eb ae 3c 0c fa a8 3d
       -0.01869607 -0.14010693 0.021352336 0.08250818
000160 97 ed ce bd 7d cc 88 bd 46 d7 c1 bd 6c fb 54 3d
       -0.101039104 -0.06679628 -0.09464888 0.051997587
000170 b8 2a 1e 3e ca 0c 12 be c0 01 ae bb d0 8c 78 bc
       0.15445983 -0.14262691 -0.005310267 -0.015170291
000180 a4 b4 02 3e c8 18 12 be 0e 6e 20 3e e0 f7 e7 3b
       0.12764221 -0.14267266 0.15666983 0.0070791095
000190 fa f1 9a bd 70 47 2f bc dc cb 11 3e aa e6 85 3d
       -0.075656846 -0.010698184 0.14237922 0.06538136
0001a0 18 35 23 bd e6 69 d5 bd 10 5e 0a be 20 0a f0 bb
       -0.039845556 -0.10420589 -0.13512444 -0.0073254257
0001b0 ba 26 10 be 54 1f 5d bd f0 b5 02 3c a4 1d 17 3d
       -0.14077273 -0.053984955 0.007977948 0.036893502
0001c0 de 54 c0 bd 88 7c a5 3d de 5b 13 3e b6 d4 13 3e
       -0.09391187 0.08080393 0.14390513 0.14436612
0001d0 68 55 e8 bc c0 a0 ac 3d ff 2e 04 be 48 a8 22 be
       -0.028361037 0.08429098 -0.12908553 -0.15884507
0001e0 48 af fa bc ba a7 6c bd ca 12 11 3e 20 e5 f0 bb
       -0.030601159 -0.057777144 0.14167324 -0.0073515326
0001f0 38 42 44 bd 6c b0 ca 3d f4 45 30 3e 94 0c 11 bd
       -0.047914714 0.09896931 0.17214185 -0.035412386
000200 52 18 ed bd 53 34 a7 bd 2c d7 a8 bd 00 68 ec bd
       -0.11576904 -0.08164277 -0.08244166 -0.11543274
000210 89 e4 20 be c0 96 13 3e 18 20 2f be a4 47 17 bd
       -0.15712179 0.14412975 -0.17102087 -0.036933556
000220 d2 c9 12 3e 02 fe 1e 3e 54 dc a6 3d 38 1b a2 3d
       0.14334801 0.15526584 0.08147493 0.07915348
000230 f6 c7 31 3e e3 e8 2c be dc 8b bd 3d fc bc 55 bd
       0.17361435 -0.16885714 0.09255192 -0.052182183
000240 a2 66 32 3e d0 04 8e 3d 54 1b 31 3d 0c a8 59 bd
       0.17421964 0.06934512 0.043238953 -0.053138778
000250 46 79 90 bd 08 94 b3 3c 04 0a b1 3d 02 7e cf bd
       -0.07054381 0.021921173 0.086444885 -0.10131456
000260 e0 e9 c3 3b 3c 30 bf bd 64 6b 99 bd 20 f3 a2 3d
       0.005978808 -0.09335372 -0.07491186 0.07956529
000270 24 33 1a bd 00 b0 3d 3a 68 85 e7 3d 85 60 f9 bd
       -0.037646428 0.0007236004 0.11304742 -0.12176613
000280 a4 07 10 3e e0 48 0c 3c 36 cd 14 3e d7 af 94 bd
       0.14065415 0.008562297 0.14531407 -0.07260101
000290 c2 9f 31 3e f0 0f 84 3d c4 0e c9 bd 90 40 c5 3d
       0.17346099 0.06448352 -0.098172694 0.09631455
0002a0 48 f4 b4 3c aa 60 03 3e a4 6f af bd b4 9d 4b bd
       0.022089139 0.12829843 -0.08566216 -0.049710944
0002b0 8c 7f ab bd d6 28 1f be 52 39 15 be b0 a3 f8 3d
       -0.08373937 -0.15542921 -0.14572647 0.12140596
0002c0 6a 67 11 3e 00 ef bc 3c 98 c3 69 3d fe 7c 0b 3e
       0.14199606 0.023063183 0.0570713 0.136219
0002d0 f2 73 20 3e 90 59 a0 3c 70 55 5b 3c b8 86 28 be
       0.1566923 0.019573957 0.013387069 -0.16457641
0002e0 00 14 98 3d 18 95 27 3d 34 2f cc 3d 24 cf 27 3e
       0.0742569 0.04091367 0.09969941 0.16387612
0002f0 9a 99 13 3e 8a 09 25 be 48 af bc 3d 18 14 47 3d
       0.14414063 -0.1611692 0.0921312 0.048603147
000300 60 21 ed bc 80 cc 0c 3b 98 b2 bd 3c b8 f8 ed 3c
       -0.028946579 0.0021484196 0.02315645 0.029049262
000310 30 4b 1b bd cf 5a b7 bd 00 6b 63 3d 68 de 15 be
       -0.0379135 -0.08952867 0.055521965 -0.14635623
000320 c9 20 c3 bd c0 04 8e bd 70 d0 5e 3c b8 17 07 be
       -0.09527738 -0.069345 0.0135995 -0.13192642
000330 38 66 b9 3d f8 2f 70 3d 1c 51 9a 3d b4 f2 12 be
       0.090527 0.058639497 0.07535002 -0.14350396
000340 6f 64 0a be 34 e9 4e 3d 10 69 c6 3c 42 1d 18 be
       -0.13514875 0.05051537 0.02422002 -0.14854911
000350 30 ff 76 bd ea e1 23 3e c0 f4 4a 3d 30 4f 76 3c
       -0.06030196 0.16004148 0.049549818 0.015033528
000360 7c ce 2e be 78 60 e1 bc 50 09 af 3c e8 ed cc 3c
       -0.17070955 -0.02751182 0.021366745 0.025015786
000370 f5 a3 bc bd 10 71 19 bd e8 64 98 bc 60 96 27 be
       -0.0921096 -0.03746134 -0.018602803 -0.16365957
000380 9c 14 b8 3d 5c d8 4a bd ca 41 9d bd 70 2d 11 3e
       0.08988306 -0.049522743 -0.07678564 0.1417749
000390 11 ff b3 bd 7c f7 b4 3d 48 65 ba bd 18 d7 22 3d
       -0.087888844 0.088362664 -0.09101349 0.03975591
0003a0 72 ff 07 be 80 4a be bc 42 53 39 3e 30 72 07 3d
       -0.13281038 -0.023228884 0.18098167 0.033067882
0003b0 e0 b5 54 bc 04 9b 0a 3d fc a2 c3 bd 6c 07 17 be
       -0.0129828155 0.03383924 -0.09552571 -0.14748925
0003c0 e0 fd 77 3d 5a c8 e1 bd a0 e1 b2 bc d1 e7 87 bd
       0.06054485 -0.11024542 -0.021836102 -0.06636012
0003d0 78 3d d0 bd 00 20 8a 3a ad 6b 0a be 90 af de 3c
       -0.10167974 0.0010538101 -0.13517638 0.027183324
0003e0 24 e7 35 3d 9a 1f ee bd 78 c5 37 bd ca 1f 1e be
       0.044409886 -0.11627121 -0.044866055 -0.15441814
0003f0 dc 30 14 be 04 52 34 3d 14 1b b4 bd 08 76 81 3d
       -0.14471763 0.04402353 -0.08794227 0.06321341

bias f4 [64]
000000 80 fe 9c 3d c0 39 2c 3d 2c 1f 06 3d e8 76 33 be
       0.076657295 0.042047262 0.03274457 -0.17525828
000010 f5 32 e7 bd 12 fa 77 bd 78 d5 b5 3c ca 4b ef bd
       -0.11289016 -0.06054122 0.022196516 -0.116843775
000020 ec fd 48 bd 38 7e 87 3c 5c fc f6 bd 98 32 8a bc
       -0.049070284 0.016539678 -0.120598525 -0.016869828
000030 80 61 0d 3b d8 67 f7 3d 38 4c bb 3c 9e f5 9e bd
       0.0021573007 0.120803535 0.022863492 -0.077616915
000040 78 4a 84 3d 90 50 22 3e cc 2b 30 3d 74 31 c7 3d
       0.06459516 0.15851045 0.043010518 0.09726229
000050 30 b2 33 bc 58 97 24 3e 97 23 1e be 58 16 b6 3d
       -0.010967776 0.16073358 -0.15443264 0.088909805
000060 98 b1 8b bd 48 99 15 be 08 4c 98 3d 40 fe 36 3b
       -0.06820983 -0.14609253 0.07436377 0.002792254
000070 00 bb 3b 3c 74 52 ac 3d c4 50 98 3d e0 ee d5 bc
       0.0114581585 0.08414164 0.0743728 -0.026114881
000080 0c 7c 2e 3e 2a aa 84 bd 1f 0f 91 bd 80 e5 cf bb
       0.17039508 -0.06477769 -0.07082962 -0.006344497
000090 50 9d 9d bc a4 49 cb bd 18 15 ae 3c ed a4 30 be
       -0.019240052 -0.09926155 0.021250293 -0.17250414
0000a0 96 b5 fb bd b6 57 11 be de 49 06 3e a0 7e c3 3d
       -0.12290494 -0.14193615 0.13114116 0.09545636
0000b0 d0 aa 5a bc 48 d5 56 bd e0 24 78 bc 60 1c 31 be
       -0.013346389 -0.052449495 -0.01514551 -0.1729598
0000c0 45 8b 90 bd 68 26 0f 3e 20 6e dc bc 20 50 a8 bd
       -0.070578136 0.13979495 -0.02690798 -0.08218408
0000d0 d9 f6 36 be 20 d5 ee bc 48 b5 0b bd 60 6a 19 3c
       -0.17867602 -0.02915436 -0.03410843 0.009363741
0000e0 7c 95 13 bd 84 7f 8b 3d ee 56 f8 bd 40 db 07 be
       -0.03603123 0.06811431 -0.121259555 -0.13267231
0000f0 b4 66 6a bd a8 a0 95 3c 64 42 a7 3d c0 80 06 3b
       -0.05722685 0.018265083 0.0816696 0.0020523518

weight f4 [64, 64]
000000 40 78 7b 3b 4c d3 f9 3d 02 d6 a8 3d 8c 30 ee bd
       0.0038371235 0.12198505 0.08243944 -0.11630353
000010 2a 46 cf bd 20 05 96 bd 4a 76 bf bd 50 ac af 3c
       -0.101208046 -0.07325196 -0.09348734 0.02144447
000020 26 63 d9 3d a4 83 fe bd dc f4 d4 3d e6 c8 d6 3d
       0.10614614 -0.12427452 0.10398266 0.10487537
000030 ec 54 73 3d 0a 13 d5 3d 54 9b 53 3d 80 53 3c 3c
       0.05940716 0.10404022 0.051661804 0.011494517
000040 76 de e3 3d de 80 e7 3d 06 48 9e 3d 4c c9 f4 bd
       0.111264154 0.11303876 0.07728581 -0.11952457
000050 dc ec 96 3d 60 44 e8 bd f2 0a 89 bd e6 39 fc bd
       0.07369396 -0.113411665 -0.06691541 -0.12315731
000060 50 3f da 3d 32 3a b3 bd c0 03 82 3b 48 8e 90 bd
       0.10656607 -0.08751334 0.003967732 -0.07058388
000070 20 01 85 3d d8 c0 88 3c 78 39 da bc 6e 11 f4 bd
       0.06494355 0.016693518 -0.026638731 -0.11917387
000080 4e e5 c1 bd ee a1 c6 3d 0a e7 aa 3d 86 07 f9 bd
       -0.094675645 0.096988544 0.083448485 -0.12159638
000090 e0 49 65 3d 28 fd 0e 3d 40 13 3d 3c 64 34 4e bd
       0.055978656 0.034909397 0.011540234 -0.050342932
0000a0 aa 36 d5 3d a0 b1 01 3d b8 25 75 bd 28 d5 2f 3d
       0.10410817 0.031663537 -0.059850425 0.04292789
0000b0 50 15 28 bd 36 7b e8 bd 80 26 1e bc a4 01 41 3d
       -0.04103595 -0.113516256 -0.009652734 0.047120705
0000c0 00 dc 3e bd 5a 65 b7 3d 9c 1b ca 3d 6c 3e 45 3d
       -0.046596527 0.08954878 0.09868547 0.048155233
0000d0 90 14 9b 3d ca 63 9e 3d c8 d3 76 bd 30 ee 86 bc
       0.07572281 0.07733877 -0.060260564 -0.016470999
0000e0 b8 45 8c 3d 60 f6 d8 3c 6a bb 9e 3d 88 be 97 3c
       0.06849235 0.026484668 0.0775059 0.01852347
0000f0 0a ef e1 3d 40 5c c6 3d b4 60 f9 3d a0 8b 8f bb
       0.11031921 0.09685564 0.12176648 -0.0043806583
000100 b0 f8 c0 3c 40 29 c3 bd 50 05 13 3d 16 4f 81 bd
       0.023556083 -0.09529352 0.03589374 -0.063139126
000110 28 f5 e6 3d 44 6f d3 3d 7c b4 ef 3d 26 f9 97 bd
       0.112772286 0.103239566 0.117043465 -0.07420568
000120 d8 ac ef bc bc 3f f3 3d 18 96 ea 3c 84 79 f7 bd
       -0.029257223 0.11877391 0.028636023 -0.12083724
000130 1a ec 93 bd 02 97 85 3d 36 ff eb bd e4 79 ee bd
       -0.07222767 0.06522943 -0.11523287 -0.116443425
000140 5c 0f d6 bd 64 f6 6c 3d 68 b3 e9 3c f4 af 80 bd
       -0.10452148 0.057852164 0.02852793 -0.062835604
000150 4a 0f b8 bd 6a 59 f2 3d 6a 05 9d bd c8 6b 4b bd
       -0.08987291 0.11833461 -0.07667048 -0.049663335
000160 58 e2 c4 3c 90 25 1f 3c 22 7f 85 3d 00 ae 16 3d
       0.02403371 0.009713545 0.06518389 0.036787033
000170 00 0e 70 3d 50 e6 fc 3c 38 ef 52 3d f0 43 c1 3d
       0.0586071 0.03087154 0.051497668 0.09436786
000180 20 2f b7 bb 18 7d b6 3d 3a c2 e2 3d 90 8b 2e bd
       -0.0055903345 0.089105785 0.11072202 -0.042613566
000190 a8 93 a1 bc 58 40 a8 bc 80 4e 13 3c f2 4a a2 bd
       -0.019723728 -0.020538494 0.008990884 -0.07924451
0001a0 d6 85 bc 3d a8 f7 f4 3d a8 d9 0f 3d 34 5b 3b bd
       0.09205215 0.11961299 0.035119683 -0.045741275
0001b0 20 48 84 3d 66 8a fc 3d 28 6e 69 bd d6 93 a4 3d
       0.06459069 0.12331085 -0.05698982 0.0803601
0001c0 54 ce 49 3d 24 d1 9d bd 98 d8 d5 3c 80 ec 7d 3b
       0.049269035 -0.07705906 0.026104257 0.0038745701
0001d0 5e e6 95 3d a4 f1 2a 3d e0 e2 4d bd 48 42 90 bd
       0.0731933 0.041734353 -0.050265193 -0.07043892
0001e0 74 22 5f bd c4 13 11 3d 88 4f 9e bc 00 6c 58 39
       -0.054476216 0.03541924 -0.019325033 0.00020639598
0001f0 78 ca 08 bd 36 51 ae 3d 22 f4 ed 3d da 27 92 3d
       -0.033396214 0.085115835 0.1161883 0.07136507
000200 ee 42 b1 3d b2 cf 88 bd fc 41 04 bd 7a 95 d5 bd
       0.08655344 -0.0668024 -0.03228949 -0.10428901
000210 70 5a f2 3d d2 9f 94 3d b4 c7 ce bd 20 dc 96 3b
       0.11833656 0.07257046 -0.10096684 0.0046038777
000220 16 49 e4 3d 80 d3 d2 3c aa 68 f5 bd 18 00 8f 3d
       0.111467525 0.025735617 -0.11982854 0.0698244
000230 d0 4b 8f 3c 0a 63 da 3d 72 b9 83 bd a0 7a d0 3d
       0.017492205 0.106634215 -0.06431855 0.10179639
000240 5a 86 84 3d 98 67 06 bd 00 94 00 3a 18 ef 19 bd
       0.06470938 -0.03281364 0.0004904866 -0.037581533
000250 dc a0 90 3d 88 0d 32 3d 38 34 d8 bd 7a 8e e6 bd
       0.070619315 0.043469936 -0.10556835 -0.11257644
000260 98 d2 bb 3d 92 6d c1 bd f8 44 b7 bd 4c bb a9 bd
       0.09171027 -0.09444727 -0.089487016 -0.08287677
000270 5c 59 a4 3d c2 0e ae bd 28 26 ef 3c 88 f3 e9 3d
       0.080248564 -0.084989086 0.029192999 0.11423403
000280 2e 29 d2 bd ee 10 95 bd c0 52 b8 3d 40 cd d7 3b
       -0.10261761 -0.0727862 0.09000158 0.006585747
000290 50 89 d9 3d f0 e1 42 3c f0 90 83 3c 1e 7e 92 3d
       0.106218934 0.011894688 0.016060323 0.07152961
0002a0 9e b1 d5 bd 38 21 d3 bd e6 2f 92 3d dc c7 75 bd
       -0.104342684 -0.1030907 0.07138042 -0.060005054
0002b0 60 a4 8f 3d a0 43 b7 bd 18 3c b0 bc 30 ce 41 3c
       0.07013774 -0.08948445 -0.02151303 0.011828944
0002c0 64 73 47 3d e4 a9 70 bd b8 3a c9 3c ea e5 96 bd
       0.04869403 -0.05875577 0.024564132 -0.073680714
0002d0 4e 37 cf bd e8 57 9f bd 0c 40 ce 3d e6 12 ce bd
       -0.101179704 -0.07780439 0.1007081 -0.10062198
0002e0 a4 61 15 bd 08 ea 21 3d c2 0c d1 bd 2a bb c6 3d
       -0.03647007 0.03952983 -0.102075115 0.097036675
0002f0 2a 61 f0 3d 60 6c 94 3d 78 c2 a2 3c 8a df c8 3d
       0.117372826 0.072472334 0.01986812 0.09808262
000300 06 f1 d0 bd 40 52 53 bd 18 bf 17 3d b6 1a c8 bd
       -0.102022216 -0.05159211 0.037047476 -0.0977072
000310 c8 31 60 bd 40 94 be bc ec 0d 61 bd 5c 8e bb bd
       -0.054734975 -0.02326405 -0.054944918 -0.09158012
000320 d0 c4 99 3c 10 f8 85 bd e0 3d a9 3b c8 90 bd 3c
       0.018770605 -0.06541455 0.005164847 0.023140326
000330 10 3f 42 3c 96 e0 ef bd b8 7d a3 3d 0c ac 58 bd
       0.011855856 -0.11712758 0.07982963 -0.05289845
000340 5c 9c b8 bd a6 16 c2 bd e8 c1 3d bd 88 9b fd 3d
       -0.09014198 -0.09476976 -0.0463275 0.12383181
000350 e8 ab b4 bd f2 72 af bd 54 98 b7 bd 68 8a ab 3c
       -0.08821851 -0.08566846 -0.08964601 0.02094002
000360 28 76 a4 bd 46 b7 f1 bd c0 c9 5d 3d 14 87 ad bd
       -0.08030349 -0.11802535 0.054147482 -0.0847303
000370 20 66 61 bc 00 79 9d 3c c0 05 8d 3c c4 f9 94 bd
       -0.013757259 0.019222736 0.017214656 -0.072742015
000380 9c 34 6c 3d 3e 63 db 3d dc 03 e6 bd 34 e3 2f 3d
       0.05766736 0.10712288 -0.11231205 0.042941287
000390 e0 3f 52 bd c0 91 0e 3d ce 19 9b 3d 4c be 3d bd
       -0.051330447 0.034806967 0.07573281 -0.04632406
0003a0 c6 ce 9f 3d 9c af a3 3d 7a 27 e2 bd 78 c3 11 bd
       0.07803111 0.07992479 -0.11042686 -0.035586804
0003b0 60 1f 45 bc 14 ef e7 3d 70 ba e6 bc 80 d0 af ba
       -0.012031406 0.113248974 -0.028165072 -0.0013413578
0003c0 9c 9b 16 bd a8 31 aa bc fc cb 5d bd 20 d1 67 bc
       -0.036769494 -0.020775631 -0.054149613 -0.01414898
0003d0 c8 2c 43 3d 42 5b a7 bd 02 1e 90 3d 1a 6c ff bd
       0.04765013 -0.08171703 0.070369735 -0.124717906
0003e0 c8 35 82 bc 48 cd 31 bd 3c 81 cd 3d 50 ff fc 3c
       -0.015894786 -0.043408662 0.10034415 0.030883461
0003f0 70 67 cf 3c a8 06 8e 3d 78 d7 1c bd 10 27 0c bd
       0.025317878 0.06934863 -0.038291425 -0.03421694

bias f4 [64]
000000 f8 1b c3 3d 10 1b 14 3d 70 00 0c 3d d4 91 b0 3d
       0.09526819 0.03615862 0.034180105 0.086215645
000010 94 08 99 3d 00 43 ab 3c e6 2a e4 3d 40 f0 df 3c
       0.07472339 0.020905972 0.11140995 0.02733624
000020 ec 1a af bd a4 99 84 bd fc 12 e8 3d 64 a3 d6 bd
       -0.08550057 -0.06474617 0.11331746 -0.10480383
000030 70 af b9 bd be 41 ca 3d a8 e8 a0 bd a0 f0 e8 3c
       -0.09066665 0.098758206 -0.07856876 0.028435051
000040 f8 2e 94 3c e0 b9 5a 3d 70 10 c9 3c d2 1d 96 bd
       0.018088803 0.05339992 0.02454397 -0.073299065
000050 2a 87 b1 bd e4 8c 8c 3d f2 e0 82 3d 88 be d2 bc
       -0.086683586 0.0686281 0.06390561 -0.025725618
000060 a0 81 b3 3b 90 be 99 3d 00 8c 5f bc 7a 5c c0 3d
       0.005478099 0.0750705 -0.013644218 0.093926385
000070 c8 bb aa 3c 58 4f 46 bd 00 a5 ec 3c b8 a2 ee 3d
       0.020841494 -0.04841551 0.028887272 0.1165213
000080 00 ac 66 bb a0 6a ca 3d 20 d7 84 bb cc d3 3c 3d
       -0.0035197735 0.09883618 -0.004053965 0.046100423
000090 c0 21 e8 3c 00 46 ea 3c ce 01 c3 bd 6c 5c 9a bd
       0.028336406 0.028597832 -0.095218286 -0.07537159
0000a0 30 e0 e6 bc 3c 57 4a bd 08 72 85 3d 2e a4 ee 3d
       -0.028183073 -0.0493996 0.0651589 0.116524085
0000b0 88 83 a8 3c 96 17 8c bd 0a 2d 89 bd 94 de 0a 3d
       0.020570531 -0.06840436 -0.06698044 0.033903673
0000c0 a0 7d 8f bd f4 83 97 bd ac 89 15 bd 00 b0 97 38
       -0.07006383 -0.07398215 -0.036508247 7.233024e-05
0000d0 e8 15 5b 3d 18 40 24 3d 7e 73 e4 3d 32 2b f8 3d
       0.05348769 0.040100187 0.11154841 0.12117614
0000e0 40 0f 25 3c e0 53 ff bc 8e f0 fa bd 88 32 af bc
       0.010074437 -0.031167924 -0.122529134 -0.0213864
0000f0 70 97 88 3c 64 16 86 3d 98 7a ed 3c a4 6c ca 3d
       0.016673774 0.065472394 0.028989121 0.09884003

weight f4 [30, 64]
000000 d6 c4 a0 bd 20 bb 81 3b 6c c4 a6 bd a2 ab e4 3d
       -0.078500435 0.0039590746 -0.08142933 0.11165549
000010 d8 a1 cf bd ee 26 af bd 20 87 ce 3d 5c a5 0a bd
       -0.10138291 -0.08552347 0.10084367 -0.033849105
000020 4c f1 b0 bd e0 af 48 bc 40 b7 d0 bc 40 61 c9 bc
       -0.08639774 -0.012248963 -0.025478005 -0.024582505
000030 98 38 72 bd 50 f9 53 bc b2 da f2 bd 3a 15 d7 bd
       -0.059136003 -0.012937859 -0.11858119 -0.105020955
000040 96 db ca bd 0e e1 90 bd ce 3f e3 bd 3c cb 75 bd
       -0.09905164 -0.07074176 -0.11096154 -0.060008273
000050 40 7c d7 3d 10 a0 1e bc 1c 33 fa 3d 10 8a d4 3d
       0.10521746 -0.009681717 0.122167796 0.10377896
000060 42 66 c6 3d 10 42 2b bc 06 80 bd bd 80 a7 e9 bd
       0.09687473 -0.010452762 -0.09252934 -0.11408901
000070 2c 53 37 bd b8 27 54 3d c8 36 1d bd 8c 39 55 bd
       -0.044757053 0.05179569 -0.03838232 -0.052056834
000080 a8 61 e5 bd 80 de 69 bb 78 2f 0d bd 3a 39 9a bd
       -0.11200267 -0.00356856 -0.034469098 -0.07530446
000090 14 4b 5d 3d 64 9a dc bd e4 4e 84 3d 00 73 16 bc
       0.05402668 -0.10771635 0.0646036 -0.009182692
0000a0 a0 8c 6a 3d 88 25 b4 3d dc 04 f0 bd 1a 9a c0 bd
       0.057263017 0.08796221 -0.11719677 -0.094043925
0000b0 34 c2 51 bd d0 00 b3 bd f0 a5 9a 3d 00 51 b5 3b
       -0.051210597 -0.08740389 0.07551181 0.0055333376
0000c0 f2 7e dd bd 12 c3 88 3d c4 ad b5 bd 04 c3 a5 bd
       -0.108152285 0.06677832 -0.08871034 -0.08093837
0000d0 08 8c de bc 98 7d 3a bd 80 05 47 3b 80 4a e3 bb
       -0.027166381 -0.04552993 0.0030368268 -0.0069363713
0000e0 16 5f fb bd c8 f7 41 bd 34 30 68 3d c6 14 a0 3d
       -0.122739956 -0.047355443 0.056686595 0.07816462
0000f0 36 76 ff 3d 74 30 8c bd b8 43 74 bd 00 21 4e bb
       0.12473719 -0.06845179 -0.059634894 -0.0031452775
000100 40 1b b4 bc 10 e5 12 3d 6c 70 f4 bd bc d2 d0 3d
       -0.02198565 0.035862982 -0.11935505 0.101964444
000110 2c 28 04 bd f8 86 11 bd 5a 21 f1 3d bc db 4e bd
       -0.032264873 -0.035529107 0.117739394 -0.050502524
000120 e8 35 37 bd e6 f3 82 bd c8 30 b3 bd 38 03 23 bd
       -0.044729143 -0.06394176 -0.08749539 -0.03979799
000130 64 a9 05 3d d8 ab d8 3d 88 e9 92 3d ee 67 b9 3d
       0.032632247 0.105796516 0.07173449 0.09053026
000140 38 a5 ea bc b8 14 4d bd 5e 6e d7 3d a0 99 05 3c
       -0.028643236 -0.050068587 0.10519098 0.008154303
000150 10 f5 15 3d 28 ca 1b 3d 8e 35 b4 3d ca cb ab bd
       0.036610663 0.038034588 0.08799277 -0.08388479
000160 48 dd d0 3c 10 e4 61 3d e0 57 cb 3c 26 bc ab 3d
       0.02549614 0.055149138 0.024822176 0.08385496
000170 80 0d 6b 3b f0 90 1c 3c 60 26 3f 3c 90 3c 62 3d
       0.00358662 0.00955604 0.011666864 0.05523354
000180 60 19 ed bd ca b9 ed 3d a0 9e f0 bb 36 de b5 3d
       -0.115771055 0.11607702 -0.0073431283 0.08880274
000190 84 3b d9 3d 00 58 2c bb ae ae a3 bd 38 a2 b2 bc
       0.10607055 -0.002629757 -0.07992302 -0.021805868
0001a0 04 87 ad 3d e8 b0 88 3c 7a 0c 90 bd 34 54 2f 3d
       0.08473018 0.016685918 -0.0703363 0.04280491
0001b0 dc 16 6f 3d a8 43 40 bd 00 79 1a 3b 52 98 ea 3d
       0.05837141 -0.046939522 0.0023570657 0.11454834
0001c0 24 c3 95 bd c4 38 01 3d ac 18 61 3d ee 35 b4 bd
       -0.07312611 0.031548277 0.05495517 -0.08799349
0001d0 bc 4a 04 3d b0 27 64 3c d2 c7 97 bd f2 8d e0 bd
       0.032297835 0.013925478 -0.074111596 -0.10964574
0001e0 50 3d d9 bd c8 b4 b6 bd 00 fa af bd 32 bd b0 3d
       -0.106073976 -0.089212 -0.085926056 0.08629836
0001f0 aa 65 c1 3d 08 c6 3a 3d 0e 76 94 bd 24 32 50 bd
       0.09443219 0.045599014 -0.0724908 -0.050829068
000200 80 a6 ff bb a2 c5 90 3d 14 2d a7 bd 50 7d 87 3c
       -0.007801831 0.070689455 -0.08162895 0.016539246
000210 20 65 78 bd cc 19 02 bd 9c bd 36 3d fc 14 3f 3d
       -0.060643315 -0.031762883 0.04461442 0.04665087
000220 0e 05 f5 bd d8 fb fd 3d 5c 67 fe bd 48 0e d5 3c
       -0.11963855 0.12401551 -0.12422058 0.026007786
000230 e6 6b d6 3d f4 33 0f bd fe 37 da 3d 70 38 26 bc
       0.10469799 -0.034961656 0.10655211 -0.010145292
000240 74 68 e5 bd 50 7f 44 3c 3a 63 fb 3d 98 5f c8 3d
       -0.112015635 0.011993244 0.12274785 0.09783858
000250 30 0a c8 3c a0 16 7a bc b0 01 93 3c 80 c2 d0 bd
       0.02441892 -0.015264183 0.01794514 -0.10193348
000260 00 95 50 bb 60 46 05 bc 12 d8 d6 3d 30 b9 74 3c
       -0.0031827092 -0.0081344545 0.10490431 0.01493673
000270 d2 75 ea bd be 19 dc bd c4 26 d8 3d 8a 1c ea 3d
       -0.11448254 -0.107470974 0.10554269 0.11431225
000280 b0 93 d6 bd 78 50 ff 3c 98 44 38 bd 24 18 05 bd
       -0.10477388 0.0311663 -0.04498729 -0.032493725
000290 40 d6 15 bd 42 34 fe 3d e8 53 ef bc 5e 13 c7 3d
       -0.036581278 0.12412311 -0.029214814 0.09720491
0002a0 80 0f 1b bb 0a 88 eb bd 8c 1d 30 bd 88 2d 8d bd
       -0.0023660362 -0.11500557 -0.042996928 -0.0689345
0002b0 0c b9 a8 3d 60 04 65 3d 98 72 ee 3d 84 f2 b8 3d
       0.0823842 0.055912375 0.11642951 0.09030631
0002c0 7c 9c 51 3d 66 c9 fc bd 44 05 89 3d 80 33 f2 ba
       0.051174626 -0.12343101 0.066904575 -0.0018478483
0002d0 9a d6 b6 3d 56 bf e1 3d d8 36 6f bd 0a df f6 bd
       0.08927651 0.110228226 -0.058401912 -0.1205426
0002e0 bc a1 a0 3d c0 70 06 3b 36 b3 9b 3d 80 24 78 bd
       0.078433484 0.0020513982 0.07602541 -0.060581684
0002f0 e0 e5 43 3d 98 ef 8f 3d 2e 0a 96 bd e2 fb aa bd
       0.047826648 0.07028121 -0.0732616 -0.08348824
000300 ec 99 2c bd bc 03 d5 3d 40 9b f6 bc 80 a0 89 3d
       -0.04213898 0.10401103 -0.030103326 0.06720066
000310 d2 38 a9 bd f8 b8 7c 3d 3e 0a b5 bd fc 82 63 bd
       -0.08262791 0.061699837 -0.08839844 -0.05554484
000320 98 75 a1 bc bc 4a 48 bd 1a 98 c4 3d 30 17 ab bc
       -0.019709393 -0.048899397 0.095993236 -0.02088508
000330 50 11 fa 3c 42 eb b9 bd 1a 92 da 3d 6c 24 ab 3d
       0.030525833 -0.09078075 0.10672398 0.08356556
000340 98 a4 bc bc 74 a7 62 3d aa 44 ac bd 2a 08 fe 3d
       -0.023027703 0.055335477 -0.08411534 0.12403901
000350 f4 dc df 3d 68 85 cb 3c 52 52 d4 3d 1a 1f de bd
       0.10930815 0.024843886 0.10367264 -0.10845776
000360 16 54 be bd 60 3e 57 bc fa 03 d5 3d f8 37 f6 3d
       -0.09293382 -0.01313743 0.10401149 0.12022394
000370 6c 98 b3 3d 32 ff b7 3d a6 07 fc bd 00 13 ad bb
       0.087693065 0.089842215 -0.12306146 -0.005281806
000380 70 4f 4d 3c 76 fe ef 3d 70 ed 8e 3c 00 56 79 3c
       0.012531146 0.117184564 0.017447203 0.015218258
000390 5a d2 a4 3d 50 e9 6a bc 46 57 84 3d d6 57 95 bd
       0.08047934 -0.014337853 0.064619586 -0.07292144
0003a0 9c 02 66 3d 80 a3 be 3d 68 53 20 3d a4 af d2 3d
       0.056154832 0.09308529 0.039142042 0.10287407
0003b0 f4 c9 50 3d 30 30 fc bc 38 25 9d bd e8 20 1e bd
       0.050973848 -0.030784696 -0.076731145 -0.0386056
0003c0 de 0c ed bd 60 bd 09 3d 74 d8 ca 3d c0 0f e3 bc
       -0.1157472 0.033627868 0.099045664 -0.027717471
0003d0 30 2f be bd dc c3 40 bd 70 92 9a bd 6c 3b 75 3d
       -0.09286344 -0.047061786 -0.07547462 0.059871122
0003e0 36 ba b9 bd 1c 23 ac 3d 78 84 25 3d b4 8c 7a bd
       -0.0906872 0.08405134 0.040409535 -0.06116934
0003f0 1c 6a 82 3d d8 49 e6 3d 96 c7 a6 bd 4c c3 29 bd
       0.06367895 0.11244553 -0.08143537 -0.041446015
