darts_logs/2022-11-19_12.38.50.841320_torch_model_run_12852/_model.pth.tar (torch, 74546 bytes, 16 tensors)

weight f4 [64, 2]
00000000: cc89 233e 475a b1be 98d8 d2bd de25 b53e
00000010: 8cf2 113e 24b4 153e 74c2 3d3e 1d91 03bf
00000020: 3cf9 bfbe c048 16be 2611 91be 42e6 2cbf
00000030: 4624 9c3e d44a eabe 81dd 253f 8230 1cbf
00000040: 7284 ac3e 0ac9 0abf fd08 11bf 32ae 923e
00000050: 50b6 b93d 4e4a 64be 5c2f 14bf f803 b2bd
00000060: 7045 563d 43c2 063f de5f 9e3e a2e7 7ebe
00000070: c2e5 803e 4044 513c 00f8 c3bb aa22 e03e
00000080: 0111 0cbf 9a10 a53e aa62 56be bc38 b5be
00000090: b0ae a7bd 66fe ca3e 74b7 403e 3831 eebe
000000a0: 46ea 1ebf 9005 59bd ce21 ea3e 38f7 0f3e
000000b0: 7699 9b3e 48f9 803d d0f0 7dbd 5404 3ebe
000000c0: 0258 a9be 26da 6abe 9e58 d43e fa74 c33e
000000d0: c851 32bf c80b 483e 84dd 37be 600d 7bbd
000000e0: 90be 533d 1a41 d23e dc1b 08bf d744 103f
000000f0: d040 843e d0d6 5ebe 585e 72be 0f18 8abe
00000100: 74ec 643e 7dee 233f 76cd dc3e 705f 82bd
00000110: 4722 133f 64a1 08be f02d d03d 08f9 1dbf
00000120: a0d6 f5bc eb18 263f 50b5 e8be 6620 84be
00000130: 0897 2abf 00ac 143c 226a e1be 170d 203f
00000140: c0bf 083c c0a0 a0bc 560c c7be b029 91bd
00000150: 4077 2b3d a7dd 02bf 1fa8 0e3f 9576 0e3f
00000160: 723e d23e d5f0 063f c4bb 373e be2c f03e
00000170: a89b 463e 2e10 a63e 1df9 97be 01d4 0e3f
00000180: 303a d3bd 40d3 4c3d aa32 8a3e 688c 2dbe
00000190: d45f 03bf 06e3 afbe 2e8d 03bf 2f1d 88be
000001a0: 34a6 6abe ab75 333f 805a de3c 9adc 1ebf
000001b0: 4898 923e 90f3 663e 82c7 d93e 0f96 0a3f
000001c0: 44e1 d5be dc97 4dbe a8eb 24bf 1821 723e
000001d0: 73d9 2dbf a58e a7be 3545 133f 5ae6 a13e
000001e0: 0032 32bd 7bed d2be a251 01bf 30ab c33d
000001f0: 1faa 313f dbf0 0c3f e0c9 693e eaef 903e
0.15970534 -0.3463919 -0.10295218 0.35380453 0.1425268 0.146195 0.18531209 -0.513933
-0.37494838 -0.1467619 -0.28333396 -0.67538846 0.30496424 -0.45760214 0.64791113 -0.6101152
0.33694798 -0.5421301 -0.5665434 0.28648525 0.090679765 -0.2229397 -0.57884765 -0.08692163
0.052312315 0.5264017 0.30932516 -0.24893048 0.2517529 0.01277262 -0.0059804916 0.43776447
-0.54713446 0.32239228 -0.20936075 -0.35394847 -0.08187616 0.39647216 0.18819982 -0.46521926
-0.6207622 -0.05298382 0.45728916 0.1405915 0.3039052 0.062975466 -0.061997235 -0.18556339
-0.33074957 -0.2293478 0.4147386 0.38175184 -0.6965604 0.19535744 -0.17955595 -0.061292052
0.051695406 0.41065294 -0.5316751 0.5635504 0.25830698 -0.21761632 -0.23668802 -0.2697148
0.22355825 0.6403578 0.43125504 -0.063658595 0.5747418 -0.13342816 0.10165012 -0.61708117
-0.030009568 0.6488177 -0.4545083 -0.25805968 -0.66636705 0.009074211 -0.44026285 0.62519974
0.008346498 -0.019607902 -0.388766 -0.070880294 0.041861773 -0.51119465 0.5572528 0.5564969
0.41063267 0.5271123 0.1794272 0.46909136 0.19395316 0.3243422 -0.29682246 0.5579224
-0.10313833 0.05000615 0.2699178 -0.16948092 -0.513181 -0.34352893 -0.513873 -0.26584765
-0.22914964 0.7010142 0.027142763 -0.6205536 0.28631806 0.22553849 0.42535025 0.5413522
-0.41773427 -0.20077461 -0.6442208 0.23645437 -0.67909926 -0.32726017 0.57527477 0.31621057
-0.043504715 -0.41196808 -0.50515187 0.09554136 0.6940021 0.55055016 0.22830915 0.2830804

bias f4 [64]
00000000: f0ac d8bd ea46 e43e 0e71 9d3e aef6 d43e
00000010: d193 303f d1e4 343f e3e7 063f cf25 12bf
00000020: afc5 033f 50ca 903e 75df 093f 8063 a63b
00000030: 3815 833d 600b 883e 213f 213f c098 3ebd
00000040: aef7 b6be a660 9e3e 7049 c13d ecdd b5be
00000050: 0068 703c ecca 0a3e 4032 963d d60d 5ebe
00000060: 8f0c a3be 75eb 1e3f 0f22 323f 604d d7bd
00000070: f8cc 53be 6650 d83e 6854 aa3d f7c9 c8be
00000080: 36e9 993e 4695 9b3e fef9 a83e fc4b 213e
00000090: e8ad 953d dc45 93be 388d 283e 40d0 463c
000000a0: daf8 58be 0433 0abf 975f 043f 2084 e63c
000000b0: 9976 ebbe a29c e33e c315 b6be ac4d 7dbe
000000c0: 0086 f13b 5038 b63d ca41 27bf 11b6 243f
000000d0: 1afc fd3e 989e 5f3e 941e eabe b144 1bbf
000000e0: 1cf5 4e3e 851f 07bf ac1f 14bf 8457 55be
000000f0: bcd0 62be 839e 283f 8865 a9be 67c7 2bbf
-0.1057986 0.44585353 0.30750316 0.41594452 0.6897555 0.70661646 0.5269758 -0.5708894
0.51473516 0.28279352 0.53856593 0.0050777793 0.064005315 0.26571178 0.6298695 -0.046532393
-0.3573584 0.30933112 0.09437835 -0.35520875 0.014673233 0.13553971 0.07333803 -0.21684965
-0.3184552 0.6207803 0.6958322 -0.10512805 -0.20683658 0.4224884 0.083168805 -0.39216587
0.30060738 0.30387324 0.3300323 0.15751642 0.073085606 -0.28764236 0.1646012 0.012134612
-0.2118868 -0.53984094 0.5170836 0.028139174 -0.4598892 0.4445544 -0.35563478 -0.2473666
0.0073707104 0.088974595 -0.6533476 0.6434031 0.496064 0.21837842 -0.45726454 -0.6065169
0.2021069 -0.5278247 -0.5786083 -0.20834166 -0.22149938 0.6586687 -0.33085275 -0.6710114

weight f4 [64, 64]
00000000: fe0d ae3d a69f d93d e81b cabd fa69 b0bd
00000010: 78db b23c 143c f03d ea7c 90bd fc20 ff3d
00000020: 888b de3d a0c8 ba3b c6bf dbbd f671 b4bd
00000030: 18d7 d0bd 685c 0b3d c0c0 273c 00e7 10bd
00000040: 902b 7d3d ee13 b73d c826 b53d d469 fe3d
00000050: e83a fd3d fef2 a6bd 2efd ccbd 5010 173c
00000060: 1078 133d 88f2 71bd 20f1 0b3c 00d8 c4b8
00000070: 8c69 e4bd a058 a5bc 00da d13d 3670 8cbd
00000080: f062 c13c c0ca f03d 5827 e8bd e6b9 b53d
00000090: 4483 e4bd 9056 333d 40fc 3ebd e028 5f3d
000000a0: 82a2 a6bd c8d3 f23d e414 113d a6c3 bd3d
000000b0: 8891 c23d 5ef1 e23d 8aa8 e0bd 8095 113d
000000c0: e0db 54bd b413 c6bd 4c89 a93d e899 b33d
000000d0: 30fa 713d f6e7 aa3d ba7c b8bd 3868 b8bc
000000e0: 6edb 81bd 96f2 bc3d fc35 d8bd a0cb d2bb
000000f0: 2e76 ddbd 242c dd3d e22b 9dbd cc26 e03d
00000100: 3c42 123d 40a3 a23d 0809 d1bd 30b6 4bbd
00000110: 2cec cc3d a4d1 593d c6db 99bd 8e0b 92bd
00000120: 9c57 c4bd be76 b23d d87d da3d 70bb c7bc
00000130: 92c9 cfbd 3006 6d3c b07b cb3d c81c 873c
00000140: 8e4a f63d d07b 3f3d 3036 d5bd d223 c8bd
00000150: aa53 9abd 4002 a8bc 2e71 e6bd ee1a f2bd
00000160: 704c 023d d4de e93d c666 9ebd c017 69bb
00000170: 003f 5dba 449c ca3d a6ab c1bd 68c1 033d
00000180: 507b 773d ec34 dcbd 0882 c13c b0c3 69bc
00000190: 2400 c1bd e4d4 6bbd 30e5 ac3c 00f0 98bd
000001a0: b001 063d 1636 a6bd e8cb 0a3d 84b9 7c3d
000001b0: a2f1 cd3d 284d 433d 086b f4bd e09c b93d
000001c0: 0ea8 c23d c06c efbd ceb9 84bd ce4c cbbd
000001d0: f0f5 883d 8097 c83d 2a7b c93d 74ef 443d
000001e0: 0002 2abd e807 8c3d 8827 c73d fae7 fcbd
000001f0: 6249 d13d ae17 b5bd 4c70 72bd 0468 953d
00000200: b8be af3d 5893 cebc 30ce 183d e8eb 0a3d
00000210: aca6 8d3d dc80 11bd 5c9e 1c3d 10ff a03c
00000220: 0864 c5bc f021 b83c e60d f6bd b815 a4bd
00000230: f88d a13c 600f 263c 301f b63c 1e6f d7bd
00000240: 2c23 6abd e889 2d3d 10c3 d9bd 9058 65bc
00000250: f8b1 e03c 54c7 dfbd c070 67bc f444 4c3d
00000260: a0f7 3e3d 4ce8 c6bd 9c15 733d 0841 e43d
00000270: 2e43 a6bd b4a5 15bd 006f 7dba b8b7 cabc
00000280: 7a94 ecbd 8239 c8bd c81d b73d 64d7 2d3d
00000290: cc11 f23d a0e7 673c 2078 3fbc 4c70 793d
000002a0: c8bc 893d 5448 58bd f815 ac3d 5ec5 d43d
000002b0: 4ce3 e0bd cc1c 05bd be12 e2bd 2042 053c
000002c0: c4a0 22bd e096 94bb 18c0 8c3c 00f4 31bc
000002d0: 9072 0bbd 7a50 f83d d83e ac3c 9296 c03d
000002e0: 581e 66bd 64a6 dfbd 00bf 30bc de20 b93d
000002f0: 001c 4a3b 9c33 7fbd 24dd ea3d 9055 b6bc
00000300: 9e08 e5bd 68c5 9ebc 4806 c93d 506a b1bc
00000310: 68e6 bf3c f684 88bd 30fc 4dbc d65a d3bd
00000320: 20e2 853c 407e 5e3c 0e9d 80bd 587f c23d
00000330: 06c7 fabd 9647 d53d 1225 b8bd 90d1 65bc
00000340: 782e 96bc 0297 843d 6036 71bc c80f cfbd
00000350: e00e 42bd c8be 4ebd f2f0 b43d 720a e13d
00000360: 22a6 dc3d 5a09 f6bd 261f aa3d 30a9 163d
00000370: ac0f b03d c809 d23c 3a84 85bd 6e09 ecbd
00000380: 30ec 3e3c c80c b3bc a0e1 bbbc 84ea b3bd
00000390: 2afd f93d f48b 953d 5072 bcbc f000 6bbd
000003a0: a67f 85bd 8895 dfbc 6087 c8bb 4ca5 bc3d
000003b0: 108e 0fbd e094 b93d 3498 64bd c4e0 5a3d
000003c0: 149d ae3d c405 5f3d 86b0 fbbd 486c db3d
000003d0: 786d b83d 5cf0 933d b024 cebd 8037 2c3d
000003e0: 38cb d13c a896 98bd 6ece 8a3d 56a7 933d
000003f0: 6a55 95bd 2801 63bd 34bf 073d 0e12 db3d
0.084987625 0.10626154 -0.09868604 -0.086139634 0.021833166 0.11730209 -0.070550755 0.12457463
0.10866457 0.005700186 -0.10729937 -0.08810799 -0.10197276 0.034023672 0.010238826 -0.03537655
0.061809123 0.08939348 0.088452876 0.12422529 0.12364751 -0.08151816 -0.10009228 0.009220198
0.036003172 -0.059069186 0.008541375 -9.3862414e-05 -0.11152944 -0.020183861 0.10246658 -0.0685734
0.023606747 0.117574215 -0.11335629 0.08873348 -0.111578494 0.043783724 -0.046627283 0.05448234
-0.08136465 0.118568 0.035420313 0.092658326 0.09500414 0.110811934 -0.10969646 0.035542965
-0.0519675 -0.09671727 0.082781404 0.0876959 0.059076488 0.08345024 -0.09008165 -0.022510633
-0.06340681 0.09225957 -0.10557172 -0.0064329654 -0.108135566 0.10799435 -0.076743856 0.109449
0.035707697 0.07941294 -0.10206801 -0.049734294 0.10005984 0.053178445 -0.075126216 -0.0713111
-0.09587023 0.087140545 0.10668534 -0.02438137 -0.10145868 0.014466807 0.09935701 0.016493216
0.12025939 0.046748936 -0.10410726 -0.09772457 -0.07535489 -0.020508885 -0.11252056 -0.11821543
0.031811178 0.11419454 -0.07734446 -0.0035567135 -0.00084398687 0.098930866 -0.094565675 0.03216687
0.060420334 -0.107522815 0.023621574 -0.014267847 -0.09423855 -0.057576075 0.021105379 -0.07467651
0.032716453 -0.08115785 0.033885866 0.06170036 0.100558534 0.047681004 -0.11934477 0.09063125
0.0950471 -0.11690664 -0.06480752 -0.09926759 0.06687534 0.09794521 0.09837945 0.048079923
-0.041505814 0.068374455 0.09724337 -0.123489335 0.10219075 -0.08842407 -0.059189126 0.0729523
0.085812986 -0.025216743 0.03730601 0.033916384 0.06916556 -0.03552328 0.03823696 0.019652873
-0.02409555 0.02247712 -0.1201437 -0.08011955 0.019721016 0.010135502 0.022231668 -0.10519241
-0.05716245 0.042367846 -0.10632908 -0.013998166 0.027428612 -0.10926691 -0.014126003 0.049870446
0.046622872 -0.09712276 0.05934678 0.11145216 -0.08118282 -0.03653498 -0.00096677244 -0.024745807
-0.11551757 -0.09776594 0.08941227 0.04244174 0.11819801 0.014154345 -0.011686355 0.06089811
0.0672546 -0.052803352 0.08402628 0.10389207 -0.109808534 -0.032498166 -0.11038731 0.008133441
-0.0397041 -0.0045345873 0.017181441 -0.010861397 -0.034044802 0.12124725 0.02102606 0.09403719
-0.05618128 -0.10920408 -0.010787725 0.09039472 0.0030839443 -0.062305078 0.114679605 -0.022257596
-0.11183284 -0.01938124 0.09815651 -0.021657139 0.023425296 -0.06665985 -0.012572333 -0.1032006
0.016343176 0.013579905 -0.06279956 0.09496945 -0.12244992 0.104140446 -0.089914456 -0.014027014
-0.018332705 0.06474115 -0.014722437 -0.10110432 -0.047377467 -0.050474912 0.08835019 0.109883204
0.10773875 -0.120135024 0.08306722 0.036782444 0.08596739 0.02563943 -0.06519361 -0.11525236
0.011652991 -0.02185668 -0.022934735 -0.08784965 0.1220649 0.073020846 -0.023003727 -0.05737394
-0.06518488 -0.027292982 -0.0061196536 0.092112154 -0.03504759 0.09061599 -0.055809215 0.05343701
0.08526054 0.054448858 -0.122895285 0.107140124 0.090052545 0.07223579 -0.10065591 0.042045116
0.025609598 -0.074506104 0.067776546 0.07209651 -0.07291682 -0.055421025 0.03314133 0.10696803

bias f4 [64]
00000000: 2070 ccbc 9ad3 dfbd c86e fabc f6dd bfbd
00000010: 9c70 3f3d 5c5b b1bd 287d fabc daca e8bd
00000020: d864 813c 2cbb 33bd 1005 ccbd 004a 543c
00000030: ec41 70bd b6ca a6bd 8ca7 e5bd 389e c6bd
00000040: 2467 6b3d 568f ef3d 20f0 293c ccb9 143d
00000050: a4a9 6cbd d000 60bc 304c 003d 74dc 6d3d
00000060: 6002 9cbb 6a7f b4bd e064 f63b 70a9 24bc
00000070: 180a d13c ea4b 9e3d 6065 db3b 5c9c 743d
00000080: c863 c23c 70a0 1d3c 9497 4b3d cc9f 73bd
00000090: be2a 963d aa53 e1bd e0af 85bb 38f5 183d
000000a0: 9865 a53c a01a 96bd 164a c6bd 8ea0 9cbd
000000b0: f02d 02bc 7861 4f3d 6834 4e3d d4f5 163d
000000c0: c87e c8bc 48b4 f5bd 54a5 4d3d 086b 02bd
000000d0: 2a6a b1bd 92c0 b33d 0c14 3b3d 00b5 6bbc
000000e0: 449f 153d 44b5 4cbd 206f 56bc 2aab dcbd
000000f0: 287b a93d b054 a03c 56ca b13d 10a8 71bd
-0.02495581 -0.10929032 -0.030570403 -0.093685076 0.046738252 -0.086600035 -0.030577257 -0.11366816
0.015795156 -0.043879673 -0.09961903 0.012957096 -0.058656618 -0.08144133 -0.11213598 -0.096981466
0.05747141 0.11697261 0.010372192 0.036310002 -0.05777897 -0.013672069 0.031322658 0.05807157
-0.0047610253 -0.08813365 0.0075193495 -0.010050163 0.025517508 0.07729323 0.0066954345 0.05971943
0.02372922 0.009620771 0.049705103 -0.059478566 0.07332371 -0.11002286 -0.004079804 0.037343234
0.020190045 -0.07329297 -0.096820995 -0.07647811 -0.007945523 0.050630063 0.050342947 0.036855534
-0.024474517 -0.119972765 0.050206497 -0.031840354 -0.08662827 0.08776964 0.045673415 -0.0143864155
0.03652884 -0.049977556 -0.013088018 -0.107748345 0.08275443 0.019571632 0.08681171 -0.058998168

weight f4 [10, 64]
00000000: e0e8 fb3c 0c80 493d 6ccc f0bd 6691 ff3d
00000010: a056 e6bd ae8a d93d 20b3 993b 181a e33c
00000020: c03c bcbd a41a 6e3d 5013 14bc f887 933c
00000030: 0839 99bc 787e 5d3d 9697 a8bd 08b6 fd3d
00000040: b8da 65bd 70e9 ddbc 9ed7 99bd 7097 e1bc
00000050: 3a46 e5bd cc29 9d3d b461 833d 18a8 8ebd
00000060: 50e6 22bd 186f d53c 08f2 21bd b0a7 7d3d
00000070: 5889 853d 5031 c6bd 845e 0f3d feb2 9f3d
00000080: 68dd d33d c09c 61bc 6628 a1bd 60a5 4b3d
00000090: aa2e 8fbd eaf7 90bd 22e3 ba3d 567b e63d
000000a0: d47f 643d 36a6 f0bd 10c4 b73c 10dd ad3d
000000b0: 30ce 8c3c b099 333d 9812 973c 4043 0c3c
000000c0: 3e2a 943d 3c22 25bd c441 e7bd a627 bf3d
000000d0: 00ef 853a 38ed 42bd 82c7 a53d be57 cf3d
000000e0: 90d7 54bd f439 613d 5879 95bc 0c67 b43d
000000f0: b07a c2bd c0e2 9bbd 2aa1 f13d 262c 8fbd
00000100: a0d1 a63b 8415 fdbd c0b0 0cbb ac3d a23d
00000110: e659 9d3d ae30 c7bd 4c3c e83d 20cd 35bd
00000120: c2f5 bdbd fcda f23d c0b1 7e3c 9039 bf3c
00000130: e884 1e3d 6001 293c 007d c6bb 403e 363c
00000140: cc0b 363d e0c2 383d f0e7 6c3d a0f1 cbbd
00000150: 8433 84bd c258 c83d 2032 f8bb 589e 2f3d
00000160: f853 93bc 9a07 b33d 2cb8 e23d 40f7 b8bd
00000170: 7887 7fbd b0ef 8ebd 40e4 283b 50d5 f2bc
00000180: 94aa 64bd a045 aebd 1cb7 903d b030 353d
00000190: c048 5b3c 5084 573d 7063 a1bc f4e4 6d3d
000001a0: 5404 e03d 6083 f6bb 2638 be3d 440b f83d
000001b0: dc45 f9bd 6cb8 53bd b488 783d 00be 6cba
000001c0: 54c0 a8bd ccb8 533d 80df ab3b 5c26 93bd
000001d0: 0080 ff3b 7a0a c5bd 90e3 133d fe32 d3bd
000001e0: a8da 7abd 6ecf c3bd a235 cebd b28a a83d
000001f0: 5610 c8bd a46b 093d 4810 823c 90ad b53c
00000200: a0f1 9a3c 7479 b23d 6076 5ebc ac21 71bd
00000210: a039 b73d e8ef 1f3d a2d6 cd3d 9619 a4bd
00000220: 50e4 913c 3a16 aebd d099 8fbc d8df 213d
00000230: 00ff ff3b 8827 df3d fa21 9a3d 026c c0bd
00000240: 303c 60bd 74f6 d93d 143a 84bd 9eb7 96bd
00000250: 4cec dbbd 4211 92bd 9e89 f23d 3608 863d
00000260: 4260 b7bd 6a99 cfbd a0b5 873b 6e57 ec3d
00000270: 20f3 fd3b c0e7 7a3b 98bf 2f3d c0bc 1e3d
00000280: 3885 cd3c 80cf 03bb 0c72 af3d d8d1 e53d
00000290: d6a3 fe3d d407 ddbd d0a5 f63d 38e0 a83c
000002a0: 2830 a9bc 0440 5fbd f67d c2bd e2cf ab3d
000002b0: 08a7 823d 6c37 b73d 48ff d13d 907a 7fbd
000002c0: 7a83 9ebd 8062 de3c 06b0 cf3d d4d3 a7bd
000002d0: c030 2b3b d417 943d a0a5 93bc c602 acbd
000002e0: 0872 263d da97 be3d 9494 813d 7aca 9f3d
000002f0: 48c6 023d 507b b5bd 949f 8bbd 002d 1bba
00000300: 9e84 efbd 8c33 f33d 04f6 96bd d288 bebd
00000310: c029 d93c 404a 473c a872 733d d4f7 e0bd
00000320: 40fa 303d 1825 f3bc 6042 a83d fc5d 103d
00000330: c802 5cbd 8080 c9bc a48c 33bd f0bc 6e3d
00000340: 507f 26bd d69b bfbd 080f 20bd 98dc d7bc
00000350: 0017 14bc 3058 d53c eca9 48bd b61a cbbd
00000360: a081 6cbd b640 eb3d 004f e4bd 002d 3abd
00000370: 702e 85bc 3080 fd3c 0435 923d 64d1 973d
00000380: 88d2 9d3c bc31 1fbd 04af 053d 80a5 fe3b
00000390: 1ea2 9fbd c0d9 67bb d478 ec3d e48f 543d
000003a0: 5494 a7bd c418 d63d 2077 7e3c a4cc 5dbd
000003b0: e41d 943d bc92 5fbd 1097 4a3d e4db 8f3d
000003c0: 5294 bfbd 50dd a2bc 88ee d63c 341c 323d
000003d0: 282d e13c 16b0 d9bd ea40 ee3d d027 483c
000003e0: acda 863d a8b4 c53c bcb7 883d 5089 253c
000003f0: 9c89 0abd c884 8fbd 4451 f93d b0f6 b0bd
0.030750692 0.04919438 -0.117577404 0.124789044 -0.11246991 0.10622154 0.004690543 0.027722403
-0.09191275 0.058130875 -0.009037808 0.01800917 -0.018703952 0.054075688 -0.08232038 0.12388235
-0.05611679 -0.02708885 -0.07511829 -0.027538031 -0.11195035 0.07673988 0.0641512 -0.06965655
-0.039770424 0.02605395 -0.03953746 0.061927497 0.06520337 -0.09677374 0.035002246 0.07797812
0.10344964 -0.013770282 -0.078690335 0.04971826 -0.06991322 -0.07078536 0.091253534 0.11253993
0.05578597 -0.11750452 0.022432357 0.0848943 0.017188162 0.04384774 0.018441483 0.0085609555
0.072346196 -0.04031585 -0.11291841 0.09333734 0.0010218322 -0.04758951 0.08094694 0.10124157
-0.05196339 0.05498691 -0.018246338 0.08808717 -0.09496057 -0.076116085 0.11798318 -0.069908425
0.005090907 -0.123576194 -0.0021467656 0.07921919 0.076831624 -0.09726082 0.11339626 -0.044385076
-0.0927539 0.11858174 0.015545309 0.023342878 0.038700968 0.010315269 -0.0060573816 0.01112324
0.044444844 0.045107722 0.05783838 -0.09958196 -0.06455138 0.09782554 -0.0075743347 0.042875618
-0.017984375 0.08741684 0.11070284 -0.09031534 -0.062385052 -0.069793105 0.0025770813 -0.029642731
-0.05582674 -0.08509374 0.07066175 0.044235885 0.013384044 0.052616417 -0.019700736 0.058079675
0.109383255 -0.0075229853 0.09288053 0.12111524 -0.12171528 -0.05168955 0.060677245 -0.0009030998
-0.08239809 0.051689908 0.005245149 -0.07185051 0.007797241 -0.09621139 0.036105692 -0.1031246
-0.061243683 -0.095610484 -0.100688234 0.08229579 -0.09768741 0.03354992 0.015876904 0.022177488
0.018914044 0.087145716 -0.0135780275 -0.058870003 0.08946538 0.03904715 0.100507036 -0.08012693
0.017809063 -0.08500333 -0.017529398 0.039520115 0.007812381 0.10896212 0.07526012 -0.09395601
-0.0547449 0.1064271 -0.0645639 -0.07359241 -0.107384294 -0.07132198 0.11842655 0.06544535
-0.089539066 -0.10136683 0.0041415244 0.115401134 0.00774993 0.0038285106 0.042907327 0.038754225
0.025087938 -0.0020112693 0.085666746 0.11221665 0.12433593 -0.10792509 0.12043345 0.020614728
-0.020652846 -0.05450441 -0.094966814 0.0838926 0.06379515 0.08946118 0.10253769 -0.062372744
-0.07739921 0.027146578 0.10140996 -0.081947 0.0026121587 0.07231107 -0.018023312 -0.083989665
0.040636092 0.09306307 0.06327167 0.07802291 0.031927377 -0.088614106 -0.068175465 -0.0005919486
-0.116952166 0.11875066 -0.073711425 -0.0930344 0.026509166 0.012163699 0.059435517 -0.109847695
0.043207407 -0.029680774 0.08215785 0.03524588 -0.05371359 -0.024597406 -0.043835297 0.058285654
-0.04064876 -0.09355895 -0.039076835 -0.026350304 -0.009038687 0.026043028 -0.048990175 -0.09917204
-0.057740808 0.11486952 -0.111478806 -0.04545307 -0.016257495 0.030944914 0.07139018 0.07412985
0.019265428 -0.03886579 0.03263761 0.007771194 -0.07794593 -0.0035377592 0.11546484 0.051895037
-0.08182588 0.104539424 0.015531331 -0.05415024 0.07232264 -0.054583296 0.04946047 0.07024363
-0.09354462 -0.01988092 0.026236787 0.043483928 0.027487352 -0.10629289 0.11633475 0.012216523
0.06584677 0.024133995 0.066756696 0.010103539 -0.03382264 -0.07007748 0.12173703 -0.08640802

bias f4 [10]
00000000: 086a 1c3d 50ec de3c da0b e93d 16aa cfbd
00000010: 405c 34bd 601a 8cbc 1050 ec3c 805a 683d
00000020: 80c3 97bb 7c23 80bd
0.038187057 0.027212292 0.11379214 -0.10139863 -0.04403329 -0.01710242 0.02884677 0.056726933
-0.0046314597 -0.06256768

weight f4 [2, 64]
00000000: 3610 b4bd 4856 f63c 0038 bdb8 2272 85bd
00000010: c856 c3bc 7c40 603d a01a bf3b 2464 45bd
00000020: 8034 ddbc d45e eb3d 880f 1dbd 088f b53c
00000030: d4cf 57bd 0e9c e83d 74d7 493d 66b1 c4bd
00000040: 5eff a2bd d036 203c ecfc c6bd 76bb c5bd
00000050: 508d ffbc 5c29 a3bd 78bb f33d de47 e6bd
00000060: 70de f2bd d4b4 0fbd 40d3 fa3b c017 d4bb
00000070: ac32 aebd 9c6c c73d 006e 8cb9 7c3a c93d
00000080: aa84 87bd fcea b73d 9859 aa3c 0eb8 98bd
00000090: 787b 3dbd 7818 d23c e041 c73c f611 be3d
000000a0: 24da b53d 5e06 f03d 90f7 9b3d b081 943c
000000b0: 3036 d33c 1ec3 843d 9885 a83d 8cc6 e33d
000000c0: c87c 7f3d 427f f2bd 9050 2b3c 76f4 ca3d
000000d0: 2633 e93d ba91 f43d c00e ad3d e04c fdbd
000000e0: b03b f1bd 222c fd3d f4c2 e23d d8be b93c
000000f0: 489c 023d 56b9 ff3d 7430 a73d e48c 903d
00000100: 5c8c 2a3d 6a0a 96bd 941b 3bbd 4010 6ebb
00000110: aefd e13d 1462 43bd 6847 ab3d fa7e c13d
00000120: f80e 8e3d 6a05 84bd fc07 dc3d e02d 1d3d
00000130: a0db 8bbb ac44 213d f8ee b1bd 008d 3cbd
00000140: 00ab f63c 6499 12bd f4a5 5f3d c0f5 4bbd
00000150: b88c fd3c bcc0 62bd fa8a 81bd eaa8 fd3d
00000160: 6025 e9bc 608d 4dbd 6c3f 483d 409d 00bc
00000170: 5091 dfbc f07d 2fbc b855 8fbc e815 e9bc
00000180: 98f3 eebd fc03 293d 88fa aabc 3ecd e43d
00000190: e05c 05bd 48c9 a3bd 3640 a13d 5cbb f83d
000001a0: 28f2 e7bc 38bf 5b3d 84af f3bd 9857 823d
000001b0: b0f9 26bc 2e58 d03d 84a6 dfbd f037 683c
000001c0: 38f8 233d bea4 a2bd 9875 2fbd 0660 cc3d
000001d0: c4f1 c23d 003b dcba 7c92 18bd 3090 e0bd
000001e0: 30b8 cb3d 80ab a33a d4dc 86bd ca42 d23d
000001f0: 9022 c33c 70f2 57bd aca4 68bd 1473 c23d
-0.087921545 0.030070439 -9.022653e-05 -0.0651591 -0.023845091 0.054748997 0.0058320314 -0.048191205
-0.027002573 0.114926964 -0.03834489 0.02216293 -0.052688435 0.1135789 0.049277738 -0.096041486
-0.07958864 0.009778693 -0.0971621 -0.09654896 -0.031195313 -0.07966873 0.11900991 -0.11244176
-0.11858833 -0.03508456 0.0076545775 -0.006472558 -0.08505759 0.097375125 -0.00026784837 0.09825608
-0.066171005 0.089803666 0.020794675 -0.07456981 -0.046260327 0.025646433 0.024323404 0.092807695
0.08879498 0.117199644 0.07615578 0.018128246 0.025782675 0.06482528 0.08228606 0.11121854
0.06237486 -0.11840679 0.010456219 0.099099085 0.11386709 0.11941858 0.08450079 -0.12368178
-0.117789626 0.12361933 0.110723406 0.02267401 0.031887323 0.12486522 0.081635386 0.07058123
0.041637763 -0.07326205 -0.045680597 -0.0036325604 0.11034714 -0.047700956 0.08363229 0.09448047
0.06936449 -0.06446345 0.107437104 0.038373828 -0.0042681247 0.03937213 -0.08688158 -0.046032906
0.030110836 -0.035790816 0.054601625 -0.049794912 0.030950889 -0.055359587 -0.06325336 0.123857334
-0.028460205 -0.050183654 0.04888861 -0.007849991 -0.02729097 -0.010711178 -0.017496929 -0.028452829
-0.116675556 0.041263565 -0.020871416 0.11171959 -0.032559276 -0.07997376 0.078735754 0.12145111
-0.028313711 0.053649157 -0.11898711 0.063643634 -0.010191366 0.10173069 -0.10920432 0.014173493
0.04003164 -0.07941578 -0.042836756 0.099792525 0.095187694 -0.0016802251 -0.037249073 -0.109650016
0.0994724 0.0012487024 -0.06585088 0.10266645 0.023820192 -0.05272144 -0.05679767 0.09494606

bias f4 [2]
00000000: f0e7 3b3d 90cb 17bd
0.04587549 -0.037059367

weight f4 [64, 30]
00000000: 5f3e c2bd bd49 c2bd 7c2e bc3d 70db da3c
00000010: 9cca f43d e4cd 6e3d 60dd 99bc d63b 04be
00000020: 906f ca3d 47dd 07be a50b 8fbd c0f8 123e
00000030: 8e2f 133e 5639 abbd 1cd9 e53d f83d 5cbd
00000040: b0eb e23c 80e2 09bd 98e6 b93d 2592 d5bd
00000050: 78ca c83c 00fe 94ba b86e b3bc 8039 a43b
00000060: e070 49bc e484 fabd 84ab 14be 20d5 c0bc
00000070: 0bfb d8bd f847 a23c bc46 c73d d35e 0dbe
00000080: c08f a93d 585d 683d b2b1 04be a220 1c3e
00000090: 2afc 09be 54cc e83d 603f f6bb 60fd 2fbd
000000a0: c4ab f23d feea 13be 743e 143e 0033 8eba
000000b0: 2035 f83c 302f e23d fa5f ccbd ac25 043d
000000c0: d8e9 be3d c620 86bd cac8 8abd 732e e0bd
000000d0: f0a3 81bc 30da 2ebd 80ed 5abb 585e cd3c
000000e0: 4433 1fbd b44c ca3d c89b ea3d 482b fabd
000000f0: dc20 25be 78c1 193d e883 603d 86fa 23be
00000100: 891c d2bd 2589 17be b264 7bbd 200b adbc
00000110: 00aa 1bbe ef34 07be b4e7 06be a45a 243e
00000120: 0086 4cba ce4c 033e f088 e83c c2a8 093e
00000130: 48c8 183e 2ef4 813d 25ad 96bd 502b 88bc
00000140: 746b 2d3d 9888 e63d c043 77bd 5e07 1bbe
00000150: 7769 c0bd 386c 54bd 6823 6cbd 9077 993d
00000160: b80e 35be 2c4a b93d 4e7a edbd fce3 39bd
00000170: e869 80bd bc4b 123d ca9a f0bd d08f 0abe
00000180: 725a 323e 2846 4fbd f4e0 07be 9899 8f3d
00000190: 184b 483d f8e6 d2bc c50e 2cbe d4f3 04bd
000001a0: 2add 233e 54c6 84bd 909a 56bd f421 6b3d
000001b0: 72fa 323e 2c0f 06be 0044 3f3d 58fa 123e
000001c0: 7451 53bd 6433 cd3d a5f7 0dbe 80f0 463c
000001d0: 50a2 67bd e9b7 edbd 1491 89bd 2063 ba3c
000001e0: 886b c3bc 4f3f 9bbd c89e 27be b82f 083e
000001f0: f4c7 02bd 806a e9bb 36fa 0cbe d433 bb3d
00000200: 72b2 2abe a4a9 753d 3c1b 6fbd 8ce3 2abe
00000210: ac3a 013d 9ec8 2fbe 69f2 2ebe 30aa 123c
00000220: 383e 04be 40ed 113c 9852 1ebe c85d 373e
00000230: 5ae8 0bbe 54e0 2c3e 509a 4d3c 506c 9c3c
00000240: 289e e03c 2827 74bd 20b7 833c 75f0 2bbe
00000250: 8002 1e3d c4a2 0fbd 75e7 b0bd 6e7e 323e
00000260: fa2d 363e 5e9c f4bd fc17 0c3e 0064 273e
00000270: 30a7 303e a03a 2bbd 7845 db3d ba68 1d3e
00000280: 6df6 28be 3c9e c2bd 38e2 25be 0ccb cf3d
00000290: 2009 fd3d b32b d2bd 6685 283e f8bc c23d
000002a0: 66be d9bd c892 523d b859 7d3d 4ce8 cbbd
000002b0: 7fe9 18be 28e5 513d 146e 10be c801 8f3d
000002c0: 8aad 1ebe d6b2 24be d8e9 ad3c 4a08 75bd
000002d0: 8cd9 c13d bed7 07be 0c3b 0bbd 0897 a83d
000002e0: b451 98bd 08e4 fdbd b468 b03d 624c 193e
000002f0: 04c0 aebd a627 fdbd 88e8 6b3d 1010 e03c
00000300: 63e2 04be 9075 823d e0fa 31bc b0a4 afbc
00000310: 8baf d3bd 3c3c 34bd 640f a5bd 144f 12bd
00000320: 425f 333e 80cc 88ba 95ae b6bd 289d 9c3d
00000330: acce e63d 1481 35be 50c9 15bc b53c 16be
00000340: 9fd3 8cbd a0d9 ea3d ac84 e73d 9863 a5bc
00000350: 75bb 86bd 8013 813c 603e db3d 6c7d 30be
00000360: 64c7 243e e8b8 383d 00c9 083e c7a8 2bbe
00000370: 9a4e 36be e2d7 803d fb34 26be e044 7ebd
00000380: f0b3 113e 1867 da3d 1615 033e d4d1 543d
00000390: 0991 bcbd 505a a2bc e9f7 21be a024 ad3c
000003a0: 0056 993d 6c65 b8bd b8a8 7b3d 0c33 15bd
000003b0: cca9 653d 4124 cabd 7d75 0ebe e2fc 133e
000003c0: d872 fc3d d8c6 6e3d f856 e13c b49c 343e
000003d0: b818 dd3d 2805 9b3c 44d6 1a3e 0fe2 2cbe
000003e0: 56e7 19be 7e7c 253e d4ce 073e 4051 ea3b
000003f0: 24a1 043d 3489 0f3e 4abc 82bd 70e0 d1bc
-0.094845526 -0.09486721 0.09188554 0.026715964 0.11952707 0.05830182 -0.018782318 -0.1291345
0.0988456 -0.13268004 -0.06984643 0.14352703 0.1437361 -0.08360545 0.11223051 -0.053770036
0.027700275 -0.033663273 0.090771854 -0.104282655 0.024510607 -0.0011367202 -0.02190338 0.0050117373
-0.012294978 -0.12232378 -0.14518553 -0.023539126 -0.10594758 0.019809708 0.097302884 -0.13805704
0.08279371 0.056729645 -0.1295841 0.15246823 -0.13475099 0.113670975 -0.007514879 -0.042966247
0.11849168 -0.14445111 0.14476949 -0.001084894 0.03029877 0.110441566 -0.099792436 0.03226249
0.09321946 -0.0654922 -0.06776579 -0.109463595 -0.015825242 -0.04268855 -0.0033405721 0.0250694
-0.03886725 0.09877911 0.11455494 -0.122152865 -0.16125816 0.03753802 0.054813296 -0.16013536
-0.10259349 -0.1479841 -0.061375327 -0.021123469 -0.15201569 -0.13203786 -0.13174325 0.16050202
-0.000780195 0.12822267 0.02838561 0.13443282 0.14920151 0.06345402 -0.073572434 -0.016622216
0.042338803 0.11256522 -0.060367346 -0.15139529 -0.09395116 -0.051861018 -0.057650954 0.07493508
-0.17681396 0.0904735 -0.115955934 -0.04538344 -0.062702 0.035716757 -0.11748274 -0.13531423
0.17417315 -0.050604016 -0.13269407 0.070117176 0.04889974 -0.0257449 -0.16802509 -0.032459095
0.16002336 -0.064831406 -0.052393496 0.057405427 0.1747835 -0.13091725 0.04669571 0.14353311
-0.05159135 0.100195676 -0.13864 0.012142301 -0.056551278 -0.11607344 -0.067171246 0.022752345
-0.023854986 -0.075804345 -0.16369164 0.13299453 -0.03192897 -0.0071232915 -0.13767323 0.09140745
-0.16669634 0.059976235 -0.058375582 -0.16688365 0.031550094 -0.17166373 -0.1708466 0.008951709
-0.1291436 0.008906662 -0.15461195 0.17906868 -0.13662854 0.1688245 0.012548998 0.019094616
0.027419165 -0.059607655 0.016078532 -0.16790946 0.038576603 -0.035067335 -0.08637897 0.17431042
0.17790976 -0.11943887 0.13681024 0.1634674 0.17251277 -0.041803956 0.107066095 0.15371981
-0.16500254 -0.09502837 -0.16199577 0.1014615 0.12355256 -0.10262241 0.16457137 0.09508699
-0.10632019 0.051409513 0.06185314 -0.099564165 -0.14932822 0.05124393 -0.14104491 0.069827616
-0.15495887 -0.16083845 0.02122967 -0.05982236 0.09465322 -0.13265893 -0.03399186 0.08231932
-0.07437459 -0.12397009 0.086137205 0.14970544 -0.08532718 -0.12361078 0.057594806 0.02735141
-0.12976985 0.063700795 -0.010863036 -0.021440834 -0.103362165 -0.044002756 -0.08059576 -0.035719946
0.17516807 -0.0010436922 -0.08920018 0.07647163 0.11269888 -0.1772502 -0.009142235 -0.14671595
-0.06876301 0.1146729 0.11304602 -0.020189092 -0.06578723 0.015756369 0.107052565 -0.17235345
0.16091686 0.045098215 0.13357925 -0.16763602 -0.17803422 0.062911764 -0.16231148 -0.062077403
0.14228797 0.10664195 0.12801012 0.05195792 -0.09207351 -0.019818455 -0.15817226 0.021135628
0.07487106 -0.0900372 0.0614402 -0.036425635 0.056070134 -0.09870196 -0.13912006 0.14451936
0.12326592 0.0582951 0.02750729 0.17637902 0.1079573 0.018923357 0.15120798 -0.1688311
-0.15029654 0.16160771 0.13262492 0.007150799 0.03238024 0.14017183 -0.063835695 -0.025619715

bias f4 [64]
00000000: c3b2 39be bcb9 023e 1532 91bd 136c 16be
00000010: 6c12 8a3d 36df cdbd b2b9 393e 105c ca3d
00000020: 001e 97bc 8072 ab3d c86a 11be 9854 23be
00000030: bcb9 31bd 0cf9 273e 9062 fa3d 517f 14be
00000040: 601b 2ebd f512 20be 8c05 383d f835 f2bd
00000050: 6890 dc3d b220 26be 7017 2f3d d00f f43c
00000060: 5ea4 0a3e 1c32 143e bca0 d0bd 805d 333d
00000070: e077 d43c 2412 0cbe cfdc 36be f802 adbd
00000080: b844 9abc 50f9 84bc bf13 cebd 4da3 d0bd
00000090: da57 10be 4405 033e 00a0 adbb f851 1abd
000000a0: 34c2 d33d a88d eb3c 4299 113e 0480 173e
000000b0: 2073 f0bd 0012 ec3d 7e7b 883d 6a19 393e
000000c0: 88ac d03d 4185 d3bd ec5f 003d 1e29 113e
000000d0: 4071 fb3b 2c3e db3d c4d0 4a3d cc40 00be
000000e0: 30b1 9c3d 2076 fdbb f622 ebbd be6a 183e
000000f0: 0c0e 523d a9b8 b0bd 6051 0fbc 17dc 03be
-0.18134598 0.12766165 -0.070896305 -0.14689665 0.06741795 -0.1005234 0.18137243 0.09880841
-0.018446922 0.083714485 -0.1420089 -0.15950239 -0.04339002 0.16403598 0.122258306 -0.14501692
-0.042506576 -0.15632232 0.044927165 -0.118267 0.10769731 -0.1622341 0.04274696 0.029792696
0.13539264 0.1447224 -0.10186908 0.04379034 0.025936067 -0.13678795 -0.1785767 -0.08447832
-0.018831596 -0.016232163 -0.1006236 -0.10187397 -0.14096013 0.12794977 -0.0052986145 -0.037675828
0.10339776 0.02875407 0.1421862 0.14794928 -0.11740708 0.11526871 0.06664179 0.18076101
0.10189158 -0.103281505 0.03134148 0.14175841 0.0076734126 0.10705218 0.0495155 -0.12524718
0.07650983 -0.007735029 -0.11481278 0.14884469 0.051282927 -0.08628971 -0.008747429 -0.12876926

weight f4 [64, 64]
00000000: cc2a 1bbd 1ec8 d63d 061a c83d b6fc fe3d
00000010: 6c2c 71bd 4cb2 d9bd 0432 4abd c8eb c73d
00000020: 58d4 a93d a270 f63d ec69 f1bd a46b 8d3d
00000030: 30ae 49bc e282 d33d 68a7 263d d0c1 de3d
00000040: 2806 773d 40b8 f4bd 1c54 4fbd 002c 1f3b
00000050: 08ca 78bd 5cde 39bd 1a4d ddbd 04dd 3e3d
00000060: 2c67 d53d b481 233d 0882 af3d b85e eebd
00000070: 9e9e a83d 3042 243d 36ae b13d 4c21 eebd
00000080: 482c cd3c 686a 8ebc 00fe a4bc 0098 27bb
00000090: b489 da3d a0f5 a8bc 7cee 3bbd 582f 3bbd
000000a0: 5049 513d ace9 dfbd 20db a13c a038 573c
000000b0: 16b6 a3bd ccb0 36bd 6022 f03b a8df a1bd
000000c0: 5659 bd3d 5a4c b0bd 7477 563d 12a1 96bd
000000d0: 3849 d83c 1cca 28bd 800e 743d f80a ba3c
000000e0: 28e4 e13c d811 a53c 4cec e13d a87a 3bbd
000000f0: 7028 ca3c 4cf8 56bd 60ee 78bc d0b6 5abc
00000100: a0a0 c03b 2a30 92bd 6c2c 113d 0aad a73d
00000110: 405f d2bc 1ae8 eabd 54c5 e13d aa6b c23d
00000120: 10c7 ec3d 48cc c7bd c4ce a73d 20dd ccbb
00000130: 6081 8ebb 0230 e5bd 90a0 e83d 0078 f5bb
00000140: 086c f1bc 2490 00bd c8da c9bc 8850 ed3d
00000150: c84a 5c3d cc9f dd3d c27b d5bd f4bf 773d
00000160: 5882 fc3c 2cf8 4f3d c8b0 97bc a0bb e43b
00000170: 24f0 533d 7c6b 9bbd e04d a73c 0066 b9bb
00000180: 906a 98bc 103b 613d 00fe a7bd ca5a ad3d
00000190: 4e39 d33d b092 d53d 6cc5 733d 1829 e53c
000001a0: d6a7 e13d 8ac8 a43d c88d 2fbd bc44 06bd
000001b0: ea7f fa3d dcb7 fc3d 0012 ee3c 6abf ad3d
000001c0: c8aa ccbd 4c15 313d 2c74 01bd 6097 7fbc
000001d0: 0017 27bb 7015 72bc 68d7 cdbd 2428 3dbd
000001e0: b013 313c 909b 5b3c e836 61bd 6802 b03d
000001f0: 74eb d9bd a0e7 bf3c 4247 c53d 180c ea3c
00000200: 2c9b 2cbd c0f7 fabc 6014 d43d 1c21 57bd
00000210: 18fb a93d 1cac 9b3d 5259 e0bd a47f 58bd
00000220: 98e3 f5bd c0fd c23d 9038 ef3d b0e7 6cbc
00000230: 7886 0bbd e881 46bd 8003 7abd 088b c63d
00000240: b848 f33c 14e9 3dbd 2e1f a0bd 9807 3bbd
00000250: c8f1 c23d c8b9 c5bc ecba 823d e0f0 f2bc
00000260: 8665 b33d 9cfa 863d 2eee b53d 0ac9 9fbd
00000270: 8058 903b 386a c0bc 82ed a13d 4062 10bd
00000280: 70fa 94bc 0ec0 bd3d 987f 7cbd de2e ccbd
00000290: f65e bbbd 1211 ce3d f801 dcbc 5ef5 cfbd
000002a0: 7478 6bbd 8035 fabb f004 efbd a6ff b43d
000002b0: 2aeb ec3d 4ec8 aa3d 60b2 283c 52df febd
000002c0: 46dd fb3d 5e58 ddbd dcb0 e6bd 1874 8d3d
000002d0: 2077 cebb 4c96 8abd 9844 dc3c 006e a539
000002e0: d491 33bd 08e3 fcbc 40c1 35bd 3258 fd3d
000002f0: 127e f8bd 1687 b53d b036 553d e0cf d7bd
00000300: 1080 e1bc 9011 9f3d b62c ddbd e05c f33b
00000310: 6087 ec3b 889c 50bd a08f 5dbd 9e68 9dbd
00000320: 14e8 4c3d 26fb b5bd 402c c1bd 5ad2 b73d
00000330: c41e 353d 6a4b 883d e64a a33d f803 d83c
00000340: c424 fabd 56c8 e6bd 0019 e4bc 60ff c03d
00000350: 0843 b33c 88e6 7cbd 8403 c93d a0f1 433c
00000360: cc0f 993d 287f 053d 6029 7bbd a4f8 623d
00000370: d409 ddbd 8011 2fbc f460 f9bd 50ca cd3d
00000380: ecef 473d 6089 873b 181f e9bc f078 3bbd
00000390: 509d 1ebd deb6 f03d d8c0 a93c 8ce9 c8bd
000003a0: f221 ec3d 3829 e2bc f4b8 54bd 5a1c 863d
000003b0: c82c 6bbd 1804 383d 661d a63d ec1d 93bd
000003c0: b868 f3bd a0fb cb3d ecba 12bd c4bc 923d
000003d0: d009 853c eeca ed3d c8e1 b7bc 8aca e33d
000003e0: 9815 2ebd fe91 ff3d 08d1 73bd 5007 863d
000003f0: d688 83bd 7878 87bc c4b6 ebbd 1c9b 3bbd
-0.03788261 0.10487388 0.097705886 0.124505445 -0.058880255 -0.106297106 -0.049364105 0.097617686
0.082924545 0.12033202 -0.11787781 0.069052964 -0.012309596 0.10327698 0.040686995 0.108768106
0.060308605 -0.119492054 -0.050617322 0.00242877 -0.060739547 -0.045378074 -0.108057216 0.046597496
0.10420069 0.039918616 0.08569723 -0.1163916 0.08233379 0.040102184 0.08675806 -0.116274446
0.025045529 -0.017384723 -0.020140648 -0.0025572777 0.10670796 -0.020624936 -0.045881733 -0.045699447
0.051095307 -0.10933241 0.019757807 0.013136059 -0.079937145 -0.0446022 0.0073283166 -0.07903987
0.09245555 -0.08608313 0.052360013 -0.073549405 0.0264021 -0.04120837 0.05958414 0.022710308
0.027574614 0.02015011 0.11031398 -0.04577127 0.024677485 -0.052482888 -0.015193552 -0.01334925
0.005878523 -0.07138093 0.035442755 0.081873015 -0.025680184 -0.11470051 0.110239655 0.094931915
0.11561406 -0.097557604 0.08193734 -0.006251946 -0.004348919 -0.111907974 0.1135875 -0.0074911118
-0.029470459 -0.031387463 -0.024640456 0.11587626 0.053782254 0.108214945 -0.104239956 0.060485795
0.030823871 0.050773785 -0.018516913 0.0069803745 0.051742688 -0.075888604 0.020422876 -0.0056579113
-0.0186055 0.054987967 -0.082027435 0.08464582 0.103136644 0.10428369 0.059514448 0.027973697
0.1101834 0.08046062 -0.042859823 -0.032780394 0.12231429 0.12339756 0.029061317 0.08483775
-0.099935114 0.0432332 -0.03160493 -0.015600055 -0.0025495887 -0.014775619 -0.10050851 -0.04618086
0.0108079165 0.013403788 -0.054984003 0.08594209 -0.10640612 0.023425877 0.09632732 0.02857022
-0.04214017 -0.030635715 0.10355449 -0.05252181 0.082998455 0.07601187 -0.109545365 -0.052856103
-0.12006301 0.09521055 0.1168071 -0.0144595355 -0.034063786 -0.048463732 -0.061038494 0.09694487
0.029697761 -0.04636486 -0.07818447 -0.04566154 0.09518772 -0.024136439 0.06383309 -0.029655874
0.087595984 0.06590769 0.0888332 -0.07802017 0.0044050813 -0.023488149 0.07906629 -0.03524995
-0.018185824 0.09265147 -0.06164512 -0.09969877 -0.09148972 0.1006185 -0.026856408 -0.10154222
-0.05748792 -0.007635772 -0.11670864 0.088378236 0.115682915 0.08338986 0.010296434 -0.12444939
0.12298064 -0.1080787 -0.11264202 0.06906909 -0.006300822 -0.06766948 0.026888177 0.0003155321
-0.043840244 -0.030869976 -0.04437375 0.123703375 -0.12133421 0.08863656 0.052054107 -0.10537696
-0.027526885 0.07767022 -0.107995436 0.007426843 0.0072182864 -0.05093053 -0.05409205 -0.0768597
0.050026014 -0.088857934 -0.09432268 0.08975668 0.044218794 0.06655009 0.0797327 0.02636908
-0.12214044 -0.1126868 -0.027843952 0.09423709 0.021882549 -0.06174329 0.09815124 0.011959463
0.07473716 0.03259197 -0.061318755 0.055412903 -0.1079289 -0.010685325 -0.121766955 0.10048354
0.04881279 0.0041362494 -0.02845721 -0.04576963 -0.038724244 0.11753629 0.020721838 -0.098101705
0.11529912 -0.027607545 -0.051934198 0.065483764 -0.057415754 0.04492578 0.08111076 -0.071834415
-0.11885208 0.09960103 -0.035822794 0.071649104 0.01624003 0.116109714 -0.022446528 0.11122616
-0.042501062 0.12479018 -0.05952552 0.065443635 -0.06422584 -0.016536936 -0.11509469 -0.04580222

bias f4 [64]
00000000: 4a9b 8d3d 5e7b fc3d b4fe 7b3d 301f bfbd
00000010: caf4 c23d 3a4c c13d d809 a13d e4f2 3abd
00000020: 02ca 993d 0833 df3c 8029 453d 40e7 e53c
00000030: 90ed 85bd 8029 d4bb 00c4 77bc 7ad3 c8bd
00000040: 9ccc c83d e21d c9bd d850 e3bc 08c9 d3bc
00000050: 42ff b83d 0054 31bc a6ef febd a22b ed3d
00000060: 0051 853a 30e1 f4bd 4095 853d 32c6 f43d
00000070: a035 ec3d 3c83 a93d b268 bbbd 04a1 2bbd
00000080: 3801 8fbd a814 89bc b89f dfbd 7cfb c63d
00000090: 90df a3bc 0c09 e5bd 1076 74bd 349f 053d
000000a0: 90b6 44bc c0dc f53b d0f7 c4bc 2827 8c3c
000000b0: 10af 2f3c 7464 b43d 24b7 d73d ac36 bdbd
000000c0: ce81 8abd 90a9 15bd 14ee 88bd 601e b63c
000000d0: d0b3 2cbd fc0f 8a3d 0020 adb9 c0a0 563d
000000e0: c6cf cb3d 38e0 403d 38f9 f9bd 52b4 f4bd
000000f0: 7094 9d3d 2c32 0a3d 2215 c9bd 2416 f5bd
0.06914385 0.12328218 0.0615222 -0.093321204 0.09519346 0.09438367 0.07863206 -0.045641795
0.07509233 0.027246013 0.04813528 0.02806437 -0.06539452 -0.0064746737 -0.015122414 -0.09805961
0.09804651 -0.09820153 -0.02774851 -0.025852695 0.090330616 -0.01082325 -0.12448053 0.11580588
0.0010171235 -0.119570136 0.06522608 0.11951865 0.11533666 0.08276984 -0.091508284 -0.041901603
-0.06982654 -0.016733482 -0.10919136 0.097159356 -0.020004064 -0.11183366 -0.059682906 0.03262253
-0.012006417 0.007503122 -0.024043947 0.017108515 0.0107228905 0.088082224 0.10532978 -0.092389435
-0.067630395 -0.03653866 -0.06686035 0.02223128 -0.04216367 0.0674133 -0.00033020973 0.052399397
0.09951739 0.04708883 -0.12205738 -0.11948456 0.07694328 0.033739254 -0.09818484 -0.119671136

weight f4 [30, 64]
00000000: a29b 813d 48f6 ca3d a0dd a0bb b0ff 1ebc
00000010: a8eb 6b3d e02b 783d 807e 183d f28d d83d
00000020: 387a 963c 70d0 56bd cc60 56bd 90be 3f3d
00000030: 34cd bfbd f41b 03bd 6805 62bd c09e 01bb
00000040: 7823 f83d 2c89 78bd a4c7 8d3d e09a 1f3d
00000050: 5052 cabd 7089 a5bd f420 51bd 9068 ab3d
00000060: 1052 5ebc 8835 8f3c 6cf3 803d 24d8 9a3d
00000070: f603 d0bd 781a 8e3c 7e54 bbbd 003c d3b9
00000080: 10d8 ee3c 8efe e5bd 3ce0 0d3d 5858 e0bc
00000090: 26ca dcbd 0408 27bd 844c 56bd c07d b73c
000000a0: 4812 f0bd 408b d6bd 9018 09bd 3c62 cb3d
000000b0: 4247 f4bd f0aa 8e3d 6803 143d 8aa5 ccbd
000000c0: 70cb e43c e876 85bd 4085 0b3d 24f1 113d
000000d0: b899 11bd 8a19 8b3d 44b8 ea3d f0ef 5ebd
000000e0: 686f a13c 183f cbbd a42b b9bd 10eb 26bc
000000f0: aa70 b2bd 0848 a9bd 28bf 5fbd 084a 82bc
00000100: 4086 c73d 7e61 bd3d 62ab da3d 78c3 9a3d
00000110: 42d0 dc3d 8045 acbc e051 f6bb c8d7 793d
00000120: 1457 14bd eee7 c0bd d0e8 c63c a2eb 9a3d
00000130: f49b 5fbd 2aad 85bd d642 d93d 34d7 5e3d
00000140: ee94 b03d 00c3 91bd c01c b5bc f06d d43d
00000150: 7ad7 e53d 06c3 d2bd ba55 aabd fe1b d23d
00000160: 3e7b c43d 208b a9bc a0d3 55bc 4884 f2bc
00000170: 9052 d1bd bcef d13d 20ed fdbb 92a6 ecbd
00000180: a0c7 843c 9817 a83c 780e bebc 16af ee3d
00000190: 964e c8bd 40d8 d63c 6ed0 89bd b834 673d
000001a0: 347a 633d 2869 f7bd f821 cc3c f006 8ebc
000001b0: 602d 53bd 006c 39ba dc99 87bd 1a52 94bd
000001c0: e0cf 813d eab7 d83d 4077 51bc 407e 15bb
000001d0: 8029 893d 60be cbbb 3436 6f3d 0c2c 023d
000001e0: 5cbb 2f3d b037 f73c 80e3 973d fed9 e5bd
000001f0: f08b 1a3d 7023 80bc d09f f7bc 0011 b43b
00000200: a007 b3bc 84b9 9f3d e26c c73d 5866 293d
00000210: c0e5 e23b 60d2 b8bc cc00 e9bd 0e15 e23d
00000220: 3830 00bd 288b 343d 28f6 a93c 18e4 91bd
00000230: f05d 16bc 7a09 f73d d258 b93d de88 a0bd
00000240: acc3 3cbd eaed 883d ea65 cebd 3823 343d
00000250: 00d0 573b 4053 7c3c c8d2 973d 08a1 ccbc
00000260: 140e ba3d 185c 09bd 62b9 96bd cc90 c8bd
00000270: 8253 a83d 4048 1fbc 0e24 a13d d281 c5bd
00000280: d87a d1bd d2eb adbd b4e1 21bd 68e3 f6bc
00000290: ae7f 8f3d 8024 733b 90ba c33c f0c4 5f3d
000002a0: 2e21 b5bd 6e73 8cbd 00b1 a03c 1c99 bbbd
000002b0: 106e 38bd 9890 c1bd ae29 c2bd c095 bf3b
000002c0: 90e8 8f3c 40c1 bc3c ea25 a2bd 80bd 973b
000002d0: 00cb b23b 14ed 1bbd 946c adbd d858 6c3d
000002e0: 80b8 a63c 8a98 bbbd 4898 f0bc 7061 b2bc
000002f0: f299 de3d 289b 99bd 0e9f c83d 0c44 1f3d
00000300: b488 c4bd 2624 863d f075 46bc dc8e 253d
00000310: b880 4bbd 4815 cabd 6861 863d 1895 fb3c
00000320: 9408 4c3d f03a c8bd 7400 763d 0c29 a83d
00000330: 50bc 353c bc86 ca3d e02a 9c3d 10e3 a3bd
00000340: 3c49 d53d 2aa2 d8bd 345f 8b3d 484c fcbd
00000350: 7070 39bc 2002 eb3c 5c6a bf3d 88dc 973d
00000360: 5875 1dbd 34b1 c63d 9887 f8bc 4834 c53d
00000370: 04a6 23bd 22ac 9dbd e89a 073d 381f 40bd
00000380: 0a5f ee3d ecdf 30bd 5001 59bd c091 6cbc
00000390: 1265 97bd 0ee3 ff3d fcb2 0a3d d074 7dbd
000003a0: c611 8d3d 5015 f43c 0642 863d 8013 5a3b
000003b0: 08d8 b2bc d474 d9bd 18a7 9dbc 0091 13bd
000003c0: 8669 ad3d f2e6 94bd 8ca0 cdbd d8d2 e1bd
000003d0: 5c37 623d a8a1 0f3d f466 9abd 3c44 b7bd
000003e0: 0064 0ebc 0040 d33a a8d8 063d 807c 233b
000003f0: 5ec3 a13d 5c7f 293d 8032 9e3c fc2f 373d
0.06328513 0.09910256 -0.0049092323 -0.009704515 0.057597786 0.060588717 0.037230015 0.10573949
0.018368825 -0.052444875 -0.052338406 0.046812594 -0.09365311 -0.03200908 -0.055180937 -0.001977846
0.1211614 -0.060677692 0.06922844 0.03896606 -0.09878981 -0.08082855 -0.051056817 0.08369553
-0.01356937 0.01748158 0.06296429 0.07560757 -0.101570055 0.017346606 -0.09146975 -0.0004028976
0.029155761 -0.11230193 0.034637675 -0.027385876 -0.10780744 -0.04077913 -0.052319065 0.02239883
-0.11722237 -0.104757786 -0.03347069 0.09930846 -0.11927654 0.069661975 0.03613606 -0.099925116
0.027929038 -0.0651682 0.034062624 0.03563036 -0.03554699 0.067919806 0.11460927 -0.05442804
0.019706443 -0.099241436 -0.09041527 -0.010187879 -0.08712895 -0.08265692 -0.05462566 -0.015904441
0.09742403 0.09247111 0.1067722 0.07556814 0.107819095 -0.021029234 -0.0075170845 0.0609968
-0.036215857 -0.09419237 0.024280936 0.07564475 -0.054592088 -0.06527169 0.10608451 0.054404452
0.08622156 -0.071172714 -0.022108436 0.103725314 0.112227395 -0.10291104 -0.08317132 0.10259245
0.09593819 -0.020696223 -0.013050944 -0.029604092 -0.10220826 0.10250804 -0.007749215 -0.11555208
0.01620847 0.020519063 -0.023200259 0.11654489 -0.09780614 0.026226163 -0.06729208 0.05644676
0.055536464 -0.12080604 0.024918541 -0.017337292 -0.051556945 -0.0007073283 -0.06621143 -0.07242222
0.06338477 0.10581954 -0.012784779 -0.0022810847 0.066973686 -0.006217763 0.0584013 0.031780288
0.04290329 0.030177921 0.07416439 -0.11223219 0.03773111 -0.015641898 -0.030227572 0.0054951906
-0.021854222 0.07799056 0.097375646 0.04135737 0.006924361 -0.022561252 -0.11377105 0.11039172
-0.031295985 0.044078022 0.02074726 -0.071235836 -0.00917767 0.120623544 0.09050144 -0.07838605
-0.046085045 0.066860035 -0.10078032 0.0439789 0.0032930374 0.015400708 0.0741325 -0.02497913
0.090847164 -0.033535093 -0.07359578 -0.09793243 0.08219053 -0.009721816 0.07868205 -0.09643902
-0.10228509 -0.08492245 -0.039521888 -0.030137733 0.07006775 0.0037100613 0.02389267 0.054631174
-0.08844219 -0.06857954 0.01961565 -0.09160063 -0.04502684 -0.09451407 -0.09480606 0.005846709
0.01756695 0.023041368 -0.07917388 0.0046307445 0.0054563284 -0.038067892 -0.08467975 0.057701916
0.020351648 -0.09159954 -0.029369488 -0.021774977 0.108692065 -0.07500297 0.09795962 0.038883254
-0.095963866 0.065498635 -0.012113079 0.040419444 -0.049683303 -0.0986734 0.065615475 0.030710742
0.04981287 -0.097768664 0.060059026 0.08210954 0.0110922605 0.0988898 0.07625365 -0.08002293
0.10414359 -0.10577805 0.06805268 -0.12319237 -0.011318311 0.028687537 0.09346458 0.0741511
-0.038441986 0.097017676 -0.030338094 0.096291125 -0.039953247 -0.07698847 0.033106714 -0.046904773
0.11639221 -0.0431823 -0.052979767 -0.014439046 -0.073923245 0.12494479 0.0338621 -0.06187898
0.06888156 0.029795319 0.06555562 0.0033275783 -0.021831527 -0.10617986 -0.019244716 -0.036026955
0.084673926 -0.07270612 -0.100403875 -0.110265434 0.055228576 0.035066277 -0.07539168 -0.089485615
-0.008690834 0.0016117096 0.032921463 0.0024946034 0.078985915 0.041381225 0.01931119 0.044723496

bias f4 [30]
00000000: fe3a a43d 0c1e aebd f0e5 363c a69f d33d
00000010: 2ea6 d53d 58c8 393d a03f 02bc 54fb 983d
00000020: ec37 afbd f473 153d f409 1bbd 08df 70bd
00000030: 8821 eabc a8e2 a73c 7e54 eabd 041b e83d
00000040: 3c00 7abd 80f4 6cbd 3c36 ffbd 10aa 073d
00000050: 7680 e7bd acb4 f6bd 78ac 48bd 12ed 91bd
00000060: 90e3 cbbd 2019 683d 488f 863c bae9 c6bd
00000070: fa3f bc3d 4086 d13b
0.08019064 -0.08501825 0.01116322 0.10333185 0.10432087 0.04535708 -0.00794974 0.07469812
-0.08555588 0.036487535 -0.03785129 -0.05880645 -0.028580442 0.02049382 -0.11441897 0.11333278
-0.06103538 -0.05785036 -0.12461516 0.03312117 -0.11303799 -0.12046179 -0.048992604 -0.07125296
-0.099555135 0.056664586 0.016425744 -0.097125486 0.0919189 0.0063941777
